src/sw_machine_learning/quantised_models/ffnn_1710_1810.pt (torch, 250595 bytes, 16 tensors)

layer_1.weight f4 [256, 60]
0.23158014 -0.0645543 -0.20714682 0.18818448 -0.21833113 0.15509748 0.28225717 0.072108775
-0.19170463 0.18005516 -0.2445962 -0.29611292 -0.13232057 0.02518574 -0.10447548 0.25088355
-0.06666167 -0.14856997 -0.3514594 0.07943231 -0.011923209 0.2890832 -0.20165084 -0.11166038
0.15127154 -0.06319893 0.17554218 0.06295677 -0.21358052 -0.112273656 -0.24155314 -0.20608875
0.09651145 0.16583015 -0.206084 0.05383174 -0.11214183 -0.06522516 0.054368 0.0930865
-0.09079218 -0.002958594 -0.1627889 -0.22122523 0.026150152 0.09498832 0.117049776 0.27777913
-0.13298917 -0.025062505 0.21489516 -0.026168255 0.3080326 0.31848845 0.022832897 -0.1746034
0.18604784 -0.10215568 0.15546502 0.25539523 0.08453877 0.13647115 -0.07563161 0.10426045
0.16009352 0.17927612 -0.03232568 -0.19123557 -0.22641833 0.06535661 -0.05099057 0.07016448
0.04568106 0.01611634 -0.03190102 0.06251826 -0.26794773 0.18869841 0.253552 -0.028542835
-0.11132621 -0.081784636 -0.38385102 -0.14224498 0.20528947 0.17328031 -0.076473 -0.1386844
-0.14963119 -0.06946368 0.11800801 0.102737874 0.048845507 -0.18288974 0.25327227 -0.17156577
-0.16649848 -0.12973782 0.06741308 -0.065761834 0.22080196 -0.17030512 -0.053371094 -0.37401608
0.09892684 0.08857237 0.08907706 -0.24037853 -0.1578721 -0.23970905 0.20534927 0.2731842
0.08171815 0.15020466 0.057334267 0.18045129 -0.24544552 0.11495568 -0.03956264 0.51424885
-0.3206368 0.009424331 0.0073380927 0.06293777 -0.17517018 -0.07576071 -0.32011393 -0.049281526
0.015942011 0.0645362 -0.16311263 -0.10996041 -0.4212988 -0.23690929 -0.07324827 0.1078619
-0.22906786 0.08716973 -0.061508067 -0.1262068 -0.08067708 0.01869409 -0.19906648 0.1236613
0.0071583292 -0.09916198 -0.15070203 -0.14680764 -0.3040123 0.21789593 0.11670823 -0.051505353
-0.120660454 -0.18218063 -0.4330339 0.24519937 0.1820771 -0.057819128 0.14336291 -0.25856078
-0.28388932 0.32459632 0.21650557 0.12122505 0.002308375 -0.27132747 -0.20052466 0.05548016
0.23834623 0.045600694 0.05952296 -0.029003793 -0.15582913 -0.34341717 0.003102569 0.124047786
0.12015553 -0.037366673 0.024677282 0.057389088 -0.086477086 -0.03687618 -0.12564182 0.06347651
0.023866674 -0.062102765 -0.20558994 0.03296319 -0.0007602215 0.04790516 0.06365218 0.0106381085
0.0833348 -0.09234908 -0.10341381 -0.07488264 -0.24486272 0.047044177 0.25883842 -0.046447348
-0.14265668 0.06210088 -0.29157636 -0.17387038 -0.039647095 0.05495748 -0.16904454 0.028874712
-0.6144824 -0.09773034 0.2823514 -0.046660163 -0.021687677 0.04731484 -0.35738313 0.07292548
-0.026490426 0.046461817 0.31804574 0.11107929 -0.3693125 -0.20399722 -0.059576627 0.054704275
0.0005521518 0.11189751 -0.48168993 -0.1424511 -0.28657678 -0.022325812 0.031284593 0.13937122
-0.11578854 0.10062947 0.081469744 0.124370836 -0.1627169 0.061743937 -0.11810288 0.56521124
-0.059274018 0.31211138 -0.051409908 0.13275239 0.029857753 0.14648715 0.079620935 0.288382
-0.09420465 -0.010993658 0.32092836 0.22710964 -0.09848723 -0.08035273 0.019791575 0.1608891
00000000: 5823 6d3e 0b35 84bd 4c1e 54be 6fb3 403e
00000010: 3292 5fbe e0d1 1e3e 0384 903e c4ad 933d
00000020: 384e 44be 6160 383e 6d77 7abe 1d9c 97be
00000030: 0b7f 07be 5352 ce3c 3ef7 d5bd cf73 803e
00000040: ea85 88bd ba22 18be 7df2 b3be 68ad a23d
00000050: 9059 43bc b702 943e 8f7d 4ebe 33ae e4bd
00000060: ede6 1a3e 716e 81bd 54c1 333e 7bef 803d
00000070: dab4 5abe bbef e5bd b559 77be ee08 53be
00000080: cca7 c53d 61cf 293e af07 53be ac7e 5c3d
00000090: 9eaa e5bd c594 85bd fbb0 5e3d 23a4 be3d
000000a0: 40f1 b9bd f8e4 41bb 22b2 26be de88 62be
000000b0: d838 d63c 3c89 c23d cbb7 ef3d 1139 8e3e
000000c0: 502e 08be e24f cdbc 7a0d 5c3e cf5e d6bc
000000d0: 73b6 9d3e eb10 a33e 0e0c bb3c 3ccb 32be
000000e0: 5383 3e3e ff36 d1bd 3932 1f3e 2ac3 823e
000000f0: aa22 ad3d 18bf 0b3e bfe4 9abd 8186 d53d
00000100: 8eef 233e 2994 373e ef67 04bd 42d3 43be
00000110: 35da 67be b0d9 853d 7ddb 50bd 65b2 8f3d
00000120: 101c 3b3d 6a06 843c a5aa 02bd 9309 803d
00000130: 7230 89be 283a 413e 91d1 813e aad2 e9bc
00000140: fffe e3bd b47e a7bd 1f88 c4be aba8 11be
00000150: 6737 523e 6570 313e e09d 9cbd 4903 0ebe
00000160: eb38 19be f942 8ebd 2fae f13d 3c68 d23d
00000170: 3a12 483d 7347 3bbe e7ac 813e f0ae 2fbe
00000180: 947e 2abe fed9 04be de0f 8a3d 24ae 86bd
00000190: e919 623e 7764 2ebe a69b 5abd 097f bfbe
000001a0: 289a ca3d 6e65 b53d 096e b63d ca25 76be
000001b0: 39a9 21be 4a76 75be 1447 523e cdde 8b3e
000001c0: d85b a73d 40cf 193e 56d7 6a3d 39c8 383e
000001d0: 1256 7bbe e26d eb3d 6f0c 22bd d0a5 033f
000001e0: 822a a4be 8268 1a3c 6274 f03b 84e5 803d
000001f0: d05f 33be 6e28 9bbd f9e5 a3be 6ddb 49bd
00000200: d298 823c 8e2b 843d ff06 27be ec32 e1bd
00000210: 7ab4 d7be 5998 72be 3003 96bd b3e6 dc3d
00000220: c490 6abe 0b86 b23d e2ef 7bbd 5b3c 01be
00000230: 063a a5bd 5924 993c 15d8 4bbe 2342 fd3d
00000240: 6b90 ea3b 7015 cbbd a251 1abe be54 16be
00000250: 80a7 9bbe 1c20 5f3e b904 ef3d 47f7 52bd
00000260: d41c f7bd 8f8d 3abe 9fb6 ddbe 8b15 7b3e
00000270: 6b72 3a3e c0d3 6cbd bacd 123e 1462 84be
00000280: f159 91be 7d31 a63e a3b3 5d3e d744 f83d
00000290: 1b48 173b 6feb 8abe 5656 4dbe 2a3f 633d
000002a0: 0911 743e cbc7 3a3d 59ce 733d 5d99 edbc
000002b0: ac91 1fbe 60d4 afbe 7854 4b3b c40c fe3d
000002c0: 1a14 f63d cc0d 19bd 0328 ca3c d210 6b3d
000002d0: e61a b1bd 7a0b 17bd 40a8 00be f9ff 813d
000002e0: 0b84 c33c 785f 7ebd 2b86 52be 6904 073d
000002f0: 9a49 47ba 3338 443d 135c 823d 764b 2e3c
00000300: 70ab aa3d 8421 bdbd 9fca d3bd 125c 99bd
00000310: 4bbd 7abe 65b1 403d 7886 843e 933f 3ebd
00000320: 9814 12be 7e5d 7e3d 7f49 95be 140b 32be
00000330: fe64 22bd 181b 613d 031a 2dbe a98a ec3c
00000340: b84e 1dbf d826 c8bd 5d90 903e ba1e 3fbd
00000350: 5baa b1bc 35cd 413d ecfa b6be f459 953d
00000360: 7302 d9bc bf4e 3e3d e4d6 a23e 8a7d e33d
00000370: 8716 bdbe a6e4 50be 9f06 74bd 9711 603d
00000380: 48be 103a 862a e53d 10a0 f6be b3de 11be
00000390: 31ba 92be 9fe4 b6bc 4624 003d 54b7 0e3e
000003a0: 8b22 edbd d316 ce3d 9cd9 a63d 23b6 fe3d
000003b0: 429f 26be 36e7 7c3d ecdf f1bd afb1 103f
000003c0: 50c9 72bd 10cd 9f3e 3293 52bd 3ef0 073e
000003d0: 3f98 f43c ba00 163e 4d10 a33d cea6 933e
000003e0: 5eee c0bd be1e 34bc b950 a43e 6e8f 683e
000003f0: acb3 c9bd f98f a4bd f121 a23c 1dc0 243e

layer_2.weight f4 [128, 256]
-0.028604252 -0.024630977 -0.0732895 -0.15629035 0.08691627 0.40101042 0.052228827 0.226877
-0.019996451 -0.09340164 0.20801501 -0.05621208 -0.06328011 -0.1473757 0.044576555 -0.07596488
-0.06619555 0.121656984 0.1226509 -0.010144926 0.06044403 0.1696174 0.20791562 -0.16513044
-0.032485686 0.080924205 0.25427455 0.029341625 0.15521528 0.1999717 0.09478729 -0.13844377
0.25781953 0.25374877 0.12054545 0.39924034 0.11568063 0.26118046 0.05379106 0.01293817
0.04849173 -0.03907448 -0.00074175006 0.15882339 0.06487147 0.14866391 0.06927175 0.13940826
-0.28072357 -0.12108154 0.09329253 -0.02906623 0.22201882 0.0947954 0.1098116 -0.07628751
0.032678824 -0.14770341 0.05060343 0.24723014 -0.035028588 -0.12232005 -0.14189926 0.047875784
0.14591062 0.025424324 0.04732987 0.012786768 -0.037545774 0.08470766 -0.14313005 0.013387902
-0.14164324 -0.13147861 0.15470818 -0.0021835817 0.14545594 0.07890727 -0.06846211 -0.18128577
0.18290396 0.38258135 0.20360135 0.087694615 -0.017335985 0.18171416 -0.00019712232 -0.067074314
0.07070839 -0.085426666 -0.0988149 0.039937217 0.2393616 0.0681887 -0.012186612 0.10645305
-0.2700907 0.13943392 0.16983666 -0.015676962 -0.024873653 -0.015324171 0.19656533 0.19451495
0.080033205 0.15129445 0.1904459 0.23667204 0.20698349 0.00855044 0.3049247 -0.05130811
0.030857135 -0.13265975 0.03294702 0.24045323 0.012912652 0.110386774 0.0061865374 0.22026525
-0.045857403 -0.0076758955 0.09162789 -0.09715976 0.19919425 0.26080102 0.013817131 -0.20197685
0.06413014 0.22748995 -0.09723867 0.008760976 -0.107794 0.2774081 -0.22553739 0.12759295
0.17392707 -0.083562605 -0.20026806 -0.038157057 0.14529908 -0.023004692 -0.21255368 -0.013135888
-0.17118147 0.08863415 0.2957609 0.13575073 -0.022007503 -0.068363756 -0.031952024 0.04060342
0.098326504 0.2462932 0.14695191 -0.120971136 0.15911587 0.007819241 -0.015724711 0.04867707
0.18472034 0.14726311 0.1493041 -0.12613413 0.13093096 0.05106707 0.18000136 0.12837708
-0.18864271 -0.053354956 0.14111209 -0.030883959 -0.029195298 -0.35098204 0.28259543 0.32693827
0.32279095 0.23544808 -0.069352016 0.03867665 -0.10820071 0.16299152 -0.11103822 0.01684925
-0.13667597 -0.06983567 0.17657112 -0.0004637136 -0.010662428 0.29085565 -0.17384535 0.46027854
0.1276036 -0.10279914 -0.054897428 0.3143331 0.22870955 0.13169387 0.2578538 0.23065183
-0.032413933 0.15790129 0.35936934 0.02638146 0.10811615 0.11519696 -0.102983415 -0.028735101
0.046625923 0.09569488 0.046668828 0.25199115 -0.10345799 0.13079211 0.1502312 -0.017591832
0.11910117 0.0027532084 0.18486924 0.06314491 -0.13796002 0.1261812 -0.10899961 -0.020091586
0.1756921 -0.026576526 0.25188288 0.12682423 0.16877271 -0.047352254 0.091820695 0.04674515
0.022281343 0.024301482 -0.11218418 -0.0017565865 -0.20340842 -0.0018882634 0.15166624 0.44048846
0.29690066 0.041814208 0.37554237 0.06232957 0.01591905 0.20547903 0.08291781 0.0567406
0.05903006 0.1775662 -0.05573226 0.02482814 -0.018066058 0.30614197 0.021644976 -0.010339023
00000000: 7753 eabc e7c6 c9bc ce18 96bd 940a 20be
00000010: 2801 b23d 3d51 cd3e e5ed 553d 7252 683e
00000020: 99cf a3bc 5c49 bfbd e301 553e a33e 66bd
00000030: 0199 81bd a8e9 16be e895 363d 7a93 9bbd
00000040: 8891 87bd 4c27 f93d 6530 fb3d e736 26bc
00000050: 2994 773d 2fb0 2d3e d5e7 543e f417 29be
00000060: b60f 05bd 97bb a53d 4630 823e d95d f03c
00000070: c1f0 1e3e 62c5 4c3e d71f c23d 34c4 0dbe
00000080: ec00 843e 5ceb 813e 88e0 f63d 3b69 cc3e
00000090: f7e9 ec3d 72b9 853e 0454 5c3d 9efa 533c
000000a0: 449f 463d 900c 20bd 0172 42ba 99a2 223e
000000b0: 55db 843d 5a3b 183e 59de 8d3d 0ac1 0e3e
000000c0: 00bb 8fbe 99f9 f7bd 2710 bf3d 4d1c eebc
000000d0: e758 633e 1724 c23d e7e4 e03d a03c 9cbd
000000e0: 3bda 053d 903f 17be 8b45 4f3d e629 7d3e
000000f0: 237a 0fbd ef82 fabd 0a4e 11be 6619 443d
00000100: 9869 153e ac46 d03c f7dc 413d 987f 513c
00000110: 99c9 19bd 367b ad3d af90 12be ee58 5b3c
00000120: ed0a 11be 54a2 06be d26b 1e3e 6c1a 0fbb
00000130: 67f2 143e 239a a13d dd35 8cbd faa2 39be
00000140: 2d4b 3b3e b4e1 c33e df7c 503e 3c99 b33d
00000150: 3204 8ebc 4713 3a3e 9fb2 4eb9 425e 89bd
00000160: 8fcf 903d 2df4 aebd 775f cabd 3595 233d
00000170: 351b 753e 84a6 8b3d 5baa 47bc 0f04 da3d
00000180: 5449 8abe c4c7 0e3e a9e9 2d3e f96c 80bc
00000190: d5c3 cbbc 3b12 7bbc 6c48 493e ed2e 473e
000001a0: 73e8 a33d efec 1a3e 4004 433e 285a 723e
000001b0: 7bf3 533e 2517 0c3c 171f 9c3e 7428 52bd
000001c0: 1ac8 fc3c f5d7 07be 74f3 063d 5f39 763e
000001d0: 978f 533c 7612 e23d 70b8 ca3b 378d 613e
000001e0: f9d4 3bbd 1486 fbbb 67a7 bb3d b2fb c6bd
000001f0: 94f9 4b3e b687 853e 3f61 623c 05d3 4ebe
00000200: aa56 833d 20f3 683e 1125 c7bd 328a 0f3c
00000210: 1ac3 dcbd 6f08 8e3e 46f3 66be baa7 023e
00000220: f019 323e df22 abbd 1213 4dbe 934a 1cbd
00000230: 48c9 143e 5674 bcbc aca7 59be e837 57bc
00000240: 324a 2fbe d285 b53d f96d 973e 3d02 0b3e
00000250: 1449 b4bc 4c02 8cbd 20e0 02bd c64f 263d
00000260: 685f c93d 4934 7c3e 907a 163e b7bf f7bd
00000270: 45ef 223e 461c 003c 1cd1 80bc 9b61 473d
00000280: 5427 3d3e 24cc 163e 2de3 183e 4e29 01be
00000290: c412 063e b42b 513d 4752 383e 4875 033e
000002a0: 8e2b 41be ba8a 5abd b07f 103e 5b00 fdbc
000002b0: fa2a efbc ebb3 b3be 59b0 903e 7464 a73e
000002c0: db44 a53e 4d19 713e 6e08 8ebd 686b 1e3d
000002d0: 5598 ddbd 40e7 263e 0268 e3bd 7007 8a3c
000002e0: c9f4 0bbe 0106 8fbd 0fcf 343e 961e f3b9
000002f0: 77b1 2ebc 08eb 943e 8404 32be a1a9 eb3e
00000300: 85aa 023e 5b88 d2bd 20dc 60bd 45f0 a03e
00000310: d632 6a3e c2da 063e 6a05 843e fe2f 6c3e
00000320: 79c4 04bd e0b0 213e 42ff b73e ee1d d83c
00000330: 006c dd3d 62ec eb3d f8e8 d2bd e065 ebbc
00000340: d3fa 3e3d adfb c33d d027 3f3d fc04 813e
00000350: c8e1 d3bd 5eee 053e 35d6 193e bf1c 90bc
00000360: 50eb f33d 2c6f 343b 5d4e 3d3e 1e52 813d
00000370: 6445 0dbe a535 013e 303b dfbd 1c97 a4bc
00000380: a1e8 333e 04b7 d9bc cbf6 803e 36de 013e
00000390: c1d2 2c3e 70f4 41bd 7d0c bc3d d877 3f3d
000003a0: 5d87 b63c e713 c73c d2c0 e5bd 433d e6ba
000003b0: 4c4a 50be 9b7f f7ba 654e 1b3e b487 e13e
000003c0: 5d03 983e 6045 2b3d 1747 c03e 4b4d 7f3d
000003d0: ab68 823c 1869 523e d0d0 a93d d568 683d
000003e0: 81c9 713d ead3 353e 8347 64bd 6264 cb3c
000003f0: 45ff 93bc a4be 9c3e ce50 b13c 0165 29bc

layer_3.weight f4 [64, 128]
0.0946697 0.0089224605 -0.014512914 0.029146504 0.33930367 0.0875716 -0.32471985 -0.2100968
-0.2717098 -0.0009581742 -0.099566884 0.11274015 0.22136807 0.23203118 0.19658163 -0.39431912
-0.10157067 0.103740074 -0.35121483 -0.3012975 -0.29104087 0.012345416 -0.016601441 0.071502134
-0.10584706 -0.17201139 -0.12410249 0.081040934 -0.10560445 0.039656006 -0.12721808 0.12842673
-0.16784255 0.054840703 0.19958326 -0.20593089 0.132823 -0.22069667 0.25878972 0.14540242
-0.3293948 0.008789724 -0.051885124 0.0975331 -0.0825284 0.15117042 -0.07196967 0.12540913
0.09486058 0.01433266 -0.22166401 0.09484728 -0.22703159 -0.21065842 -0.2592939 0.20751965
-0.21949391 0.23858772 0.32457778 0.21703887 -0.00010826399 0.2246789 0.13141362 0.027025603
-0.22343826 -0.22027129 0.13783039 -0.2280664 0.23165633 0.2940045 0.08122889 -0.14171278
0.40182766 0.008577063 0.08806724 0.15906608 -0.20182626 -0.24869557 -0.085580744 0.22199939
-0.0941045 -0.24559432 0.08604442 -0.058546975 0.08823268 0.12073883 -0.20295314 -0.015689686
-0.07662349 0.17109486 0.06382979 0.052583188 -0.13293509 0.0749794 -0.25282884 -0.16947794
-0.0885236 -0.1948805 0.091041975 0.03834965 0.014842857 0.35930097 -0.007898381 -0.14387907
0.12547956 -0.071045354 0.18319646 -0.30812192 0.14143895 -0.20158066 0.021788845 -0.07596895
-0.18319717 -0.28368965 -0.0930767 -0.081490725 -0.034140624 0.064792186 0.04097656 0.050743524
0.11575315 -0.114754 -0.008159992 -0.22114637 -0.17729563 -0.09067166 0.18190394 -0.037075154
-0.011298343 -0.03778299 -0.16765381 0.24130023 -0.12845814 -0.23875591 -0.15377103 -0.25982377
-0.29832876 -0.073087126 0.37200296 -0.1462196 0.01575298 -0.10633584 -0.05904439 -0.10737868
0.3800343 -0.12327597 -0.0070484057 0.12881628 0.16775633 -0.09818196 -0.19427508 0.13369778
0.13127029 -0.105949 0.32461467 0.06557535 -0.14491305 -0.1953583 0.31729847 -0.058349207
0.084459215 -0.14722186 -0.17373966 0.20023243 -0.059613466 -0.15894006 -0.25145355 -0.15355478
0.033022013 -0.13441363 0.17999041 -0.07488642 -0.2321152 0.14395678 0.106177434 -0.019677663
0.19807251 -0.09545072 0.12194802 -0.016942462 -0.019363357 -0.07044876 -0.114158094 0.16258638
0.21407242 0.19277349 -0.12393566 0.21093623 0.37462777 -0.2323822 -0.075489946 -0.20992191
-0.1577529 -0.023503885 0.16075401 -0.009031226 0.1938724 -0.10048925 0.23881102 0.0070106313
-0.0035217216 -0.16981615 -0.0048544058 0.07503939 0.14422673 -0.1699265 0.20327267 0.2355514
0.047390305 0.19853531 0.17956442 -0.10427972 -0.17850347 0.011356881 0.18631482 0.24352565
0.039410368 -0.20624948 0.26050672 0.0022349998 0.2069555 -0.13058884 0.1197061 0.100030206
-0.11123904 0.06680449 0.061181504 0.07191622 0.2348112 0.012493407 -0.2123435 0.21602987
0.17068899 -0.27549177 -0.15589136 0.13884783 -0.21404414 0.030428322 0.04368317 0.2419094
0.17944221 0.05094066 0.25212288 -0.1704631 -0.11719396 -0.008643108 0.3488059 0.11638308
0.23424792 -0.09012186 0.24643604 0.14399904 0.18305509 0.07831043 0.29271203 -0.24236856
00000000: 30e2 c13d 832f 123c 93c7 6dbc a6c4 ee3c
00000010: 36b9 ad3e bd58 b33d ae41 a6be 9e23 57be
00000020: 8c1d 8bbe fb2d 7bba b9e9 cbbd 4fe4 e63d
00000030: 50ae 623e 9599 6d3e b24c 493e 32e4 c9be
00000040: 4904 d0bd ad75 d43d 6ed2 b3be aa43 9abe
00000050: 4f03 95be 6d44 4a3c bfff 87bc b66f 923d
00000060: 58c6 d8bd c123 30be 7229 febd caf8 a53d
00000070: 2547 d8bd 566e 223d 7545 02be 4c82 033e
00000080: ebde 2bbe a5a0 603d 8e5f 4c3e 8cdf 52be
00000090: c102 083e 4ffe 61be 1680 843e 5fe4 143e
000000a0: 6fa6 a8be c602 103c 7f85 54bd 6fbf c73d
000000b0: a604 a9bd 6bcc 1a3e d664 93bd 406b 003e
000000c0: 4446 c23d 88d3 6a3c e4fb 62be 4a3f c23d
000000d0: f87a 68be d7b6 57be 2cc2 84be 0880 543e
000000e0: 03c3 60be 5750 743e 0f2f a63e 703f 5e3e
000000f0: c90b e3b8 3a12 663e 4b91 063e cc64 dd3c
00000100: 00cd 64be cc8e 61be 6923 0d3e 3d8a 69be
00000110: 5137 6d3e c287 963e 555b a63d 281d 11be
00000120: 5bbc cd3e cf86 0c3c 995c b43d 38e2 223e
00000130: 8bab 4ebe 0daa 7ebe f544 afbd cf53 633e
00000140: dcb9 c0bd 147d 7bbe 0f38 b03d f4ce 6fbd
00000150: 56b3 b43d eb45 f73d f3d2 4fbe a887 80bc
00000160: c7ec 9cbd 7e33 2f3e 31b9 823d 7861 573d
00000170: 2320 08be cd8e 993d c872 81be a08b 2dbe
00000180: dc4b b5bd c18e 47be 3774 ba3d 8614 1d3d
00000190: 742f 733c 4cf6 b73e 3668 01bc 0955 13be
000001a0: b77d 003e 3a80 91bd da97 3b3e 28c2 9dbe
000001b0: 5fd5 103e 296b 4ebe 857e b23c 9c95 9bbd
000001c0: 0a98 3bbe c53f 91be ff9e bebd 9ce4 a6bd
000001d0: 0ad7 0bbd c4b1 843d 0ad7 273d 71d8 4f3d
000001e0: fd0f ed3d 2504 ebbd 7db1 05bc 3274 62be
000001f0: fc8c 35be 10b2 b9bd 0745 3a3e 1edc 17bd
00000200: af1c 39bc 56c2 1abd 71ad 2bbe 6817 773e
00000210: 888a 03be 6e7c 74be 2776 1dbe 9f07 85be
00000220: 8cbe 98be b4ae 95bd 2c77 be3e 97ba 15be
00000230: 650c 813c 9bc6 d9bd 88d8 71bd 5ae9 dbbd
00000240: db93 c23e 1d78 fcbd 50f6 e6bb 6ae8 033e
00000250: 51c8 2b3e a013 c9bd 0cf0 46be 12e8 083e
00000260: b86b 063e cafb d8bd e533 a63e 5e4c 863d
00000270: 1664 14be 020c 48be f274 a23e 94ff 6ebd
00000280: f4f8 ac3d 54c1 16be cfe8 31be bb09 4d3e
00000290: 402d 74bd 2fc1 22be 85be 80be 773d 1dbe
000002a0: 1742 073d baa3 09be 684f 383e 0d5e 99bd
000002b0: 9baf 6dbe 6869 133e 8e73 d93d 0d33 a1bc
000002c0: 85d3 4a3e ab7b c3bd e2bf f93d ebca 8abc
000002d0: e79f 9ebc 7147 90bd b8cb e9bd 0b7d 263e
000002e0: cd35 5b3e 6a66 453e fbd1 fdbd abff 573e
000002f0: 36cf bf3e 99f5 6dbe 799a 9abd c5f5 56be
00000300: fa89 21be 388b c0bc b39c 243e b5f7 13bc
00000310: 7d86 463e 4fcd cdbd e08a 743e 70b9 e53b
00000320: afcc 66bb 49e4 2dbe b511 9fbb 40ae 993d
00000330: 2cb0 133e 3601 2ebe b626 503e 6334 713e
00000340: 561c 423d d74c 4b3e bcdf 373e 9b90 d5bd
00000350: 9dc9 36be 3612 3a3c 50c9 3e3e ca5e 793e
00000360: c46c 213d 1033 53be 2361 853e 1379 123b
00000370: 25ec 533e 15b9 05be 7928 f53d a3dc cc3d
00000380: 4bd1 e3bd cbd0 883d 7599 7a3d d048 933d
00000390: 5972 703e 26b1 4c3c 9370 59be ef36 5d3e
000003a0: 18c9 2e3e 420d 8dbe fca1 1fbe 202e 0e3e
000003b0: 632e 5bbe d144 f93c 20ed 323d 19b7 773e
000003c0: b3bf 373e 27a7 503d 4016 813e e18d 2ebe
000003d0: 6303 f0bd d39b 0dbc b096 b23e 415a ee3d
000003e0: b0de 6f3e cf91 b8bd bb59 7c3e 7c74 133e
000003f0: cb72 3b3e 3861 a03d 5ade 953e 772f 78be

layer_out.weight f4 [3, 64]
0.16023396 -0.2904888 0.19707787 -0.40302968 -0.67264473 0.7519394 0.39983597 -0.18336935
-0.54350317 -0.33236495 -0.2626158 0.7887872 -0.31136104 -0.23919055 -0.29480147 -0.09379636
-0.90781254 0.6788726 0.65122545 0.11577064 -0.40693113 0.16290995 -0.19346783 -0.036752444
-0.15998927 -0.69317913 0.11475581 -0.25238624 0.5968689 -0.32340038 0.4201885 -0.05297753
-1.008327 -0.995477 0.81832147 -0.20679525 -1.3865706 -0.6421425 -1.062122 -0.044512745
0.002693023 -0.55723655 -0.38255683 -0.37621856 -0.32621574 0.5633853 0.29164147 -0.3340656
0.5982699 0.18049446 -0.5420192 0.15113954 0.37791544 -0.35937864 0.19148508 0.18179493
0.22693458 0.090626344 -0.96098167 0.15072177 0.15631948 0.022401035 0.12957983 0.56601167
0.067906216 -0.53128284 0.08448606 -0.15648602 0.30112532 -0.6196978 -0.7077786 -0.4910623
0.19798516 0.10949444 0.46634018 -0.8565483 -0.6684156 -0.4117785 0.46651864 0.21175782
0.14572491 -0.8507311 -0.24718075 0.11303043 -0.4769466 0.15854272 -0.6352332 0.14628536
0.18413578 0.0943985 0.30463994 0.08489569 -0.7145342 -0.46453378 -0.43796062 0.20832545
0.18104447 0.16606288 -0.76935935 0.1984807 0.2179314 0.22843567 0.22144596 0.1747011
-0.47452173 0.48681596 0.4593856 -0.096893966 -0.43487072 -0.56477517 0.09440912 -0.6971904
-0.5888354 0.18476744 0.25739568 0.16273613 -0.63459116 0.26405787 0.18657401 -0.83111286
-0.15185133 0.24623758 0.2729872 0.12466701 0.18673506 -0.6231302 0.17446415 -0.665763
-0.88533217 0.53629655 -0.7644855 0.204723 -0.026689941 -0.28984454 -0.12547167 0.42563853
0.08846562 0.1686527 -0.68086326 -0.3141109 0.52865005 0.56594217 -0.59842724 -0.1605699
0.15438081 -0.28956744 -0.48835233 -0.6252648 0.5001412 -1.0072864 0.6230325 -0.07271472
0.106812105 0.13389371 -0.38883922 -0.030234654 -0.26071173 0.47668067 -0.48217905 -0.36721742
0.116794944 0.14220724 -0.40515137 0.16578397 0.19925445 -0.25029117 0.042008694 -0.5437859
0.40196136 -0.37774804 -0.39361984 0.29196492 0.49837017 -0.43140805 -0.69687843 0.5701714
-0.42029512 -0.49913332 -0.17392932 -1.0721923 0.17189704 -0.25906014 -1.3773113 0.44050235
-0.5489283 -0.6302751 -0.007475572 -1.0556281 -1.3898402 0.23933429 -0.469876 -0.35694885
00000000: 5f14 243e f3ba 94be c8ce 493e e859 cebe
00000010: 7232 2cbf 1a7f 403f 4db7 cc3e 2dc5 3bbe
00000020: 0623 0bbf bd2b aabe 9475 86be f5ed 493f
00000030: b76a 9fbe 5eee 74be 38f0 96be 4e18 c0bd
00000040: 6766 68bf 98ca 2d3f b6b6 263f 2819 ed3d
00000050: 4759 d0be ded1 263e 6e1c 46be bb89 16bd
00000060: 3ad4 23be 3074 31bf 1805 eb3d c538 81be
00000070: 66cc 183f bc94 a5be f222 d73e f7fe 58bd
00000080: dc10 81bf 95d7 7ebf 847d 513f 22c2 53be
00000090: 257b b1bf 7363 24bf 9df3 87bf ff52 36bd
000000a0: 6e7d 303b 0ea7 0ebf 7dde c3be b89f c0be
000000b0: c005 a7be 053a 103f 0852 953e a50a abbe
000000c0: 3728 193f 8ad3 383e c5c1 0abf 53c4 1a3e
000000d0: 227e c13e 7a00 b8be aa14 443e 7328 3a3e
000000e0: 8a61 683e 4e9a b93d e502 76bf cf56 1a3e
000000f0: 3712 203e 6082 b73c 93b0 043e 24e6 103f
00000100: 6a12 8b3d 2702 08bf 0707 ad3d df3d 20be
00000110: 192d 9a3e 84a4 1ebf fa30 35bf 856c fbbe
00000120: 9fbc 4a3e 9f3e e03d 24c4 ee3e c046 5bbf
00000130: 491d 2bbf a2d4 d2be 88db ee3e 0bd7 583e
00000140: e938 153e 83c9 59bf f31c 7dbe 807c e73d
00000150: 5832 f4be 0659 223e a59e 22bf d4cb 153e
00000160: 178e 3c3e 0054 c13d c4f9 9b3e cbdd ad3d
00000170: b7eb 36bf 5fd7 edbe 603c e0be 4453 553e
00000180: b963 393e 630c 2a3e bcf4 44bf 863e 4b3e
00000190: 6929 5f3e 0aeb 693e bbc2 623e d8e4 323e
000001a0: 83f4 f2be f13f f93e 9734 eb3e 5870 c6bd
000001b0: 60a7 debe 1b95 10bf 9259 c13d 127b 32bf
000001c0: ebbd 16bf ad33 3d3e 5ec9 833e 4da4 263e
000001d0: 9174 22bf 9832 873e 420d 3f3e d0c3 54bf
000001e0: ea7e 1bbe b425 7c3e fac4 8b3e 6b51 ff3d
000001f0: 7a37 3f3e 7685 1fbf bba6 323e 726f 2abf
00000200: 21a5 62bf bb4a 093f 52b5 43bf e8a2 513e
00000210: dda4 dabc 8166 94be a57b 00be 4bed d93e
00000220: 772d b53d 4bb3 2c3e 0e4d 2ebf 25d3 a0be
00000230: 9c55 073f 96e1 103f 8732 19bf 706c 24be
00000240: 0116 1e3e 2f42 94be 5109 fabe 5b11 20bf
00000250: 4109 003f c3ee 80bf 0f7f 1f3f 75eb 94bd
00000260: 4ec0 da3d 6f1b 093e ef15 c7be aaae f7bc
00000270: 027c 85be 7d0f f43e 2ce0 f6be ec03 bcbe
00000280: 3032 ef3d c69e 113e 0070 cfbe 46c3 293e
00000290: 5c09 4c3e 2a26 80be 4f11 2c3d 8e35 0bbf
000002a0: e1cd cd3e 3168 c1be 8a88 c9be 6d7c 953e
000002b0: 602a ff3e 84e1 dcbe a066 32bf c1f6 113f
000002c0: ec30 d7be 678e ffbe 871a 32be 993d 89bf
000002d0: c705 303e 88a3 84be bd4b b0bf 8689 e13e
000002e0: 9186 0cbf b559 21bf a5f5 f4bb d21e 87bf
000002f0: 49e6 b1bf 0c14 753e 9693 f0be 00c2 b6be

batchnorm1.weight f4 [256]
0.7730209 0.84697014 1.0496578 0.8426392 0.8863804 1.0875853 0.89324355 0.8420063
1.069372 0.96804446 0.85130125 0.9604423 1.0415409 1.3017902 0.97575927 1.0379757
1.0756124 1.0097793 0.91759753 0.9536001 0.83726454 0.94837207 0.9939527 0.9372177
0.89944667 0.89975154 0.7526988 1.1735582 0.99183476 0.82944816 0.7228707 1.061745
1.0055128 0.8613227 0.8654255 0.86722076 0.9104147 1.1487868 1.0945652 1.0978893
0.65861034 1.1679518 0.8959144 0.9564565 1.0141855 0.9562138 1.1936651 0.8336903
1.0992999 1.0645236 0.9717337 0.9938698 0.94909453 0.9591702 1.1468197 0.9022588
0.7217827 1.0799859 1.0586573 1.014698 0.8302155 0.9280271 0.9120559 1.020388
0.97947973 0.9634228 1.0530696 0.7429798 0.7656524 0.9711681 1.0489674 1.2296365
0.8427187 1.0510261 0.7946611 0.9533663 0.75777674 0.96231043 1.2611119 1.1681728
1.0644377 1.0288337 0.98889583 0.9015174 0.82585025 1.2044545 0.9315693 0.7521453
0.8749137 0.9111571 1.1194177 0.9651934 1.0625756 1.0591075 0.86354125 1.0042812
1.0599709 1.1381259 1.2084044 0.70971584 0.80450577 0.8327065 1.1339023 0.96890134
1.0113407 0.8029243 0.8931519 1.1148204 1.0608222 0.9909263 1.0115802 1.0859823
1.0840442 1.004117 0.97466594 1.1088494 0.92224264 0.94862586 1.0816833 1.0647321
1.1326972 0.6913874 0.7239495 0.96877855 1.0497106 0.95172286 0.7956072 0.8777947
0.90899 0.6950596 0.79323804 1.1092979 1.0754204 1.2223688 1.0314131 1.1271265
0.75270206 1.0647663 0.7527003 0.95025074 0.6907149 0.9893431 1.0421396 1.014521
0.8696318 0.9916031 1.0628405 1.0703633 1.0010277 0.99979436 1.0963721 0.96270776
0.92543906 0.8353717 0.9728638 1.2751918 1.0666361 0.8021608 0.8743446 0.63708395
1.0072464 1.1231533 1.1129473 0.9275195 1.04604 0.93133473 0.93324476 1.0683568
1.0075339 0.9600769 1.0448856 1.0855407 0.8844019 1.0871891 1.0142149 0.8912446
0.95810574 0.88208264 1.0585504 1.012002 0.9508943 1.0750835 0.97326124 1.0439944
1.092624 0.8988884 0.8669823 1.0025133 1.2330639 0.86310214 0.7767933 0.871883
0.79799175 0.83467513 0.8840647 1.008641 1.1267679 0.7098729 0.8643698 0.9489443
0.92946273 1.0672524 0.9542092 1.1447544 1.2497227 1.0534661 0.85527146 1.123048
1.0187 0.9557078 1.099856 1.0906832 1.1671867 0.7979363 0.9969197 0.8179929
0.8051464 0.9095186 0.7713861 0.8369191 0.77985257 0.7912402 1.1509068 1.0000203
1.018106 1.0600019 1.0699942 0.9644664 0.8477898 0.64916116 0.84905887 1.0915079
1.1301425 0.89800733 0.818077 1.006386 0.9488575 1.1471192 1.0634954 1.1477522
0.4893404 0.9200428 0.95115083 0.81712365 0.97224605 1.0475361 1.0001806 0.9228296
1.0568845 0.91485596 0.9244383 1.0767639 0.8963656 1.0241876 0.96392775 1.0056833
00000000: b3e4 453f 09d3 583f 305b 863f 34b7 573f
00000010: d3e9 623f ff35 8b3f 9cab 643f ba8d 573f
00000020: 2fe1 883f c3d1 773f e1ee 593f 8cdf 753f
00000030: 3651 853f 10a1 a63f 5ccb 793f 63dc 843f
00000040: abad 893f 7340 813f ace7 6a3f 231f 743f
00000050: f856 563f 83c8 723f af73 7e3f 80ed 6f3f
00000060: 2342 663f 1e56 663f deb0 403f 2837 963f
00000070: e2e8 7d3f b756 543f 0e0e 393f 43e7 873f
00000080: a5b4 803f a57f 5c3f 878c 5d3f 2e02 5e3f
00000090: f010 693f 720b 933f b61a 8c3f a387 8c3f
000000a0: b09a 283f 727f 953f a55a 653f 55da 743f
000000b0: d5d0 813f 6dca 743f 05ca 983f ba6c 553f
000000c0: dcb5 8c3f 4f42 883f 8ac3 783f 406e 7e3f
000000d0: dcf7 723f 2e8c 753f fdca 923f 6ffa 663f
000000e0: c0c6 383f fa3c 8a3f 1582 873f a0e1 813f
000000f0: 0189 543f 2f93 6d3f 7f7c 693f 139c 823f
00000100: 2fbf 7a3f e0a2 763f fcca 863f ed33 3e3f
00000110: cc01 443f 799e 783f 9044 863f bb64 9d3f
00000120: 6abc 573f 0688 863f e96e 4b3f d00f 743f
00000130: a8fd 413f fa59 763f 1d6c a13f b086 953f
00000140: 7f3f 883f d3b0 833f 4728 7d3f d8c9 663f
00000150: ec6a 533f 912b 9a3f 537b 6e3f 988c 403f
00000160: 58fa 5f3f 9741 693f 1449 8f3f ea16 773f
00000170: 7a02 883f d690 873f 0a11 5d3f 498c 803f
00000180: 20ad 873f 1cae 913f ffac 9a3f f0af 353f
00000190: 17f4 4d3f 412c 553f b623 913f eb09 783f
000001a0: 9d73 813f 728c 4d3f 9aa5 643f 6fb2 8e3f
000001b0: 06c9 873f 59ad 7d3f 767b 813f 7801 8b3f
000001c0: f6c1 8a3f e886 803f b583 793f c7ee 8d3f
000001d0: 1818 6c3f 25d9 723f 9974 8a3f 2449 883f
000001e0: 39fc 903f c4fe 303f c154 393f df01 783f
000001f0: eb5c 863f 1ca4 733f eaac 4b3f 27b7 603f
00000200: 92b3 683f 6def 313f a611 4b3f 79fd 8d3f
00000210: 60a7 893f 9576 9c3f 5805 843f ae45 903f
00000220: 15b1 403f 434a 883f f8b0 403f a243 733f
00000230: b1d2 303f 9745 7d3f d564 853f d3db 813f
00000240: 31a0 5e3f b3d9 7d3f 280b 883f aa01 893f
00000250: ad21 803f 86f2 7f3f ec55 8c3f 0474 763f
00000260: 93e9 6c3f ebda 553f 9a0d 793f 7c39 a33f
00000270: 8887 883f 695a 4d3f 0cd5 5f3f ef17 233f
00000280: 73ed 803f 7dc3 8f3f 0f75 8e3f eb71 6d3f
00000290: a4e4 853f f46b 6e3f 21e9 6e3f eabf 883f
000002a0: dff6 803f 9ac7 753f d0be 853f fff2 8a3f
000002b0: 2a68 623f 0329 8b3f cbd1 813f 9b28 643f
000002c0: 6b46 753f 2bd0 613f 947e 873f 4889 813f
000002d0: cf6d 733f 569c 893f a627 793f 9ca1 853f
000002e0: 1adb 8b3f 8d1d 663f 8df2 5d3f 5b52 803f
000002f0: 0ad5 9d3f 43f4 5c3f eddb 463f b933 5f3f
00000300: 3049 4c3f 45ad 553f 1052 623f 261b 813f
00000310: ee39 903f 3bba 353f 5747 5d3f 03ee 723f
00000320: 45f1 6d3f ba9b 883f 0e47 743f 5087 923f
00000330: eaf6 9f3f fad7 863f 12f3 5a3f 09c0 8f3f
00000340: c364 823f 44a9 743f 15c8 8c3f 829b 8b3f
00000350: 6066 953f 8e45 4c3f 2136 7f3f fc67 513f
00000360: 131e 4e3f 36d6 683f 8f79 453f 5540 563f
00000370: 6ba4 473f b88e 4a3f ea50 933f aa00 803f
00000380: 4c51 823f 24ae 873f 92f5 883f 45e7 763f
00000390: c108 593f 6d2f 263f ec5b 593f 88b6 8b3f
000003a0: 82a8 903f cfe3 653f 7f6d 513f 42d1 803f
000003b0: 53e8 723f cdd4 923f 9e20 883f 8be9 923f
000003c0: d38a fa3e ed87 6b3f 9f7e 733f 042f 513f
000003d0: 1ee5 783f aa15 863f eb05 803f 903e 6c3f
000003e0: fe47 873f 0034 6a3f fda7 6c3f 66d3 893f
000003f0: 3778 653f 9418 833f f8c3 763f 3bba 803f

batchnorm1.bias f4 [256]
0.062354807 -0.33202434 -0.3441646 -0.18855433 -0.47427878 -0.22902082 -0.39275515 -0.1547946
-0.25650248 -0.018194972 -0.25325242 -0.22732654 -0.20605698 -0.026058193 -0.3982071 -0.35752335
-0.31381696 -0.12133157 -0.16878894 -0.21536419 -0.35454917 -0.27364618 -0.2923423 -0.25268164
-0.4491862 -0.25807044 -0.2214635 -0.2238367 -0.3932142 -0.24110785 -0.3366138 -0.18262799
-0.3708489 -0.2735857 -0.28220928 -0.3218302 -0.18043067 -0.18252622 -0.16888335 -0.01055858
-0.21496788 -0.1363875 -0.3026599 -0.20874527 -0.30338573 -0.15179309 -0.25107944 -0.31950417
-0.19235049 -0.1578206 -0.072931305 -0.2228027 -0.22745016 -0.31091887 -0.33852613 -0.3035345
-0.13531426 -0.10136424 -0.0786776 -0.15993387 -0.2440761 -0.37032455 -0.075175725 -0.22519311
-0.3173594 -0.3107442 -0.16984282 -0.31464908 -0.26573902 -0.21210945 -0.2769703 -0.26934993
-0.27177918 -0.27767837 -0.49153647 -0.41973907 -0.33690065 -0.20593634 -0.17130423 -0.36694267
-0.22954862 -0.3151318 -0.25312245 -0.13574018 -0.08636075 -0.38435796 -0.25863343 -0.34760144
-0.2580306 -0.24744597 -0.2626665 -0.2281101 -0.28789863 -0.1989575 -0.11893836 -0.16667414
-0.20845017 -0.088181265 -0.054977886 0.05833108 -0.21095285 -0.18673916 -0.18636842 -0.088329405
-0.06820119 -0.27014253 -0.4568884 -0.0939147 -0.31961685 -0.18748538 -0.30613574 -0.28383452
-0.33779147 -0.2482127 -0.2671024 -0.17436047 -0.25768137 -0.3695279 -0.15077516 -0.14155321
-0.29437488 -0.19641535 -0.34652454 -0.30032375 -0.4317145 -0.3838778 -0.2971125 -0.28901362
-0.3002799 -0.26930308 -0.3988531 -0.039314955 -0.17629942 -0.27248603 -0.2093254 -0.009173268
-0.28223005 -0.22631568 -0.36347902 -0.24570003 -0.15794224 -0.18246786 -0.4054657 0.15929206
-0.08879088 -0.37265968 -0.23474534 -0.32923183 0.012235826 -0.28527308 -0.108340226 -0.193734
-0.2585495 -0.30370733 -0.2906923 -0.26146558 -0.21458988 -0.42380556 -0.15568057 -0.34169808
-0.0989768 -0.024344541 -0.2007326 -0.10148017 -0.29884633 -0.20781092 -0.35922807 -0.11992978
-0.32719246 -0.21466681 -0.39821395 -0.30256948 -0.02304927 -0.41279238 -0.27360708 -0.27041444
-0.3219736 -0.23084557 -0.15037957 -0.29724875 -0.38685668 -0.30319563 -0.26555285 -0.36206985
-0.22452211 -0.019522056 -0.30637035 -0.14888494 -0.17367534 -0.39184457 -0.20185025 -0.3251986
-0.19982336 -0.437 -0.31210712 -0.20834519 -0.192762 -0.225313 -0.21223837 -0.23975243
-0.35409892 -0.34761813 -0.35656834 -0.2493005 -0.21874869 -0.08382238 -0.21209711 -0.5748159
0.013926823 -0.13000414 -0.008692014 -0.33638668 -0.15390173 -0.5287707 -0.26494738 -0.09887084
-0.17396814 -0.3357864 -0.37274754 -0.28971815 -0.34834227 -0.23012091 -0.2610735 0.05294514
-0.14482726 -0.069815986 -0.35313168 -0.2856657 -0.066430785 -0.32277048 -0.26101446 -0.12353725
-0.2210263 -0.15570784 -0.27491906 -0.42490005 -0.23756073 -0.32795376 0.023105532 -0.17047763
-0.41919562 -0.27550355 -0.11946801 -0.32243565 -0.02565616 -0.1678952 -0.054558143 -0.24398218
-0.28400987 -0.17538424 -0.3951799 -0.038990222 -0.1712482 -0.25756758 -0.28648368 -0.21827391
00000000: c167 7f3d 18ff a9be 5836 b0be 6314 41be
00000010: abd4 f2be 6f84 6abe 3417 c9be 7a82 1ebe
00000020: 4b54 83be 9f0d 95bc 4daa 81be 4ac8 68be
00000030: 9a00 53be fe77 d5bc cde1 cbbe 4d0d b7be
00000040: 9eac a0be b07c f8bd 02d7 2cbe 6e88 5cbe
00000050: 7887 b5be 5a1b 8cbe e4ad 95be 7d5f 81be
00000060: bcfb e5be cf21 84be 54c7 62be 7335 65be
00000070: 5f53 c9be fae4 76be a558 acbe d502 3bbe
00000080: e8df bdbe 6d13 8cbe bc7d 90be eec6 a4be
00000090: d1c2 38be 27e8 3abe c2ef 2cbe e5fd 2cbc
000000a0: 8a20 5cbe 2aa9 0bbe 3df6 9abe 52c1 55be
000000b0: 6055 9bbe a66f 1bbe 7c8d 80be 0d96 a3be
000000c0: 87f7 44be b99b 21be 025d 95bd 6426 64be
000000d0: b2e8 68be c230 9fbe 4c53 adbe e068 9bbe
000000e0: d28f 0abe 0e98 cfbd b921 a1bd b4c5 23be
000000f0: 16ef 79be 2e9b bdbe bbf5 99bd 0699 66be
00000100: ee7c a2be dd19 9fbe 47eb 2dbe af19 a1be
00000110: f20e 88be 3833 59be 0dcf 8dbe 3ce8 89be
00000120: a426 8bbe dc2b 8ebe abaa fbbe 0ae8 d6be
00000130: 3e7e acbe fae0 52be 606a 2fbe e9df bbbe
00000140: cb0e 6bbe f558 a1be 4499 81be 79ff 0abe
00000150: e8dd b0bd 91ca c4be 9a6b 84be d1f8 b1be
00000160: 961c 84be 7a62 7dbe 397c 86be b295 69be
00000170: 7367 93be 84bb 4bbe f495 f3bd a0ac 2abe
00000180: f673 55be 6198 b4bd 7e30 61bd 92ec 6e3d
00000190: 0604 58be 8d38 3fbe 5dd7 3ebe 0ce6 b4bd
000001a0: 11ad 8bbd 1f50 8abe 47ed e9be 5a56 c0bd
000001b0: d2a4 a3be 2bfc 3fbe d3bd 9cbe c252 91be
000001c0: 01f3 acbe 782b 7ebe a5c1 88be 8d8b 32be
000001d0: d0ee 83be c332 bdbe ce64 1abe 53f3 10be
000001e0: 4eb8 96be 1b21 49be aa6b b1be 09c4 99be
000001f0: af09 ddbe a28b c4be 211f 98be 98f9 93be
00000200: 49be 99be 18e2 89be 7936 ccbe b808 21bd
00000210: d687 34be 4a83 8bbe 6659 56be 7a4b 16bc
00000220: 7580 90be 4cbf 67be ec19 babe ca98 7bbe
00000230: 9cbb 21be dbd8 3abe 3399 cfbe 751d 233e
00000240: fed7 b5bd 40cd bebe 1561 70be 1391 a8be
00000250: c678 483c 500f 92be 7be1 ddbd 3562 46be
00000260: 9a60 84be 877f 9bbe 9fd5 94be d1de 85be
00000270: 73bd 5bbe 0bfd d8be ba6a 1fbe 0df3 aebe
00000280: 59b4 cabd 346e c7bc d98c 4dbe d6d4 cfbd
00000290: 6302 99be 63cc 54be beec b7be bf9d f5bd
000002a0: c585 a7be 9ed1 5bbe b3e2 cbbe 63ea 9abe
000002b0: d3d1 bcbc 8659 d3be 3a16 8cbe c373 8abe
000002c0: b9d9 a4be c862 6cbe 1afd 19be fd30 98be
000002d0: 1412 c6be 753c 9bbe 8bf6 87be 3861 b9be
000002e0: 20e9 65be b8ec 9fbc 93dc 9cbe 4b75 18be
000002f0: f3d7 31be da9f c8be d5b1 4ebe 6e80 a6be
00000300: 7f9e 4cbe 77be dfbe 81cc 9fbe 7158 55be
00000310: 6763 45be 73b8 66be 0455 59be a981 75be
00000320: 744c b5be 01fb b1be 2090 b6be a148 7fbe
00000330: a8ff 5fbe 11ab abbd fc2f 59be 2327 13bf
00000340: 542d 643c ce1f 05be f368 0ebc e03a acbe
00000350: 6a98 1dbe 845d 07bf 2fa7 87be cc7c cabd
00000360: b424 32be 32ec abbe c4d8 bebe f055 94be
00000370: eb59 b2be d1a4 6bbe 6dab 85be 01dd 583d
00000380: 994d 14be affb 8ebd adcd b4be c642 92be
00000390: dd0c 88bd 2c42 a5be b0a3 85be 1901 fdbd
000003a0: b854 62be e071 1fbe 31c2 8cbe 808c d9be
000003b0: 1f43 73be 8ee9 a7be d047 bd3c b091 2ebe
000003c0: cfa0 d6be cd0e 8dbe a5ab f4bd 4916 a5be
000003d0: de2c d2bc b8ec 2bbe 5c78 5fbd 77d6 79be
000003e0: be69 91be ed97 33be 0555 cabe 36b4 1fbd
000003f0: b05b 2fbe e6df 83be fdad 92be 3283 5fbe

batchnorm1.running_mean f4 [256]
0.26081023 0.12643228 -1.3813077 -0.80915266 1.6593614 0.69251555 2.2429266 0.5110682
0.18819572 1.2477026 0.9161307 -0.35745823 1.6320474 2.4101913 -0.27237388 0.7611948
-1.5501527 0.0015419474 0.5458271 -1.9690506 2.2309942 -1.0162427 0.057376545 -0.52408963
-0.8098929 -1.1144152 2.1289406 0.18068004 1.326948 0.32763633 0.33707827 -0.21125458
1.6618137 2.9728398 1.4008116 0.61742467 0.54601073 -0.62230325 1.0260614 1.2689098
1.523094 0.03664255 0.3336372 2.2461343 -1.1191392 2.708219 2.2703931 -2.4101317
0.79056734 -0.031939957 0.7849949 -0.22971869 1.0013032 -0.3475651 -0.20920533 0.96004343
-0.09578916 -0.6648831 -1.3690628 1.4212358 -0.065950125 0.29682472 -0.21042049 2.3493736
1.7106972 1.6214935 0.13206986 1.0858253 -0.6184962 1.1378281 -0.06627116 -0.37097666
2.0174656 -2.3224084 -0.044872608 -0.96652067 0.020088598 -0.8935498 0.52284735 1.833442
1.7048984 0.5089893 -1.1153039 1.6457146 2.3190155 1.0342475 -2.1616127 -0.57947695
0.8654914 0.12946884 1.6223623 -0.9610286 0.24198443 1.3326774 1.152906 0.36569035
-2.0844877 0.78682834 0.6011755 0.17236985 -0.25966504 -0.65244436 0.52595866 -0.44855347
0.6409673 1.9758723 0.10905179 -0.00450808 1.5649714 1.3611081 0.328267 0.13803649
-0.4414239 1.4853123 0.01888018 -0.9549157 -1.6491823 0.68773955 0.06384709 0.8044957
-0.5072296 0.81137323 -0.55202115 1.6216956 0.49216446 0.43908188 -0.23840559 1.0063874
0.49003127 0.40904847 -1.2615283 1.0518271 -0.17452998 -0.7060723 2.0899284 1.4645869
2.4686494 -0.06262584 1.1330805 1.6414227 1.6902866 -1.2631371 -1.6726732 -2.3166196
-0.57160336 0.22560418 0.12705389 2.701097 -0.95033795 -1.7991632 0.33788088 1.1784708
2.2066207 1.3922584 0.1473528 0.59984404 -0.26682347 0.35269654 1.6762205 -0.52728313
1.083119 -0.058365628 0.10266186 0.91705954 1.9007331 1.5183042 -1.9737697 0.27979955
1.6748365 -0.75212884 1.319227 0.15445918 0.71927637 -0.36516446 2.463303 1.8128176
0.58781105 0.92819315 2.0732963 -0.0305346 1.2443844 -1.6110342 -0.748274 0.65860724
0.23878147 0.6561038 0.9540137 0.88352287 -1.0234975 -0.5029535 0.22815627 -1.2955775
1.2780902 -1.0271004 3.181018 -0.5387764 -2.1209443 0.2857375 1.1571648 1.746317
0.74503034 0.6114034 0.64079547 -0.03774634 0.33550724 0.14394188 -0.17768472 2.2055807
-1.3560171 1.0807272 1.6497988 0.97244394 -0.88475966 0.14222826 2.7073908 0.3744189
2.069453 1.01175 -1.1063459 -0.562046 1.2399255 1.7551777 0.8676455 1.539749
0.9495757 2.974084 0.7674676 1.4690081 2.1019812 -0.83994615 -0.39188963 -0.9397506
0.5884999 0.024785364 0.40611303 -0.22106673 -2.4445746 1.0352812 0.43126315 -0.0910517
-0.1042311 0.9257689 0.13473754 1.2797878 0.40543994 -0.5951903 0.31767514 -1.3368021
1.3982866 0.01759451 -0.27188653 -1.3847408 2.8243575 1.7167412 2.3528957 -0.07754556
00000000: eb88 853e 7777 013e b1ce b0bf a124 4fbf
00000010: f465 d43f b348 313f 1c8c 0f40 5ed5 023f
00000020: 61b6 403e b8b4 9f3f 8b87 6a3f c404 b7be
00000030: eee6 d03f 9340 1a40 9774 8bbe aadd 423f
00000040: 676b c6bf 2b1b ca3a 53bb 0b3f da09 fcbf
00000050: 9cc8 0e40 3e14 82bf ab03 6b3d bd2a 06bf
00000060: 2455 4fbf 28a5 8ebf 9040 0840 3004 393e
00000070: 6fd9 a93f f3bf a73e 8695 ac3e 1f53 58be
00000080: 50b6 d43f 0243 3e40 cb4d b33f 8b0f 1e3f
00000090: 5cc7 0b3f 444f 1fbf fb55 833f a36b a23f
000000a0: bff4 c23f 8016 163d 7fd2 aa3e aac0 0f40
000000b0: f43f 8fbf 7653 2d40 1f4e 1140 993f 1ac0
000000c0: 9f62 4a3f 79d3 02bd 6df5 483f 603b 6bbe
000000d0: b42a 803f 0ef4 b1be ec39 56be 68c5 753f
000000e0: 1b2d c4bd c735 2abf 733d afbf 0eeb b53f
000000f0: dc10 87bd 69f9 973e 7878 57be 235c 1640
00000100: 20f8 da3f 198d cf3f 523d 073e 53fc 8a3f
00000110: c455 1ebf 5aa4 913f 2db9 87bd a7f0 bdbe
00000120: 281e 0140 57a2 14c0 57cc 37bd e66d 77bf
00000130: d890 a43c aebf 64bf 53d9 053f 3aae ea3f
00000140: 1c3a da3f 1f4d 023f 47c2 8ebf c7a6 d23f
00000150: c06a 1440 3962 843f dd57 0ac0 9a58 14bf
00000160: d890 5d3f 7b93 043e 91a9 cf3f f805 76bf
00000170: c4ca 773e 2c95 aa3f 6c92 933f c43b bb3e
00000180: 3f68 05c0 956d 493f a3e6 193f b981 303e
00000190: d1f2 84be 9806 27bf 3aa5 063f cda8 e5be
000001a0: 6f16 243f 62e9 fc3f 8b56 df3d 84b8 93bb
000001b0: fc50 c83f ca38 ae3f 9d12 a83e 7059 0d3e
000001c0: 5002 e2be b71e be3f 9baa 9a3c 5b75 74bf
000001d0: 6818 d3bf b30f 303f 43c2 823d 6ef3 4d3f
000001e0: cdd9 01bf 28b6 4f3f 4251 0dbf b993 cf3f
000001f0: fbfc fb3e 57cf e03e 9820 74be 4dd1 803f
00000200: 61e5 fa3e cd6e d13e c279 a1bf 45a2 863f
00000210: fdb7 32be 27c1 34bf 63c1 0540 9577 bb3f
00000220: 5afe 1d40 fa41 80bd c808 913f 241a d23f
00000230: 505b d83f 7aae a1bf 281a d6bf 7f43 14c0
00000240: 9954 12bf c804 673e 6a1a 023e c6de 2c40
00000250: 5949 73bf fb4a e6bf b9fe ac3e 22d8 963f
00000260: 4639 0d40 8635 b23f a7e3 163e 618f 193f
00000270: 169d 88be a494 b43e 658e d63f 07fc 06bf
00000280: a5a3 8a3f cc10 6fbd 6240 d23d 6ac4 6a3f
00000290: 394b f33f cb57 c23f 7ca4 fcbf e341 8f3e
000002a0: 0b61 d63f 848b 40bf 6edc a83f 8c2a 1e3e
000002b0: 7f22 383f d6f6 babe c2a6 1d40 680a e83f
000002c0: c97a 163f 119e 6d3f e3b0 0440 b323 fabc
000002d0: fd47 9f3f 5e36 cebf e38e 3fbf 7c9a 283f
000002e0: 2183 743e 6bf6 273f 3e3a 743f 8e2e 623f
000002f0: f701 83bf 90c1 00bf cca1 693e 7cd5 a5bf
00000300: 7698 a33f 0778 83bf cd95 4b40 40ed 09bf
00000310: 8dbd 07c0 304c 923e fa1d 943f 5187 df3f
00000320: 4fba 3e3f ef84 1c3f 2c0b 243f e89b 1abd
00000330: 9bc7 ab3e 8065 133e fcf2 35be 3c28 0d40
00000340: f891 adbf 4555 8a3f 9b2c d33f 16f2 783f
00000350: 9c7f 62bf 49a4 113e e445 2d40 d6b3 bf3e
00000360: eb71 0440 0681 813f be9c 8dbf 3fe2 0fbf
00000370: e1b5 9e3f aaa9 e03f 041e 5e3f 7f16 c53f
00000380: 6517 733f 6457 3e40 c278 443f 7508 bc3f
00000390: dc86 0640 b606 57bf c2a5 c8be 7f93 70bf
000003a0: eea7 163f ad0a cb3c 0cee cf3e 515f 62be
000003b0: e973 1cc0 1884 843f 86ce dc3e 5079 babd
000003c0: 1d77 d5bd 31ff 6c3f a3f8 093e 16d0 a33f
000003d0: d395 cf3e 645e 18bf 51a6 a23e 551c abbf
000003e0: 0efb b23f 5d22 903c b634 8bbe 303f b1bf
000003f0: 46c2 3440 2dbe db3f d895 1640 35d0 9ebd

batchnorm1.running_var f4 [256]
0.17741522 0.10565624 0.1544869 0.12099451 0.09799771 0.16635525 0.09896986 0.060342655
0.07199269 0.19387098 0.10931794 0.103037536 0.12904437 0.10136433 0.14849608 0.13193329
0.1310953 0.11918191 0.09341162 0.10490425 0.09760256 0.13031302 0.05928566 0.068013206
0.11557609 0.118274964 0.13450065 0.09654643 0.11434427 0.18066186 0.08237625 0.16025388
0.107315324 0.1843919 0.10490106 0.12224499 0.071035616 0.14820115 0.11192017 0.13976622
0.13837774 0.1864491 0.13367237 0.12740742 0.106704846 0.09066697 0.090405464 0.13716593
0.13698655 0.07477918 0.12560754 0.1239809 0.07621202 0.106412426 0.12069807 0.109604314
0.18417719 0.09898802 0.13362347 0.13699691 0.07833043 0.0798735 0.092378385 0.08150057
0.13142176 0.06847671 0.058329105 0.11437731 0.12246397 0.07884086 0.12086395 0.12309502
0.08636119 0.18245946 0.06213076 0.12753819 0.123292714 0.14307848 0.20436466 0.111150146
0.07778193 0.08386267 0.16654964 0.08555194 0.14372909 0.06793231 0.1800401 0.10862809
0.108320735 0.14273992 0.09788443 0.08264613 0.09071761 0.08039045 0.09869847 0.098175175
0.16291876 0.10827477 0.115157485 0.13894178 0.058099575 0.14589779 0.0629086 0.10864717
0.10010616 0.1584515 0.09557943 0.07683749 0.068720825 0.09580353 0.16291462 0.13813052
0.10830755 0.18360275 0.111815706 0.088731535 0.12537841 0.079693705 0.12196988 0.112858154
0.108484544 0.0862976 0.08824082 0.110795066 0.07416629 0.07501359 0.11903079 0.16025615
0.17348276 0.15133129 0.0975509 0.08383207 0.16636206 0.1157837 0.20648734 0.13110706
0.2092393 0.08877549 0.12303854 0.1528995 0.11998184 0.1106453 0.14956163 0.114358775
0.07863587 0.0897522 0.086536445 0.11093667 0.09156732 0.12090656 0.07007466 0.09891048
0.09375375 0.093086705 0.107742615 0.17547077 0.10334821 0.1776294 0.21924779 0.11570481
0.12781648 0.11659535 0.13816336 0.09415118 0.107494794 0.0719738 0.13747197 0.1730273
0.0990821 0.100650676 0.08687119 0.08635549 0.1712437 0.06944689 0.14954568 0.102858864
0.12997818 0.12525956 0.11259623 0.091630876 0.11960404 0.15099443 0.10627436 0.07199282
0.1446713 0.104010455 0.12984122 0.15157731 0.12022269 0.08544687 0.06930842 0.12953998
0.09008547 0.101717375 0.18103257 0.1470614 0.12581949 0.124756955 0.10037536 0.17641254
0.11647729 0.093070656 0.090632066 0.11002836 0.15855496 0.09049454 0.13954312 0.14441016
0.18766834 0.08070488 0.098882765 0.07836019 0.14221595 0.049990535 0.11910306 0.10158911
0.12642984 0.14341035 0.09085377 0.100522585 0.15592095 0.07861718 0.06812195 0.12936965
0.09826743 0.15168096 0.14508048 0.12271643 0.12711443 0.1557599 0.13822861 0.060370475
0.12126171 0.10995708 0.15464017 0.08643302 0.17689234 0.07977995 0.10960617 0.07453269
0.14850987 0.08905572 0.07357139 0.12577944 0.11607298 0.080253996 0.104340315 0.09040454
0.08524547 0.10195192 0.14480232 0.13865505 0.11740235 0.120728634 0.08899434 0.17190471
00000000: 56ac 353e 4c62 d83d d031 1e3e f8cb f73d
00000010: 06b3 c83d 0859 2a3e b6b0 ca3d dc29 773d
00000020: e770 933d 1d86 463e 16e2 df3d 5805 d33d
00000030: 3524 043e 1a98 cf3d 5b0f 183e 8519 073e
00000040: d93d 063e a515 f43d 974e bf3d 0ad8 d63d
00000050: dae3 c73d c770 053e 85d5 723d 824a 8b3d
00000060: 28b3 ec3d 253a f23d 8aba 093e 22ba c53d
00000070: 542d ea3d 6cff 383e e1b4 a83d 9819 243e
00000080: 23c8 db3d 3bd1 3c3e 5ed6 d63d 955b fa3d
00000090: 1f7b 913d 0bc2 173e 6736 e53d e01e 0f3e
000000a0: e5b2 0d3e 83ec 3e3e 69e1 083e 1777 023e
000000b0: 1288 da3d 9baf b93d 8026 b93d 3a75 0c3e
000000c0: 3446 0c3e d425 993d 439f 003e b3e9 fd3d
000000d0: 0c15 9c3d c2ee d93d 8d30 f73d 3a78 e03d
000000e0: f298 3c3e 3bba ca3d 97d4 083e eb48 0c3e
000000f0: b46b a03d b894 a33d e130 bd3d c5e9 a63d
00000100: 6d93 063e 843d 8c3d 80ea 6e3d a73e ea3d
00000110: 64ce fa3d 5177 a13d 8587 f73d 3e19 fc3d
00000120: 23de b03d a7d6 3a3e d37c 7e3d 5f99 023e
00000130: e480 fc3d 2a83 123e f844 513e b0a2 e33d
00000140: 224c 9f3d 31c0 ab3d fd8b 2a3e db35 af3d
00000150: b82d 133e 1820 8b3d 6f5c 383e 6778 de3d
00000160: 43d7 dd3d 6a2a 123e a277 c83d 6042 a93d
00000170: 28ca b93d c0a3 a43d 6c22 ca3d 1110 c93d
00000180: 2dd4 263e 2abf dd3d b0d7 eb3d c146 0e3e
00000190: d2f9 6d3d 3b66 153e 39d6 803d 6882 de3d
000001a0: 7504 cd3d 1c41 223e 26bf c33d f95c 9d3d
000001b0: 81bd 8c3d a434 c43d 17d3 263e 1672 0d3e
000001c0: 59d0 dd3d 5c02 3c3e a2ff e43d e1b8 b53d
000001d0: 3363 003e 7436 a33d 58cb f93d 2d22 e73d
000001e0: 252d de3d ccbc b03d 9ab7 b43d 86e8 e23d
000001f0: 7fe4 973d baa0 993d 6ac6 f33d 301a 243e
00000200: 77a5 313e 97f6 1a3e c4c8 c73d 26b0 ab3d
00000210: d15a 2a3e 0120 ed3d 6b71 533e ee40 063e
00000220: d442 563e edcf b53d a1fb fb3d b091 1c3e
00000230: 0ab9 f53d 019a e23d af26 193e ef34 ea3d
00000240: d80b a13d 00d0 b73d 053a b13d c432 e33d
00000250: a687 bb3d dc9d f73d 4e83 8f3d 9491 ca3d
00000260: f701 c03d 3ea4 be3d 29a8 dc3d 9cae 333e
00000270: 3aa8 d33d 7be4 353e 7e82 603e a5f6 ec3d
00000280: 53e2 023e 8bc9 ee3d b27a 0d3e 55d2 c03d
00000290: 3b26 dc3d 0067 933d 74c5 0c3e 122e 313e
000002a0: 8eeb ca3d f121 ce3d 86e9 b13d 26db b03d
000002b0: 825a 2f3e 2c3a 8e3d 8122 193e aba7 d23d
000002c0: 0019 053e 0b44 003e da98 e63d f8a8 bb3d
000002d0: f7f2 f43d 499e 1a3e 5fa6 d93d f970 933d
000002e0: b724 143e 6f03 d53d 19f5 043e 1537 1b3e
000002f0: 5037 f63d c5fe ae3d 93f1 8d3d 21a6 043e
00000300: bb7e b83d 3351 d03d 9a60 393e 4397 163e
00000310: d3d6 003e 9380 ff3d 9991 cd3d 7da5 343e
00000320: a58b ee3d d49b be3d 4e9d b93d 8c56 e13d
00000330: 3b5c 223e 3455 b93d 64e4 0e3e 42e0 133e
00000340: 212c 403e 9a48 a53d 0c83 ca3d 4f7b a03d
00000350: 0fa1 113e e0c2 4c3d 4eec f33d f40d d03d
00000360: d376 013e 2ada 123e 8b11 ba3d c9de cd3d
00000370: bea9 1f3e 0b02 a13d 8583 8b3d 7a79 043e
00000380: 6f40 c93d 4152 1b3e fa8f 143e c052 fb3d
00000390: 492a 023e 867f 1f3e cd8b 0d3e 0847 773d
000003a0: 0f58 f83d 2d31 e13d fe59 1e3e cc03 b13d
000003b0: 4423 353e ac63 a33d 3379 e03d 98a4 983d
000003c0: f912 183e d862 b63d 99ac 963d 53cc 003e
000003d0: acb7 ed3d 355c a43d 60b0 d53d 0426 b93d
000003e0: 2d95 ae3d 2bcc d03d 0f47 143e 97fb 0d3e
000003f0: a570 f03d 9340 f73d aa42 b63d ca07 303e

batchnorm2.weight f4 [128]
1.1011488 0.94129264 0.9512646 1.023578 0.80318516 0.8972098 0.99409646 0.95218724
0.8105126 0.92791235 0.88441616 1.0846905 0.94386035 0.9538337 0.93268114 0.8927733
0.88679206 1.1017622 0.9575512 1.0641088 0.9711661 0.94433594 0.9649639 0.9701264
1.1136191 1.0533447 0.9709596 0.98462903 0.9141469 0.7733882 1.0507776 0.7541702
0.927599 0.87473166 1.045246 0.96430564 1.0061034 1.0179857 0.8477889 1.0383344
1.0004443 0.9937109 1.2346812 0.70697284 0.9021099 1.0162165 0.80168605 1.0416532
1.0276254 0.7128226 1.0224669 0.9455755 1.0628638 1.0462959 1.0531566 0.95218134
0.97312534 0.98642087 0.9177208 1.0459621 0.86934066 1.0118906 1.0755929 0.80820113
0.96735823 0.8620171 1.0822065 1.0876031 0.92814434 0.92887837 1.0352997 0.9622222
0.99700654 0.96259147 1.0675592 1.2000808 0.9681364 1.0603834 1.1848963 0.8271143
1.1773617 0.98963267 0.95328325 1.0497063 0.790885 1.0155123 0.9323526 1.1382807
1.1619699 0.792729 0.96953297 0.86373764 1.0216922 0.95107377 0.9689242 0.8866615
0.97606474 1.1670104 0.8534755 1.0241235 1.1148181 0.93216467 0.7623639 1.374252
1.0589099 0.8399246 0.75933194 1.040016 0.92814696 1.0020785 0.9012396 0.9677627
1.0111343 1.0664092 0.96321064 0.89428073 0.89514536 0.8124526 0.8884088 1.2132845
1.0327657 1.1071637 1.0068455 1.0997937 1.1367189 1.0080256 1.0107026 0.9645895
00000000: 72f2 8c3f 8ef8 703f 1486 733f 9b04 833f
00000010: 8b9d 4d3f 8baf 653f 1b7d 7e3f 8bc2 733f
00000020: c17d 4f3f aa8b 6d3f 1969 623f 23d7 8a3f
00000030: d5a0 713f 722e 743f 31c4 6e3f ca8c 643f
00000040: ce04 633f 8b06 8d3f 1322 753f b834 883f
00000050: 579e 783f 00c0 713f e007 773f 345a 783f
00000060: 128b 8e3f 00d4 863f cf90 783f a610 7c3f
00000070: 8805 6a3f c5fc 453f e17f 863f 4c11 413f
00000080: 2177 6d3f 6aee 5f3f 9fca 853f bcdc 763f
00000090: ffc7 803f 5b4d 823f b108 593f 24e8 843f
000000a0: 8f0e 803f d663 7e3f 090a 9e3f 2cfc 343f
000000b0: adf0 663f 6213 823f 4c3b 4d3f e454 853f
000000c0: 3b89 833f 8b7b 363f 32e0 823f 3c11 723f
000000d0: ec0b 883f 06ed 853f d6cd 863f 28c2 733f
000000e0: be1e 793f 1486 7c3f c0ef 6a3f 16e2 853f
000000f0: 1c8d 5e3f a285 813f 07ad 893f 45e6 4e3f
00000100: caa4 773f 27ad 5c3f be85 8a3f 9436 8b3f
00000110: de9a 6d3f f9ca 6d3f b384 843f 3254 763f
00000120: d23b 7f3f 656c 763f c8a5 883f 3f9c 993f
00000130: cad7 773f a5ba 873f afaa 973f c3bd 533f
00000140: cab3 963f 9158 7d3f 5f0a 743f c75c 863f
00000150: 7077 4a3f 4ffc 813f a9ae 6e3f 2fb3 913f
00000160: 6ebb 943f 4af0 4a3f 5033 783f e91d 5d3f
00000170: cfc6 823f 9279 733f 6b0b 783f 40fc 623f
00000180: 61df 793f 9960 953f 5f7d 5a3f 7b16 833f
00000190: 5cb2 8e3f 58a2 6e3f 482a 433f 7de7 af3f
000001a0: 5c8a 873f 4c05 573f 9463 423f 3f1f 853f
000001b0: 0a9b 6d3f 1c44 803f a3b7 663f 4cbf 773f
000001c0: d96c 813f 1980 883f f994 763f 95ef 643f
000001d0: 3f28 653f e5fc 4f3f c26e 633f e84c 9b3f
000001e0: ab31 843f 8ab7 8d3f 50e0 803f 0ac6 8c3f
000001f0: 0180 913f fc06 813f b45e 813f 56ef 763f
