src/sw_machine_learning/quantised_models/mlp_1710_1621.pt (torch, 250359 bytes, 16 tensors)

layer_1.weight f4 [256, 60]
0	0xbd02c566	-0.031926535
1	0xbdc5b547	-0.096537165
2	0x3da78f51	0.08181632
3	0x3def4862	0.11683728
4	0x3d4dc767	0.050238993
5	0x3cfc13a1	0.030771079
6	0x3d5593cc	0.052142903
7	0x3da15a46	0.078785464
8	0xbdb5dcd0	-0.08880007
9	0x3e04c414	0.12965423
10	0x3c3010a3	0.010746154
11	0xbd612d92	-0.0549751
12	0x3d67ecae	0.0566222
13	0x3dd9c9ba	0.106341794
14	0xbd2ef263	-0.042711627
15	0x3cf6df68	0.030135825
16	0x3d817fb8	0.063231885
17	0xbd9699e9	-0.07353575
18	0xbcb60b0a	-0.02222206
19	0x3da5662d	0.08076129
20	0xbdce1968	-0.100634396
21	0x3ca8eb3e	0.020619985
22	0xbd3101a3	-0.04321445
23	0xbca7c2a9	-0.020478563
24	0x3e032211	0.12805964
25	0x3ceec542	0.029146794
26	0xbcbf0c4b	-0.023321291
27	0xbd17d3f2	-0.03706736
28	0xbd28cf5d	-0.041213382
29	0xbdb08019	-0.08618183
30	0xbdd93fff	-0.106079094
31	0x3e073c97	0.13206707
32	0x3d7e0799	0.062018964
33	0x3c9215c1	0.017832639
34	0xbd5deadf	-0.05417907
35	0x3d2a8971	0.04163498
36	0xbd4d8016	-0.05017098
37	0x3de00d2a	0.10940011
38	0xbc4124c8	-0.0117885545
39	0x3dfec259	0.124394126
40	0xbd675fa0	-0.05648768
41	0xbdc4a47e	-0.09601687
42	0x3dd0a835	0.10188333
43	0xbda30fa3	-0.07961967
44	0xbb7b1623	-0.0038312755
45	0xbd32e190	-0.043672144
46	0x3d8a2692	0.06745638
47	0x3d8a194b	0.067431055
48	0x3e12ed63	0.14348368
49	0x3dd4bc6e	0.103875026
50	0xbe089b4c	-0.13340491
51	0x3d9c08c0	0.076188564
52	0x3ba0daba	0.0049088867
53	0xbdae5ad1	-0.085134156
54	0xbc760fba	-0.015018398
55	0x3c517e0d	0.0127864005
56	0x3cd49cf4	0.025953747
57	0x3db9acff	0.090661995
58	0x3dc3fad3	0.09569325
59	0x3d736ba9	0.059428845
60	0xbde2bfab	-0.11071714
61	0xbd49f8e6	-0.049309634
62	0x3df045e5	0.11732081
63	0x3d940b1f	0.07228684
64	0x3d988868	0.074478924
65	0xbceeafc1	-0.02913654
66	0x3cdaa8cd	0.026691819
67	0xbded7c53	-0.115959786
68	0xbd1f9787	-0.038962867
69	0x3de8f2d0	0.11374438
70	0x3df5989e	0.11992
71	0x3df3592b	0.11882242
72	0xbd9c05fb	-0.07618328
73	0xbd5c01dd	-0.053712714
74	0xbe08c058	-0.13354623
75	0x3c3b0086	0.011413699
76	0xbc806c9c	-0.015676789
77	0x3dc2aeb6	0.0950598
78	0xbd551cb8	-0.05202934
79	0xbd824532	-0.06360854
80	0x3cd1fa6a	0.025632102
81	0x3c27764a	0.010221073
82	0xbdd81650	-0.10551131
83	0xbd1fa68e	-0.0389772
84	0x3bd4cd1f	0.006494179
85	0x3d91e01e	0.07122825
86	0xbce51707	-0.027965082
87	0x3d52d4d8	0.051472515
88	0xbd72b3a4	-0.05925335
89	0x3da9a552	0.082834855
90	0x3da51015	0.08059708
91	0xbd4e8db3	-0.050428104
92	0x3df9901a	0.12185688
93	0x3d26987c	0.040672764
94	0xbd9415bd	-0.07230709
95	0x3de4bc48	0.11168724
96	0xbd5f5f91	-0.0545345
97	0xbd3f4ea9	-0.046705876
98	0xbd66a22a	-0.056306995
99	0xbcb4899c	-0.022038274
100	0xbd7ca6e6	-0.061682604
101	0xbd41b93c	-0.047295794
102	0x3da19764	0.078902036
103	0x3dc83d99	0.09777374
104	0x3e03055b	0.12795012
105	0x3d70aa9c	0.058756456
106	0xbd4eb636	-0.05046674
107	0x3c02696f	0.007959708
108	0x3e08cd5a	0.13359585
109	0xbc2e5525	-0.010640417
110	0xbdd6d1a8	-0.104892075
111	0xbd00cab7	-0.031443324
112	0xbba79ee7	-0.005115378
113	0xbc8ae030	-0.016952604
114	0x3d26a118	0.040680975
115	0x3d7748fc	0.060372338
116	0x3db6bf8b	0.08923253
117	0x3d5b3ee1	0.053526763
118	0x3e015484	0.12629896
119	0x3c926ac2	0.017873172
120	0xbd0fdc80	-0.035122395
121	0xbdac5a99	-0.08415718
122	0xbcf6a1a6	-0.030106377
123	0x3db31caa	0.087457016
124	0x3d8e28c2	0.06941368
125	0x3d6e4506	0.058171295
126	0x3c1506df	0.0090958765
127	0xbda66825	-0.08125333
128	0x3e085e7a	0.1331729
129	0x3c51b677	0.012799851
130	0xbdab2dbf	-0.08358335
131	0xbd8d4867	-0.06898575
132	0xbdac892f	-0.08424603
133	0xbcd63ca5	-0.026151964
134	0x3e01f748	0.12691987
135	0xbbf3bdc7	-0.0074383947
136	0xbdbf1542	-0.093302265
137	0x3d8e9759	0.06962461
138	0xbd89bfee	-0.06726061
139	0x3d2010b9	0.039078448
140	0xbc39a0af	-0.011329814
141	0x3d11c3db	0.035587173
142	0xbdd43d7f	-0.10363292
143	0x3c9a764d	0.018855238
144	0xbdd9647a	-0.106148675
145	0x3dcbb631	0.0994686
146	0xbe19b407	-0.15010081
147	0x3d695bbb	0.056972247
148	0x3c1ab0aa	0.009441534
149	0x3d03b0eb	0.032151144
150	0xbd48170d	-0.048850108
151	0x3d441581	0.04787207
152	0xbd9853e6	-0.07437877
153	0xbd5dffd7	-0.054199066
154	0x3d1aee52	0.037824936
155	0xbce9910b	-0.028511545
156	0x3c903ac7	0.017606152
157	0x3c68a1f5	0.01419877
158	0x3d8d0df1	0.06887425
159	0xbdb1028b	-0.08643063
160	0xbd985c00	-0.074394226
161	0xbda7884b	-0.08180293
162	0x3c9d0170	0.019165725
163	0xbdbbb871	-0.09166039
164	0x3d59bdba	0.053159453
165	0xbdc8de30	-0.09808004
166	0xbe285010	-0.16436791
167	0xbdc85469	-0.09781725
168	0x3d85b8f4	0.06529418
169	0xbda977d6	-0.0827481
170	0xbd84c25f	-0.06482386
171	0xbdd36245	-0.10321478
172	0xbe0f0b52	-0.13969162
173	0x3db711ee	0.08938967
174	0xbe0646c5	-0.13112934
175	0xbd2a158e	-0.041524462
176	0xbbfda65f	-0.0077407802
177	0x3d218156	0.039429985
178	0xbd9f01e5	-0.07764033
179	0x3e1ca7b3	0.15298347
180	0x3db76b2e	0.0895599
181	0x3dd18d95	0.10232083
182	0x3de0fd5d	0.10985825
183	0xbdb070cd	-0.08615265
184	0x3b9972f3	0.0046828925
185	0xbdcd3303	-0.10019495
186	0x3d1ff942	0.03905607
187	0x3de28410	0.11060345
188	0x3dc4f7e6	0.096175954
189	0x3d4e456b	0.05035917
190	0x3ce107ea	0.027469594
191	0xbd8d1f8e	-0.06890784
192	0xbdd318e4	-0.10307482
193	0xbd2c7141	-0.042100195
194	0x3d990128	0.07470924
195	0xbd67ab48	-0.05655983
196	0xbd69a795	-0.057044584
197	0x3d772ce5	0.06034555
198	0x3c6d0b0d	0.014467967
199	0x3d83299a	0.06404419
200	0x3cbb485e	0.022861656
201	0x3d52ac76	0.051434003
202	0x3cc3e0c9	0.023910897
203	0x3d81eb7a	0.06343742
204	0xbcc20340	-0.02368319
205	0xbd071991	-0.032983366
206	0x3d1d4292	0.038393565
207	0xbdae3809	-0.085067816
208	0xbdfe3d59	-0.12414045
209	0xbda185e2	-0.07886864
210	0xbdbf4698	-0.093396366
211	0xbccb37f3	-0.024806952
212	0xbbc5f781	-0.0060414677
213	0xbd6b0dd0	-0.05738622
214	0x3c0250ad	0.007953805
215	0x3c4745a5	0.012162601
216	0xbdb67bdd	-0.08910344
217	0xbc07cfb7	-0.008289269
218	0xbc3b528e	-0.011433257
219	0xbcfb562a	-0.030680735
220	0x3d8b7b55	0.06810633
221	0xbd81451d	-0.063120104
222	0xbc895400	-0.016763687
223	0x3d7ec2d3	0.062197518
224	0xbdb2399c	-0.08702394
225	0xbe03d4f1	-0.128742
226	0xbe0156cf	-0.12630771
227	0x3ca0e51b	0.019640496
228	0xbd3d0be5	-0.04615392
229	0x3dae4e4b	0.08511027
230	0xbdf0055e	-0.11719774
231	0xbd7f5b53	-0.062342953
232	0xbcb81a2c	-0.022473417
233	0xbe00652f	-0.12538598
234	0xbd6b0b06	-0.05738356
235	0x3dcff66e	0.101544246
236	0xbdaf123b	-0.08548399
237	0xbc800161	-0.015625658
238	0xbd90c360	-0.07068515
239	0x3df882a7	0.12134295
240	0x3da300d0	0.07959139
241	0xbd33a202	-0.043855675
242	0x3cf4c951	0.029881151
243	0xbdcda2e9	-0.10040838
244	0xbd81e5dc	-0.0634267
245	0x3dd32ea8	0.10311633
246	0xbd97570c	-0.0738965
247	0xbdd013f6	-0.10160057
248	0xbc9f16f9	-0.019420134
249	0xbce11c55	-0.02747933
250	0xbdab8aed	-0.08376107
251	0x3c563476	0.013074031
252	0x3d514dc9	0.051099572
253	0xbd5b30fb	-0.05351351
254	0xbd7d012c	-0.061768696
255	0x3d6d2dbe	0.05790495

layer_2.weight f4 [128, 256]
0	0x3d5474d7	0.05186924
1	0x3c11379e	0.008863358
2	0xbc4435ba	-0.0119757
3	0xbd5243f0	-0.05133432
4	0x3ceb7b5c	0.028745346
5	0x3d35f63b	0.044424277
6	0x3c88ba3f	0.016690372
7	0xbd78fa14	-0.060785368
8	0xbd11198b	-0.03542475
9	0x3ca23ec6	0.019805323
10	0x3d737e7d	0.0594468
11	0xbd633435	-0.05546971
12	0xbda1cc98	-0.07900351
13	0x3cd4e92f	0.025990097
14	0xbc08cfec	-0.008350354
15	0xbc4ece96	-0.012622496
16	0xbcb119b3	-0.0216187
17	0x3ce4c16b	0.02792426
18	0x3cc36821	0.023853363
19	0xbd065c2c	-0.032802746
20	0x3c588db7	0.013217381
21	0x3d0b854f	0.03406268
22	0x3b0cf901	0.0021510723
23	0xbd312537	-0.04324838
24	0xbd4ee847	-0.050514486
25	0xbd6ab4f7	-0.057301488
26	0x3c79a4b6	0.015237024
27	0x3bb7389e	0.005591466
28	0xbb83638e	-0.0040096706
29	0x3d380279	0.044924233
30	0xbd270226	-0.040773533
31	0x3d53dff7	0.05172726
32	0x3d42b77b	0.04753826
33	0x3d510f3c	0.05103992
34	0x3d5fbd51	0.054623906
35	0xbcc2b486	-0.02376772
36	0x3c5e14ef	0.013554796
37	0xbc9eb951	-0.019375475
38	0x3d842a26	0.06453352
39	0x3cc63e80	0.024199724
40	0xbcdbffef	-0.026855437
41	0xbcd8cda9	-0.026465254
42	0xbc916a1c	-0.017750792
43	0x3bfbb279	0.0076811877
44	0xbd9dfaa2	-0.0771382
45	0x3ca36341	0.019944789
46	0xbd141361	-0.036151294
47	0x3ccf7559	0.02532451
48	0xbd3d1612	-0.046163626
49	0x3c3d892b	0.011568348
50	0xbcc32e65	-0.023825834
51	0xbd088015	-0.033325274
52	0xbd6ff27f	-0.05858087
53	0x3b6bd152	0.003598292
54	0xbd602966	-0.05472698
55	0x3d4bcb80	0.04975462
56	0x3d3b1807	0.04567721
57	0x3cadc83a	0.02121364
58	0x3c1f197d	0.009710667
59	0xbd4daece	-0.050215535
60	0x3c0aa899	0.008463048
61	0x3d32e305	0.043673534
62	0xbce23701	-0.027614119
63	0xbca0a502	-0.019609932
64	0x3cc3701e	0.023857173
65	0x3ce7f4ea	0.028315026
66	0x3d3b2764	0.045691863
67	0xbc649609	-0.013951787
68	0x3d1fd735	0.039023597
69	0xbd542c9c	-0.051800355
70	0xbd03ba09	-0.03215984
71	0xbcf6116f	-0.03003761
72	0x3c961f45	0.018325457
73	0x3d374eb0	0.044752777
74	0xbb346fe6	-0.0027532517
75	0xbb4361ee	-0.002981301
76	0xbc4ccb25	-0.012499605
77	0xba557b81	-0.00081437087
78	0xbca9f0a6	-0.020744633
79	0x3c2d2135	0.010566999
80	0xbd006e08	-0.031354934
81	0x3d451b0e	0.048121504
82	0xbc6d33ca	-0.0144776795
83	0x3c9bc6fb	0.01901578
84	0x3d71d3cd	0.05903988
85	0xbcae52ac	-0.021279655
86	0x3d32a1c4	0.043611303
87	0x3d31d1e9	0.043413077
88	0x3cb57a51	0.022153052
89	0x3c9fb40f	0.019495038
90	0x3d05a567	0.032628443
91	0xbca6c9b9	-0.02035986
92	0x3c8fba93	0.01754502
93	0xbcb24ad6	-0.0217642
94	0x3d580d0d	0.05274682
95	0x3c529341	0.012852491
96	0xbd6bba92	-0.057550974
97	0xbc602646	-0.013681
98	0x3d02c06d	0.031921793
99	0x3c6b128f	0.014347686
100	0xbd1a56ca	-0.037680425
101	0xbb2282bf	-0.002479717
102	0x3c4e9807	0.012609488
103	0xbcb58cc3	-0.022161847
104	0x3c8d703a	0.017265428
105	0x3cf16db9	0.029471265
106	0xbcf9eb96	-0.030507844
107	0x3cd95230	0.026528448
108	0xb8216bf4	-3.848593e-05
109	0xbca4bc84	-0.020109423
110	0x3d3c07e9	0.04590598
111	0xbd7a9ebf	-0.06118655
112	0x3ccea2a2	0.025224034
113	0x3ccc7511	0.024958165
114	0xbd1a9569	-0.037740145
115	0xbd06ecb6	-0.03294059
116	0x3d52ec63	0.051494967
117	0xbcfb80ad	-0.030701006
118	0x3d222b3e	0.03959202
119	0xbd264b1f	-0.040598985
120	0x3b26160e	0.0025342735
121	0xbc200411	-0.0097665945
122	0xbcbde74c	-0.02318158
123	0x3cc4a301	0.024003508
124	0xbd7b5c7d	-0.0613675
125	0x3d395eb5	0.045256335
126	0x3ce422fe	0.027848717
127	0x3ccf89e2	0.025334302
128	0xbcf92f0a	-0.030417938
129	0xbc138ac4	-0.009005252
130	0x3ca6b488	0.020349756
131	0x3d40c31c	0.04706107
132	0xbcd58af0	-0.026067227
133	0x3c84aee8	0.016196683
134	0xbbbb88b1	-0.005723082
135	0xbd69c1e4	-0.057069674
136	0xbbf85e11	-0.007579573
137	0x3c4bfd5c	0.012450542
138	0xbd30eace	-0.043192677
139	0xbd53612a	-0.051606335
140	0xbd4d8567	-0.05017605
141	0xbd10b0b4	-0.035324767
142	0xbc815371	-0.015786858
143	0xbd146345	-0.036227483
144	0x3a48659c	0.00076445355
145	0x3d3284c6	0.043583654
146	0x3c839e1b	0.016066601
147	0x3b29621a	0.0025845827
148	0x3d414747	0.047187116
149	0x3d2f666f	0.042822298
150	0xbd18a292	-0.037264414
151	0xbc9ce993	-0.019154346
152	0x3ca87e09	0.02056791
153	0xbacd3f92	-0.0015659204
154	0xbd4b24aa	-0.049595512
155	0x3c22b059	0.00992974
156	0x3c98ce87	0.018653167
157	0x3c582aa5	0.013193761
158	0xbc860bd3	-0.01636306
159	0x3d2ce0f1	0.04220671
160	0xbd8f88b7	-0.07008498
161	0xba3eaa9d	-0.0007273348
162	0x3c135023	0.008991274
163	0xbc2771c8	-0.010219999
164	0x3cf10fb9	0.029426442
165	0x3c8d1c61	0.017225446
166	0xbcad8565	-0.021181772
167	0xbc5b19c4	-0.013372842
168	0xbd8b157f	-0.067912094
169	0xbbfc9851	-0.007708587
170	0xbd16c6a6	-0.03681054
171	0xbbb983f0	-0.00566148
172	0x3c25f915	0.010130187
173	0x3ce02936	0.0273634
174	0x3cf5b073	0.029991364
175	0xbd297e0d	-0.041379977
176	0x3ce633bb	0.028100839
177	0xbd359899	-0.04433498
178	0x3d42c3a1	0.047549848
179	0xbc55dbbc	-0.013052877
180	0x3c8ea48e	0.01741245
181	0x3cca8cb9	0.024725305
182	0xbc3c31ac	-0.011486452
183	0xbaa1280e	-0.0012295262
184	0x3cac369a	0.02102213
185	0x3bdc5c0c	0.00672484
186	0xbd0fd101	-0.03511143
187	0xbbd25336	-0.006418611
188	0x3d897d48	0.067133486
189	0x3caaa0b9	0.020828592
190	0xbd439a7b	-0.047754746
191	0x3c842f6d	0.016135896
192	0xbc6c372c	-0.014417451
193	0xbc62de88	-0.013847001
194	0xbb2a3303	-0.0025970347
195	0xb971be3f	-0.00023054423
196	0xbd216ae5	-0.039408583
197	0xbd4ae75e	-0.049537055
198	0x3d19b0ce	0.03752213
199	0xbc7c357c	-0.015393611
200	0xbc873ba6	-0.016507935
201	0x3cadb82b	0.021205982
202	0x39f302b3	0.00046350583
203	0xbcdabb36	-0.026700597
204	0x3c9fda2f	0.019513218
205	0x3c53621e	0.012901811
206	0xbd8a8ef1	-0.06765545
207	0x3d8b3b7e	0.067984566
208	0x3c757269	0.014980891
209	0xba919132	-0.0011105894
210	0xbd83fd1b	-0.064447604
211	0xbd7dc1c3	-0.061952364
212	0x3bcc53ce	0.0062355762
213	0xbd1bf0c2	-0.0380714
214	0xbbc69f2c	-0.0060614552
215	0x3c8c5212	0.017128978
216	0x3c506d72	0.012721406
217	0x3d615308	0.055010825
218	0xbc9a9563	-0.018870061
219	0xbae7dd4e	-0.0017689855
220	0x3d3c7594	0.04601057
221	0x3cc16d30	0.023611635
222	0x3d2259e9	0.039636526
223	0x3c7e1bc8	0.015509553
224	0xbceefea3	-0.029174155
225	0xbda3539d	-0.07974932
226	0x3c6945e8	0.014237858
227	0x3d369a64	0.044580832
228	0x3d18dbd4	0.03731902
229	0x3d809bc5	0.06279711
230	0xbc04e92e	-0.008112235
231	0x3d639a4d	0.055567075
232	0x3bbb0666	0.00570755
233	0xbd2869ad	-0.041116405
234	0xbd61b4eb	-0.055104177
235	0xbd8d05fa	-0.068859056
236	0x3cb3a6bf	0.021930097
237	0xbdb70014	-0.08935562
238	0x3d4e8b89	0.05042604
239	0x3c067cb2	0.008208441
240	0x3cb8422f	0.022492496
241	0xbc7c08a1	-0.015382917
242	0xbbea00e5	-0.00714122
243	0x3d3e8394	0.0465122
244	0xbd11c652	-0.035589524
245	0xbd51192d	-0.0510494
246	0xbd1ab315	-0.037768442
247	0x3d5f4a79	0.054514382
248	0x3b394d6a	0.0028274902
249	0xbb968775	-0.0045937845
250	0x3d431c59	0.047634456
251	0xbc55c62f	-0.013047739
252	0x3d5868a9	0.052834187
253	0xbb92a02a	-0.0044746595
254	0xbd04450b	-0.032292407
255	0xbd442e9b	-0.04789601

layer_3.weight f4 [64, 128]
0	0xbdb1af4c	-0.08676013
1	0xbd23143c	-0.03981422
2	0xbd707b74	-0.058711484
3	0xbd984bb7	-0.074363165
4	0xbd2b116b	-0.041764658
5	0xbd5e6b1e	-0.054301374
6	0xb98066f4	-0.0002449077
7	0xbdbb779e	-0.091536745
8	0x3db13db4	0.08654347
9	0xbd805be3	-0.06267526
10	0x3d62de57	0.05538782
11	0xbd48a5da	-0.048986293
12	0x3bdf3898	0.0068121664
13	0xbdaae549	-0.08344514
14	0xbcedb140	-0.029015183
15	0x3c9671d5	0.018364826
16	0x3dab29dd	0.08357594
17	0xbd9ab5e7	-0.07554226
18	0xbd087dad	-0.03332298
19	0x3d501ac6	0.050806783
20	0x3c14c161	0.009079308
21	0x3ccaeff6	0.024772625
22	0xbd29417d	-0.04132222
23	0x3dbcddb6	0.092219755
24	0x3d86d8c6	0.06584315
25	0xbbb80b96	-0.0056166155
26	0x3d56cdc3	0.052442323
27	0x3d17b7e0	0.03704059
28	0x3d0c06b7	0.03418609
29	0x3d70ed5f	0.058820125
30	0xbd99b4a2	-0.07505156
31	0xbc744dcf	-0.014911129
32	0xbcced7c8	-0.025249377
33	0xbd3e2f3f	-0.046431776
34	0x3d5c99db	0.053857666
35	0x3d7d508b	0.06184439
36	0x3d80432a	0.062628105
37	0xbdad8ee2	-0.08474518
38	0xbd241380	-0.04005766
39	0xbd32ae45	-0.043623228
40	0xbc82e32b	-0.015977463
41	0x3d9b9283	0.07596304
42	0xbd56b871	-0.05242199
43	0x3cb1cd0c	0.02170422
44	0x3c820da2	0.015875641
45	0xbd8323c0	-0.06403303
46	0x3c9eb83c	0.01937496
47	0xbcfafd7c	-0.030638449
48	0x3da2e8cf	0.07954561
49	0x3ca87850	0.020565182
50	0x3d13a8c4	0.03604962
51	0xbc5044ba	-0.012711698
52	0x3ca1edb7	0.019766672
53	0x3d6f6fd2	0.05845625
54	0x3d82b88a	0.06382854
55	0xbd016f72	-0.031600423
56	0xbcafd67e	-0.021464583
57	0x3d8c3bbd	0.06847332
58	0x393a163a	0.00017746622
59	0x3d1e1b55	0.038600285
60	0x3d094943	0.033517133
61	0xbc156962	-0.0091193635
62	0x3d8f4bac	0.06996855
63	0x3d92f927	0.07176428
64	0x3cb3170f	0.021861581
65	0x3dd883bd	0.10572002
66	0xbd4b96cd	-0.04970436
67	0xbdbfc35c	-0.09363434
68	0x3a1760d5	0.0005774622
69	0x3d749e5b	0.059721332
70	0x3da00a69	0.078144856
71	0xbc684c0a	-0.014178285
72	0xbd4efa45	-0.050531644
73	0xbcefa003	-0.029251104
74	0xbcf319ff	-0.029675482
75	0x3d3fd30d	0.046832133
76	0xbd9373f6	-0.07199852
77	0xbca73444	-0.020410664
78	0xbb9cae7b	-0.004781542
79	0x3b6c8391	0.0036089162
80	0xbd54f810	-0.051994383
81	0xbd203039	-0.03910849
82	0x3b8b7d3a	0.0042568715
83	0x3d654a95	0.05597933
84	0x3d86f423	0.06589534
85	0xbc62e23b	-0.013847883
86	0xbd431009	-0.047622714
87	0xbd2af308	-0.04173568
88	0x3c254d1f	0.010089188
89	0xbd7460c3	-0.05966259
90	0xbbf947d4	-0.0076074395
91	0x3ba86a40	0.005139619
92	0x3d2e7416	0.042591177
93	0xbccf7074	-0.025322177
94	0xbdcb6b51	-0.09932578
95	0x3cf0f23b	0.02941238
96	0xbd6b8f5d	-0.05750977
97	0xbd90d781	-0.07072354
98	0xbd07e770	-0.0331797
99	0x3d8897e9	0.066695996
100	0x3dc9bc54	0.09850374
101	0x3dda13ac	0.10648283
102	0xbd37d104	-0.044877067
103	0x3d1a7e19	0.037717912
104	0x3dd4ecc4	0.10396722
105	0x3be83579	0.0070864526
106	0xbc3e15ab	-0.011601846
107	0xbc0b26ca	-0.008493135
108	0xbca23c2c	-0.019804083
109	0xbd893476	-0.06699459
110	0x3bacf8da	0.005278689
111	0xbd402d34	-0.04691811
112	0xbbed43fd	-0.007240771
113	0x3ce0dcc3	0.027449017
114	0xbd613e99	-0.05499134
115	0x3c250ef0	0.010074362
116	0xbcc3c266	-0.023896407
117	0x3dc3a823	0.09553554
118	0x3d4db60f	0.050222453
119	0x3ccd5fda	0.02507012
120	0xbd0ba1ba	-0.03408978
121	0x3db72161	0.089419134
122	0xbc625ebe	-0.013816534
123	0xbc85ea4b	-0.016347071
124	0xbbcbdffd	-0.00622177
125	0xbd8f1ede	-0.06988309
126	0xbdce6be8	-0.10079175
127	0xbd450e50	-0.048109353
128	0x3b34ef20	0.002760835
129	0x3bdd016f	0.0067445557
130	0xbd75fc98	-0.060055345
131	0x3ce47426	0.027887415
132	0x3c41965e	0.0118156355
133	0xbd0cdf41	-0.0343926
134	0xbc677541	-0.014127077
135	0xbd358d27	-0.044324066
136	0xbd26f868	-0.040764242
137	0xbcba34fa	-0.02273034
138	0x3c9ded9f	0.019278346
139	0xbd38c987	-0.045114066
140	0xbb989995	-0.0046569803
141	0xbd860c5c	-0.06545326
142	0x3dc4fb18	0.09618205
143	0x3d49fe32	0.049314685
144	0x3dce00c6	0.10058741
145	0xbde39d45	-0.11113981
146	0x3d957c16	0.07299058
147	0xbd7b4071	-0.061340753
148	0x3d9b9bb7	0.075980596
149	0x3d98171d	0.074262835
150	0xbcfd2f8e	-0.030906465
151	0x3ca925ae	0.02064785
152	0xbd4c3d46	-0.049863122
153	0xbd13a67a	-0.036047436
154	0xbd1b670c	-0.03794007
155	0x3d036e9a	0.0320879
156	0x3cea1af9	0.028577315
157	0x3c0b5954	0.008505184
158	0xbda17806	-0.07884221
159	0xbde92d0c	-0.11385545
160	0x3d1b25df	0.037877914
161	0xbddb1b21	-0.10698534
162	0x3cd0fa39	0.02550994
163	0x3c463c10	0.012099281
164	0x3ddc1052	0.107453
165	0x3d0c9c87	0.034328964
166	0x3ccb8bbf	0.02484691
167	0x3d43c70a	0.04779724
168	0xbd334c9f	-0.043774243
169	0x3dbe48fc	0.092912644
170	0xbd4dce1f	-0.0502454
171	0x3cec3b7c	0.028836958
172	0x3ddde148	0.108339846
173	0x3d0bc70b	0.03412537
174	0xbca524d5	-0.020159164
175	0xbbbc573b	-0.0057477034
176	0x3d641d8f	0.05569225
177	0x3dd66537	0.10468524
178	0x3d02b66a	0.031912245
179	0x3da51d30	0.08062208
180	0x3b681e2c	0.0035418374
181	0xbca03a36	-0.019559007
182	0x3db23fd5	0.08703581
183	0xbb3d8c14	-0.0028922604
184	0x3d732b9b	0.059367757
185	0xbd5a5c22	-0.05331052
186	0xbdab7e77	-0.08373731
187	0xbd1ca6c8	-0.038244992
188	0x3dae69d3	0.08516278
189	0x3d19adf6	0.037519418
190	0x3cad11a6	0.02112658
191	0x3d87dd28	0.06633979
192	0xbd8f6c86	-0.07003121
193	0x3da44436	0.08020823
194	0x3d1ec1c0	0.038758993
195	0x3d0eb03b	0.034836035
196	0xbd765c3f	-0.060146566
197	0x3d244ca2	0.040112145
198	0x3c9215a2	0.017832581
199	0x3b6388dd	0.0034719028
200	0x3c754cb9	0.014971905
201	0x3bfb9a26	0.007678288
202	0x3d185b84	0.03719665
203	0xbcf8f43e	-0.030389901
204	0xbdca04a5	-0.09864167
205	0x3d39e715	0.045386393
206	0xbc9ed9ce	-0.019390967
207	0x3cf92c34	0.030416586
208	0x3d97db85	0.07414917
209	0xbd4716d4	-0.048605755
210	0xbd774a7f	-0.06037378
211	0xbbfa0d55	-0.007630984
212	0x3d21ae2d	0.039472748
213	0xbdd2ad7f	-0.10286998
214	0x3cd221d5	0.025650898
215	0x3d0ccfab	0.034377735
216	0x3d9ef6b0	0.07761896
217	0x3dbc55e5	0.091960706
218	0xbcb8d49f	-0.022562323
219	0x3d199256	0.037493072
220	0x3c937244	0.017998822
221	0x39157cfc	0.00014256308
222	0xbd0c46c8	-0.03424719
223	0x3d2b2046	0.041778825
224	0x3d5e77b3	0.054313373
225	0xbd993dc9	-0.07482488
226	0x3cfb18a5	0.0306514
227	0x3d5be650	0.05368644
228	0xbd48b484	-0.049000278
229	0x3ca69d0f	0.020338563
230	0xbd8e6830	-0.06953466
231	0xbd4574cd	-0.048207093
232	0xbc2d73e2	-0.010586711
233	0xbc9734ad	-0.018457735
234	0xbd0656b0	-0.032797515
235	0x3d955a1e	0.07292579
236	0x3c8e517f	0.017372845
237	0xbd8cadde	-0.068691
238	0x3dc406cf	0.09571611
239	0xbd079209	-0.033098254
240	0xbd92572b	-0.07145532
241	0xbda56846	-0.08076529
242	0x3dabd3b3	0.08389988
243	0x3db619fe	0.08891676
244	0xbdc0a391	-0.09406198
245	0x3c056ae6	0.008143162
246	0x3d82c52c	0.06385264
247	0x3d9125b3	0.07087269
248	0x3d17d407	0.03706744
249	0x3d8140c7	0.063111834
250	0x3dc411cc	0.09573707
251	0xbd2e6cec	-0.042584345
252	0xbce75347	-0.028237952
253	0xbc62efd2	-0.013851123
254	0x3cead225	0.028664658
255	0xbd8323ba	-0.06403299

layer_out.weight f4 [3, 64]
0	0x3e29cb87	0.16581546
1	0x3e44f1ee	0.19232914
2	0x3e1fd8be	0.15610024
3	0xbd9ab2ae	-0.07553612
4	0xbe455120	-0.19269228
5	0x3df5cfbb	0.12002512
6	0x3e6029ed	0.21890993
7	0xbdd3821f	-0.10327553
8	0xbdddc321	-0.108282335
9	0xbe539518	-0.20662344
10	0xbcb28a05	-0.021794328
11	0xbe52f8eb	-0.20602767
12	0xbdf499a4	-0.11943367
13	0xbcf05ac0	-0.029340148
14	0x3dc739eb	0.09727844
15	0x3e335b6e	0.17515346
16	0xbe363c77	-0.17796503
17	0xbe015995	-0.12631829
18	0x3d41d374	0.047320798
19	0xbdaf5d9d	-0.08562777
20	0x3cd371ea	0.025811154
21	0xbe0d2658	-0.13784158
22	0xbd14a139	-0.036286566
23	0x3e0802cd	0.13282318
24	0xbdbdce09	-0.09267814
25	0xbe012bd8	-0.12614381
26	0xbd3ea8a4	-0.046547547
27	0x3e3d437f	0.18482779
28	0x3e04f410	0.12983727
29	0xbe46d5bb	-0.19417469
30	0xbe0c2b0c	-0.13688296
31	0xbdfce16e	-0.12347685
32	0x3e4c2e9e	0.19939658
33	0x3ca50420	0.020143569
34	0xbe3ee473	-0.18641834
35	0xbe12b1e3	-0.14325671
36	0xbe4002b9	-0.18751039
37	0x3e2e35c2	0.17012694
38	0xbd7c3bf8	-0.06158063
39	0xbe2c084e	-0.16800043
40	0x3df92014	0.121643215
41	0xbda38e66	-0.07986145
42	0x3dad1353	0.084509514
43	0x3e50b279	0.20380582
44	0xbd972cbb	-0.073815785
45	0x3e4c152e	0.19929954
46	0x3d89ff91	0.067381985
47	0x3e584164	0.21118695
48	0x3ddebd92	0.108760014
49	0xbe11901f	-0.14215134
50	0x3df46eee	0.11935221
51	0x3db2dd3e	0.08733605
52	0xbdac9d7c	-0.08428475
53	0xbe195a29	-0.149758
54	0x3e30c55d	0.17262788
55	0xbe3120c4	-0.17297655
56	0xbe19981f	-0.14999436
57	0xbe6522ec	-0.22376603
58	0xbd8dfa6e	-0.06932531
59	0x3e29abb4	0.16569406
60	0x3cbdd8e6	0.023174714
61	0x3df80148	0.121096194
62	0x3d9113cd	0.07083855
63	0x3dc9f73b	0.098616086
64	0xbdf2a2d8	-0.11847466
65	0x3cbf8181	0.023377182
66	0xbd834e5b	-0.064114295
67	0x3e1004d5	0.14064343
68	0x3c96ec17	0.018423123
69	0xbe125b2b	-0.1429259
70	0x3dabc146	0.08386473
71	0x3e3f57ca	0.18685833
72	0xbe3d2c43	-0.18473916
73	0x3d2e1453	0.04249985
74	0x3e261f13	0.16222791
75	0xbe105672	-0.14095476
76	0xbe08ac3c	-0.13346952
77	0x3e460a89	0.19339956
78	0xbe3ba4f6	-0.18324646
79	0xbcdb8c3b	-0.026800266
80	0xbde01f56	-0.10943477
81	0x3d1e553e	0.038655512
82	0x3e2aef6c	0.16692895
83	0xbdff8bed	-0.124778606
84	0xbe260b4b	-0.16215245
85	0x3d1d0791	0.038337294
86	0xbd982261	-0.07428432
87	0xbe0f55d6	-0.13997588
88	0xbe33ace0	-0.17546415
89	0x3de0a4e4	0.109689504
90	0x3de1f998	0.11033934
91	0xbe3b92b8	-0.18317688
92	0x3e1feb99	0.15617217
93	0xbe4183c4	-0.18897921
94	0x3d30ee23	0.043195855
95	0xbc39dd18	-0.011344217
96	0xbdcdd979	-0.10051245
97	0xbe2b5833	-0.16732864
98	0x3df24865	0.118302144
99	0x3dd983e0	0.10620856
100	0xbe3dac7c	-0.18522829
101	0xbe441759	-0.19149531
102	0x3dbf3986	0.093371436
103	0x3e4d2100	0.2003212
104	0xbe377618	-0.17916143
105	0x3e26c720	0.16286898
106	0xbddcbcfb	-0.10778233
107	0xbcbbffb1	-0.022949072
108	0x3dd5e9ec	0.10445008
109	0xbc9569fe	-0.018239018
110	0xbe124447	-0.14283858
111	0xbc4ddc5f	-0.012564748
112	0x3dcebbf8	0.10094446
113	0x3e2e6a59	0.17032756
114	0x3d791040	0.060806513
115	0xbd6eaf60	-0.05827272
116	0x3e0e1c4f	0.13877986
117	0xbda38a22	-0.07985331
118	0xbc8be366	-0.017076205
119	0x3e1c4732	0.15261534
120	0x3dcefa43	0.101063274
121	0x3d5401d1	0.051759545
122	0xbe14186f	-0.14462446
123	0xbc6a3c67	-0.014296628
124	0xbe392c6a	-0.18083349
125	0xbe065ca6	-0.1312128
126	0xbe5b416e	-0.21411678
127	0xbdc9176e	-0.09818922
128	0xbdf7f86c	-0.121079296
129	0x3cc81513	0.024424111
130	0xbe2b9d27	-0.16759168
131	0xbd9497ea	-0.07255538
132	0x3e20a1c6	0.15686712
133	0xbe5560d0	-0.20837712
134	0xbd0e0c87	-0.034679916
135	0xbe13f232	-0.14447859
136	0x3dbf0f54	0.093290955
137	0xbdb43dee	-0.08800875
138	0xbdff7079	-0.12472624
139	0x3da74974	0.08168307
140	0x3df1e89f	0.11811947
141	0xbd934360	-0.07190585
142	0xbde5f3f0	-0.11228168
143	0x3d975c4b	0.0739065
144	0x3dcef223	0.10104778
145	0xbe5572f6	-0.20844635
146	0xbe180e07	-0.14849101
147	0x3e332ffc	0.17498773
148	0x3e5346dd	0.20632501
149	0xbe249420	-0.1607213
150	0x3e2f28be	0.17105386
151	0xbe51fc9c	-0.20506519
152	0x3e1759a6	0.14780292
153	0xbe399b89	-0.18125738
154	0xbda12e24	-0.07870129
155	0xbd4e23b3	-0.050327014
156	0xbddb6704	-0.10713008
157	0x3e286988	0.16446507
158	0x3e10df6c	0.14147729
159	0x3e33af10	0.1754725
160	0xbe37dcbb	-0.17955296
161	0xbe2708e2	-0.16311982
162	0xbd841038	-0.06448406
163	0xbe3f753b	-0.18697064
164	0x3e441b68	0.1915108
165	0xbd0395b0	-0.032125175
166	0x3da2ff62	0.07958867
167	0x3d9d4dac	0.0768083
168	0xbe2a0ff3	-0.16607647
169	0x3cb183a8	0.021669224
170	0xbd0ed17f	-0.03486776
171	0xbe54f739	-0.20797433
172	0xbe08a0b4	-0.13342553
173	0x3d52e56f	0.051488336
174	0xbe2abd88	-0.16673863
175	0xbdbbacae	-0.091637954
176	0xbe0acf1f	-0.13555573
177	0xbd823de5	-0.06359462
178	0xbdec8139	-0.11548085
179	0xbe3d4cae	-0.18486282
180	0xbd157108	-0.036484748
181	0x3e14d061	0.14532615
182	0xbdbee333	-0.093206786
183	0xbdeaa1a9	-0.114566155
184	0xbd48c020	-0.04901135
185	0x3e04999a	0.1294922
186	0x3caefbc5	0.021360287
187	0xbd8fd38c	-0.07022771
188	0x3d0a1020	0.033706784
189	0xbd8d4297	-0.06897467
190	0x3e173820	0.14767504
191	0xbdb90168	-0.09033471

batchnorm1.weight f4 [256]
0	0x3f79cc5c	0.9757745
1	0x3f7fc1c8	0.9990506
2	0x3f7fd467	0.99933475
3	0x3f82873a	1.0197518
4	0x3f7d7843	0.9901163
5	0x3f811ce0	1.0086937
6	0x3f804802	1.0021975
7	0x3f78a392	0.9712459
8	0x3f75b9b4	0.95986485
9	0x3f84edb8	1.0385046
10	0x3f7b088f	0.98059934
11	0x3f7e5e8c	0.9936302
12	0x3f84177a	1.0319664
13	0x3f81627c	1.010818
14	0x3f802c9a	1.0013611
15	0x3f7de534	0.9917786
16	0x3f8191c1	1.0122606
17	0x3f8186ac	1.0119224
18	0x3f7f3162	0.9968473
19	0x3f814595	1.009936
20	0x3f7a191b	0.9769456
21	0x3f83aa41	1.0286332
22	0x3f7cd460	0.9876156
23	0x3f7d201b	0.98877114
24	0x3f79e4a6	0.97614515
25	0x3f7c9283	0.9866106
26	0x3f7d08f5	0.9884179
27	0x3f8078c9	1.0036861
28	0x3f817cf8	1.0116262
29	0x3f7d5678	0.98960066
30	0x3f7b0fd1	0.9807101
31	0x3f7626d9	0.96153027
32	0x3f814eaa	1.0102131
33	0x3f7f42ff	0.997116
34	0x3f7b8fee	0.98266494
35	0x3f86e662	1.0539057
36	0x3f7af866	0.98035276
37	0x3f82f40c	1.0230727
38	0x3f7ead7d	0.9948347
39	0x3f75d41e	0.9602679
40	0x3f7ef96e	0.9959935
41	0x3f833e07	1.0253304
42	0x3f7b069e	0.9805697
43	0x3f7f4e11	0.99728495
44	0x3f7f1dbd	0.9965475
45	0x3f80cfdd	1.0063435
46	0x3f807604	1.0036016
47	0x3f81a3be	1.0128095
48	0x3f7cb28f	0.9870996
49	0x3f820cb9	1.0160133
50	0x3f7d5de7	0.9897141
51	0x3f813600	1.0094604
52	0x3f7932af	0.9734296
53	0x3f80a6bf	1.0050887
54	0x3f7c70f3	0.98609847
55	0x3f808c38	1.0042791
56	0x3f805855	1.0026957
57	0x3f7c1228	0.98465204
58	0x3f7ed799	0.99547726
59	0x3f76e7ef	0.9644765
60	0x3f776e76	0.96652925
61	0x3f79106e	0.97290695
62	0x3f7cbf41	0.9872933
63	0x3f7cdd5a	0.98775256
64	0x3f80d4cc	1.006494
65	0x3f81feb2	1.0155852
66	0x3f7f10d0	0.9963503
67	0x3f7dd29a	0.9914948
68	0x3f8400a0	1.0312691
69	0x3f7a3df2	0.9775077
70	0x3f817eb1	1.0116788
71	0x3f802b76	1.0013263
72	0x3f826735	1.0187746
73	0x3f77807f	0.96680444
74	0x3f807c1c	1.0037875
75	0x3f7d77b4	0.9901078
76	0x3f824c1c	1.0179477
77	0x3f792668	0.9732423
78	0x3f807173	1.0034622
79	0x3f788444	0.9707682
80	0x3f76d9c0	0.9642601
81	0x3f78c883	0.97180957
82	0x3f83afe1	1.0288049
83	0x3f76da3b	0.96426743
84	0x3f822996	1.0168941
85	0x3f7cbefe	0.9872893
86	0x3f84459f	1.0333747
87	0x3f7b722b	0.9822108
88	0x3f7e296a	0.9928194
89	0x3f800bed	1.000364
90	0x3f7dcd22	0.9914113
91	0x3f77319c	0.9656007
92	0x3f7f5812	0.9974376
93	0x3f79c724	0.9756949
94	0x3f79fc07	0.9765019
95	0x3f784150	0.9697466
96	0x3f7b0529	0.9805475
97	0x3f794eb4	0.97385716
98	0x3f7deb81	0.99187475
99	0x3f81f5ee	1.0153177
100	0x3f84be8f	1.0370654
101	0x3f81a84e	1.0129488
102	0x3f7bbca0	0.98334694
103	0x3f7ae20b	0.98001164
104	0x3f7f49c9	0.9972196
105	0x3f80e77f	1.0070647
106	0x3f810224	1.0078778
107	0x3f79083e	0.972782
108	0x3f7d93a0	0.9905338
109	0x3f7fc45b	0.9990899
110	0x3f82111c	1.0161471
111	0x3f795dcb	0.9740874
112	0x3f7d44ce	0.9893311
113	0x3f76a19f	0.96340364
114	0x3f84037a	1.0313561
115	0x3f8459c7	1.0339898
116	0x3f7f4a72	0.9972297
117	0x3f750bb8	0.95721006
118	0x3f7f6170	0.9975805
119	0x3f7ea085	0.99463683
120	0x3f7f445a	0.9971367
121	0x3f833edb	1.0253557
122	0x3f8109a1	1.0081064
123	0x3f80670a	1.0031445
124	0x3f825d1f	1.0184668
125	0x3f813df4	1.0097032
126	0x3f7aef9e	0.98021877
127	0x3f78ea90	0.97232914
128	0x3f7cf2ee	0.9880818
129	0x3f8293c5	1.0201346
130	0x3f80487d	1.0022122
131	0x3f7aa627	0.9790978
132	0x3f8395ab	1.028005
133	0x3f81eaad	1.0149742
134	0x3f843c97	1.033099
135	0x3f851a8e	1.0398729
136	0x3f7f6d55	0.997762
137	0x3f7c001a	0.98437655
138	0x3f7a7ebd	0.9784964
139	0x3f78ef37	0.9724001
140	0x3f81b619	1.0133697
141	0x3f7ff079	0.9997631
142	0x3f838407	1.0274667
143	0x3f81998a	1.0124981
144	0x3f8110c7	1.0083245
145	0x3f787076	0.970466
146	0x3f7b7fab	0.9824168
147	0x3f80da4a	1.0066617
148	0x3f809c8d	1.0047776
149	0x3f83e10f	1.0303057
150	0x3f810e97	1.0082577
151	0x3f7d60f6	0.98976076
152	0x3f82a80b	1.0207533
153	0x3f8051f9	1.0025016
154	0x3f7f5ef6	0.99754274
155	0x3f846c8d	1.0345627
156	0x3f79503d	0.9738806
157	0x3f810225	1.007878
158	0x3f837cef	1.0272502
159	0x3f820cf9	1.0160209
160	0x3f7fed8f	0.9997186
161	0x3f81eadc	1.0149798
162	0x3f7c5f35	0.98582774
163	0x3f7cc408	0.9873662
164	0x3f7ffdfd	0.9999693
165	0x3f7c1b00	0.984787
166	0x3f7c0cc3	0.9845697
167	0x3f750a46	0.957188
168	0x3f8200bd	1.0156475
169	0x3f803a48	1.0017786
170	0x3f827695	1.0192438
171	0x3f7c0bb0	0.98455334
172	0x3f77d1b6	0.9680437
173	0x3f827441	1.0191728
174	0x3f8448f8	1.0334768
175	0x3f799a5c	0.9750116
176	0x3f823595	1.0172602
177	0x3f7b9117	0.98268265
178	0x3f7787ab	0.9669139
179	0x3f764ff1	0.9621573
180	0x3f7cb37f	0.9871139
181	0x3f8243e0	1.0176964
182	0x3f83503c	1.025886
183	0x3f82fa59	1.023265
184	0x3f790db6	0.97286546
185	0x3f803018	1.0014677
186	0x3f7a7c20	0.9784565
187	0x3f7a0cb3	0.9767563
188	0x3f810223	1.0078777
189	0x3f83cf02	1.0297549
190	0x3f836ac5	1.0266958
191	0x3f7cb013	0.9870617
192	0x3f793584	0.97347283
193	0x3f7a06de	0.9766673
194	0x3f7e8c87	0.9943318
195	0x3f80c8a8	1.0061235
196	0x3f85403a	1.0410225
197	0x3f7e72f1	0.99394137
198	0x3f80bd09	1.0057689
199	0x3f7d9272	0.9905158
200	0x3f81dcce	1.0145509
201	0x3f7df423	0.9920065
202	0x3f7c58a8	0.9857278
203	0x3f81aa94	1.0130181
204	0x3f8490ea	1.0356724
205	0x3f833e9c	1.0253482
206	0x3f82363e	1.0172803
207	0x3f806163	1.002972
208	0x3f7fd5d6	0.9993566
209	0x3f80416e	1.0019968
210	0x3f7b1453	0.9807789
211	0x3f78bc99	0.9716278
212	0x3f7984bc	0.9746816
213	0x3f83338c	1.0250106
214	0x3f80b377	1.0054768
215	0x3f7ee2bf	0.9956474
216	0x3f74956b	0.95540494
217	0x3f8325de	1.0245931
218	0x3f82948f	1.0201586
219	0x3f779e4b	0.9672591
220	0x3f81e0b2	1.0146697
221	0x3f7ee095	0.99561435
222	0x3f82a10f	1.0205401
223	0x3f803a86	1.001786
224	0x3f7d3aea	0.9891802
225	0x3f80a382	1.0049899
226	0x3f82e3d1	1.0225774
227	0x3f85796d	1.0427681
228	0x3f7c828e	0.9863671
229	0x3f7a9943	0.9789011
230	0x3f77aedf	0.9675121
231	0x3f79d43d	0.97589475
232	0x3f7be504	0.98396325
233	0x3f7d0120	0.9882984
234	0x3f7c834c	0.98637843
235	0x3f7aa73f	0.9791145
236	0x3f829a02	1.020325
237	0x3f80e9d9	1.0071365
238	0x3f7f7c24	0.997988
239	0x3f8049d8	1.0022535
240	0x3f7d65b3	0.98983306
241	0x3f7c1d11	0.9848185
242	0x3f80ef12	1.0072958
243	0x3f83929b	1.0279115
244	0x3f80ee76	1.0072773
245	0x3f819d7c	1.0126185
246	0x3f79f9c0	0.97646713
247	0x3f811eeb	1.008756
248	0x3f80f3bb	1.0074381
249	0x3f7da824	0.9908469
250	0x3f800219	1.000064
251	0x3f7ed0d1	0.9953738
252	0x3f808301	1.0039979
253	0x3f82bcf2	1.0213912
254	0x3f810694	1.0080132
255	0x3f816e4c	1.0111785

batchnorm1.bias f4 [256]
0	0xbd271ce3	-0.040799033
1	0x3c9f5a3e	0.01945221
2	0x3c924c8b	0.017858764
3	0xbc81d8e1	-0.015850486
4	0xbcae03fd	-0.021242136
5	0xbcdc073f	-0.026858924
6	0xbb35c6e3	-0.0027736954
7	0xbc76f3f6	-0.015072813
8	0xbc844522	-0.016146246
9	0x3cb04726	0.021518301
10	0x3b3e5907	0.0029044764
11	0x3bda01aa	0.0066530304
12	0xbcc8204f	-0.024429468
13	0xbcef6b4e	-0.029225972
14	0xbcabb13e	-0.02095854
15	0xbc766081	-0.015037657
16	0x3cec6822	0.028858248
17	0xbbcce18f	-0.0062524746
18	0xbd4e0d66	-0.050305746
19	0x3cff3b0a	0.031156082
20	0xbcb8094b	-0.022465369
21	0x3c55f546	0.013058966
22	0xbbbf0117	-0.0058289873
23	0xbc4eaa1f	-0.012613802
24	0xbb9d2cc0	-0.0047965944
25	0xbbeedb98	-0.007289361
26	0xbd0d462f	-0.03449076
27	0xbc64ac0f	-0.013957038
28	0xbca7bbe1	-0.02047533
29	0xbd923a69	-0.07140047
30	0xbcf03069	-0.029319959
31	0x3b5dc109	0.0033836982
32	0x3c886900	0.01665163
33	0x3b98c657	0.004662316
34	0x3c44fdff	0.012023448
35	0x3bf5ce2d	0.0075013847
36	0xbd23a8e7	-0.039956
37	0x3d130ae1	0.035899047
38	0xbc23ac7d	-0.009989855
39	0xbcc87a96	-0.024472516
40	0xbb6308d5	-0.0034642715
41	0xbc19f8ec	-0.0093977265
42	0xbbe418fc	-0.006960986
43	0xbc19770b	-0.009366761
44	0xbd133847	-0.035942342
45	0xbc93798d	-0.018002296
46	0xbd158e26	-0.036512516
47	0x3c9447a6	0.01810057
48	0x3d80ff6f	0.0629872
49	0xbc6690fc	-0.014072653
50	0xbbf0c476	-0.0073476387
51	0xbc3b7d29	-0.011443415
52	0x3c985fcd	0.018600369
53	0x3bce7154	0.006300131
54	0x3aa4cd08	0.0012573311
55	0xbc08aeeb	-0.008342485
56	0xbc95229f	-0.018204985
57	0xbbcb2501	-0.0061994796
58	0xbd14dbae	-0.036342315
59	0xbce264e5	-0.027636
60	0xbd230fcb	-0.039809983
61	0x3c28989c	0.010290291
62	0xbcab7205	-0.020928392
63	0xbd502a74	-0.050821736
64	0xbc92c863	-0.017917817
65	0x3d063503	0.0327654
66	0x3d08152f	0.033223327
67	0x3c847663	0.016169732
68	0x3c4ca2cf	0.0124899885
69	0xbd119a5c	-0.0355476
70	0xbc873f62	-0.016509715
71	0xbd10604d	-0.03524809
72	0x3c44474d	0.01197989
73	0xbd0b9090	-0.034073412
74	0xbca4879f	-0.0200842
75	0xbca675d0	-0.02031985
76	0x3bd38f9e	0.0064563295
77	0xbc347c14	-0.011015911
78	0xbd1474cc	-0.0362442
79	0xbcba0f63	-0.022712415
80	0xbd531545	-0.051533956
81	0x3ba48c83	0.005021633
82	0xbb7ae26a	-0.0038281926
83	0xbd13522a	-0.03596703
84	0x3c3f4c16	0.011675855
85	0xbd4ebb86	-0.050471805
86	0x3c3ee720	0.011651784
87	0xbc6b5249	-0.01436288
88	0xbcd30326	-0.025758337
89	0x3c8c43ef	0.017122237
90	0xbbd3c1e9	-0.006462325
91	0xbc99567e	-0.018718
92	0xbb6d109d	-0.0036173232
93	0xbd18856a	-0.03723661
94	0xbd0c0bd8	-0.034190983
95	0xbd13dfbd	-0.036102045
96	0xbcea5b5b	-0.028608015
97	0x3cb18805	0.021671304
98	0x39e8aefe	0.00044380868
99	0x3cd6f80b	0.026241323
100	0x3c73d5be	0.014882503
101	0x3c7e5362	0.01552281
102	0x3be755f0	0.007059805
103	0xbd4f6a1a	-0.050638296
104	0xbc45fd33	-0.012084293
105	0x3cb68707	0.022281183
106	0x3b8f6b00	0.004376769
107	0xbd3fb936	-0.04680749
108	0xbc93acda	-0.018026758
109	0xbd00e211	-0.031465594
110	0x3c6aead7	0.014338217
111	0xbcc89442	-0.024484757
112	0x3c7c1bee	0.015387518
113	0xbd12d034	-0.03584309
114	0x3c4b0020	0.0123901665
115	0x3c61b8f9	0.013777011
116	0x3c3e120d	0.011600983
117	0xbc8412d6	-0.016122263
118	0xbd1f684c	-0.038917825
119	0xbce57f7d	-0.028014893
120	0xbd4f6865	-0.050636668
121	0xbcaec7bb	-0.021335473
122	0xbce42c64	-0.027853198
123	0x3bc95d56	0.0061451597
124	0xbb5c1d37	-0.003358675
125	0x3ca05261	0.019570531
126	0xbaadb1fd	-0.0013251897
127	0xbd2fcc71	-0.04291958
128	0x3b9bfc98	0.004760336
129	0xbc8d6b81	-0.017263176
130	0xbcf698bc	-0.030102126
131	0xbd649f0a	-0.055815734
132	0xbc82c50b	-0.015963098
133	0x3c19abef	0.009379371
134	0x3cb2f24d	0.021844054
135	0x3c0a5ff3	0.008445728
136	0xbcda1171	-0.026619645
137	0xbc86d683	-0.016459709
138	0x3a0b5318	0.0005314811
139	0xbcb424ba	-0.021990169
140	0x3c401ac7	0.011725134
141	0x3b84e1a8	0.0040552206
142	0x3ca390ff	0.0199666
143	0xbc07453f	-0.008256256
144	0x3d4b50de	0.049637668
145	0xbbd969bb	-0.0066349185
146	0xbc8d8341	-0.0172745
147	0xbc971d52	-0.018446598
148	0x3c69a98f	0.014261617
149	0x3bdf759b	0.0068194396
150	0x3c6a5973	0.014303553
151	0xbcfe8bfc	-0.03107261
152	0xbd0b7274	-0.034044698
153	0x3d143771	0.036185686
154	0xbc3fd8c6	-0.011709398
155	0xbc92638e	-0.017869737
156	0x3a87a868	0.0010349872
157	0x3bde456c	0.006783178
158	0xbbfc1837	-0.0076933163
159	0xbd7e2feb	-0.062057417
160	0xbd34b81c	-0.044120893
161	0xbce413e9	-0.027841525
162	0xbc4425b9	-0.011971884
163	0xbcaf0cb8	-0.02136837
164	0xbb2c9c57	-0.0026338303
165	0xbc25e0db	-0.0101244105
166	0xbc26a52e	-0.010171218
167	0xbcf8a281	-0.030350925
168	0x3d143b78	0.036189526
169	0x3cc5c23e	0.024140473
170	0x3c0c84b0	0.008576557
171	0xbcb1be51	-0.021697195
172	0xbcecdbca	-0.028913397
173	0x3cbe1eab	0.023207983
174	0xbbd7f7a9	-0.0065908027
175	0xbce0bd13	-0.027433908
176	0xbd084cc5	-0.033276338
177	0xbcccb8bb	-0.02499043
178	0xbd3a81c4	-0.04553391
179	0xbd8d2b5b	-0.06893035
180	0x3bd84c26	0.0066008745
181	0xbc958428	-0.018251494
182	0x3cd5f73e	0.02611887
183	0x3c8f32f4	0.017480351
184	0x3bc21d9d	0.0059239403
185	0xbca71be1	-0.020399036
186	0xbc5cda66	-0.013479805
187	0xbd395095	-0.045242865
188	0x3c7b14f4	0.01532482
189	0xbd40914c	-0.047013566
190	0xbccc17ab	-0.02491363
191	0xbcd81f0c	-0.026381992
192	0xbcd8ca4e	-0.026463654
193	0xbd087374	-0.03331323
194	0x3cec7210	0.028862983
195	0x3b42a870	0.0029702447
196	0xbc2dbaee	-0.01060365
197	0xbd056de3	-0.0325755
198	0xbc3f37b8	-0.011670999
199	0xbcbd72f9	-0.023126112
200	0xbd283e4e	-0.041075043
201	0xbd02e418	-0.03195581
202	0xbd0123dd	-0.031528343
203	0x3c7f0fa3	0.015567693
204	0xbd1600b8	-0.03662178
205	0x3cafa049	0.021438735
206	0xbb72aef0	-0.003703054
207	0xbc6a6382	-0.014305951
208	0x3ce370a7	0.027763678
209	0xbb10e6ec	-0.0022110296
210	0xbc543dec	-0.012954216
211	0xbce1097e	-0.027470347
212	0xbc92654b	-0.017870566
213	0xbcea749b	-0.028620055
214	0x3c1716f1	0.009221778
215	0xbd158d7d	-0.036511887
216	0xbc55b3a7	-0.013043321
217	0x3c8446cd	0.016147042
218	0x3cc94441	0.024568679
219	0xbcf211b6	-0.02954946
220	0x3cd3ae54	0.025839962
221	0xbc4eb4fb	-0.012616391
222	0xbd23d8cb	-0.04000167
223	0xbb994f76	-0.004678662
224	0x3cb6e62b	0.02232655
225	0x3c2052f3	0.009785402
226	0xbb69bb70	-0.00356647
227	0xbcb812d9	-0.022469925
228	0x3bdc96b2	0.0067318315
229	0xbd2775da	-0.040883876
230	0xba71ba72	-0.0009221203
231	0xbce4d14f	-0.027931837
232	0xbc931ff6	-0.017959576
233	0xbb8eedae	-0.0043618297
234	0xbc9917aa	-0.018688042
235	0xbd3872e1	-0.045031432
236	0x3c9854a8	0.018595055
237	0x3c277a44	0.0102220215
238	0xbd0b68b3	-0.034035396
239	0xbb906ec9	-0.004407738
240	0xbc2b0b07	-0.010439641
241	0xbb6ecdd2	-0.0036438596
242	0xba05add9	-0.00050994527
243	0xbd0b34de	-0.033985965
244	0x3c99a126	0.0187536
245	0xbd02d272	-0.031938978
246	0xbceaf60a	-0.028681774
247	0xbc8df35b	-0.017327955
248	0xbaffdfa0	-0.0019521601
249	0xbc47dc40	-0.012198508
250	0xbc6be693	-0.014398235
251	0xbc0282df	-0.007965772
252	0xbcd5ce96	-0.026099484
253	0xbca9a4ca	-0.02070846
254	0xbb21ff7a	-0.0024718926
255	0x3c6994a3	0.014256629

batchnorm1.running_mean f4 [256]
0	0x3ef62f25	0.48082843
1	0x3ec9527d	0.39320746
2	0xbf045797	-0.5169615
3	0xbecf33e6	-0.40469283
4	0xbe8fe271	-0.2810245
5	0x3f4386be	0.76377475
6	0xbec0c788	-0.3765223
7	0x3e38d18a	0.18048683
8	0xbeb850d3	-0.35999164
9	0xbf862874	-1.0481095
10	0x3e1c76fe	0.15279767
11	0x3dfebc08	0.12438208
12	0xbdb6a6de	-0.08918546
13	0xbe845c93	-0.2585188
14	0xbdd66e43	-0.104702495
15	0x3e05b4a6	0.13057193
16	0x3effa479	0.4993017
17	0x3e5c6199	0.21521606
18	0xbf41b99c	-0.7567384
19	0x3dbb817c	0.091555566
20	0xbec5e162	-0.38648516
21	0xbeb935df	-0.36173913
22	0x3f1438cf	0.57899183
23	0x3e83822a	0.25685245
24	0xbebe33ef	-0.37148997
25	0xbed40284	-0.4140817
26	0xbed30628	-0.41215634
27	0xbe6c9ab7	-0.23105894
28	0x3ce4eeaf	0.027945844
29	0x3f26147f	0.64875025
30	0x3e40e1e9	0.18836178
31	0x3ea037f9	0.31292704
32	0x3e94808f	0.29004332
33	0xbe1f4c2a	-0.15556398
34	0x3e9dc738	0.30816054
35	0xbdd41ccb	-0.10357054
36	0xbef386ed	-0.47563878
37	0x3e8ce8b8	0.275213
38	0x3f165532	0.5872375
39	0xbbfe22ec	-0.007755628
40	0x3e330acf	0.17484592
41	0xbc64f0ab	-0.013973395
42	0xbe9fd7bf	-0.3121929
43	0x3e5ca83c	0.21548551
44	0x3e9522bf	0.29128072
45	0xbf1c75ac	-0.61117053
46	0x3be258b9	0.006907549
47	0x3d886738	0.066603124
48	0xbe14736a	-0.14497152
49	0xbf58a914	-0.8463299
50	0x3dae0d8a	0.08498676
51	0x3e95acd7	0.2923343
52	0xbde3a42a	-0.11115296
53	0x3ed8a312	0.42311913
54	0x3ed3026f	0.41212794
55	0x3ea89d8d	0.32932702
56	0x3edafe83	0.42772302
57	0x3e999115	0.299935
58	0xbcf34515	-0.029696027
59	0x3f8d75c0	1.105156
60	0x3d2bca95	0.041941244
61	0xbe28ebf8	-0.16496265
62	0x3edfea2d	0.4373335
63	0x3f028263	0.50980204
64	0xbf2814be	-0.6565665
65	0x3e620814	0.22073394
66	0x3f6f98eb	0.9359271
67	0xbefa0af2	-0.48836476
68	0xbe7ddcdd	-0.24791284
69	0x3ee58123	0.44825086
70	0xbbb78389	-0.005600397
71	0x3e658c50	0.22416806
72	0xbe3b622d	-0.1829917
73	0x3d893afc	0.067007035
74	0x3cd6fad6	0.026242655
75	0x3ddc8981	0.10768414
76	0xbcb107c0	-0.02161014
77	0x3f2378f6	0.63856447
78	0xbe5d8bdb	-0.21635382
79	0xbf1a5a3e	-0.6029395
80	0xbeaccbca	-0.3374923
81	0x3f19841a	0.59967196
82	0xbf50a333	-0.8149902
83	0xbefd4eb4	-0.49474108
84	0x3ebb7344	0.36611378
85	0x3e667496	0.22505412
86	0x3e1b2a41	0.15152837
87	0xbe23a238	-0.1597985
88	0xbf0f8b48	-0.560719
89	0x3eac5010	0.33654833
90	0xbe90b681	-0.2826424
91	0x3ebd8d06	0.37021655
92	0xbec4643c	-0.38357723
93	0xbdea0ad9	-0.1142785
94	0xbeb5b5dc	-0.3549031
95	0x3cdf245f	0.027239023
96	0x3f1ae813	0.6051037
97	0xbe359ce1	-0.17735626
98	0x3f8db03d	1.1069409
99	0x3e6a5671	0.22884537
100	0xbe923a60	-0.28560162
101	0x3c053f9e	0.008132843
102	0x3f28c07b	0.659187
103	0xbebac5a1	-0.36478904
104	0xbf0509ad	-0.5196789
105	0x3f2e1c3f	0.6801185
106	0x3ee19b62	0.4406386
107	0x3efcb3c9	0.49355915
108	0x3e64d6c0	0.22347546
109	0x3e829014	0.25500548
110	0x3f72d0a0	0.94849586
111	0xbf0802f3	-0.531295
112	0x3de37fd3	0.11108365
113	0x3d7a0f8c	0.061049983
114	0x3eec21b0	0.46119452
115	0xbe1dacad	-0.15397902
116	0x3f227233	0.63455504
117	0xbd8b1d1d	-0.06792662
118	0xbe376fbd	-0.17913719
119	0xbe9a750a	-0.3016742
120	0x3eae1173	0.33997688
121	0x3ed4dda6	0.41575354
122	0xbebbcbb2	-0.36678845
123	0xbe59ef4e	-0.21282694
124	0xbeb60b74	-0.35555613
125	0x3ef99526	0.48746604
126	0x3e8c935e	0.27456182
127	0xbd31f117	-0.04344281
128	0xbd9891cb	-0.07449683
129	0xbe2d5cc6	-0.16929922
130	0x3dd552f4	0.10416213
131	0x3ea1b8a3	0.3158618
132	0xbe55192c	-0.20810384
133	0xbe9c0543	-0.30472764
134	0xbd932e8a	-0.07186611
135	0x3f016753	0.50548285
136	0x3b8717a8	0.004122693
137	0x3c61e0a1	0.013786466
138	0x3ef6590d	0.48114815
139	0xbe9c1fb1	-0.3049293
140	0xbdc96553	-0.09833779
141	0xbeae99a0	-0.34101582
142	0x3df1886c	0.117935985
143	0xbe74bb51	-0.2389958
144	0xbec5c9aa	-0.3863042
145	0x3ec4fc3a	0.38473684
146	0x3f061536	0.52376115
147	0x3f090dc9	0.5353666
148	0x3f5e2633	0.8677704
149	0x3e6578fb	0.22409432
150	0x3e645826	0.22299251
151	0xbf207b7a	-0.6268841
152	0x3e981fb1	0.2971168
153	0x3ea1d0c9	0.31604603
154	0x3e1a5f84	0.15075499
155	0xbebd5786	-0.36980838
156	0x3e21eaf1	0.1581228
157	0xbf07f784	-0.53112054
158	0x3e1cd0ae	0.1531398
159	0xbe360412	-0.1777499
160	0xbe5619ad	-0.20908232
161	0x3ec95394	0.39321578
162	0x3e895022	0.2681895
163	0xbeb57176	-0.35438126
164	0x3efa2f85	0.4886438
165	0x3e50fb6f	0.20408414
166	0x3ec76db3	0.3895088
167	0x3e461ec9	0.19347681
168	0x3dc6d224	0.0970805
169	0x3f4ddfb4	0.8041947
170	0xbef539c5	-0.47895637
171	0xbeecfdba	-0.46287328
172	0xbde30079	-0.110840745
173	0x3dab86f8	0.083753526
174	0xbcc32959	-0.023823427
175	0xbe483e9d	-0.19555135
176	0x3da9d080	0.08291721
177	0xbeda315e	-0.4261579
178	0xbe59d31a	-0.21271935
179	0x3d789042	0.06068445
180	0xbe94b81f	-0.29046723
181	0x3e10ae66	0.14129028
182	0xbf280d50	-0.65645313
183	0x3f60f0e1	0.8786755
184	0xbe0bf6cd	-0.13668366
185	0x3dc4d21b	0.09610387
186	0x3e58113b	0.21100323
187	0x3e038259	0.12842692
188	0x3f458cc8	0.7716794
189	0x3d88827e	0.066655144
190	0x3d9e0b99	0.07717056
191	0xbe5bb59f	-0.21456002
192	0xbf06e2db	-0.52689904
193	0x3d680e27	0.05665412
194	0x3e673a94	0.2258094
195	0x3e867c13	0.26266536
196	0x3bdac65f	0.0066764797
197	0xbef0cc01	-0.47030643
198	0x3d864ab0	0.06557214
199	0x3f2db289	0.6785055
200	0x3e261cda	0.16221943
201	0x3f007e24	0.50192475
202	0xbef8b2ab	-0.48573813
203	0xbf5c2df5	-0.86007625
204	0x3e8e7a10	0.278275
205	0xbe911d22	-0.2834254
206	0xbdab1d06	-0.08355145
207	0x3ea51374	0.32241404
208	0x3f6278cb	0.88465565
209	0xbef4ebd1	-0.47836164
210	0xbee12129	-0.43970612
211	0x3eac36ab	0.33635458
212	0xbf432aa1	-0.7623692
213	0x3d855e1c	0.065120906
214	0xbe432245	-0.19056042
215	0x3eb9eebb	0.3631495
216	0x3e39e146	0.18152341
217	0xbef3c78c	-0.4761318
218	0x3eb0c7d7	0.34527466
219	0x3e468737	0.19387518
220	0xbe860085	-0.2617227
221	0xbf4216be	-0.7581595
222	0x3e30fba9	0.172835
223	0x3e00cd08	0.12578213
224	0xbd7cd4d9	-0.061726425
225	0xbebed1bd	-0.37269393
226	0x3e004c7f	0.12529181
227	0x3dae454c	0.08509311
228	0x3eb9351e	0.36173338
229	0x3ca7952f	0.020456878
230	0xbeaf609b	-0.34253392
231	0x3ed66ebc	0.4188136
232	0xbf27fb51	-0.65617853
233	0xbd9f35c5	-0.077739276
234	0x3d277541	0.040883306
235	0x3ec063f9	0.37576273
236	0xbdf6953f	-0.12040185
237	0x3e7d0ccb	0.24711911
238	0xbdf1c2e9	-0.11804754
239	0xbe066aa3	-0.13126616
240	0xbe1d3741	-0.15353109
241	0x3e0abfd2	0.13549736
242	0x3da199ad	0.078906395
243	0x3f173e52	0.5907947
244	0xbea24f6d	-0.31701222
245	0xbe795eba	-0.24352542
246	0x3e94d1d3	0.29066333
247	0xbec61983	-0.3869134
248	0x3f271da1	0.65279585
249	0xbf0ac796	-0.54210794
250	0xbef0a91e	-0.47004026
251	0x3eaf41b7	0.34229824
252	0x3e0a419f	0.13501595
253	0x3f1523d6	0.58257806
254	0xbdc68b28	-0.09694511
255	0x3eb6545a	0.3561123
