src/sw_machine_learning/quantised_models/mlp_2810_1742.pt (torch, 92791 bytes, 16 tensors)

layer_1.weight f4 [128, 60]
000000 10 b5 95 3e 9e 3a b7 bd 03 fe 92 3e 70 af 9a be
       0.29239702 -0.08946727 0.2870942 -0.30211973
000010 1b e3 a2 be 99 0e fb 3e 2c 48 ec 3d 43 51 bf 3d
       -0.31813893 0.49034575 0.11537203 0.09341671
000020 67 fd 1d bd 59 84 0f be 58 a6 19 bf be 9c 8d 3e
       -0.03857174 -0.1401533 -0.60019445 0.27658647
000030 1d 42 76 3e ea f6 8e 3d ca 47 e2 bc 9a a2 48 be
       0.24048658 0.06980689 -0.027622122 -0.19593278
000040 26 8e 1d bf 06 04 a8 3e 2b 9c a4 3e a3 95 45 3e
       -0.61545026 0.3281557 0.32150397 0.19295363
000050 3e 9a 80 bc c7 d5 be bb 42 a0 c6 be 2f 72 96 3e
       -0.015698548 -0.005823824 -0.38794142 0.2938399
000060 dc d3 84 3e fd 40 8a 3e 22 a9 90 bc 7f 95 f7 bd
       0.25942886 0.27002707 -0.017658774 -0.12089061
000070 e6 45 4a be 63 9e a4 3d 24 46 8d 3e 1a 26 91 3d
       -0.19753227 0.08038022 0.27592576 0.070873454
000080 5e da 2b 3e b1 27 93 3d b3 26 bc ba a1 c7 73 bc
       0.16782519 0.07185305 -0.0014354795 -0.014879138
000090 7e ab 99 3e af d9 37 3e f9 72 4c 3d 95 dc 66 3e
       0.3001365 0.17954133 0.049914334 0.22545083
0000a0 8b 4b 66 3e db ad ed bd 28 78 6c 3e 9e 8a 65 3d
       0.22489755 -0.11605426 0.23092711 0.0560404
0000b0 cf 6d 7d 3e 23 a8 49 3e 3b ca 1b 3e 36 7c 26 be
       0.2474892 0.19693045 0.15213864 -0.1625832
0000c0 b4 a6 26 3e 00 d4 02 3e 56 ea 22 3e f3 28 cb 3e
       0.1627453 0.12776184 0.15909705 0.3967968
0000d0 cb 3d 8a 3e 87 52 38 be e1 35 ca bc 59 2c 16 bd
       0.2700027 -0.18000232 -0.024683895 -0.036663387
0000e0 9a 02 e9 3d b1 85 c8 3e a9 57 44 3e 55 c0 93 be
       0.11377449 0.39164498 0.19174065 -0.28857675
0000f0 7c 0b 82 be ac 0e ae be 4f 0a e3 be 3f 91 7d 3e
       -0.25399387 -0.3399557 -0.44343802 0.24762438
000100 d2 24 5d be 58 77 bf be 25 61 eb be 3e 5f ce bd
       -0.21596077 -0.3739574 -0.45972553 -0.1007676
000110 d7 52 50 be 7f 63 5e 3e 0c 7f a9 be 29 b8 48 be
       -0.20344101 0.21717642 -0.33104742 -0.19601502
000120 52 a4 a5 be df 19 37 3c 39 d2 c6 3d f4 e2 5b 3e
       -0.3235193 0.011175602 0.097080655 0.21473294
000130 9a 32 2c be 5b c8 0e 3e 16 53 fb bd 24 36 25 bc
       -0.16816178 0.13943617 -0.12271707 -0.010083709
000140 06 00 08 be 24 fb 8f be c2 58 ee be 98 03 69 3e
       -0.13281259 -0.28121293 -0.46552092 0.22755277
000150 13 56 95 3e bc dd 14 3e c5 72 39 3e f7 b9 ff bd
       0.29167232 0.1453771 0.18110187 -0.12486642
000160 95 7b 06 be 41 99 9e 3d dc 33 81 3e 20 72 4a 3d
       -0.1313308 0.077440746 0.25234878 0.049425244
000170 18 bc ed 3d a4 27 91 be 5a 8e 8c 3e 39 9a 61 3e
       0.11608142 -0.28350556 0.27452356 0.22031488
000180 ff 19 50 3e ed 51 9c bd 8a 1d 38 3c f9 59 d5 bc
       0.20322417 -0.076328136 0.011237511 -0.026043879
000190 ad 49 a5 3e 33 29 dd 3e d4 c3 23 3e a9 57 b5 bd
       0.32282773 0.43195495 0.15992671 -0.088546105
0001a0 d2 bc ad 3d 43 b8 b5 bd e8 68 f7 3e 20 65 fe 3d
       0.0848328 -0.08873036 0.48322225 0.12421632
0001b0 64 98 15 3f f8 8f c7 bd 27 35 9e 3d 2c cf 43 bd
       0.58435655 -0.09744257 0.07724982 -0.047804996
0001c0 57 cb 07 3e 21 10 16 bc c3 89 9d 3e 16 90 68 bd
       0.13261162 -0.009159119 0.30769166 -0.056778036
0001d0 ee 1e d6 bd 6e 70 d3 bc 92 ce 90 3e 29 28 0c be
       -0.10455118 -0.025810447 0.282826 -0.13687195
0001e0 9b dd c7 be ac ce 17 3e 06 33 5d 3e bf 4c cd bd
       -0.3903626 0.14824933 0.21601495 -0.10024404
0001f0 37 e5 05 3e 38 4b 8c be 47 0c 89 bd c9 86 e9 bd
       0.1307572 -0.27401137 -0.06691795 -0.11402661
000200 9f 78 70 be 38 cc 1c bf 36 75 17 3d c7 0b 2f 3c
       -0.23483513 -0.61249113 0.036977015 0.01068396
000210 ea 44 66 be ff cc 9f 3d 9a f4 e1 be 67 7c 65 be
       -0.22487226 0.07802772 -0.4413193 -0.22410737
000220 49 e2 8b 3d dc a6 d9 bd 7c 41 1a bc c2 8b 8e 3e
       0.0683027 -0.10627529 -0.009415027 0.27841002
000230 d4 30 ca bd 47 2a 85 be 6e c6 00 3e d7 93 38 bd
       -0.098725945 -0.26008818 0.12575695 -0.045062866
000240 7a 29 3c 3c 4d c2 34 3d 44 f6 ba be 9b dd 51 be
       0.011484498 0.044130612 -0.3651601 -0.20494692
000250 0e 2a 44 3e 00 f3 62 3e a7 3f 28 3c c1 82 a3 3d
       0.19156668 0.2216301 0.010269082 0.07983924
000260 13 d6 0e bf 10 8e 37 bd 4f a2 4e 3e a3 37 03 3d
       -0.557954 -0.044813216 0.20179103 0.03203548
000270 93 98 04 3d ca 33 6a 3e 00 56 6b be ab 5b 01 bd
       0.03237207 0.22871318 -0.22982025 -0.031581562
000280 fa 1b 29 3e 62 af 00 3c 52 88 56 3e 7d 16 e1 3d
       0.16514578 0.0078543145 0.2095044 0.109906174
000290 b8 74 5b be 61 8a 92 3c 91 c0 f2 3c c6 ea 00 be
       -0.21431243 0.01788825 0.029632838 -0.12589559
0002a0 f7 20 99 3e 6f ad 31 3c bd 05 91 be 8c bf d2 3e
       0.29907963 0.010844572 -0.2832469 0.41161764
0002b0 c1 9b 00 bb b7 e5 99 be 3e 84 77 3e 64 54 2a 3d
       -0.0019624087 -0.3005807 0.2417154 0.041584387
0002c0 b3 d2 d7 be 44 b5 37 3e d7 85 41 bd ba bd 9b be
       -0.42152938 0.17940241 -0.04724678 -0.30418187
0002d0 5d 3d 6a 3e f2 0b 60 3d fc c3 73 3e c4 4c c0 3b
       0.2287497 0.054698892 0.23805231 0.005868526
0002e0 39 97 72 3e dd 1c 48 be 4a 4b 42 3e 3a 45 3e 3e
       0.236905 -0.1954226 0.18974033 0.18581095
0002f0 20 3b 0c 3e d2 75 e9 bd 0a 11 13 3f 9a 27 d9 be
       0.1369443 -0.113994256 0.57447875 -0.42413026
000300 56 fd 94 bb ac a2 11 3e 41 d4 65 be 9d 64 c4 3d
       -0.0045468016 0.1422221 -0.2244425 0.09589503
000310 4e 92 0c 3f 0d 6b bb be f7 05 47 3e 30 2a 15 be
       0.54910743 -0.3660511 0.19435869 -0.14566875
000320 98 1a 5b 3d 55 1b a4 3d 92 79 d8 3e 9d f8 8d be
       0.05349216 0.08013026 0.4228025 -0.2772874
000330 5f 1e 48 3d e8 92 52 b8 0c 40 50 3e 0f 8c 3e bc
       0.04885709 -5.020472e-05 0.20336932 -0.011630072
000340 72 5f 8a 3e 4d 8b 52 be a8 61 1a bc 49 dc 77 bd
       0.27025944 -0.20560952 -0.009422697 -0.060512815
000350 3a 8a 89 3e d6 27 85 3e 2d 97 32 3d ae c2 5a bd
       0.2686327 0.26006955 0.043601204 -0.053408317
000360 4c d1 79 bd dc db 5b 3c e9 92 69 3d 49 3b 4e 3e
       -0.060990617 0.013419118 0.05702487 0.20139803
000370 04 02 94 3d 9a b3 13 be 2c da da 3c 49 87 13 3e
       0.07226947 -0.14423981 0.02671536 0.14407076
000380 f0 cf 0b 3c d7 e0 94 3e 7b a7 9a 3e 47 9a 3d be
       0.008533463 0.2907779 0.30205902 -0.18515883
000390 9d 8e ab bc ce f2 cb 3c e1 9f 6e be 28 73 77 3e
       -0.020942027 0.024896052 -0.23303176 0.24165022
0003a0 bf 63 8d 3e 97 93 83 be 9c c8 33 be 18 15 bf 3d
       0.27615163 -0.2569854 -0.17556995 0.09330195
0003b0 0e 01 98 bd 22 f1 aa 3e 09 68 16 3e 5b 52 00 bf
       -0.07422076 0.33387095 0.14688124 -0.50125664
0003c0 40 83 07 be 95 c2 2b bd 9b 23 c2 be e1 cf 92 bd
       -0.13233662 -0.041933615 -0.3791779 -0.07168556
0003d0 9f f5 38 be 18 56 28 be 12 80 40 be 32 73 90 3e
       -0.18062447 -0.16439092 -0.18798855 0.28212887
0003e0 2b c3 cf be db d6 91 3e 19 ce 85 bd 8e f0 82 be
       -0.4057859 0.28484234 -0.06533451 -0.25574154
0003f0 48 74 0c 3d 75 cc 30 be 0d 53 7e be 5f 55 54 3e
       0.034290582 -0.17265494 -0.24836369 0.20735691

layer_2.weight f4 [64, 128]
000000 39 49 85 be 73 e6 91 bb ec d8 3c 3e 62 2d 39 be
       -0.26032427 -0.0044525205 0.18442124 -0.18083718
000010 45 45 a6 3e 14 d2 83 be 83 42 76 bd 11 d5 55 bd
       0.32474723 -0.25746214 -0.060122024 -0.05220515
000020 8f ec b3 3e dd 6d 6a 3e 7c 42 6e be b9 d9 52 3e
       0.35141417 0.22893472 -0.2326755 0.20590867
000030 d5 43 80 be 46 fb 04 be 4d 07 f2 3c 97 00 e5 bc
       -0.25051752 -0.12986478 0.029544497 -0.027954383
000040 18 50 05 3f 96 f4 b0 bd 08 32 53 3e 75 88 dd bd
       0.5207534 -0.08640401 0.20624554 -0.10817043
000050 0e ee b5 bd 76 75 6c 3e b5 e2 2a 3d e2 54 54 3d
       -0.08883296 0.23091683 0.04172011 0.051838763
000060 5f 61 45 be f1 eb f0 ba 6c a7 e9 be 80 d4 20 3e
       -0.19275425 -0.0018380863 -0.45635545 0.15706062
000070 ac 5e 92 be 30 11 64 3e 79 6f 60 bd b1 10 10 3e
       -0.28587854 0.22272182 -0.05479381 0.14068867
000080 e9 a6 35 be a9 40 01 bf 49 43 b3 3e be ec 0c 3d
       -0.17739452 -0.5048929 0.35012272 0.034405462
000090 25 3d 8c 3e 3c 71 96 3c 16 4d 72 3d 2f 09 7d 3e
       0.273904 0.018364541 0.059155546 0.24710535
0000a0 75 e4 fc 3d b9 7c 21 3d 71 4f 86 3d ec 6f bf 3e
       0.12348262 0.039425585 0.06558121 0.37390077
0000b0 e5 03 1b 3e 82 97 7f 3e 9a ad bd 3e e6 6f 57 3e
       0.15138204 0.2496014 0.3704651 0.2103878
0000c0 6b 63 91 3e 4e 80 27 3e 95 c2 e0 3d 05 23 8f 3e
       0.28396162 0.16357538 0.109746136 0.27956405
0000d0 9d 91 01 3e f0 d8 5e be 7d a5 5c 3e 2c 8d 1d bf
       0.12653203 -0.21762443 0.21547504 -0.61543536
0000e0 2f d0 c1 bd 31 01 27 3e 7f d5 ac 3e cf 4f 30 3e
       -0.09463536 0.16309048 0.33756635 0.17217945
0000f0 af 74 7d 3c ae ff 31 3e 4a 32 3c 3e 4c 58 bb 3e
       0.015469714 0.1738269 0.18378559 0.36590803
000100 be c6 d5 3e 6f 35 63 3d d2 6a 35 3e a1 fe c0 be
       0.4175319 0.05547088 0.1771653 -0.37694266
000110 f3 1c 13 3e 8b 22 77 bc dc 35 8f be db b1 81 bd
       0.14366512 -0.015083919 -0.2797078 -0.06332751
000120 c9 53 bf 3e 67 f6 a1 3e 60 ec 48 bd 65 99 e9 3d
       0.3736861 0.31633303 -0.04905355 0.11406211
000130 86 68 0e 3d e5 13 a5 3d 8a f4 85 be 93 5a 9a 3e
       0.03476765 0.08060435 -0.2616313 0.30147228
000140 fb 6e fc bc f6 17 0c be 83 5a ff 3e 85 79 12 3e
       -0.030814638 -0.13681015 0.49873742 0.14304169
000150 91 a0 e7 3d bd 4e 2c be 6d 65 2c 3e 1f 2b 4e bd
       0.113099225 -0.16826911 0.16835566 -0.050334092
000160 13 bb 0f 3e e2 2c ca bd 3f 78 23 be f2 5c cc bd
       0.14036207 -0.09871842 -0.15963839 -0.099786654
000170 f1 be c6 3d b9 2e 5e 3e 67 85 c0 3e c1 b9 bd 3e
       0.09704388 0.21697511 0.37601778 0.3705578
000180 db 47 ac 3c 52 91 23 be 34 0d f0 3c f3 4d 6b 3e
       0.021030357 -0.15973404 0.02930317 0.22978954
000190 c5 e2 8b be 80 39 b0 bc 14 c1 88 3e 87 95 7a 3e
       -0.2732145 -0.021511793 0.26709807 0.24471103
0001a0 f5 75 71 3c 4d d7 51 3d ef 7e 88 3d c8 eb 97 be
       0.014737596 0.051230717 0.06664836 -0.29672074
0001b0 55 d9 43 3e 31 35 a0 3e 0d c0 b7 3e 6d 8a 27 bf
       0.19125874 0.31290582 0.3588871 -0.65445596
0001c0 54 5a 45 be 47 43 75 3e f0 8e 38 3e 77 e3 8a bd
       -0.19272739 0.23951446 0.18023276 -0.06781667
0001d0 33 7f c5 3e 83 ca a4 3d 49 ab 8c 3e 4a 3b 6b be
       0.38573608 0.080464385 0.2747443 -0.22971836
0001e0 b4 e2 8c be 07 2a 04 bf ea fe 40 3e 94 0a 9c bd
       -0.2751671 -0.5162663 0.18847242 -0.07619205
0001f0 d3 4d ac 3e b3 bf 0c 3c 28 be cd 3e 1f 43 58 bd
       0.33653125 0.0085906265 0.4018414 -0.052798387
000200 61 57 8c 3e 56 7a ab 3d 86 25 9d 3d 61 2d 77 3e
       0.27410415 0.08372943 0.07673173 0.24138404
000210 c3 22 51 3e 93 b4 ba be 6a dd e7 bd c3 33 c2 3d
       0.20423417 -0.36465892 -0.11321528 0.09482529
000220 9a c7 be be 50 56 60 3d 11 7c a2 bd e2 a7 22 bf
       -0.3726166 0.054769814 -0.0793382 -0.6353742
000230 fa 1c d1 3e f0 de 18 3e bd 6e 80 3e a7 7b 4a 3e
       0.4084242 0.14928794 0.25084487 0.19773732
000240 84 1e b1 bd 77 04 28 3e 72 e9 21 3e 99 46 20 3d
       -0.086483985 0.16407953 0.15811709 0.039129827
000250 22 a1 39 be c3 e5 e9 3d 97 16 7d 3e 60 a5 ce 3c
       -0.18127874 0.11420777 0.24715649 0.025225341
000260 1e 9c 58 bc 4b 85 7e 3e a7 0d c7 3e b2 8b 11 be
       -0.013220815 0.24855535 0.38877603 -0.14213446
000270 cb 65 bb 3e 57 6c c5 be 6f 5c da 3c d5 f4 0a 3e
       0.366011 -0.3855922 0.026655404 0.13569959
000280 b8 65 31 3d 4c d4 01 bd e4 6c 98 be ac 78 13 be
       0.043309897 -0.031696603 -0.29770577 -0.14401501
000290 63 a3 8b bd 05 07 8e 3e f4 d6 54 be d1 57 70 3e
       -0.06818273 0.2773973 -0.20785123 0.23471
0002a0 1d de fa 3d 0b a6 5c be 5e 3e 9b bd 59 f1 0b be
       0.12249396 -0.21547715 -0.07580255 -0.13666286
0002b0 fe 4f 2b 3e 9f 63 a1 be 32 5f 44 be f4 d0 c3 bd
       0.16729733 -0.31521317 -0.19176939 -0.09561339
0002c0 3c be 41 3e 56 a2 3f 3e 48 e9 b3 3e fd 04 10 3d
       0.18920225 0.1871427 0.35138917 0.035161007
0002d0 73 9c 2f 3e b5 9b ab 3d e5 c9 80 3c 33 7d a0 3e
       0.17149524 0.08379308 0.01572127 0.3134552
0002e0 2d c6 95 3e 74 77 51 3d 8e c2 aa 3e d3 67 9d 3d
       0.2925276 0.05113931 0.33351558 0.076858185
0002f0 3e 8f d5 bc ef 2e ae 3e 8a 36 94 3e c6 66 2c 3e
       -0.02606928 0.34020182 0.2894786 0.1683608
000300 0a 90 f1 3d 2b f7 b2 be 96 f8 45 be b9 85 30 bc
       0.117950514 -0.349542 -0.1933311 -0.0107740695
000310 ed af 31 3d a0 f0 12 3d ce 19 cb be b2 98 79 be
       0.043380667 0.03587401 -0.39668125 -0.24374655
000320 41 de 65 bd 8d 39 01 bf 89 07 c5 be 46 c1 8a 3e
       -0.05612016 -0.5047844 -0.3848231 0.2710058
000330 24 c7 1b 3e 5b 6a 0b 3e b1 b2 da 3d ef 74 bb 3e
       0.15212685 0.1361479 0.10678614 0.3661265
000340 f2 0d 9c be 58 10 8b 3e d7 1a 77 be 13 38 85 bd
       -0.3047939 0.27160907 -0.24131332 -0.06504836
000350 ce 22 8d 3e 55 61 80 be a6 d7 40 bc 31 ef 1f 3e
       0.27565616 -0.25074258 -0.011770165 0.15618588
000360 87 96 99 bd 43 98 a6 be f0 99 16 be 5d b1 32 3e
       -0.07499414 -0.3253804 -0.1470716 0.17450471
000370 28 9e 9c be 47 7a 55 bd b6 25 64 3e 48 27 57 be
       -0.30589414 -0.052118566 0.2228001 -0.21011078
000380 79 01 0f 3e 0e fb 60 be a5 f6 d4 3d a0 b3 9e 3d
       0.13965406 -0.2197077 0.10398606 0.077491045
000390 70 11 5c 3e 33 90 bf 3e 39 02 3b be 3e f6 78 bd
       0.21491027 0.37414703 -0.18262567 -0.06078171
0003a0 3d 3b fe be 7a 5f 5e be 1d 7a ce 3d 2e d8 28 bc
       -0.4965457 -0.21716109 0.10081885 -0.0103054475
0003b0 6a a0 f1 3d 5d 91 63 3e a6 21 86 3e ec 23 ed 3d
       0.11798175 0.2222342 0.26197547 0.11579117
0003c0 e9 4d 90 be 31 e4 55 bd 87 81 22 3e 59 cc ed bc
       -0.2818444 -0.052219573 0.15869723 -0.029028105
0003d0 1c 0b cb be f3 fb 6e 3e 6b 8f dc bc 0a 2e d6 3d
       -0.39656913 0.23338298 -0.026923856 0.10458
0003e0 6b 0b 29 3e f7 11 a0 3c f0 a3 48 be d7 2f f2 bd
       0.16508262 0.019539816 -0.19593787 -0.11825531
0003f0 d8 71 75 3e 3d 31 14 be 1f 2f 67 3e 47 11 0d 3f
       0.23969209 -0.14471908 0.22576569 0.5510449

layer_3.weight f4 [32, 64]
000000 76 69 bd 3c 5c e3 85 3e 5b c4 28 3e b6 6c 4a be
       0.023121577 0.26150024 0.16481154 -0.19768032
000010 9b f6 de bc 45 27 5e bd 21 e9 a5 3c 75 bb a5 3c
       -0.0272172 -0.05423667 0.020252766 0.020230988
000020 c1 22 7d be 1b d0 f2 3c 75 73 95 3b 4b 99 49 3e
       -0.24720289 0.029640248 0.0045608827 0.19687383
000030 5f 8e b8 be bc df 06 3f 42 5a 0c 3d 86 89 e9 bc
       -0.3604612 0.5268514 0.034265764 -0.02850796
000040 ae f5 a5 3c 27 c1 8d 3e 85 1f 47 3e a1 17 e4 3e
       0.02025875 0.27686426 0.19445617 0.44549277
000050 48 cf 1d be a0 6a 51 3c 35 ff d4 be f0 92 fd 3e
       -0.15411103 0.012781769 -0.41600958 0.49526167
000060 ec d0 fa be c0 dc 7b 3c 44 dd e6 bd df 8b 64 3d
       -0.4898752 0.015372455 -0.11272672 0.055797454
000070 13 96 64 3e 7e af cd 3e 1f e5 de bd db 2b 78 3d
       0.22322874 0.40172952 -0.10883545 0.0605887
000080 e5 3e 46 bb 4a e1 09 3f 32 81 13 be fe fb 5f 3e
       -0.003024989 0.5385939 -0.14404753 0.21873471
000090 7b 3a 99 be 74 4c e1 3d 78 2c 86 3d 90 a7 a1 bc
       -0.2992743 0.110009104 0.065514505 -0.01973322
0000a0 a9 77 6f 3d 57 a9 cb be b3 26 7e 3c 44 41 22 3e
       0.058463726 -0.39777634 0.015512156 0.1584521
0000b0 d8 a2 31 3e 32 be c1 be 11 de 6b 3e 32 6c 06 bf
       0.17347276 -0.3784042 0.2303393 -0.5250884
0000c0 eb 40 4b 3c e7 43 2b 3e 9b fb bf 3d 2e 29 3e be
       0.012405614 0.16725121 0.09374162 -0.18570396
0000d0 b4 79 2a 3e eb cd 76 be 31 1a ac 3d 71 00 7f be
       0.16647989 -0.24101989 0.08403433 -0.24902512
0000e0 1f af 03 bf 9a ac 82 be 6a 86 83 bd 6c b6 eb be
       -0.5143909 -0.2552231 -0.06422122 -0.46037614
0000f0 7f 5c 19 bc ee 73 eb be c0 0e 8b 3d 38 53 37 bc
       -0.009360432 -0.45986885 0.06789923 -0.0111892745
000100 c1 d1 4d be c2 31 ea 3e 29 b9 a4 3e 0c 96 82 3e
       -0.20099546 0.45741087 0.32172516 0.25505102
000110 ac 9f 3a be b8 24 49 3e 9b 7c a5 3e d8 93 9b bd
       -0.18224972 0.19642913 0.3232163 -0.07596558
000120 78 26 c6 3e b6 1c d4 3d 1d 61 48 bd 62 90 91 bd
       0.38701224 0.10357039 -0.04892074 -0.07107617
000130 bc d8 aa 3e 80 68 21 3e 08 aa aa be 51 08 cd be
       0.3336848 0.1576252 -0.3333285 -0.40045407
000140 1e 4c bf be 79 b2 4d 3d be 63 e6 bd 36 b5 5b 3e
       -0.3736276 0.050219033 -0.11249493 0.21455845
000150 95 44 29 be 4e 6b 82 3e b1 bb 7c 3d df b9 bd 3e
       -0.16530068 0.25472492 0.061702434 0.3705587
000160 a8 bf 1c bd 1e 44 b5 3e 45 dc a1 3e f6 39 c5 bd
       -0.038268715 0.35403532 0.31613365 -0.09630196
000170 5f 2f b0 bc c9 9d 9f 3e 20 8c 01 bf 3f 45 b7 be
       -0.021506963 0.31175068 -0.5060444 -0.35795018
000180 7a c3 3d be b0 3b df 3e 75 71 0b be 17 b0 6f be
       -0.185316 0.43600225 -0.13617499 -0.23407017
000190 3d 51 7b bd 74 c8 bb be 9e 44 55 be 33 a2 d9 be
       -0.06135677 -0.3667637 -0.20826957 -0.4250656
0001a0 f9 bc 86 be a6 e2 8a 3e 84 2c 9f 3e c4 2f fe 3d
       -0.2631605 0.27126044 0.3108865 0.12411454
0001b0 c8 4e 73 3e 63 0f f2 3d 3f 81 c4 3e 1d 42 a7 bd
       0.23760521 0.11819341 0.38379857 -0.08166907
0001c0 85 75 c8 be 31 54 71 bc 21 da a9 3e 8e 56 e6 3e
       -0.3915216 -0.014729545 0.33174232 0.4498791
0001d0 ce f4 b0 be ab bc 23 3e 1b 41 2b bc 07 7b a2 bd
       -0.3456177 0.1598994 -0.010452534 -0.07933622
0001e0 02 be 65 3d d6 7c 61 bd 99 39 77 be b9 c0 8f 3d
       0.05608941 -0.055050693 -0.24143066 0.07019181
0001f0 66 fc 59 3c 1d ab 38 bc dc 2a a7 3e 37 d0 6c bd
       0.013304805 -0.011271265 0.32649887 -0.057815757
000200 51 1a a6 3e 9c 27 9c bd 6d 6f d3 bd b2 b0 8c bd
       0.32441953 -0.076247424 -0.10323987 -0.068696395
000210 5b 62 3d 3e 7b 9b 7c 3d 5e 9a a0 be 6a 2c e3 b9
       0.18494551 0.061671715 -0.31367773 -0.00043329905
000220 57 f7 a6 be b3 89 b1 bc 3e 22 94 3e 9d 17 75 3e
       -0.3261058 -0.021672105 0.28932375 0.23934789
000230 9b e7 e0 bd ff 32 37 bd f4 90 6e 3e 3b a9 29 3e
       -0.10981675 -0.044726368 0.23297483 0.16568463
000240 ba 3e b6 3e 64 34 f7 3d 4c 7c 25 bd 87 38 0e 3e
       0.35594732 0.120705396 -0.04040174 0.13888751
000250 81 f8 85 3e 5f 6b 71 be 91 bf 53 be bb da 5a bd
       0.26166156 -0.23576115 -0.20678546 -0.053431254
000260 e4 3b fe be 44 e6 ec 3d dd ba 10 bf df ca 12 3f
       -0.49655068 0.11567357 -0.5653513 0.57340807
000270 45 76 90 3e be 48 a8 3d 5d f5 ef bd 81 d1 84 3e
       0.28215232 0.082169995 -0.11716721 0.2594109
000280 93 8d ac 3e 51 8f 3d 3c 46 8d 9b be ff ad e1 bd
       0.33701763 0.011569814 -0.3038122 -0.11019515
000290 ba cf 8a bd 7c e6 94 3e 7e fd dc 3d ba 8e 3f 3c
       -0.06777902 0.29082096 0.10790537 0.0116917435
0002a0 dd fe 0f 3e c6 54 6c be 3f e7 b9 3e 60 51 f3 bd
       0.14062066 -0.23079214 0.3630924 -0.118807554
0002b0 d5 f5 48 3e 73 c1 15 be 78 08 c4 3d 48 e0 f0 be
       0.19625027 -0.14624576 0.09571928 -0.47046113
0002c0 d0 88 9a 3e 0b 65 3a 3d bc 52 8c 3e b4 2b 91 be
       0.30182505 0.04550652 0.2740687 -0.28353655
0002d0 4d 14 ff 3e 29 d0 6e bd d2 2e 84 3e 94 4c 06 bf
       0.49820176 -0.058303986 0.2581697 -0.524606
0002e0 e9 bb 77 be a8 20 3d 3d f1 b5 64 be 33 c9 e3 be
       -0.24192776 0.04617372 -0.2233503 -0.4448944
0002f0 54 de db 3e 8d e0 f4 be c5 5f ba bd 3d b3 a9 3e
       0.4294306 -0.4782757 -0.09100298 0.3314456
000300 28 e2 0a bd 12 4f 55 3e 46 81 9a 3c 89 e5 54 bd
       -0.033907086 0.20830944 0.01886047 -0.051976714
000310 9b d1 8f bd 93 1d b0 bd 8f a3 04 be b9 a4 9e 3e
       -0.07022401 -0.08599391 -0.12953018 0.30985048
000320 7d 15 12 be fb 5e e6 bc 85 ee 58 3c 26 ff 61 3e
       -0.1426601 -0.028121462 0.013240461 0.22069988
000330 a7 9e 60 be d2 e9 b2 3e 2a fb 34 3d 82 79 67 bc
       -0.21935521 0.34944016 0.04418484 -0.014128091
000340 91 5f 1b bd 13 da 98 3e ca ed 67 3d f4 eb cd 3e
       -0.037932936 0.29853877 0.056623258 0.4021908
000350 a2 f4 36 bc 5f e4 03 be c3 39 e1 be 64 0f 01 3f
       -0.011166723 -0.12880085 -0.4398938 0.5041411
000360 ce ea 16 bf f6 45 29 3c 17 43 d6 bd 0d cc c9 bb
       -0.58952034 0.010331621 -0.10462015 -0.006158358
000370 58 81 39 3e 4b ae c9 3e 3e 35 a1 bd 52 e0 47 3e
       0.18115747 0.39390787 -0.07871483 0.19519165
000380 36 e3 8c bd 7e 10 01 3f 74 db b6 be 53 44 49 3e
       -0.068792745 0.5041579 -0.35714304 0.1965497
000390 bc 7b 7a be aa d9 7c 3d ca 67 8b 3c af cb 81 bd
       -0.24461263 0.061731018 0.017017264 -0.06337678
0003a0 c5 1b 49 3d 10 3c d5 be fa 11 c6 3d 7a 04 07 3d
       0.04909875 -0.41647387 0.096713975 0.032963254
0003b0 5a 3f 0a bc 84 e2 8d be f8 89 05 3e 58 78 fe be
       -0.008437956 -0.2771188 0.13040912 -0.4970119
0003c0 f0 ec ae bb 8e c0 53 3e 5e b5 09 3d 9c f3 0c be
       -0.0053383037 0.20678923 0.03362023 -0.13764805
0003d0 9e 8c 04 3d 66 02 65 be 4b b2 0d 3e 10 a9 24 be
       0.032360666 -0.22364196 0.13837545 -0.16080117
0003e0 53 04 d4 be db 1d 53 be 19 b8 6a be 18 c7 08 bf
       -0.4140955 -0.20616858 -0.2292179 -0.5342879
0003f0 27 9f 10 bd 32 5e 16 bf ed 70 a3 3d 98 1a f4 bd
       -0.03530803 -0.5873748 0.07980523 -0.11919135

layer_out.weight f4 [3, 32]
000000 f1 34 94 3e 0c a1 46 3e 1f aa 9d 3e b0 c7 e6 3d
       0.2894664 0.19397372 0.30793855 0.11268556
000010 3b ec 17 bf c0 d0 97 bf c2 cb 12 3f 97 92 a1 3d
       -0.59344834 -1.186058 0.5734216 0.07889288
000020 06 b3 98 bf 7c 88 d3 bd 08 dc 1d bf d8 c4 3f 3f
       -1.1929634 -0.10328767 -0.61663866 0.74909735
000030 94 68 3a bf 30 25 32 3f 5a cf 12 3f d7 e3 6d bf
       -0.72815824 0.69587994 0.57347643 -0.9292578
000040 d7 43 a8 bc 8d 78 08 3e b4 2c d2 3d c4 d9 8f bf
       -0.020540161 0.13327236 0.10262433 -1.1238332
000050 f3 63 2b 3f d5 d7 e4 3d 53 40 20 3e 47 5c 86 3e
       0.66949385 0.11173979 0.15649538 0.26242277
000060 e9 9b 98 bf d6 32 82 3e b0 25 38 3f 5d db 01 3f
       -1.192258 0.2542941 0.71932507 0.50725347
000070 aa 77 57 bd 57 5c 8d 3e 67 5f e6 be f9 a8 99 bf
       -0.052604355 0.27609512 -0.4499466 -1.2004691
000080 84 ff 9f 3e 42 d0 8c 3e 6a 5e 69 bf 6d 7d 54 3e
       0.3124963 0.27502638 -0.9115969 0.20750971
000090 3a 53 b4 3d b5 9c 97 3e bc 0f 71 bf 5b c6 8c bf
       0.08804937 0.29611745 -0.94164634 -1.0998033
0000a0 44 4b d1 3e 91 58 97 bf 8f 35 27 3f 51 74 94 bf
       0.40877736 -1.1823903 0.653161 -1.1597997
0000b0 7b 29 21 3f 34 e5 1f bf fa d0 84 be 38 d5 1d 3f
       0.6295392 -0.6245911 -0.25940686 0.6165347
0000c0 10 5c 81 bf 26 43 ac 3d 8e bc 8c bf f3 47 8f 3e
       -1.010622 0.08411245 -1.0995042 0.2798458
0000d0 60 5d aa be b0 c3 96 bf 5e e3 de 3d 29 5c 87 3e
       -0.33274364 -1.1778469 0.108832106 0.264375
0000e0 d3 ad 97 3e ef a3 94 bf 2f 57 8a bf 94 7d 8a bf
       0.29624805 -1.1612529 -1.0807856 -1.0819573
0000f0 88 50 96 3e 5f 51 b3 3e 43 63 54 3f 8c 3c b1 3e
       0.29358315 0.3502302 0.8296396 0.34616506
000100 f4 50 96 bf 41 1c 94 bf eb 8a b8 3e b3 10 8f bf
       -1.1743455 -1.1571122 0.36043486 -1.1176971
000110 51 5f c1 bd dd 68 7d 3e ba cd b2 be ac e3 0b 3f
       -0.09442008 0.24747033 -0.34922582 0.54644275
000120 12 26 90 3e 9f 3f 10 3f 94 98 1c bf 45 8e 54 bc
       0.28154045 0.5634708 -0.61170316 -0.012973373
000130 18 ff bf be 22 0d 4d bf e0 81 8b bf 47 a9 81 be
       -0.3749931 -0.80098164 -1.089901 -0.2532446
000140 f6 79 17 3f 35 82 93 bf dd 0b 01 3f 47 4f 83 3e
       0.5917047 -1.1524111 0.50408727 0.2564642
000150 6b 2e 4b bf 33 91 10 3f b2 92 9a bf 25 43 95 bf
       -0.79367703 0.56471556 -1.2076018 -1.1661116
000160 8d 63 78 3e 4d b9 16 3f 55 91 8c be 79 7a c8 be
       0.24256726 0.58876497 -0.2745463 -0.3915594
000170 9e 6d a7 be 6c a9 98 bf a9 9c 31 bf 27 f7 95 bd
       -0.3270082 -1.1926703 -0.6937967 -0.07322531

batchnorm1.weight f4 [128]
000000 56 21 a0 3f d5 13 8f 3f ed fd 8a 3f 1b a2 99 3f
       1.2510173 1.1177927 1.0858742 1.2002596
000010 82 fb 8b 3f 18 10 82 3f 61 97 58 3f 28 5a 41 3f
       1.0936129 1.0161161 0.84605986 0.7552819
000020 ef 66 8d 3f e7 0e 8a 3f bb 5e 63 3f 3e af 98 3f
       1.1047038 1.0785798 0.8881642 1.192848
000030 fb 68 59 3f 31 11 9d 3f 29 cc 84 3f b5 d9 4e 3f
       0.8492581 1.2270871 1.0374805 0.80800945
000040 80 cc 9a 3f d1 fc 87 3f 06 85 50 3f ca 55 3c 3f
       1.2093658 1.0624028 0.8145298 0.73568404
000050 05 73 85 3f b5 96 73 3f 8d 46 81 3f ee 17 8f 3f
       1.0425726 0.95151836 1.0099655 1.1179178
000060 2a b2 5a 3f 57 c5 70 3f 88 ad 8b 3f 69 dc 74 3f
       0.85428107 0.94051117 1.0912333 0.9564882
000070 1a 88 70 3f cf 8f 81 3f ad ae 81 3f 95 17 78 3f
       0.93957675 1.0122012 1.0131432 0.96910983
000080 5e 65 70 3f 32 2f 7c 3f 26 9f 61 3f fd 25 61 3f
       0.93904674 0.98509514 0.88133466 0.8794859
000090 f5 92 81 3f eb 9d ac 3f 05 5d 63 3f 4f 49 83 3f
       1.0122973 1.3485693 0.8881381 1.0256747
0000a0 86 a4 6f 3f 07 63 a8 3f 7d 23 92 3f fd 3b 84 3f
       0.9361042 1.3155221 1.141708 1.0330807
0000b0 9f aa 84 3f 48 b5 97 3f 3a 20 7a 3f 4b 03 71 3f
       1.036457 1.1852198 0.97705424 0.9414565
0000c0 f2 aa 83 3f ff e0 8a 3f 23 fb 88 3f dc 68 8c 3f
       1.0286543 1.0849913 1.0701641 1.09695
0000d0 b6 c5 79 3f b3 50 82 3f f8 52 80 3f 8a cb 45 3f
       0.9756731 1.0180877 1.002532 0.772637
0000e0 75 1d 65 3f 7a 5b 8f 3f 75 0d 69 3f db 1f 72 3f
       0.8949807 1.1199791 0.9103616 0.9457986
0000f0 80 5d 96 3f 07 8c 79 3f 98 a0 73 3f c2 bb 84 3f
       1.1747284 0.9747929 0.9516692 1.0369799
000100 42 63 85 3f c3 69 a0 3f 3d e6 88 3f 6f 97 0d 3f
       1.0420916 1.2532276 1.0695263 0.55309194
000110 98 4d 7a 3f 2d 18 4a 3f 61 fc 8f 3f 94 f2 77 3f
       0.9777465 0.7894314 1.1248895 0.9685452
000120 d7 4d 48 3f af e5 96 3f db b8 8b 3f 9b 18 7b 3f
       0.78243774 1.1788844 1.0915788 0.9808442
000130 2f 0e 66 3f c6 9e 87 3f fc 7e 5b 3f c1 4c 81 3f
       0.8986539 1.0595329 0.8574064 1.0101548
000140 ab 9e 5f 3f a6 4c 81 3f 42 51 a0 3f e7 1b 4f 3f
       0.87351483 1.0101516 1.2524798 0.8090195
000150 47 bc 8e 3f e1 f6 aa 3f d4 8d 93 3f 30 ee 40 3f
       1.1151208 1.3356591 1.1527658 0.75363445
000160 f8 f5 8d 3f 07 16 93 3f 62 bc 93 3f 4a 1a a9 3f
       1.1090689 1.1491097 1.1541865 1.3211148
000170 89 6f a2 3f ba 39 83 3f 7d 25 88 3f 4d a5 97 3f
       1.2690288 1.0251992 1.063644 1.1847321
000180 dc be 55 3f 73 0d 87 3f 9c 44 80 3f f7 3b 7d 3f
       0.83494353 1.0550979 1.0020938 0.98919624
000190 30 38 8d 3f a2 66 47 3f 86 ea a0 3f 43 d1 38 3f
       1.1032772 0.7789098 1.2571571 0.7219431
0001a0 78 56 82 3f 67 37 6e 3f 7e 09 52 3f 06 d0 7a 3f
       1.0182638 0.9305329 0.82045734 0.9797367
0001b0 31 7e 8c 3f a4 af 6e 3f c3 2d 96 3f b2 72 7e 3f
       1.097601 0.93236756 1.1732715 0.9939376
0001c0 aa 18 67 3f 03 0c 4c 3f 54 0c 53 3f b4 d9 54 3f
       0.9027201 0.7970583 0.82440686 0.8314469
0001d0 4f ee 94 3f a9 38 7d 3f c5 20 82 3f 28 ed 8d 3f
       1.1635226 0.9891458 1.016625 1.1087999
0001e0 11 71 8c 3f 24 96 6e 3f a3 ec 41 3f ac 91 76 3f
       1.0972005 0.93197846 0.75751704 0.9631603
0001f0 a3 6a 79 3f d8 33 7e 3f b3 91 79 3f bd 66 52 3f
       0.9742834 0.9929786 0.97487944 0.82188016

batchnorm1.bias f4 [128]
000000 01 cf 3b 3c 48 84 f2 be d8 f5 d2 be 9b 0d bc be
       0.011462928 -0.47366548 -0.4120319 -0.3672913
000010 29 c2 a2 be a0 b0 82 be 1b 74 86 be 2b 27 a5 bd
       -0.31788757 -0.2552538 -0.26260456 -0.08064111
000020 79 3f 8b be da b2 c5 be 6f 70 a9 be fc 37 06 bc
       -0.27196863 -0.38613015 -0.33093593 -0.008192059
000030 8f 22 b6 be ad 2e 65 be a8 0c 18 be 83 f6 79 be
       -0.3557324 -0.22381087 -0.14848578 -0.24410443
000040 57 07 61 be 16 e4 90 be 9f a5 4a be a8 27 95 be
       -0.21975456 -0.28299016 -0.19789742 -0.29131818
000050 b6 a8 d3 be 31 88 8b be f9 af a9 be ba a2 6f be
       -0.41339654 -0.27252343 -0.3314207 -0.23401919
000060 30 cc bb bd a4 d0 ef be 48 4e 89 be f4 c6 e4 be
       -0.09169805 -0.46838868 -0.26817536 -0.4468304
000070 e2 07 74 be 89 ff 1e be 96 16 cb be c4 ec 1d bd
       -0.23831132 -0.15527166 -0.3966567 -0.038555875
000080 8c 14 c5 be aa 75 74 be 69 d4 0a bf 1d 7c ce be
       -0.3849224 -0.2387301 -0.5423036 -0.40329066
000090 eb 95 b0 be de 7e 8b be 59 6d 8d be 6d 07 9a be
       -0.34489378 -0.2724523 -0.27622488 -0.3008379
0000a0 71 41 38 bd 5c cc 34 be 8f 35 2e be f9 6c 84 bd
       -0.044984285 -0.17656082 -0.17012618 -0.064660974
0000b0 e5 b1 f8 bd 88 81 e8 bd ad 16 8a be 6c 99 7e be
       -0.12143306 -0.11352831 -0.26970425 -0.24863213
0000c0 4c 30 03 be 46 4c 9b be 52 e6 01 bf b7 5a a8 be
       -0.12811393 -0.3033163 -0.50742066 -0.3288171
0000d0 d6 d5 1f be 3f 67 3a be ef 2e a2 be 62 07 17 bd
       -0.15608916 -0.18203448 -0.31676432 -0.036872275
0000e0 69 6c 71 be 3f 2e 99 be b8 ce 34 be d5 57 c0 be
       -0.23576511 -0.29918095 -0.17656982 -0.3756701
0000f0 24 30 a1 be fb 4e 47 be c9 08 da be 24 87 61 be
       -0.3148204 -0.19463722 -0.42584828 -0.22024208
000100 f5 86 95 bd 25 1b 95 ba c4 2c 1b bd 25 18 07 bf
       -0.07301132 -0.0011375888 -0.03788449 -0.52771217
000110 14 cb a4 be 90 50 ae be 50 a3 e0 be 62 44 96 be
       -0.32186186 -0.3404584 -0.43874598 -0.29349047
000120 f1 cb ac be c6 93 52 be 99 67 10 be df 22 81 be
       -0.33749345 -0.20564184 -0.1410202 -0.25221917
000130 06 73 f5 be ca ba cc be 41 80 6a be 99 4b 90 be
       -0.47939318 -0.3998626 -0.22900487 -0.28182676
000140 f0 40 97 be f3 c2 d3 be da 14 9a be 1a ec 0b bd
       -0.2954173 -0.41359672 -0.30094033 -0.03416071
000150 78 0a f1 be 4c 16 9c be 4f c3 95 3c c1 d4 8a be
       -0.470783 -0.3048576 0.018281607 -0.27115443
000160 6d a6 f0 be ec 69 29 be 72 f9 62 be 93 3b 5d be
       -0.47001973 -0.16544312 -0.22165468 -0.21604757
000170 0b ab 9d be 84 8a d4 be 4d 36 ae be d4 b8 46 be
       -0.30794558 -0.4151193 -0.34025803 -0.19406444
000180 b9 69 c3 bd 33 4b 0c bf d7 a6 2f be f5 5b 8a be
       -0.09541649 -0.54802245 -0.17153488 -0.27023283
000190 33 63 57 be 1b 55 4f be f3 4f 39 be 77 14 90 be
       -0.21033935 -0.20247309 -0.18096904 -0.28140613
0001a0 25 89 91 be 48 b9 e5 be 1b df fc be 35 e5 94 be
       -0.28424945 -0.4486792 -0.49388966 -0.2908112
0001b0 aa d9 0b be ee 17 a6 be b8 a5 7c be 79 a1 99 be
       -0.13657251 -0.32440132 -0.24672592 -0.30006006
0001c0 c6 d3 91 be fc fe c4 be 03 30 f3 be 62 06 8c be
       -0.28481883 -0.38475788 -0.47497568 -0.2734862
0001d0 e2 04 9c be eb 8a 5c bd 90 ad ac be df 85 07 bf
       -0.30472475 -0.05384342 -0.33726168 -0.52938646
0001e0 64 50 a7 be 8c f8 a6 be 74 15 a6 be 85 f7 42 be
       -0.3267852 -0.326115 -0.32438242 -0.19039734
0001f0 2e 80 2f bd d4 ae 4c be 1f d2 c9 be e6 2e c6 be
       -0.04284685 -0.19988567 -0.39418122 -0.38707656

batchnorm1.running_mean f4 [128]
000000 f6 14 1e 40 5a b8 4a 3e 66 ec c8 bf c2 4d 9a 3f
       2.4700294 0.19796887 -1.5697143 1.205498
000010 1e 4c 3d c0 c3 73 a0 be e2 c8 0f 3d 46 97 f3 3d
       -2.9577708 -0.3133832 0.035103686 0.118940875
000020 59 7f 07 3f ae 9c 9e bc 0b d5 fe bf 20 7a 0a 40
       0.5292869 -0.01936182 -1.9908766 2.163704
000030 b0 0f 1e 3f 30 c6 83 40 9a d1 83 40 5f 05 17 3f
       0.6174269 4.117943 4.119336 0.5899257
000040 1c 0b 3e c0 e1 db 67 3e fe 39 26 40 ee 7e cc 3f
       -2.969428 0.22642471 2.5972896 1.5976236
000050 6c fa ae bf b0 3b bb bf 12 2d 95 3f c1 1d b9 bf
       -1.3670173 -1.462759 1.1654379 -1.4462205
000060 3e ec 09 40 d1 f9 47 3f 95 e0 bb 3f dd 5d 8e 40
       2.155044 0.78115565 1.4677912 4.448958
000070 7f ae ef 3e 3b fb 16 c0 34 92 b0 3f 70 30 17 40
       0.46812817 -2.359084 1.3794618 2.3623314
000080 72 96 9f bf 4c e4 3e be 23 1b 18 bf 54 47 b8 be
       -1.2467787 -0.18641776 -0.5941641 -0.3599192
000090 a2 6c 29 3e 22 6a d3 3f b8 35 56 3f 58 d6 3f 40
       0.16545346 1.6516764 0.8367572 2.9974575
0000a0 c5 2e df bf 83 2c 0c bf ca 86 b7 bf e6 49 2d 40
       -1.7436148 -0.5475542 -1.4338009 2.7076354
0000b0 0f 71 2f c0 92 b5 bd 3f b5 4a 4d bf ac 14 16 bf
       -2.7412755 1.4821036 -0.8019212 -0.5862529
0000c0 56 9a 88 be 0a 6a 38 40 43 2c 45 3f 90 19 61 40
       -0.2668025 2.881472 0.77020663 3.5171852
0000d0 17 c3 ee 3f 47 3d b0 3f 56 af 27 bf 42 6e 90 3f
       1.8653287 1.37687 -0.65501916 1.1283648
0000e0 ac 31 2a bf 75 a6 1e 3e 79 ac 24 3d 0e ac 41 be
       -0.66482043 0.15493186 0.040203545 -0.1891329
0000f0 30 66 1f 3f 56 d5 1e 40 f9 84 73 40 3d d7 04 3f
       0.622653 2.481771 3.804991 0.5189093
000100 f7 b3 cd bf 8f 83 6c bf 27 37 c2 bf a9 4e a0 bf
       -1.6070546 -0.9238824 -1.5173081 -1.2524005
000110 8e 9b fa 3f ce b4 80 bf 2d d9 6a bf 13 1d 9f 3f
       1.9578722 -1.0055177 -0.91737634 1.2430748
000120 d6 bb eb 3e 31 c2 35 3f dd e4 89 bf 23 42 76 bf
       0.46041745 0.7099944 -1.0772969 -0.96194667
000130 1e 89 13 bf 52 a6 26 be 86 70 9d 3f 4a 7f 0b c0
       -0.576311 -0.16274384 1.2299964 -2.179644
000140 e0 70 cd 3f 9c 95 97 3f ab 05 8e 3f 10 99 1d bf
       1.6050072 1.1842532 1.109548 -0.6156168
000150 cd b0 ca bf 58 f8 ec bd 61 c9 42 bf 16 5e 8c 3f
       -1.5835205 -0.11570805 -0.7608853 1.0966213
000160 68 e6 1d 3f da b4 11 3f 77 b8 53 c0 68 81 05 bc
       0.616797 0.5691658 -3.3081338 -0.008148529
000170 93 8e 52 40 12 bb 96 be f0 e6 e4 bf c5 73 07 c0
       3.289952 -0.29439598 -1.7882977 -2.116441
000180 7b 15 30 3f e8 fb 9b bf 40 1c 83 40 3b 2c 15 3f
       0.68782777 -1.2186251 4.0971985 0.58270615
000190 b8 58 d3 3f 50 38 90 40 a5 f2 3b 40 10 ee fe bf
       1.651145 4.506874 2.9366848 -1.9916401
0001a0 63 1e 80 3f b4 dd 2d 3f f4 79 e1 3f aa da 93 bf
       1.0009273 0.6791642 1.7615342 -1.1551106
0001b0 04 9f d9 be f1 31 2a 40 d4 09 08 40 19 a3 42 be
       -0.42504132 2.6592982 2.1255999 -0.1900753
0001c0 a8 b2 ea be 34 08 49 40 1c d1 48 3f e5 4e e5 3f
       -0.4583943 3.1411257 0.78444076 1.7914702
0001d0 9f c2 8d 3e a7 d9 3b c0 ab f1 9b 3d d2 5b 80 40
       0.27687547 -2.9351594 0.07614454 4.0112085
0001e0 ae 40 98 3f 58 cd 34 c0 67 db f2 bf 15 87 ca 3f
       1.1894739 -2.8250332 -1.8973206 1.5822474
0001f0 45 6c e7 3e 74 88 a8 bf ab b6 3e 40 2b c7 80 40
       0.4519979 -1.3166642 2.9798992 4.0243125

batchnorm1.running_var f4 [128]
000000 77 1f 5f 3e d5 5b 55 3e 62 c2 c8 3e db ff 9a 3e
       0.21789347 0.20835812 0.39210802 0.30273327
000010 16 3c 7a 3e f5 c1 a9 3e 7c 35 1a 3e 6b c7 75 3e
       0.24436983 0.3315579 0.15059465 0.24001853
000020 b2 d5 9e 3e cb 73 f0 3d 7a 7f 8a 3e c7 b9 9b 3e
       0.31022412 0.11740836 0.27050382 0.30415174
000030 d0 56 41 3e 51 f4 95 3e 76 38 5d 3e ad 70 40 3e
       0.18880773 0.2928796 0.2160357 0.18792982
000040 dd 81 a5 3e 3c 3d 68 3e 30 f0 a0 3e 93 d9 54 3e
       0.3232564 0.22679609 0.3143325 0.20786123
000050 0f f8 16 3e bc e5 63 3e 01 84 81 3e 31 e7 a8 3e
       0.14743064 0.22255605 0.25296023 0.32988885
000060 49 0c 35 3e ae d7 42 3e 77 ec 8b 3e 52 70 a6 3e
       0.17680468 0.19027588 0.27328846 0.3250757
000070 8e c3 47 3e 38 60 a6 3e 13 17 93 3e b6 9c 96 3e
       0.19508192 0.32495284 0.28728542 0.29416436
000080 1a c1 77 3e c8 40 c5 3e bd 29 d3 3d e8 56 1b 3e
       0.24194756 0.38525987 0.10310695 0.15169871
000090 99 25 11 3e 3c 49 3f 3e 17 b1 51 3e 95 45 6f 3e
       0.14174499 0.1868028 0.2047771 0.23366387
0000a0 43 fa 85 3e fb f8 83 3e 9a 8b 35 3e 5e 16 83 3e
       0.26167497 0.25775895 0.17729035 0.25603002
0000b0 d1 d4 87 3e cb e3 95 3e a5 53 1c 3e 7d f3 1e 3e
       0.26529554 0.29275355 0.15266283 0.15522571
0000c0 4c f9 d6 3e 59 42 8e 3e 60 f2 f4 3d 0f 03 86 3e
       0.41987073 0.27784994 0.11960292 0.2617421
0000d0 8c a6 19 3e 03 2d bf 3e d9 d4 36 3e c5 0e 9f 3e
       0.15004939 0.3733903 0.17854632 0.31065956
0000e0 e0 0b 7f 3e 45 c5 81 3e 07 82 04 3e 4e 80 49 3e
       0.24906874 0.25345817 0.12940226 0.1967785
0000f0 ef 5e af 3e c0 6e f5 3d 15 20 9e 3e cc 2b 1e 3e
       0.34252116 0.119840145 0.30883852 0.15446395
000100 51 72 94 3e f0 9b e7 3e fb fd 97 3e 82 42 85 3e
       0.28993466 0.45236158 0.2968596 0.26027304
000110 2a 07 c0 3e 64 4f 65 3e cb ca 8e 3e 18 d2 4a 3e
       0.37505466 0.22393566 0.27889094 0.19806707
000120 3f 00 1c 3e ea 09 95 3e a5 92 19 3e 64 2d b6 3e
       0.15234469 0.29109126 0.14997347 0.35581505
000130 fe 8c 69 3e 5c 83 15 3e 8a e3 33 3e 10 e0 c2 3e
       0.2280769 0.14600891 0.17567268 0.3806157
000140 e5 56 8a 3e b8 97 9a 3e 1f f3 81 3e e7 b5 17 3e
       0.2701942 0.30193877 0.253808 0.14815484
000150 ac 37 52 3e 49 01 52 3e 7d c1 29 3e 4d 9c 0d 3e
       0.2052905 0.20508303 0.16577716 0.13829155
000160 fa 68 90 3e 3c 9a 44 3e ad e9 99 3e 75 3d b7 3e
       0.2820509 0.1919946 0.30061093 0.35789075
000170 7f c4 5c 3e 62 6c 31 3e d6 80 9f 3e aa e0 51 3e
       0.21559332 0.17326501 0.31152982 0.20495859
000180 69 45 d6 3d 19 dc 8f 3e 86 6f 4f 3e eb 47 0e 3e
       0.10462458 0.2809761 0.20257387 0.13894622
000190 98 ab 8e 3e f1 8e 66 3e ee d7 97 3e 94 a1 1b 3e
       0.2786529 0.22515465 0.2965693 0.15198356
0001a0 27 41 7a 3e 4d 09 18 3e 01 38 08 3e 96 42 85 3e
       0.24438916 0.14847298 0.13302614 0.26027364
0001b0 c7 fa af 3e f3 fd 9c 3e 65 b2 75 3e 0a 79 b9 3e
       0.34371015 0.30662498 0.23993833 0.36225158
0001c0 37 99 23 3e 04 7d 3b 3e 5b b0 12 3e 37 c9 4e 3e
       0.15976416 0.18309408 0.14325087 0.20193945
0001d0 8f 5b 9c 3e 8f b3 50 3e 38 de 13 3e 20 31 82 3e
       0.30538604 0.20380996 0.14440238 0.25428104
0001e0 13 a4 57 3e 92 a1 74 3e 3d c9 b2 3e f7 81 64 3e
       0.21058683 0.23889759 0.34919158 0.22315203
0001f0 9c 70 62 3e 90 7c a6 3e 98 c5 6b 3e 35 e6 78 3e
       0.2211327 0.3251691 0.23024595 0.24306567

batchnorm2.weight f4 [64]
000000 ed 0a 76 3f 0b 87 84 3f 1b 21 77 3f 55 4d 92 3f
       0.9611042 1.0353712 0.9653489 1.142985
000010 ba d5 5e 3f 3c 15 58 3f 1a f5 71 3f 25 12 5a 3f
       0.8704487 0.844074 0.9451462 0.85183936
000020 16 a0 67 3f 39 21 70 3f 28 24 56 3f 93 c8 6c 3f
       0.90478647 0.93800694 0.8364892 0.9249355
000030 21 f2 82 3f 44 76 5e 3f 0e ba 80 3f 14 62 55 3f
       1.0230142 0.8689921 1.0056779 0.8335278
000040 8e 01 8f 3f b2 14 77 3f 47 17 5b 3f 74 c4 6a 3f
       1.117235 0.96515954 0.85582393 0.91706014
000050 fd 93 64 3f fa 2e 77 3f fd 2b 80 3f 66 1d 82 3f
       0.8928831 0.96556056 1.0013424 1.0165222
000060 13 06 8b 3f e1 e9 85 3f 61 a7 5c 3f b2 13 62 3f
       1.0861229 1.0461999 0.861929 0.883113
000070 77 03 75 3f dc 41 58 3f f3 15 63 3f ee 4e 74 3f
       0.9570841 0.84475493 0.88705367 0.9543294
000080 17 0b 6d 3f fc 22 7a 3f b4 6d 4e 3f 36 7e 76 3f
       0.92595047 0.9770963 0.80636144 0.9628633
000090 99 4e 4b 3f 2b fd 8c 3f 31 e2 50 3f 4b 5f 44 3f
       0.79416806 1.1014761 0.8159514 0.76707906
0000a0 e6 ee 86 3f 31 a6 66 3f 12 02 93 3f 49 76 55 3f
       1.0541656 0.9009734 1.1485007 0.83383614
0000b0 55 59 7d 3f 3b 36 7e 3f d0 67 8d 3f 3e 54 92 3f
       0.98964435 0.993015 1.1047306 1.1431959
0000c0 97 27 75 3f be 87 6a 3f 6e da 81 3f 70 6a 7b 3f
       0.95763534 0.91613376 1.0144784 0.98209286
0000d0 69 40 6b 3f 05 cb 3b 3f 67 16 67 3f 0d 0e 70 3f
       0.9189516 0.7335666 0.9026856 0.9377144
0000e0 c1 b9 6a 3f 3e 4b 5a 3f 80 8c 60 3f fe e1 8d 3f
       0.9168969 0.8527106 0.87714386 1.1084592
0000f0 8d 05 57 3f 0a 9a 89 3f bb 98 7e 3f ed e1 46 3f
       0.83992845 1.0750134 0.994518 0.77688485

batchnorm2.bias f4 [64]
000000 6c 7d 2b be 4d 63 9c be eb c2 28 be fc 8f 74 be
       -0.16747063 -0.3054451 -0.16480605 -0.2388305
000010 be c3 a3 be 15 89 03 bf 32 9b 33 bf 35 ea 8e be
       -0.31985277 -0.51381046 -0.70158684 -0.2791306
000020 52 b1 e9 be ee 65 82 be c2 a9 0b be 34 19 14 bf
       -0.45643097 -0.2546839 -0.13638976 -0.57850957
000030 61 fd cd be 40 18 7f be 55 99 c8 be 32 77 e1 bd
       -0.40232375 -0.24911594 -0.39179483 -0.11009063
000040 e9 6e a7 be 8a cc 47 bf 9d 3e e8 be af b2 28 be
       -0.32701805 -0.78046477 -0.4536027 -0.16474412
000050 6d 15 57 be 12 3b ed be 42 d8 9f be 77 4e 3b be
       -0.21004267 -0.4633413 -0.3121968 -0.1829165
000060 39 e6 19 bf d5 1d d3 be aa dc 44 bf 84 0b dd bd
       -0.60116917 -0.41233698 -0.76899207 -0.10793212
000070 12 d4 4a bf f4 36 33 be 4d 30 1c bf 49 5f 1d be
       -0.79229844 -0.17501432 -0.610112 -0.1536838
000080 83 f2 92 be e6 bc 7e be fe 43 e9 be d1 54 2d bf
       -0.28700647 -0.24876747 -0.45559686 -0.67707545
000090 95 4d d5 be 51 4e d9 be 4a d6 be be 97 66 59 be
       -0.41660753 -0.42442563 -0.37272865 -0.21230541
0000a0 67 b9 cc be 5a 90 c9 be f2 06 2d be cd 8d 82 be
       -0.399852 -0.39367944 -0.1689718 -0.2549881
0000b0 d6 7b 72 bd 6e b2 25 be 50 0c 33 be e5 b6 f2 be
       -0.05920013 -0.16181347 -0.17485166 -0.47405162
0000c0 92 04 c1 bd 4e 8b 2f be a4 b9 4e be cc 8e 05 bf
       -0.094247 -0.17142984 -0.20188004 -0.52171016
0000d0 fe 33 93 be 48 a5 62 be d7 16 f2 bd 45 66 f1 be
       -0.28750604 -0.22133362 -0.118207626 -0.47148338
0000e0 04 93 e0 be 44 7b 1a bf 11 6d 19 bf 9e 7f 09 bf
       -0.43862164 -0.6034434 -0.5993205 -0.53710353
0000f0 3c 17 f2 be 4d 40 10 bf b8 ef 11 bf 2c dc bb bc
       -0.4728335 -0.56348115 -0.57006407 -0.022932135

batchnorm2.running_mean f4 [64]
000000 f7 2a 0d 40 7d 0b 51 3e 4a 06 f3 3f ea 19 3e bf
       2.2057474 0.20414539 1.8986294 -0.7425829
000010 2c ec 2f 40 88 ff e4 bf e0 f3 32 40 cd 1b 07 bf
       2.7487898 -1.7890482 2.796135 -0.52776796
000020 ba 3f d1 3f 42 a9 a3 3d 84 7b 09 3f 12 07 97 3f
       1.6347573 0.07991268 0.53704095 1.1799033
000030 d9 ce 88 bf 6b a0 c2 3e a3 c9 ef be a8 eb 2d 40
       -1.0688125 0.38013014 -0.46833524 2.7175083
000040 20 63 2f bf ad a9 a8 3f 40 ad a4 bf 30 4e 1a 3f
       -0.6851063 1.3176781 -1.2865372 0.60275555
000050 06 07 26 40 cf 2b 0b 40 d3 0b 40 c0 12 4f 16 3f
       2.5941787 2.1745489 -3.0007217 0.587144
000060 16 7f 51 bf 55 a6 38 40 11 90 86 3f bd f3 e3 3e
       -0.8183454 2.885152 1.0512716 0.44521895
000070 1a 62 09 40 cd be d8 3e 76 11 b3 bf dd b8 66 3e
       2.1466126 0.4233307 -1.3989704 0.22531457
000080 0e 16 08 40 3c e9 5a 3e 34 9e 50 bf de 85 c7 3e
       2.126346 0.21378034 -0.814914 0.3896932
000090 05 3f b1 3c 72 4e 3c bf 95 5a 91 3f 91 fd 06 c0
       0.021636495 -0.735572 1.1355768 -2.1092265
0000a0 00 e6 9c be 4f 12 70 bf 5c 6f 9d be 29 ff e0 bf
       -0.30644226 -0.93777937 -0.30749023 -1.7577869
0000b0 74 84 31 3f 3f ce 1d c0 a0 c9 83 3b 96 fd ea bf
       0.6934273 -2.4657133 0.0040218383 -1.8358638
0000c0 33 2c a5 3f 3f 10 38 3f dc 69 59 3e be e2 32 40
       1.2904114 0.7189979 0.21231788 2.7950892
0000d0 e9 ea f4 3f 34 77 05 40 7f b2 89 3f e6 3b c9 bf
       1.9134189 2.0854006 1.0757598 -1.5721405
0000e0 33 23 23 c0 88 f0 ad bf 81 50 a8 bf bc ad 2b bf
       -2.5490234 -1.3589029 -1.3149568 -0.6706197
0000f0 81 87 8a 40 02 5f 60 bf c0 bd 3f 40 f3 11 20 40
       4.329041 -0.8764497 2.9959564 2.5010955

batchnorm2.running_var f4 [64]
000000 9b 3f b3 40 d8 d0 77 40 8f 83 e3 40 38 97 2a 41
       5.6015143 3.8721218 7.1098094 10.661919
000010 c2 e1 81 40 06 bf 31 40 ab c8 01 41 05 95 34 41
       4.0588083 2.7772841 8.111491 11.286382
000020 4c b9 98 40 29 bc c5 40 29 cd c7 40 50 a7 c4 40
       4.7726192 6.179219 6.243794 6.145424
000030 65 72 2b 41 a8 e3 01 40 0b 23 1a 40 41 18 ad 40
       10.715428 2.02952 2.4083889 5.4092107
000040 28 3a 53 40 01 3b fe 40 de f9 a2 40 67 58 d3 40
       3.3004246 7.9447026 5.0930014 6.6045413
000050 a8 d7 ac 40 8a cc a7 40 da 13 3a 41 95 39 82 40
       5.401325 5.243718 11.629847 4.069529
000060 0d 6e 2b 41 3e 24 a1 40 60 50 15 41 29 ee a8 40
       10.714368 5.035674 9.332123 5.2790723
000070 20 31 06 41 6b e7 92 40 ee 1e 6c 40 d2 4c 9d 40
       8.386993 4.5907493 3.6893878 4.9156275
000080 da f6 b3 40 8e 26 85 40 7a a7 84 40 d9 2f c4 40
       5.6238832 4.1609564 4.145444 6.130841
000090 e0 e9 84 40 09 86 69 40 ca 8e 92 40 9d 1c fe 40
       4.153549 3.6488059 4.5799303 7.940993
0000a0 31 63 66 40 ba ee ba 40 d4 ad 25 40 a8 fa b8 40
       3.5998042 5.8416414 2.5887346 5.7805977
0000b0 53 1c 9a 40 55 03 36 41 6e 3e 91 40 f8 18 0c 41
       4.8159575 11.3758135 4.538871 8.756096
0000c0 c5 91 a0 40 47 f0 d3 40 e9 6c 65 40 83 a1 9e 40
       5.017794 6.6230807 3.5847723 4.957216
0000d0 7b a4 92 40 c4 26 7e 40 02 9a 1d 41 a6 0c 44 40
       4.582578 3.971116 9.8501 3.063272
0000e0 f8 28 bc 40 ff fc 48 40 6a 9e 0f 40 81 4e e0 40
       5.880001 3.1404417 2.2440438 7.009583
0000f0 c5 2f e9 40 cc 55 48 41 b4 82 e7 40 a2 fe cd 40
       7.2870812 12.5209465 7.234705 6.437333

batchnorm3.weight f4 [32]
000000 1b 63 0f 40 47 5a 07 40 5f 27 fb 3f 59 e3 f6 3f
       2.240424 2.114885 1.962139 1.9288131
000010 40 ac 8e 3f d3 1d 0d 40 33 a8 f8 3f 8b b9 f8 3f
       1.1146317 2.2049453 1.942633 1.9431623
000020 bb b7 31 40 2d f7 db 3f 1c be e2 3f 10 03 0a 40
       2.776839 1.7184807 1.7714267 2.156437
000030 3f ef e3 3f 56 3a ec 3f 31 8b e9 3f 6e 55 eb 3f
       1.7807387 1.8455303 1.8245603 1.8385446
000040 fd b0 f0 3f 04 0c ba 3f ab 50 f9 3f 8a 86 c0 3f
       1.8804013 1.4534917 1.9477743 1.5041058
000050 4d 86 ef 3f b4 95 00 40 75 7b 00 40 06 40 cd 3f
       1.871286 2.0091372 2.0075352 1.6035163
000060 9e 9e d8 3f b8 b0 1d 40 3d 4d 02 40 1f 05 03 40
       1.6923406 2.463911 2.0359643 2.0471876
000070 46 de 61 3f f8 06 0a 40 aa 6a 00 40 04 1b ed 3f
       0.8822979 2.1566753 2.0065103 1.852387

batchnorm3.bias f4 [32]
000000 7f 63 9d 3e 80 01 85 3e cc 4b 96 3e d3 b0 be 3e
       0.30739972 0.25977707 0.29354703 0.3724428
000010 39 c8 a5 3e 3b 19 ef 3e 9e cf 05 3e 63 bc c4 3e
       0.3237932 0.46698937 0.13067481 0.38424978
000020 7d 73 af 3e 41 86 9f 3e a8 a5 1e 3e dd c8 71 3e
       0.34267798 0.31157115 0.1549288 0.2361178
000030 41 d1 15 3e 2c ec 9d 3d 58 07 34 3e 07 2d b9 3d
       0.14630605 0.07711062 0.17580926 0.090417914
000040 db 68 bc 3e fd b6 5d 3e 59 ee aa 3e c0 eb f6 3e
       0.36798748 0.21651836 0.3338497 0.48226738
000050 b9 7f 1a 3e 01 8a bd 3e 7f 41 9c 3e e4 f0 96 3e
       0.15087785 0.3701935 0.3051872 0.2948066
000060 96 dd 9f 3e 16 be 01 3f bd e9 2a 3e b4 6f 0f 3e
       0.31223744 0.50680673 0.16690727 0.14007455
000070 41 00 79 3e a5 3c 88 3e f1 84 b8 3d a2 0b 85 3e
       0.24316503 0.26608768 0.090097316 0.25985438

batchnorm3.running_mean f4 [32]
000000 ff f1 b1 3e b1 f3 05 3f d3 11 82 3f d4 76 1c 3b
       0.3475494 0.5232497 1.016169 0.0023874538
000010 3e bf ea bc e4 d0 f8 3e d4 15 dd 3e 4c c5 27 3f
       -0.028655645 0.4859687 0.43180716 0.65535426
000020 ca cb 1d 3e 88 f0 60 3f 77 72 ff 3e 95 be fe 3e
       0.1540977 0.8786702 0.49892017 0.49754778
000030 fa c7 0e 3f 8d f8 e6 3e b4 c4 18 3f 23 f8 e6 3e
       0.5577389 0.45111504 0.59675145 0.45111188
000040 f7 1a 67 3f f2 f8 a9 3e 2d e3 81 3f ab 0f be 3e
       0.9027552 0.33197743 1.0147454 0.3712133
000050 b6 f4 b1 3e 02 cd 83 3f e7 dd 3d bb 4e 59 c5 3c
       0.34757012 1.0296938 -0.0028971375 0.024090435
000060 24 59 af 3e d1 ea 06 3f 48 40 f3 3e cd 4e dc 3e
       0.34247696 0.5270205 0.4750998 0.4302887
000070 56 cd 07 bf 3f 39 1e 3f df 50 f3 3e 14 33 59 3e
       -0.5304769 0.618061 0.47522637 0.21210891

batchnorm3.running_var f4 [32]
000000 14 4a 6e 40 d8 e7 fa 40 49 ce d8 40 cc 9f 6d 40
       3.7232714 7.8408012 6.7751813 3.7128782
000010 08 5a c7 40 fb 01 bc 40 11 ca e6 40 34 c4 cb 40
       6.22974 5.8752418 7.2121663 6.3677006
000020 bc 6b 6e 40 a1 9c a0 40 42 62 d1 40 68 2c ec 40
       3.7253256 5.0191197 6.5432444 7.3804207
000030 5b 0c cf 40 83 b0 c3 40 ed 57 af 40 5f b6 b8 40
       6.470258 6.115297 5.479483 5.772262
000040 2e 46 af 40 e5 18 c7 40 0d dc be 40 d5 b0 f1 40
       5.477317 6.221789 5.9643617 7.552836
000050 3b b5 b3 40 7e 63 c4 40 8d 53 5e 40 5e be a3 40
       5.615873 6.137145 3.4738495 5.116988
000060 03 de bd 40 31 a5 9d 40 e0 e6 00 41 d6 8a d7 40
       5.933351 4.926415 8.056366 6.7356977
000070 b3 1c a0 40 d6 60 c3 40 17 de 95 40 c8 87 bd 40
       5.0035033 6.105571 4.6833606 5.922825
