src/hardware_fpga/mlp_v4/mlp_prepost.onnx (onnx, 88066 bytes, 19 tensors)

BatchNormalization_0_param1 f4 [128]
0	0xbeccd706	-0.400078
1	0xbecc597a	-0.39912015
2	0xbef84607	-0.48490927
3	0xbf05cc92	-0.52265275
4	0xbf2de4fc	-0.6792753
5	0xbe9bab74	-0.30404246
6	0xbeb991d3	-0.36244068
7	0xbe9b65fb	-0.30351242
8	0xbedb9fe4	-0.42895424
9	0xbed33415	-0.41250673
10	0xbe5c54a9	-0.2151667
11	0xbf0f5295	-0.55985385
12	0xbe92dc99	-0.28683928
13	0xbe69a716	-0.22817644
14	0xbe353e01	-0.17699434
15	0xbf000305	-0.5000461
16	0xbe9f5155	-0.3111674
17	0xbecf1f89	-0.40453747
18	0x3cc13358	0.023584053
19	0xbecc96cc	-0.399588
20	0xbed55ea7	-0.41673777
21	0xbef2ed57	-0.474467
22	0xbed6bc85	-0.41940704
23	0xbed03050	-0.4066186
24	0xbf0f2820	-0.559206
25	0x3df1c8aa	0.11805852
26	0xbf262da9	-0.6491342
27	0xbe783675	-0.24239524
28	0xbed88843	-0.4229146
29	0xbea9c6d4	-0.33159506
30	0xbe9e7b65	-0.30953518
31	0xbe93b1ec	-0.2884668
32	0xbec6b554	-0.38810217
33	0xbe968e91	-0.29405645
34	0xbe97d43e	-0.29654115
35	0xbee7a3da	-0.45242196
36	0xbe77967d	-0.241785
37	0xbe6fd9a2	-0.23422864
38	0xbe6ef157	-0.23334251
39	0x3cecf57e	0.028925654
40	0xbdf01660	-0.11723018
41	0xbe433d2b	-0.19066302
42	0xbef626df	-0.4807653
43	0xbe72adfd	-0.23699184
44	0xbf0fa788	-0.5611501
45	0xbd1da98b	-0.038491767
46	0xbe87a3bd	-0.2649211
47	0x3d138fdd	0.03602587
48	0xbee7b669	-0.45256355
49	0xbe3ed55b	-0.18636076
50	0xbf021261	-0.50809294
51	0xbed85892	-0.42255074
52	0xbe8d66e0	-0.2761755
53	0xbe304102	-0.17212299
54	0xbe9c4316	-0.30519933
55	0xbf3e21cc	-0.7427032
56	0xbf298c0f	-0.6622934
57	0xbf1ed6b4	-0.6204636
58	0xbea6b883	-0.32562646
59	0xbedaf21a	-0.42762834
60	0xbf2b3f02	-0.6689302
61	0xbe174b53	-0.14774828
62	0xbe1b480e	-0.15164205
63	0xbe2a3aa1	-0.16623928
64	0xbea89ebb	-0.32933602
65	0xbf0c728f	-0.548623
66	0xbefd72a9	-0.4950154
67	0xbeebe928	-0.46076322
68	0xbdfde317	-0.123968296
69	0xbf14fcd2	-0.58198273
70	0xbed3e590	-0.4138608
71	0x3db48e3c	0.088161916
72	0xbe0d2793	-0.13784628
73	0xbdd8c127	-0.10583716
74	0xbe871317	-0.26381752
75	0xbe98d0b2	-0.29846722
76	0xbe6d7618	-0.2318958
77	0xbd6617fd	-0.05617522
78	0xbeddba57	-0.4330623
79	0xbeb9e87f	-0.36310193
80	0x3b9549b1	0.004555904
81	0xbebc8ecb	-0.36827692
82	0xbed93446	-0.42422694
83	0xbe000c2a	-0.1250464
84	0xbe555529	-0.20833267
85	0xbe2b19f6	-0.16709122
86	0xbe509726	-0.20370159
87	0xbda565ac	-0.08076033
88	0xbe141462	-0.144609
89	0xbf1a1bb4	-0.6019852
90	0xbe82618f	-0.25465056
91	0xbeb18fb1	-0.3467994
92	0xbe0284cf	-0.12745975
93	0xbe4cabf2	-0.19987467
94	0xbeee2b66	-0.46517485
95	0xbdd37869	-0.10325701
96	0xbe937352	-0.2879892
97	0xbe9e0ead	-0.30870572
98	0xbe71af45	-0.23602016
99	0xbe45c6d9	-0.19314136
100	0xbf0eddf5	-0.5580743
101	0xbe253603	-0.16133885
102	0xbf1b4e60	-0.60666466
103	0xbf273fc7	-0.6533169
104	0xbdbc2495	-0.09186665
105	0xbf21cd86	-0.6320423
106	0xbebb6efd	-0.36608115
107	0xbcabbeba	-0.020964969
108	0xbea68ac5	-0.32527748
109	0xbeafd9d2	-0.3434587
110	0xbf2e3f77	-0.6806559
111	0xbeceedbe	-0.40415758
112	0xbed75d4f	-0.42063376
113	0xbf0f7b32	-0.56047356
114	0xbef9e939	-0.48810747
115	0xbeb1d3da	-0.34731942
116	0xbdf267d3	-0.11836209
117	0xbee43749	-0.4457343
118	0xbe6c3384	-0.23066527
119	0x3e1b2c62	0.1515365
120	0xbedf6139	-0.43628863
121	0xbe90059b	-0.28129277
122	0xbef2668e	-0.47343868
123	0xbed169c6	-0.4090101
124	0xbe849e0d	-0.25901833
125	0xbe6e0485	-0.23243912
126	0xbe675461	-0.22590782
127	0x3cf456c5	0.029826531

BatchNormalization_0_param2 f4 [128]
0	0x3f41561c	0.7552202
1	0x42e92a9b	116.58321
2	0x432ce383	172.88872
3	0xc14d00d2	-12.8127
4	0x43b9423c	370.51746
5	0x432ae2c3	170.88579
6	0x4370346c	240.20477
7	0xc30beef9	-139.93349
8	0x41fff573	31.994848
9	0x435d1299	221.07265
10	0x41f89bd5	31.07609
11	0xc185e740	-16.737915
12	0x42d55c22	106.67995
13	0xc316012e	-150.00461
14	0xc3d7c063	-431.50302
15	0x437bc2b9	251.76064
16	0xc424e648	-659.59814
17	0xc330d5e0	-176.83545
18	0xc36f361e	-239.2114
19	0xc3fc267d	-504.3007
20	0x4389bc85	275.4728
21	0xc242e748	-48.72586
22	0xc3bc1793	-376.18417
23	0xc2f60525	-123.01005
24	0xc1be76bc	-23.807976
25	0x43855c62	266.72174
26	0xc3bb1b79	-374.21463
27	0xc395750c	-298.91443
28	0xc2ac3eec	-86.122894
29	0x42c57d79	98.74506
30	0xc314fb48	-148.98157
31	0x43ab9ee7	343.24142
32	0xc3879eb5	-271.2399
33	0x43d77724	430.9308
34	0x42fbf518	125.9787
35	0xc2e74648	-115.63727
36	0xc33491e5	-180.5699
37	0xc30cffcb	-140.99919
38	0xc092eadd	-4.59117
39	0xc34b6f08	-203.43372
40	0x438a22bd	276.2714
41	0xc390e4d4	-289.78772
42	0x42b34f2a	89.65462
43	0xc1d7d185	-26.977304
44	0x430d00b3	141.00273
45	0x430f5470	143.32983
46	0xc3ba3e59	-372.4871
47	0xc2bfec03	-95.96096
48	0xc18f6d45	-17.928354
49	0xc360cf72	-224.81033
50	0xc26a5167	-58.579494
51	0xc3392327	-185.13731
52	0x4365b1c8	229.69446
53	0xc28af616	-69.48064
54	0x43947794	296.9342
55	0xc389c3f6	-275.53094
56	0xc33bf518	-187.9574
57	0xc37fbc04	-255.73444
58	0xc38b863a	-279.04865
59	0x437f1f2c	255.12177
60	0x43781b4b	248.10661
61	0x426ecf75	59.702595
62	0x43ae9963	349.19833
63	0xc39f334a	-318.4007
64	0x40ff5448	7.9790382
65	0x4398b59a	305.41876
66	0x42b9b3ea	92.851395
67	0x41c8eff8	25.117172
68	0x427c10e7	63.016506
69	0x420ff414	35.988358
70	0x419e0ccc	19.756248
71	0x440e419e	569.02527
72	0xc35f2166	-223.13046
73	0x4322ae38	162.68054
74	0xc1292e93	-10.573871
75	0x438a97f1	277.18704
76	0xc39e6dc6	-316.8576
77	0xc36bc988	-235.78723
78	0xc2762309	-61.534214
79	0x425bf057	54.984707
80	0xc1aa6979	-21.3015
81	0xc2eb6ad0	-117.70862
82	0x42085a8f	34.088436
83	0x42d66f56	107.21745
84	0x409bc937	4.8683124
85	0x43169634	150.58673
86	0x4245192d	49.274586
87	0xc3811580	-258.16797
88	0x42e97a00	116.73828
89	0xc384f7b1	-265.9351
90	0x43480e6d	200.05635
91	0xc2b6a7fe	-91.32811
92	0xc35b3620	-219.21143
93	0xc3bcd9be	-377.7011
94	0xc409bc44	-550.94165
95	0xc3310a3f	-177.04002
96	0x4371697a	241.41202
97	0xc2f8ad14	-124.33804
98	0x4307d1cc	135.81952
99	0xc254d5dc	-53.208847
100	0x42633dca	56.81034
101	0x43a2187b	324.19125
102	0x432db3dd	173.70259
103	0xc41fe7d0	-639.6221
104	0xc392e28f	-293.77
105	0x4031402e	2.7695422
106	0xc2337b34	-44.870316
107	0xc33cd0c8	-188.81555
108	0x431a5b94	154.35773
109	0x43d25a1d	420.704
110	0x433441c4	180.2569
111	0xc3fd5edd	-506.74112
112	0x4394e127	297.759
113	0xc2cf24ed	-103.57212
114	0xc386fca8	-269.97388
115	0x431d43ec	157.26532
116	0x43852c32	266.34528
117	0xc39118eb	-290.19467
118	0x43a1d42a	323.65753
119	0xc34034b5	-192.20589
120	0xc3d2a460	-421.28418
121	0xc3378eaa	-183.55728
122	0xc38261e1	-260.76468
123	0x42c91c51	100.555305
124	0xc2527450	-52.613586
125	0xc35ed324	-222.82477
126	0x411d398c	9.82655
127	0x429cf143	78.471214

BatchNormalization_0_param3 f4 [128]
0	0x454b5284	3253.1572
1	0x45bda4d5	6068.604
2	0x4551bf3f	3355.953
3	0x465ff6fc	14333.746
4	0x461da946	10090.318
5	0x45b04517	5640.636
6	0x459d32b2	5030.337
7	0x45b09ad5	5651.354
8	0x453c8443	3016.2664
9	0x452d107d	2769.0305
10	0x460b2430	8905.047
11	0x45995239	4906.278
12	0x45b7d969	5883.1763
13	0x45940cca	4737.5986
14	0x4582cccc	4185.5996
15	0x45b111ea	5666.2393
16	0x45b65fcb	5835.974
17	0x45cc5f1c	6539.8887
18	0x4578d973	3981.5906
19	0x46025eae	8343.67
20	0x45bc1e80	6019.8125
21	0x45da6ac4	6989.3457
22	0x45898469	4400.5513
23	0x45967c51	4815.5396
24	0x460ad681	8885.626
25	0x4549228a	3218.1587
26	0x459fb540	5110.6562
27	0x457f1114	4081.0674
28	0x45e373ac	7278.459
29	0x45a3b8a3	5239.0796
30	0x45cd562c	6570.7715
31	0x459c5400	5002.5
32	0x45cc6788	6540.9414
33	0x45e6dfce	7387.9756
34	0x455aef5f	3502.9607
35	0x454ea201	3306.1252
36	0x45b4c453	5784.5405
37	0x45c47259	6286.2935
38	0x45be053f	6080.656
39	0x45ade8d3	5565.103
40	0x452a75e3	2727.368
41	0x45d3cbca	6777.4736
42	0x459d8a78	5041.3086
43	0x459a9791	4946.946
44	0x45454521	3156.3206
45	0x45c75482	6378.5635
46	0x45da893b	6993.154
47	0x4608c531	8753.298
48	0x457acbc2	4012.7349
49	0x45a70373	5344.431
50	0x45b98aaa	5937.333
51	0x458cc27e	4504.3115
52	0x45cb77e8	6510.9883
53	0x45ad8e44	5553.783
54	0x45c0e20e	6172.257
55	0x45c78d51	6385.6646
56	0x45ab219a	5476.2
57	0x458db212	4534.259
58	0x453132cb	2835.1746
59	0x45ee1105	7618.1274
60	0x458cee0f	4509.7573
61	0x45dff89f	7167.0776
62	0x45896ee9	4397.864
63	0x45af1bd3	5603.478
64	0x45c20b69	6209.4263
65	0x45c70c79	6369.559
66	0x4612ca5c	9394.59
67	0x45806d70	4109.6797
68	0x45c3b32e	6262.3975
69	0x459ef153	5086.1655
70	0x45968456	4816.542
71	0x4596ae92	4821.8213
72	0x45c4c48e	6296.5693
73	0x45f23c0b	7751.5054
74	0x455919e7	3473.619
75	0x459e8f08	5073.879
76	0x45b9ef8a	5949.9424
77	0x455649a9	3428.6038
78	0x458f5444	4586.533
79	0x45a550d0	5290.1016
80	0x4594b6d2	4758.8525
81	0x45979684	4850.8145
82	0x4585d691	4282.821
83	0x4600d957	8246.335
84	0x45dd9dae	7091.71
85	0x4586d634	4314.7754
86	0x45a1050f	5152.6323
87	0x4586f0b8	4318.09
88	0x459d85a1	5040.7036
89	0x459496d0	4754.8516
90	0x45ba252b	5956.646
91	0x45c60c9a	6337.575
92	0x464e7eb8	13215.68
93	0x45abb492	5494.5713
94	0x45a2f8eb	5215.1147
95	0x45ad654a	5548.661
96	0x455dfdae	3551.855
97	0x45f57a1f	7855.265
98	0x45380a9b	2944.6628
99	0x461f9de0	10215.469
100	0x457e50dc	4069.0537
101	0x45a76697	5356.8237
102	0x460c409a	8976.15
103	0x45e6da44	7387.283
104	0x458cd2b2	4506.337
105	0x4588d3f0	4378.492
106	0x46236391	10456.892
107	0x45a3bd17	5239.636
108	0x45a7c45d	5368.5454
109	0x459544a2	4776.579
110	0x45bb3082	5990.0635
111	0x4605d562	8565.346
112	0x45c2b78a	6230.9424
113	0x457c6bef	4038.7458
114	0x459c82b8	5008.34
115	0x4513da30	2365.6367
116	0x453545f5	2900.3723
117	0x46010c50	8259.078
118	0x45cb394f	6503.1636
119	0x45a1ce8f	5177.82
120	0x45b9a5b9	5940.7153
121	0x454dbb1a	3291.6938
122	0x45f208e2	7745.1104
123	0x45a9ffef	5439.9917
124	0x459b3fe7	4967.988
125	0x45c92626	6436.7686
126	0x45b87a57	5903.2925
127	0x459f448f	5096.57

BatchNormalization_0_param0 f4 [128]
0	0x3f9e189c	1.235126
1	0x3f86bb5b	1.0525926
2	0x3f61485c	0.88001037
3	0x3fbe64c7	1.4874505
4	0x3f9a4584	1.2052464
5	0x3f686e12	0.90792954
6	0x3f962af5	1.173186
7	0x3f887d4d	1.0663239
8	0x3f7345e5	0.95028526
9	0x3f5b9c17	0.8578505
10	0x3f8dc6e1	1.1076318
11	0x3f7cb13f	0.98707956
12	0x3f81416f	1.0098094
13	0x3f9edca0	1.241108
14	0x3fc409d9	1.5315505
15	0x3f9c06f4	1.2189622
16	0x3f9c8ec3	1.2231067
17	0x3fa446d0	1.283411
18	0x3f8806d4	1.0627084
19	0x3f880b4b	1.0628446
20	0x3f50f177	0.81618446
21	0x3fa4ce54	1.2875466
22	0x3f9de8ce	1.2336671
23	0x3f4ef904	0.8084872
24	0x3fc2731f	1.5191382
25	0x3f8a6f81	1.0815278
26	0x3fa845e6	1.3146331
27	0x3f5a3102	0.8523103
28	0x3f8718ce	1.0554445
29	0x3f89a52f	1.0753535
30	0x3fac3886	1.345475
31	0x3f9e47fe	1.236572
32	0x3f830297	1.0235165
33	0x3fa0c59c	1.2560306
34	0x3f6f1045	0.933842
35	0x3f8d3aac	1.103353
36	0x3f8fde38	1.1239691
37	0x3f93ca3e	1.1546094
38	0x3fb55576	1.4166706
39	0x3f57069a	0.8399445
40	0x3f8d46bd	1.1037213
41	0x3f804079	1.0019675
42	0x3f8a324e	1.0796602
43	0x3fabb9ff	1.3416137
44	0x3f91b5a2	1.1383555
45	0x3f60c659	0.87802655
46	0x3f7e3b6b	0.99309415
47	0x3fb0332d	1.3765618
48	0x3f4d3adc	0.8016794
49	0x3f6013e9	0.8753038
50	0x3f83ed17	1.0306729
51	0x3f9911cc	1.1958556
52	0x3f8d0c24	1.101933
53	0x3f68dd96	0.90963113
54	0x3fb522da	1.4151261
55	0x3fc03c71	1.5018445
56	0x3f54636c	0.82964206
57	0x3fc633dc	1.5484576
58	0x3f9c454c	1.2208648
59	0x3f6aea67	0.9176392
60	0x3f824b94	1.0179315
61	0x3fa38c5b	1.2777208
62	0x3f6e3563	0.9305021
63	0x3f8b38ad	1.0876671
64	0x3f7ccd14	0.98750424
65	0x3f8da2aa	1.1065266
66	0x3fb4325d	1.407787
67	0x3f83b852	1.0290625
68	0x3f9edca2	1.2411082
69	0x3f8a28cd	1.0793701
70	0x3f828034	1.0195374
71	0x3f589a2f	0.84610265
72	0x3f89b0ef	1.0757121
73	0x3f76f38c	0.96465373
74	0x3f614f47	0.8801159
75	0x3f8b8aab	1.0901693
76	0x3f975112	1.1821616
77	0x3f9f5fb9	1.2451087
78	0x3f8d7438	1.1051092
79	0x3f70baa3	0.94034785
80	0x3f4419a5	0.7660163
81	0x3f864b6a	1.0491765
82	0x3f865859	1.0495712
83	0x3f84cc4b	1.0374845
84	0x3f8645c0	1.0490036
85	0x3f743d55	0.95406085
86	0x3f8617f6	1.0476062
87	0x3f9038f8	1.1267385
88	0x3f754d64	0.95821214
89	0x3f9b5cf5	1.2137743
90	0x3f933553	1.1500648
91	0x3f49d926	0.7884697
92	0x3f98a51f	1.1925391
93	0x3f81d661	1.0143548
94	0x3fc77b88	1.5584574
95	0x3fa02fe5	1.2514616
96	0x3f8cec05	1.1009527
97	0x3f888f27	1.0668687
98	0x3f90c02e	1.1308649
99	0x3f8e55b3	1.1119903
100	0x3f993e84	1.1972203
101	0x3f6553bb	0.8958089
102	0x3f91ee7d	1.1400906
103	0x3f8c0f1c	1.0942111
104	0x3f86ba07	1.0525521
105	0x3f5daf2f	0.86595434
106	0x3facbe3e	1.3495557
107	0x3f1ed252	0.62039673
108	0x3f8297a8	1.0202532
109	0x3f964085	1.173844
110	0x3fa956e1	1.3229638
111	0x3fa0de80	1.2567902
112	0x3f8c12f0	1.0943279
113	0x3f600b20	0.87516975
114	0x3f8749bb	1.0569376
115	0x3f6ab2e3	0.9167921
116	0x3f75e413	0.9605114
117	0x3fa52e26	1.2904708
118	0x3f68fa02	0.9100648
119	0x3f9e01d7	1.2344311
120	0x3fa28706	1.2697456
121	0x3f7c6029	0.9858423
122	0x3f732833	0.94983214
123	0x3f6e7bed	0.93157846
124	0x3f902b35	1.1263186
125	0x3f8418c9	1.0320064
126	0x3f654ff1	0.89575106
127	0x3f860c51	1.0472509

BatchNormalization_1_param1 f4 [64]
0	0xbf252045	-0.64502364
1	0xbee2c983	-0.44294366
2	0xbecbc011	-0.39794973
3	0xbebca03c	-0.36841
4	0xbeed7f97	-0.46386406
5	0xbf3a3819	-0.7274185
6	0xbede3ef0	-0.43407393
7	0xbf04012d	-0.51564294
8	0xbedf7849	-0.43646458
9	0xbe97fe3a	-0.29686147
10	0xbea21edc	-0.3166417
11	0xbf624b6a	-0.8839632
12	0xbf2f574d	-0.68492585
13	0xbf0574e7	-0.52131504
14	0xbed0cbc2	-0.40780455
15	0xbf06f227	-0.52713245
16	0xbea8344c	-0.328524
17	0xbf1e1438	-0.617496
18	0xbf1dd42e	-0.61651886
19	0xbef0809d	-0.46973124
20	0xbe2d9052	-0.16949585
21	0xbeece9af	-0.46272036
22	0xbed91830	-0.42401266
23	0xbec8bd8e	-0.3920712
24	0xbeb6cba3	-0.35702237
25	0xbf74cbf8	-0.9562373
26	0xbef8fa93	-0.48628673
27	0xbeb43c05	-0.3520204
28	0xbe96e24b	-0.29469523
29	0xbf181608	-0.59408617
30	0xbed5627b	-0.41676697
31	0xbee6c458	-0.45071673
32	0xbf81935e	-1.0123098
33	0xbf2449c2	-0.64175045
34	0xbee421e0	-0.44557095
35	0xbf2922e0	-0.6606884
36	0xbf336644	-0.7007792
37	0xbed2c1dc	-0.41163528
38	0xbef1fdae	-0.47263855
39	0xbf12a09f	-0.5727634
40	0xbf011265	-0.5041869
41	0xbf690c9f	-0.91034883
42	0xbf1c2913	-0.61000174
43	0xbea5afc2	-0.32360655
44	0xbed5e29c	-0.41774452
45	0xbee69edb	-0.45043072
46	0xbf4c7650	-0.7986803
47	0xbf265415	-0.6497205
48	0xbed955f4	-0.4244839
49	0xbf250e56	-0.64475
50	0xbf5b2fb0	-0.8561964
51	0xbf142f84	-0.57885003
52	0xbeb1ea0e	-0.34748882
53	0xbe44c70a	-0.19216552
54	0xbf352327	-0.70756763
55	0xbee971bb	-0.45594582
56	0xbf2df523	-0.67952174
57	0xbf69aa54	-0.91275525
58	0xbf09f94a	-0.5389601
59	0xbe85f532	-0.26163632
60	0xbeff4409	-0.49856594
61	0xbe80c9f2	-0.25154072
62	0xbef33ac4	-0.47505772
63	0xbf2c3aed	-0.67277414

BatchNormalization_1_param2 f4 [64]
0	0xbf81d22a	-1.0142262
1	0xbedcf571	-0.43156007
2	0x3f5612ce	0.83622444
3	0x3f57d914	0.8431561
4	0x3ec17c64	0.37790215
5	0x3d9354e3	0.07193925
6	0xbf02065d	-0.5079096
7	0xbf02ef81	-0.51146704
8	0x3ceae115	0.02867178
9	0x3d86d811	0.0658418
10	0xbecfe37c	-0.40603244
11	0xbbc34b1c	-0.0059598815
12	0xbf6528ae	-0.895152
13	0x3d82d1bd	0.06387661
14	0xbeb54bf0	-0.35409498
15	0xbf665f2b	-0.89988965
16	0xbf2fceaa	-0.6867472
17	0x3f4b5246	0.79422414
18	0xbe5fbd37	-0.21849523
19	0x3fbb91e4	1.4653897
20	0x3f128d02	0.5724641
21	0xbb2ed9d9	-0.002668014
22	0xbec74ff6	-0.38928193
23	0xbd8295e2	-0.06376244
24	0xbf312e82	-0.6921159
25	0x3e3fe11d	0.18738218
26	0x3eb024e4	0.34403145
27	0x3e8280a8	0.25488782
28	0x3fa2fe1f	1.2733802
29	0xbf9fa5e5	-1.2472502
30	0xbf0bae17	-0.54562515
31	0xbc336698	-0.010949753
32	0xbf9dc052	-1.2324317
33	0xbd8ce1ab	-0.0687898
34	0xbf17eb55	-0.59343463
35	0xbd48cc99	-0.049023245
36	0xbf735210	-0.9504709
37	0xbf52a97b	-0.82289857
38	0x3e96d4d3	0.29459247
39	0xbed48248	-0.41505647
40	0xbf52fe05	-0.82418853
41	0xbe2fb3b6	-0.17158398
42	0x3dd28498	0.102791965
43	0xbeb2dabc	-0.34932506
44	0xbcbb105e	-0.022834953
45	0x3f564572	0.83699715
46	0xbf28caec	-0.65934634
47	0xbfaa4ab0	-1.3304043
48	0xbf7c0a69	-0.98453385
49	0xbebfb29c	-0.37440956
50	0x3ec67c89	0.38766888
51	0xbd409598	-0.047017664
52	0x3ecf826c	0.40529191
53	0x3e551b67	0.20811234
54	0xbf099d0e	-0.5375527
55	0xbe971538	-0.29508376
56	0xbec17595	-0.3778502
57	0xbe41dd4c	-0.18932074
58	0xbf660d30	-0.8986387
59	0x3fe6f081	1.8042146
60	0x3eade11c	0.33960807
61	0xbf4825bf	-0.78182596
62	0xbf2b2f31	-0.66868883
63	0x3f081553	0.5315754

BatchNormalization_1_param3 f4 [64]
0	0x3f9c32e0	1.2203026
1	0x3f5eb9b8	0.87002134
2	0x3f81e4ee	1.0147989
3	0x3f715b60	0.9428005
4	0x3f396f11	0.724351
5	0x3f82d8a9	1.022237
6	0x3f97356f	1.1813182
7	0x3f80b532	1.0055296
8	0x3f851834	1.0398011
9	0x3f8ba918	1.0910978
10	0x3f8ecb04	1.1155705
11	0x3f68ae09	0.90890557
12	0x3f5058c7	0.81385463
13	0x3f850845	1.0393149
14	0x3f3bdeca	0.73386824
15	0x3f751811	0.9573985
16	0x3f8d13c2	1.1021655
17	0x3f43cfe3	0.76489085
18	0x3f4bd049	0.7961469
19	0x3f8779f8	1.0584097
20	0x3f9dd835	1.2331606
21	0x3f5d8e7b	0.8654553
22	0x3f5ba274	0.8579476
23	0x3f4f60e1	0.810072
24	0x3f7b4551	0.98152643
25	0x3f2e8e29	0.6818567
26	0x3f6297d9	0.8851295
27	0x3f8f6c9e	1.1205022
28	0x3f49d836	0.78845537
29	0x3f4bd01b	0.7961442
30	0x3f54846e	0.8301457
31	0x3f808312	1.004
32	0x3f9d0e90	1.2270069
33	0x3f5f6c89	0.87274987
34	0x3f150954	0.5821736
35	0x3f5cad0d	0.86201555
36	0x3ee88541	0.45414165
37	0x3f57e6aa	0.8433634
38	0x3f91ceeb	1.1391271
39	0x3f4c7f0d	0.79881364
40	0x3f648daa	0.8927866
41	0x3f5de245	0.86673385
42	0x3f925205	1.143128
43	0x3f82e78c	1.0226912
44	0x3fa3a7ab	1.2785543
45	0x3f62e2a3	0.8862707
46	0x3f5abad4	0.8544133
47	0x3f25fafc	0.64836097
48	0x3f841527	1.0318955
49	0x3f1971ad	0.5993908
50	0x3f07f0e3	0.5310194
51	0x3f9968bb	1.1985086
52	0x3f87d589	1.0612041
53	0x3f4fefec	0.81225467
54	0x3f5040d7	0.8134894
55	0x3f90b4ff	1.1305236
56	0x3f4d4055	0.8017629
57	0x3f69d5bc	0.9134176
58	0x3f4adfb6	0.79247606
59	0x3f9d791c	1.2302585
60	0x3f2ef021	0.6833516
61	0x3f569c99	0.838327
62	0x3f86d458	1.0533552
63	0x3f93c9e3	1.1545986

BatchNormalization_1_param0 f4 [64]
0	0x3f4d09fc	0.8009336
1	0x3f3daa25	0.74087745
2	0x3f3c7501	0.73616034
3	0x3f4504de	0.7696055
4	0x3f204ed7	0.626203
5	0x3f4a9797	0.7913756
6	0x3f22ed06	0.6364292
7	0x3f47e982	0.7809068
8	0x3f51d87b	0.8197095
9	0x3f49f1e1	0.788847
10	0x3f3c8388	0.736382
11	0x3f51ac97	0.81903976
12	0x3f6b6508	0.91951036
13	0x3f7a7b07	0.97843975
14	0x3f2076be	0.62681186
15	0x3f3a1484	0.72687554
16	0x3f37093b	0.7149846
17	0x3f44b089	0.7683187
18	0x3f5907d9	0.847776
19	0x3f2d5d41	0.6772042
20	0x3f433593	0.7625362
21	0x3f6861eb	0.9077441
22	0x3f4039ce	0.750882
23	0x3f62b12d	0.885516
24	0x3f48b012	0.7839366
25	0x3f554094	0.83301663
26	0x3f2df724	0.6795523
27	0x3f5ab31e	0.8542956
28	0x3f21f81a	0.632692
29	0x3f3619ea	0.7113329
30	0x3f498488	0.7871785
31	0x3f4a6fe0	0.7907696
32	0x3f3f07a5	0.7462104
33	0x3f39a480	0.7251663
34	0x3f2bb67b	0.6707532
35	0x3f330e77	0.69943947
36	0x3f2f1bb4	0.68401647
37	0x3f3933cc	0.7234466
38	0x3f53afac	0.8268993
39	0x3f416190	0.75539494
40	0x3f20dc7d	0.6283644
41	0x3f3c8fde	0.73657024
42	0x3f6c1e67	0.9223389
43	0x3f3b6804	0.7320559
44	0x3f5e5659	0.86850506
45	0x3f2b2f15	0.66868716
46	0x3f72cb8d	0.94841844
47	0x3f51be99	0.81931454
48	0x3f4c331d	0.7976549
49	0x3f398a0a	0.72476256
50	0x3f37a300	0.71733093
51	0x3f506a1e	0.8141192
52	0x3f4419a3	0.7660162
53	0x3f47b4f0	0.78010464
54	0x3f6e8286	0.9316791
55	0x3f5c255d	0.8599451
56	0x3f4541a8	0.7705331
57	0x3f4fb3d7	0.8113379
58	0x3f49f001	0.7888184
59	0x3f4bc123	0.7959158
60	0x3f212fea	0.62963736
61	0x3f089b4c	0.53361964
62	0x3f5488eb	0.8302142
63	0x3f59ca6f	0.85074514

BatchNormalization_2_param1 f4 [32]
0	0xbdfef3b5	-0.12448827
1	0x3e28d059	0.16485728
2	0xbe1007fa	-0.14065543
3	0x3da256f2	0.0792674
4	0x3ead24da	0.33817178
5	0xbe1463fe	-0.14491269
6	0x3dc24832	0.094864264
7	0xbdaa78bb	-0.08323809
8	0x3e3a7523	0.18208747
9	0x3e8a3103	0.26990518
10	0xbe903a3e	-0.28169435
11	0x3e8b79a7	0.2724125
12	0x3e9cb5e4	0.30607522
13	0x3e56ccc9	0.20976557
14	0xbd4e01ef	-0.050294813
15	0xbd0a0d08	-0.033703834
16	0xbb6491c7	-0.003487693
17	0x3ec3f5ae	0.38273376
18	0x3e4f8785	0.2026654
19	0x3de2e1c1	0.110782154
20	0x3e1f441e	0.15553328
21	0xbd6f02b9	-0.058352206
22	0xbb828138	-0.003982689
23	0xbe7ba044	-0.24572855
24	0xbc81e2a6	-0.015855145
25	0x3d9d1613	0.07670226
26	0xbd94de4f	-0.072689645
27	0x3e134433	0.14381485
28	0x3e40be55	0.18822606
29	0xbe09ea81	-0.13468362
30	0xbe0a6b27	-0.13517438
31	0x3d02d53c	0.031941637

BatchNormalization_2_param2 f4 [32]
0	0xbd3afd9b	-0.045652013
1	0x3d4e960f	0.050436076
2	0xbd87da7d	-0.0663347
3	0x3e965530	0.29361868
4	0x3bd0b4a1	0.006369189
5	0xbdda4e27	-0.106594376
6	0xbe552860	-0.20816183
7	0xbe1a9278	-0.15094936
8	0x3e9a0ff0	0.30090284
9	0xbd99bf54	-0.07507196
10	0xbeb33c42	-0.3500691
11	0x3d6fcacf	0.058543023
12	0x3e8c3e40	0.27391243
13	0x3e8feb82	0.28109366
14	0x3d59d0ae	0.053177528
15	0xbe93bfc8	-0.28857255
16	0xbe2003d3	-0.15626459
17	0x3e2b0663	0.16701655
18	0x3e5254e9	0.20540203
19	0x3e84db68	0.25948644
20	0xbe6935c4	-0.22774416
21	0xbe8aafeb	-0.2708734
22	0x3c42d85c	0.011892404
23	0xbe308228	-0.1723715
24	0x3de05c60	0.10955119
25	0xbe734a91	-0.23758914
26	0xbd8dbf87	-0.069212966
27	0x3e941dea	0.28929073
28	0x3e5ab19b	0.21356814
29	0x3dddca14	0.10829559
30	0xbdb2c316	-0.08728616
31	0x3e2bd9ca	0.16782299

BatchNormalization_2_param3 f4 [32]
0	0x3fa001f2	1.2500594
1	0x400675a5	2.1009305
2	0x3fb2c0f2	1.3965132
3	0x3ff3f651	1.9059545
4	0x3f8b6377	1.0889729
5	0x3f9f2f12	1.243624
6	0x3faaad76	1.3334186
7	0x3f99e42b	1.2022756
8	0x4009a742	2.1508336
9	0x3ffa8293	1.9571098
10	0x3f835954	1.0261636
11	0x3ff0a5c8	1.8800592
12	0x3f812ae7	1.0091218
13	0x4005cbba	2.0905595
14	0x3fef252d	1.868322
15	0x3f8ef186	1.1167457
16	0x3fb354b7	1.4010228
17	0x3fc198de	1.5124776
18	0x3fa26fb6	1.2690341
19	0x4013e03b	2.310561
20	0x3fb352a1	1.4009591
21	0x3f9b7818	1.2146025
22	0x3fe2df38	1.7724371
23	0x3f9852e0	1.1900291
24	0x3fbf3378	1.4937582
25	0x3fab1e80	1.3368683
26	0x3ffdd9fc	1.9832149
27	0x4003e736	2.060987
28	0x3fb40c6e	1.4066293
29	0x3f9b6baf	1.2142237
30	0x3fbf6e22	1.4955485
31	0x3fd49194	1.6606927

BatchNormalization_2_param0 f4 [32]
0	0x3fa40a48	1.2815638
1	0x400fea08	2.2486591
2	0x3fa77d9c	1.3085208
3	0x3fcc1a3d	1.5945507
4	0x3fabc251	1.3418676
5	0x3ffe94c8	1.9889154
6	0x400aae0c	2.166873
7	0x3fd6c1a8	1.6777849
8	0x3fb71b20	1.4305153
9	0x400781c6	2.1172957
10	0x3fac83af	1.3477687
11	0x40195e68	2.396387
12	0x3faa9da7	1.3329362
13	0x3fc9414a	1.572305
14	0x3feb62d2	1.8389533
15	0x3fd6755c	1.6754565
16	0x40109c43	2.2595375
17	0x400936f8	2.14398
18	0x4000dca7	2.0134676
19	0x401d0635	2.4535038
20	0x3f9cb3d6	1.2242382
21	0x3fefd133	1.8735718
22	0x3fe22332	1.7666991
23	0x3fb10512	1.3829672
24	0x3f969783	1.1764988
25	0x3fc2a0ff	1.5205382
26	0x3fd7b035	1.6850649
27	0x3ff85c79	1.940322
28	0x3fc994f8	1.5748587
29	0x3f8f0474	1.1173234
30	0x3fac8ef8	1.3481131
31	0x3fbd91c8	1.4810114

MatMul_0_param0 f4 [72, 128]
0	0xc1f80000	-31.0
1	0xc1800000	-16.0
2	0x41d80000	27.0
3	0xc2080000	-34.0
4	0x41d00000	26.0
5	0xc2200000	-40.0
6	0x42300000	44.0
7	0x41a80000	21.0
8	0xc1400000	-12.0
9	0x41000000	8.0
10	0xc2380000	-46.0
11	0xc2840000	-66.0
12	0x42180000	38.0
13	0x42860000	67.0
14	0x42180000	38.0
15	0xc1400000	-12.0
16	0xc2980000	-76.0
17	0x42aa0000	85.0
18	0xc1500000	-13.0
19	0x40400000	3.0
20	0xc24c0000	-51.0
21	0x41200000	10.0
22	0x42240000	41.0
23	0xc0000000	-2.0
24	0x41300000	11.0
25	0xc0c00000	-6.0
26	0xc2240000	-41.0
27	0xc1200000	-10.0
28	0x40000000	2.0
29	0xc0400000	-3.0
30	0xc1200000	-10.0
31	0x00000000	0.0
32	0xc0800000	-4.0
33	0x42700000	60.0
34	0xc2240000	-41.0
35	0xc1000000	-8.0
36	0xc1500000	-13.0
37	0xc0400000	-3.0
38	0xc23c0000	-47.0
39	0xc1b00000	-22.0
40	0x42440000	49.0
41	0x42480000	50.0
42	0x425c0000	55.0
43	0xc2840000	-66.0
44	0xc1700000	-15.0
45	0x40400000	3.0
46	0xc2300000	-44.0
47	0xc2bc0000	-94.0
48	0xc2200000	-40.0
49	0x41a80000	21.0
50	0xc1e00000	-28.0
51	0x41500000	13.0
52	0xc21c0000	-39.0
53	0xc2a60000	-83.0
54	0xc2400000	-48.0
55	0x41000000	8.0
56	0xc1000000	-8.0
57	0x41500000	13.0
58	0x42300000	44.0
59	0x42080000	34.0
60	0x421c0000	39.0
61	0xc0a00000	-5.0
62	0xc0e00000	-7.0
63	0x41200000	10.0
64	0x42200000	40.0
65	0x40800000	4.0
66	0x42380000	46.0
67	0x41000000	8.0
68	0x41a00000	20.0
69	0x42500000	52.0
70	0x41500000	13.0
71	0x42880000	68.0
72	0xc2280000	-42.0
73	0xc2100000	-36.0
74	0x40c00000	6.0
75	0x426c0000	59.0
76	0xc2180000	-38.0
77	0xc1e80000	-29.0
78	0xc2540000	-53.0
79	0xc1500000	-13.0
80	0xc1700000	-15.0
81	0x41500000	13.0
82	0xc1a00000	-20.0
83	0xc1100000	-9.0
84	0xc1700000	-15.0
85	0x42820000	65.0
86	0x42240000	41.0
87	0xc2cc0000	-102.0
88	0xc2480000	-50.0
89	0xc0400000	-3.0
90	0x42240000	41.0
91	0x40400000	3.0
92	0xc1100000	-9.0
93	0xc0a00000	-5.0
94	0xc2c80000	-100.0
95	0x427c0000	63.0
96	0xc1e80000	-29.0
97	0xc2aa0000	-85.0
98	0x40000000	2.0
99	0x429a0000	77.0
100	0x42000000	32.0
101	0xc1d00000	-26.0
102	0xc1000000	-8.0
103	0xc2780000	-62.0
104	0x421c0000	39.0
105	0x3f800000	1.0
106	0xc2800000	-64.0
107	0xc1500000	-13.0
108	0xc1000000	-8.0
109	0x424c0000	51.0
110	0xc2900000	-72.0
111	0xc2e20000	-113.0
112	0x422c0000	43.0
113	0x41b80000	23.0
114	0x40c00000	6.0
115	0x42440000	49.0
116	0x42040000	33.0
117	0xc0800000	-4.0
118	0xc2440000	-49.0
119	0xbf800000	-1.0
120	0xc2bc0000	-94.0
121	0xc1c00000	-24.0
122	0xc1e00000	-28.0
123	0x41b00000	22.0
124	0x41700000	15.0
125	0x429c0000	78.0
126	0x42040000	33.0
127	0x420c0000	35.0
128	0x42140000	37.0
129	0x41100000	9.0
130	0xc2480000	-50.0
131	0x41100000	9.0
132	0x42680000	58.0
133	0xc1a80000	-21.0
134	0x41d80000	27.0
135	0x42040000	33.0
136	0xbf800000	-1.0
137	0xc1e80000	-29.0
138	0x42540000	53.0
139	0x42140000	37.0
140	0xc2240000	-41.0
141	0xc2680000	-58.0
142	0x41300000	11.0
143	0xc1600000	-14.0
144	0x41700000	15.0
145	0x41c80000	25.0
146	0xc1b00000	-22.0
147	0xc2800000	-64.0
148	0xc0a00000	-5.0
149	0x42280000	42.0
150	0x42080000	34.0
151	0xc1600000	-14.0
152	0xc0000000	-2.0
153	0xc2240000	-41.0
154	0xc2ac0000	-86.0
155	0xc2140000	-37.0
156	0x41200000	10.0
157	0xc1600000	-14.0
158	0x41300000	11.0
159	0x42480000	50.0
160	0x41f00000	30.0
161	0xc1a00000	-20.0
162	0x42700000	60.0
163	0x3f800000	1.0
164	0x40400000	3.0
165	0x42980000	76.0
166	0xc1d80000	-27.0
167	0xc2280000	-42.0
168	0xc1100000	-9.0
169	0x41e00000	28.0
170	0x3f800000	1.0
171	0xc0800000	-4.0
172	0x41880000	17.0
173	0xc1880000	-17.0
174	0x41f80000	31.0
175	0xc1a00000	-20.0
176	0xc0000000	-2.0
177	0x40e00000	7.0
178	0x42860000	67.0
179	0x3f800000	1.0
180	0xbf800000	-1.0
181	0xc23c0000	-47.0
182	0x41d00000	26.0
183	0xc1000000	-8.0
184	0xc1700000	-15.0
185	0x41400000	12.0
186	0x3f800000	1.0
187	0xc1700000	-15.0
188	0xc2740000	-61.0
189	0x41d00000	26.0
190	0xc2140000	-37.0
191	0xc2580000	-54.0
192	0xc1300000	-11.0
193	0x42080000	34.0
194	0xc1e00000	-28.0
195	0xc0400000	-3.0
196	0xc2600000	-56.0
197	0x41000000	8.0
198	0x41b80000	23.0
199	0x40800000	4.0
200	0x42820000	65.0
201	0x41400000	12.0
202	0xc1300000	-11.0
203	0xc1600000	-14.0
204	0x423c0000	47.0
205	0x41d00000	26.0
206	0xc1900000	-18.0
207	0x40400000	3.0
208	0x40800000	4.0
209	0x41880000	17.0
210	0x41b00000	22.0
211	0xc1200000	-10.0
212	0xc2040000	-33.0
213	0x422c0000	43.0
214	0x41400000	12.0
215	0xc1300000	-11.0
216	0xc1d80000	-27.0
217	0x42140000	37.0
218	0x41900000	18.0
219	0x42000000	32.0
220	0xc2140000	-37.0
221	0xc2080000	-34.0
222	0x41100000	9.0
223	0xc2180000	-38.0
224	0x42340000	45.0
225	0x425c0000	55.0
226	0x421c0000	39.0
227	0xc28e0000	-71.0
228	0xc1d00000	-26.0
229	0xc2300000	-44.0
230	0xc2140000	-37.0
231	0xc2480000	-50.0
232	0xc1300000	-11.0
233	0x41b00000	22.0
234	0xc2400000	-48.0
235	0x41100000	9.0
236	0xc1a00000	-20.0
237	0xc1a00000	-20.0
238	0xc2820000	-65.0
239	0xc2140000	-37.0
240	0xc1a00000	-20.0
241	0x425c0000	55.0
242	0x41d00000	26.0
243	0x41d80000	27.0
244	0xc1200000	-10.0
245	0xc1f80000	-31.0
246	0x41b00000	22.0
247	0xc24c0000	-51.0
248	0xc0a00000	-5.0
249	0x41000000	8.0
250	0xc0000000	-2.0
251	0x41980000	19.0
252	0xc1b80000	-23.0
253	0xc29c0000	-78.0
254	0x41400000	12.0
255	0xc2740000	-61.0

MultiThreshold_0_param0 f4 [1, 15]
0	0x3d19102d	0.037368942
1	0x3de59844	0.11210683
2	0x3e3f5438	0.1868447
3	0x3e85ee28	0.2615826
4	0x3eac3233	0.3363205
5	0x3ed2763e	0.41105837
6	0x3ef8ba4a	0.48579627
7	0x3f0f7f2a	0.5605341
8	0x3f22a130	0.635272
9	0x3f35c336	0.71000993
10	0x3f48e53b	0.7847478
11	0x3f5c0741	0.8594857
12	0x3f6f2947	0.9342236
13	0x3f8125a6	1.0089614
14	0x3f8ab6a8	1.0836992

MatMul_1_param0 f4 [128, 64]
0	0xc0800000	-4.0
1	0x3f800000	1.0
2	0xc0400000	-3.0
3	0x00000000	0.0
4	0x00000000	0.0
5	0x80000000	-0.0
6	0xc0000000	-2.0
7	0xc0800000	-4.0
8	0xc0400000	-3.0
9	0x3f800000	1.0
10	0x40800000	4.0
11	0xc0000000	-2.0
12	0xc0800000	-4.0
13	0x3f800000	1.0
14	0x40400000	3.0
15	0x40000000	2.0
16	0x40400000	3.0
17	0xc0a00000	-5.0
18	0xc0000000	-2.0
19	0x40800000	4.0
20	0xc0800000	-4.0
21	0xc0e00000	-7.0
22	0xbf800000	-1.0
23	0x40c00000	6.0
24	0xc0400000	-3.0
25	0xbf800000	-1.0
26	0xbf800000	-1.0
27	0x3f800000	1.0
28	0x40400000	3.0
29	0xc0800000	-4.0
30	0xc0800000	-4.0
31	0x40400000	3.0
32	0xc0400000	-3.0
33	0x40a00000	5.0
34	0x00000000	0.0
35	0xbf800000	-1.0
36	0xc0000000	-2.0
37	0x80000000	-0.0
38	0x3f800000	1.0
39	0x80000000	-0.0
40	0xc0800000	-4.0
41	0xc0000000	-2.0
42	0x80000000	-0.0
43	0x00000000	0.0
44	0xc0e00000	-7.0
45	0xc0400000	-3.0
46	0x00000000	0.0
47	0xc0800000	-4.0
48	0x40000000	2.0
49	0x80000000	-0.0
50	0xbf800000	-1.0
51	0xbf800000	-1.0
52	0x40400000	3.0
53	0x40a00000	5.0
54	0xc0000000	-2.0
55	0xc0a00000	-5.0
56	0xc0a00000	-5.0
57	0xc0800000	-4.0
58	0x40400000	3.0
59	0x3f800000	1.0
60	0x40400000	3.0
61	0x40000000	2.0
62	0x40800000	4.0
63	0x3f800000	1.0
64	0xc0e00000	-7.0
65	0xc0400000	-3.0
66	0x40c00000	6.0
67	0xc0000000	-2.0
68	0xbf800000	-1.0
69	0xc0400000	-3.0
70	0xc0a00000	-5.0
71	0xc0000000	-2.0
72	0xc0a00000	-5.0
73	0xbf800000	-1.0
74	0xc0a00000	-5.0
75	0xbf800000	-1.0
76	0xc0e00000	-7.0
77	0xc0800000	-4.0
78	0xc0400000	-3.0
79	0xc0c00000	-6.0
80	0xbf800000	-1.0
81	0xc0800000	-4.0
82	0xc0400000	-3.0
83	0x80000000	-0.0
84	0xc0400000	-3.0
85	0xc0c00000	-6.0
86	0xc0a00000	-5.0
87	0xc0000000	-2.0
88	0xc0a00000	-5.0
89	0xc0400000	-3.0
90	0x40000000	2.0
91	0x40000000	2.0
92	0x3f800000	1.0
93	0xc0c00000	-6.0
94	0xc0c00000	-6.0
95	0xc0e00000	-7.0
96	0xc0c00000	-6.0
97	0x80000000	-0.0
98	0xc0800000	-4.0
99	0xc0000000	-2.0
100	0xc0800000	-4.0
101	0xc0c00000	-6.0
102	0xc0a00000	-5.0
103	0xc0a00000	-5.0
104	0xc0c00000	-6.0
105	0xc0c00000	-6.0
106	0x40a00000	5.0
107	0xc0000000	-2.0
108	0x3f800000	1.0
109	0x40000000	2.0
110	0xc0800000	-4.0
111	0xc0400000	-3.0
112	0xc0a00000	-5.0
113	0x40a00000	5.0
114	0xbf800000	-1.0
115	0xbf800000	-1.0
116	0x40000000	2.0
117	0x40000000	2.0
118	0x00000000	0.0
119	0x40a00000	5.0
120	0xc0c00000	-6.0
121	0xbf800000	-1.0
122	0xbf800000	-1.0
123	0x00000000	0.0
124	0x3f800000	1.0
125	0xc0800000	-4.0
126	0xc0a00000	-5.0
127	0x3f800000	1.0
128	0xbf800000	-1.0
129	0x40400000	3.0
130	0xc0000000	-2.0
131	0x80000000	-0.0
132	0xc0c00000	-6.0
133	0xc0e00000	-7.0
134	0x80000000	-0.0
135	0x40000000	2.0
136	0x40000000	2.0
137	0xbf800000	-1.0
138	0xc0800000	-4.0
139	0xc0400000	-3.0
140	0xc0400000	-3.0
141	0x40400000	3.0
142	0x40400000	3.0
143	0x00000000	0.0
144	0xc0000000	-2.0
145	0xbf800000	-1.0
146	0xbf800000	-1.0
147	0x40400000	3.0
148	0x40000000	2.0
149	0xc0800000	-4.0
150	0xc0000000	-2.0
151	0x00000000	0.0
152	0xbf800000	-1.0
153	0xc0c00000	-6.0
154	0x40800000	4.0
155	0x40400000	3.0
156	0x3f800000	1.0
157	0x3f800000	1.0
158	0x40400000	3.0
159	0x40800000	4.0
160	0x40c00000	6.0
161	0x3f800000	1.0
162	0x00000000	0.0
163	0x40000000	2.0
164	0xc0e00000	-7.0
165	0xc0400000	-3.0
166	0x40e00000	7.0
167	0xbf800000	-1.0
168	0xc0000000	-2.0
169	0x40000000	2.0
170	0x40e00000	7.0
171	0x00000000	0.0
172	0x3f800000	1.0
173	0x80000000	-0.0
174	0xc0400000	-3.0
175	0x80000000	-0.0
176	0xbf800000	-1.0
177	0xbf800000	-1.0
178	0xc0000000	-2.0
179	0x00000000	0.0
180	0x40000000	2.0
181	0xc0000000	-2.0
182	0xbf800000	-1.0
183	0xc0400000	-3.0
184	0xc0a00000	-5.0
185	0xc0e00000	-7.0
186	0xc0400000	-3.0
187	0x40000000	2.0
188	0x40800000	4.0
189	0x3f800000	1.0
190	0x40000000	2.0
191	0x40c00000	6.0
192	0xc0e00000	-7.0
193	0x40000000	2.0
194	0xc0000000	-2.0
195	0x00000000	0.0
196	0x40000000	2.0
197	0xc0000000	-2.0
198	0xc0a00000	-5.0
199	0x3f800000	1.0
200	0x80000000	-0.0
201	0xbf800000	-1.0
202	0xc0c00000	-6.0
203	0x40400000	3.0
204	0xbf800000	-1.0
205	0x40800000	4.0
206	0x40000000	2.0
207	0xc0c00000	-6.0
208	0xc0c00000	-6.0
209	0xc0400000	-3.0
210	0x80000000	-0.0
211	0xbf800000	-1.0
212	0x40800000	4.0
213	0xc0e00000	-7.0
214	0xc0400000	-3.0
215	0x40000000	2.0
216	0xbf800000	-1.0
217	0xc0a00000	-5.0
218	0x40000000	2.0
219	0xc0400000	-3.0
220	0x40000000	2.0
221	0x40000000	2.0
222	0xc0000000	-2.0
223	0x40c00000	6.0
224	0x00000000	0.0
225	0x40400000	3.0
226	0x40000000	2.0
227	0x40a00000	5.0
228	0x40800000	4.0
229	0xc0000000	-2.0
230	0x00000000	0.0
231	0x40800000	4.0
232	0x3f800000	1.0
233	0x00000000	0.0
234	0xc0e00000	-7.0
235	0xbf800000	-1.0
236	0xbf800000	-1.0
237	0xc0000000	-2.0
238	0xc0e00000	-7.0
239	0x3f800000	1.0
240	0xc0c00000	-6.0
241	0xbf800000	-1.0
242	0x80000000	-0.0
243	0x40000000	2.0
244	0x40a00000	5.0
245	0xbf800000	-1.0
246	0x80000000	-0.0
247	0xc0e00000	-7.0
248	0x3f800000	1.0
249	0xc0400000	-3.0
250	0x3f800000	1.0
251	0xc0400000	-3.0
252	0xc0a00000	-5.0
253	0x40a00000	5.0
254	0xc0e00000	-7.0
255	0x40000000	2.0

MatMul_2_param0 f4 [64, 32]
0	0x40e00000	7.0
1	0x40000000	2.0
2	0x40e00000	7.0
3	0x40000000	2.0
4	0x40000000	2.0
5	0x00000000	0.0
6	0xc0800000	-4.0
7	0x40800000	4.0
8	0xbf800000	-1.0
9	0xc0e00000	-7.0
10	0x40c00000	6.0
11	0xc0e00000	-7.0
12	0x40000000	2.0
13	0xbf800000	-1.0
14	0xc0800000	-4.0
15	0x3f800000	1.0
16	0x80000000	-0.0
17	0xc0e00000	-7.0
18	0x40400000	3.0
19	0xc0e00000	-7.0
20	0xc0a00000	-5.0
21	0x40a00000	5.0
22	0x40e00000	7.0
23	0x40e00000	7.0
24	0xbf800000	-1.0
25	0x40000000	2.0
26	0x40e00000	7.0
27	0x40400000	3.0
28	0x40400000	3.0
29	0x40400000	3.0
30	0x40e00000	7.0
31	0x3f800000	1.0
32	0xc0400000	-3.0
33	0xc0c00000	-6.0
34	0xc0800000	-4.0
35	0x40000000	2.0
36	0xc0c00000	-6.0
37	0x3f800000	1.0
38	0x40800000	4.0
39	0x80000000	-0.0
40	0x3f800000	1.0
41	0x40a00000	5.0
42	0x00000000	0.0
43	0x40400000	3.0
44	0xc0800000	-4.0
45	0x40000000	2.0
46	0x40800000	4.0
47	0xbf800000	-1.0
48	0x40a00000	5.0
49	0x40e00000	7.0
50	0xbf800000	-1.0
51	0x40800000	4.0
52	0xbf800000	-1.0
53	0x80000000	-0.0
54	0xc0e00000	-7.0
55	0xc0800000	-4.0
56	0x3f800000	1.0
57	0xbf800000	-1.0
58	0xc0c00000	-6.0
59	0xc0a00000	-5.0
60	0xc0a00000	-5.0
61	0x3f800000	1.0
62	0xc0800000	-4.0
63	0x3f800000	1.0
64	0xc0000000	-2.0
65	0xc0c00000	-6.0
66	0xc0400000	-3.0
67	0x00000000	0.0
68	0xc0400000	-3.0
69	0x40a00000	5.0
70	0x40000000	2.0
71	0x40400000	3.0
72	0x3f800000	1.0
73	0x40400000	3.0
74	0x40000000	2.0
75	0x40a00000	5.0
76	0xc0400000	-3.0
77	0x80000000	-0.0
78	0x40c00000	6.0
79	0x3f800000	1.0
80	0x40800000	4.0
81	0x40a00000	5.0
82	0xc0800000	-4.0
83	0x40c00000	6.0
84	0x3f800000	1.0
85	0x3f800000	1.0
86	0xc0800000	-4.0
87	0xc0000000	-2.0
88	0x00000000	0.0
89	0x3f800000	1.0
90	0xc0c00000	-6.0
91	0xc0400000	-3.0
92	0xc0c00000	-6.0
93	0x3f800000	1.0
94	0xc0000000	-2.0
95	0x3f800000	1.0
96	0xc0c00000	-6.0
97	0xc0e00000	-7.0
98	0xc0a00000	-5.0
99	0xbf800000	-1.0
100	0xc0400000	-3.0
101	0x40800000	4.0
102	0x40a00000	5.0
103	0x80000000	-0.0
104	0x80000000	-0.0
105	0x40a00000	5.0
106	0xbf800000	-1.0
107	0x40a00000	5.0
108	0xc0a00000	-5.0
109	0xbf800000	-1.0
110	0x40400000	3.0
111	0xc0000000	-2.0
112	0x40e00000	7.0
113	0x40e00000	7.0
114	0xc0c00000	-6.0
115	0x40e00000	7.0
116	0xc0000000	-2.0
117	0xbf800000	-1.0
118	0xc0a00000	-5.0
119	0xc0a00000	-5.0
120	0x00000000	0.0
121	0xc0000000	-2.0
122	0xc0a00000	-5.0
123	0xc0e00000	-7.0
124	0xc0e00000	-7.0
125	0xbf800000	-1.0
126	0xc0a00000	-5.0
127	0x00000000	0.0
128	0x40800000	4.0
129	0x40000000	2.0
130	0x40c00000	6.0
131	0xbf800000	-1.0
132	0x40000000	2.0
133	0x80000000	-0.0
134	0xc0800000	-4.0
135	0x00000000	0.0
136	0x40000000	2.0
137	0xc0c00000	-6.0
138	0x40000000	2.0
139	0xc0c00000	-6.0
140	0x40a00000	5.0
141	0xbf800000	-1.0
142	0xc0a00000	-5.0
143	0x3f800000	1.0
144	0xc0000000	-2.0
145	0xc0800000	-4.0
146	0x40800000	4.0
147	0xc0c00000	-6.0
148	0x40000000	2.0
149	0x40000000	2.0
150	0x40a00000	5.0
151	0x40e00000	7.0
152	0x80000000	-0.0
153	0xc0000000	-2.0
154	0x40c00000	6.0
155	0x40800000	4.0
156	0x40400000	3.0
157	0x3f800000	1.0
158	0x40a00000	5.0
159	0x40400000	3.0
160	0x40e00000	7.0
161	0x40000000	2.0
162	0x40400000	3.0
163	0x40c00000	6.0
164	0x40000000	2.0
165	0xc0400000	-3.0
166	0xc0e00000	-7.0
167	0xc0800000	-4.0
168	0xc0a00000	-5.0
169	0xc0e00000	-7.0
170	0xc0000000	-2.0
171	0xc0e00000	-7.0
172	0x3f800000	1.0
173	0x40e00000	7.0
174	0xc0800000	-4.0
175	0x40a00000	5.0
176	0xc0000000	-2.0
177	0xc0000000	-2.0
178	0xc0800000	-4.0
179	0xc0000000	-2.0
180	0x80000000	-0.0
181	0xc0800000	-4.0
182	0x40000000	2.0
183	0xbf800000	-1.0
184	0xc0400000	-3.0
185	0xbf800000	-1.0
186	0x40400000	3.0
187	0x40400000	3.0
188	0x80000000	-0.0
189	0xc0400000	-3.0
190	0x40e00000	7.0
191	0x40800000	4.0
192	0x40e00000	7.0
193	0x40800000	4.0
194	0x40e00000	7.0
195	0x40400000	3.0
196	0x40000000	2.0
197	0xc0000000	-2.0
198	0xc0800000	-4.0
199	0x80000000	-0.0
200	0x40a00000	5.0
201	0xc0c00000	-6.0
202	0x3f800000	1.0
203	0xc0800000	-4.0
204	0x40000000	2.0
205	0x40400000	3.0
206	0xc0000000	-2.0
207	0xbf800000	-1.0
208	0xc0000000	-2.0
209	0xc0400000	-3.0
210	0x40800000	4.0
211	0xc0000000	-2.0
212	0xc0000000	-2.0
213	0x80000000	-0.0
214	0x40e00000	7.0
215	0x40e00000	7.0
216	0x40a00000	5.0
217	0x80000000	-0.0
218	0x40c00000	6.0
219	0x40c00000	6.0
220	0x40a00000	5.0
221	0x40800000	4.0
222	0x40e00000	7.0
223	0x40e00000	7.0
224	0xc0800000	-4.0
225	0xc0c00000	-6.0
226	0xc0a00000	-5.0
227	0x00000000	0.0
228	0xc0400000	-3.0
229	0x40000000	2.0
230	0x40800000	4.0
231	0x00000000	0.0
232	0x3f800000	1.0
233	0x40800000	4.0
234	0x00000000	0.0
235	0x40400000	3.0
236	0x00000000	0.0
237	0x3f800000	1.0
238	0x40800000	4.0
239	0x80000000	-0.0
240	0x40000000	2.0
241	0x40a00000	5.0
242	0xc0000000	-2.0
243	0x40c00000	6.0
244	0x80000000	-0.0
245	0x00000000	0.0
246	0xc0c00000	-6.0
247	0xc0800000	-4.0
248	0x3f800000	1.0
249	0x00000000	0.0
250	0xc0e00000	-7.0
251	0xc0a00000	-5.0
252	0x80000000	-0.0
253	0x80000000	-0.0
254	0xc0c00000	-6.0
255	0x00000000	0.0

MatMul_3_param0 f4 [32, 3]
0	0x40a00000	5.0
1	0xc0a00000	-5.0
2	0xc0a00000	-5.0
3	0x40400000	3.0
4	0x40000000	2.0
5	0xc0e00000	-7.0
6	0x40c00000	6.0
7	0xc0400000	-3.0
8	0xc0a00000	-5.0
9	0x40000000	2.0
10	0xc0e00000	-7.0
11	0x40400000	3.0
12	0x40000000	2.0
13	0x40000000	2.0
14	0xc0e00000	-7.0
15	0xc0e00000	-7.0
16	0x40800000	4.0
17	0x3f800000	1.0
18	0xc0e00000	-7.0
19	0x40400000	3.0
20	0x40000000	2.0
21	0x40000000	2.0
22	0x40800000	4.0
23	0xc0e00000	-7.0
24	0x40000000	2.0
25	0xc0e00000	-7.0
26	0x40400000	3.0
27	0xc0e00000	-7.0
28	0x40000000	2.0
29	0x40400000	3.0
30	0xbf800000	-1.0
31	0x40800000	4.0
32	0xc0e00000	-7.0
33	0xc0e00000	-7.0
34	0x40400000	3.0
35	0x40400000	3.0
36	0x3f800000	1.0
37	0xc0e00000	-7.0
38	0x40000000	2.0
39	0x40000000	2.0
40	0xc0e00000	-7.0
41	0x40000000	2.0
42	0xc0e00000	-7.0
43	0x40400000	3.0
44	0x40800000	4.0
45	0x40000000	2.0
46	0x40000000	2.0
47	0xc0e00000	-7.0
48	0xc0e00000	-7.0
49	0x40800000	4.0
50	0x40000000	2.0
51	0xc0e00000	-7.0
52	0x40000000	2.0
53	0x40000000	2.0
54	0x40000000	2.0
55	0x3f800000	1.0
56	0xc0c00000	-6.0
57	0xc0e00000	-7.0
58	0x40400000	3.0
59	0x40800000	4.0
60	0x40000000	2.0
61	0x40400000	3.0
62	0xc0e00000	-7.0
63	0x3f800000	1.0
64	0x40400000	3.0
65	0xc0e00000	-7.0
66	0x40400000	3.0
67	0xc0e00000	-7.0
68	0xbf800000	-1.0
69	0x40c00000	6.0
70	0xc0800000	-4.0
71	0xc0e00000	-7.0
72	0x3f800000	1.0
73	0xc0e00000	-7.0
74	0x40a00000	5.0
75	0x3f800000	1.0
76	0x40000000	2.0
77	0xc0e00000	-7.0
78	0x40400000	3.0
79	0x00000000	0.0
80	0xc0e00000	-7.0
81	0x3f800000	1.0
82	0xc0e00000	-7.0
83	0x3f800000	1.0
84	0x40000000	2.0
85	0xc0e00000	-7.0
86	0x3f800000	1.0
87	0xbf800000	-1.0
88	0xc0e00000	-7.0
89	0x40a00000	5.0
90	0x40a00000	5.0
91	0xc0800000	-4.0
92	0xc0e00000	-7.0
93	0x40000000	2.0
94	0xc0e00000	-7.0
95	0x40800000	4.0

MultiThreshold_1_param0 f4 [1, 15]
0	0x3d19102d	0.037368942
1	0x3de59844	0.11210683
2	0x3e3f5438	0.1868447
3	0x3e85ee28	0.2615826
4	0x3eac3233	0.3363205
5	0x3ed2763e	0.41105837
6	0x3ef8ba4a	0.48579627
7	0x3f0f7f2a	0.5605341
8	0x3f22a130	0.635272
9	0x3f35c336	0.71000993
10	0x3f48e53b	0.7847478
11	0x3f5c0741	0.8594857
12	0x3f6f2947	0.9342236
13	0x3f8125a6	1.0089614
14	0x3f8ab6a8	1.0836992

MultiThreshold_2_param0 f4 [1, 15]
0	0x3d19102d	0.037368942
1	0x3de59844	0.11210683
2	0x3e3f5438	0.1868447
3	0x3e85ee28	0.2615826
4	0x3eac3233	0.3363205
5	0x3ed2763e	0.41105837
6	0x3ef8ba4a	0.48579627
7	0x3f0f7f2a	0.5605341
8	0x3f22a130	0.635272
9	0x3f35c336	0.71000993
10	0x3f48e53b	0.7847478
11	0x3f5c0741	0.8594857
12	0x3f6f2947	0.9342236
13	0x3f8125a6	1.0089614
14	0x3f8ab6a8	1.0836992
