src/hardware_fpga/mlp_v4/mlp_feat_0911_2345.pt (torch, 98915 bytes, 16 tensors)

layer_1.weight f4 [128, 72]
000000 63 02 99 be 5e 5c b4 3e 5c 3c 5f 3e 1c c3 72 be
       -0.29884633 0.3522672 0.21800369 -0.23707241
000010 70 97 1a 3c da 9c 57 3e ef 7e 01 bd 6d 83 5b 3e
       0.00943552 0.21055928 -0.031615194 0.21436854
000020 f2 64 8b be a1 77 08 3d c2 86 c9 3d 37 e6 16 bf
       -0.27225453 0.033317212 0.09840156 -0.5894503
000030 fe 39 ac 3e 9b 11 18 be af 74 9a be 2a 24 b8 bc
       0.33637995 -0.14850466 -0.30167148 -0.022478182
000040 66 07 85 bd 3a 39 ce be 15 31 54 3d 86 83 4e 3c
       -0.06495552 -0.40278035 0.05180462 0.0126046
000050 b4 2b 04 3e 85 7a 38 3d 36 91 7b 3d 8e dd 52 bf
       0.12907296 0.04503872 0.06141778 -0.82369316
000060 f4 7c 82 3c 2e b7 9b bd e8 24 33 bd 23 fe 40 bd
       0.015928723 -0.07603298 -0.04373637 -0.047117364
000070 f3 4f b8 3d 18 8b ad 3d b7 0f 3f 3d a8 a4 e8 3c
       0.08999624 0.08473796 0.046645846 0.028398827
000080 92 58 0b 3e 0d a5 1e 3e 64 3b b3 3b 2e 98 eb 3d
       0.13608006 0.1549265 0.0054697264 0.11503635
000090 b3 b4 23 be 3e 38 de bd e3 a2 9c bb 64 d4 6c bd
       -0.159869 -0.10850571 -0.00478016 -0.05781974
0000a0 d1 9f fd 3d e1 dc 36 bd 40 27 43 be cf 59 64 3e
       0.12383998 -0.04464424 -0.19057941 0.22299884
0000b0 f2 63 e4 3e 19 7a ac 3d 5b b9 10 3c db 85 b5 3e
       0.44607502 0.08421726 0.008833255 0.35453686
0000c0 b0 35 c7 bd 9a e1 99 be d2 2b 04 be 41 4e b3 3e
       -0.09727037 -0.30054933 -0.12907341 0.3502064
0000d0 ed f9 78 3e 38 b2 77 3e 18 a7 e9 3c e4 c7 f4 bd
       0.24314089 0.24189079 0.02852206 -0.119521886
0000e0 ec 7c 68 3d 43 42 2e 3d 89 92 95 bd f7 4e 24 be
       0.05675976 0.04254366 -0.0730334 -0.16045748
0000f0 af 97 d6 bd 52 16 80 3d 2a 0c b7 be 6b ba 63 be
       -0.1047815 0.06254257 -0.35751468 -0.22239082
000100 21 f1 08 3e 59 c1 25 bd e5 79 24 3e 23 9f 8b bd
       0.13373233 -0.040467594 0.16062124 -0.06817462
000110 c4 ae 9b bc 81 2c 90 3e 5f c1 e6 3e 71 95 f6 be
       -0.019004233 0.28158954 0.45069405 -0.4816089
000120 df 1f 1b be 47 bb a8 3d 29 ad b3 3e c8 e2 fa be
       -0.15148877 0.08238845 0.35093048 -0.49001145
000130 be 49 0f 3f 24 67 b4 3e b3 37 8c bd 18 18 23 3f
       0.55971897 0.3523494 -0.06846561 0.6370864
000140 13 ea 6d 3e 50 10 ed bd 97 1b 5c 3e 6c fd 9b 3e
       0.23233823 -0.11575377 0.214949 0.30466783
000150 70 6a d6 3a fa a9 03 3e c0 e5 2f be ea 4f 2e 3e
       0.0016358625 0.1285781 -0.17177486 0.17022672
000160 49 2c d4 bd f8 a6 73 be b3 4b b7 ba c4 38 15 be
       -0.10360009 -0.23794162 -0.0013984352 -0.14572436
000170 af 63 68 be db 00 63 3e cf 1b 6c bd e7 42 db 3d
       -0.22694276 0.22168295 -0.057643708 0.1070612
000180 e1 1a 11 be 3b 45 b9 bd 9b 48 da bd 6a c6 c3 bd
       -0.1417041 -0.09046408 -0.1065838 -0.09559329
000190 39 68 29 be dd e1 8f bd bb 12 d9 bc 10 64 4e bd
       -0.16543664 -0.07025502 -0.02649819 -0.050388396
0001a0 a1 76 17 bb 1c f4 bb 3d a2 0d c0 3d 29 24 03 bd
       -0.002311148 0.091774195 0.093776 -0.032016907
0001b0 7a 88 82 bc 26 9a f3 bc 91 b3 06 3e f9 8c 36 3e
       -0.015934218 -0.02973659 0.13154437 0.17827214
0001c0 e1 9c 18 3e a7 a2 c6 3d ae 30 7d be 12 0e c3 be
       0.14903595 0.09698992 -0.24725601 -0.38096672
0001d0 0a 98 c3 bd 17 59 01 3d 1b 99 6a 3e ab 18 3d 3e
       -0.095504835 0.031579103 0.22909968 0.18466441
0001e0 da c9 b5 3d d7 73 bc bc c5 c0 ef bd db ee 5f 3e
       0.08876391 -0.023004455 -0.1170669 0.2186846
0001f0 ce b8 23 3f 0d 4a 19 3e 11 7f 8c be de ab ea bd
       0.63953865 0.14969654 -0.27440694 -0.11458562
000200 36 1a 57 be 59 eb 33 3e d2 50 00 3d 81 27 98 3e
       -0.21006092 0.17570247 0.031327076 0.2971764
000210 f1 3b 89 3e c0 a4 ab bd d4 a7 bc bd 7f ed c1 be
       0.26803544 -0.08381033 -0.09211698 -0.37876508
000220 35 a2 6a be 08 e1 0a 3e 7d 6b a6 3e 61 29 a0 3b
       -0.2291344 0.13562405 0.32503882 0.0048877453
000230 21 0f 29 3d 62 c9 0c be 17 6e 32 bc f4 0e 06 bc
       0.041274194 -0.13748696 -0.010890505 -0.008182276
000240 82 87 82 3e 2e 63 f3 be 58 71 a4 3d 21 11 dc bb
       0.2549401 -0.47536606 0.08029431 -0.006715909
000250 85 98 b9 3e e4 4d 39 3d 58 0a 94 be a3 a4 0a 3e
       0.36249176 0.045240298 -0.28914142 0.13539366
000260 0f f8 2d 3e f4 5e 88 bd dd 90 a6 bd 8e 98 79 3d
       0.16989158 -0.06658736 -0.08133099 0.060936503
000270 fd 82 89 3b 2b 98 70 bd 71 99 57 bd fe 35 31 bc
       0.004196523 -0.05873887 -0.052636568 -0.010816095
000280 fc 87 6f bc 18 95 09 bf ef a2 cf bc a9 b6 2f 3e
       -0.014619824 -0.53743124 -0.025346247 0.17159523
000290 b1 e7 1e 3e b7 28 d0 bd 1e eb 89 3d b1 de 7a be
       0.15518071 -0.10164016 0.06734298 -0.24499013
0002a0 bf 92 9b 3d 30 8d 96 3c 2f 38 d9 bb 4f c6 7a 3c
       0.07596349 0.01837787 -0.006629012 0.0153060695
0002b0 04 4c 30 3e ee 75 09 3e 77 c6 0f 3e 2c c3 69 3d
       0.17216498 0.13423893 0.14040552 0.057070896
0002c0 d2 34 94 bd d7 30 75 3e 9d 0f 25 3d 78 68 d3 be
       -0.07236637 0.23944412 0.040298093 -0.4129064
0002d0 12 e6 70 be 93 70 c6 bd 08 80 01 be 6f e7 21 3e
       -0.23525265 -0.096894406 -0.12646496 0.15810941
0002e0 8c cd 91 3d ee d0 f6 3a 5c 06 15 bf 34 d6 e2 3d
       0.07119283 0.0018830576 -0.5821283 0.11076012
0002f0 2f 55 89 be b7 d4 ca 3c bc 02 91 bd 07 13 37 3c
       -0.26822802 0.024759633 -0.070806 0.01117397
000300 da c5 ec 3e fd 3f aa 3e 6a 48 b5 bd 9f 7f e9 bd
       0.462447 0.33251944 -0.088517025 -0.11401295
000310 f6 3d 4b 3f 82 1d 19 bf b7 dc 14 bf 66 8d ac 3e
       0.7939142 -0.5981065 -0.58149284 0.33701628
000320 81 12 24 3e a8 9e 2c 3e aa 83 b8 bd 1e 3b d4 3e
       0.16022684 0.16857398 -0.09009488 0.41451353
000330 52 a7 5b 3e 29 72 cb bd 34 1e fa 3d c7 79 35 3d
       0.21450546 -0.09933884 0.12212792 0.04430559
000340 17 ba 8a be ea 3d b8 3c 38 65 79 be c3 8c 8e 3d
       -0.270951 0.02249046 -0.24355018 0.06960442
000350 7b 6e af 3e 85 83 a3 3e 06 93 a8 3e 62 4c cc bd
       0.34263977 0.3193628 0.3292467 -0.09975506
000360 22 08 a4 be 88 91 aa 3d 98 ef 97 3e bf be a8 3d
       -0.32037455 0.08328539 0.29674983 0.08239507
000370 77 76 f8 3d 28 55 40 3f cd 61 85 be da 9f 34 be
       0.121319704 0.7512994 -0.2605118 -0.17639104
000380 b3 3a dd bd 52 5a e8 3c c9 85 0e bb fc 38 4c be
       -0.108022116 0.02836338 -0.0021747223 -0.19943613
000390 1e 04 70 3d bf cf 2d bd 2f 81 11 bd 52 04 d6 bd
       0.058597676 -0.04243445 -0.03552359 -0.10450043
0003a0 95 e9 80 be 0e fb f8 3e 7e 81 c1 be de 46 df bd
       -0.2517821 0.4862904 -0.37794107 -0.10902189
0003b0 31 cd fc bc ce d2 85 bd e9 77 f0 be 49 75 97 3d
       -0.030859562 -0.065343484 -0.46966484 0.07395417
0003c0 89 75 f6 bc 8f c0 69 bd 09 fc 11 bd b7 14 3f bd
       -0.030085342 -0.057068404 -0.03564075 -0.046650615
0003d0 81 76 19 bd 52 34 7d bc 89 94 da 3d e3 a2 12 3d
       -0.03746653 -0.015454369 0.10672862 0.035799872
0003e0 d8 82 ca bd 32 d4 8a bf 91 02 a8 be 82 03 f7 be
       -0.09888238 -1.0846007 -0.32814458 -0.48244864
0003f0 dd 4e 97 3d a9 2e 7b 3e 96 85 19 3d 77 cb 1b 3e
       0.07388089 0.24529518 0.037480913 0.15214334

layer_2.weight f4 [64, 128]
000000 c2 b9 78 be 1f da d5 be bd 7a a7 bd 8c 43 cd be
       -0.24289611 -0.41767976 -0.08177707 -0.40090597
000010 aa 5f 88 3e 29 e6 30 be 70 4a 86 bd 7f 67 81 bc
       0.26635486 -0.17275299 -0.065571666 -0.015796421
000020 18 54 da bd c1 5d 21 bc 65 43 3a 3e 79 20 16 be
       -0.10660571 -0.009849013 0.18189771 -0.14660825
000030 b7 fd 82 3d 2a 07 ba 3d 45 38 8e be bb 47 76 bd
       0.063960485 0.09083398 -0.27777305 -0.060127
000040 be fd b2 be 63 03 a6 3e ee d1 13 3e 14 90 b8 3d
       -0.34959215 0.3242446 0.1443555 0.09011856
000050 df fa 82 be e6 ea 6f 3e 89 38 19 3c a5 d6 aa 3c
       -0.25582024 0.2342945 0.009351858 0.020854304
000060 99 f9 d1 be e6 50 89 bd 8d 45 bf bd 9f eb 91 bc
       -0.4101074 -0.06704883 -0.09339438 -0.017812548
000070 fc ae 02 bd ac d0 eb 3c 28 17 1c 3e f6 d3 e2 3c
       -0.03190516 0.028786026 0.15243208 0.027688961
000080 57 9c c5 be 6a 89 5f 3e a7 1b 37 3c 9f 60 91 bd
       -0.3859584 0.21829763 0.011176026 -0.07098507
000090 db 20 c2 bd e5 26 88 bb 86 40 21 3e e8 58 31 3d
       -0.09478923 -0.004155027 0.1574727 0.04329768
0000a0 ec 26 f1 bd 17 80 bc bd dd a0 87 be c5 4b a0 bd
       -0.11775002 -0.09204119 -0.26489916 -0.07826952
0000b0 a4 91 4c 3e 54 f7 41 3e 35 8e 1e 3e 6b 5b 4e be
       0.19977432 0.18942004 0.15483935 -0.2015206
0000c0 01 34 5c bd 23 78 09 bd 35 8c c3 3e bb 86 1e bd
       -0.053760532 -0.033561837 0.38192907 -0.038702708
0000d0 21 df d0 be 3c 2b 1d 3c d1 a1 f6 3d 1e 81 9d 3e
       -0.40795234 0.009592827 0.12042583 0.3076257
0000e0 9d c1 a7 3e 0a c4 80 3d bb d8 63 3d ef 0e 95 ba
       0.32764903 0.062873915 0.055626612 -0.0011372248
0000f0 92 d1 1c bd 8d 68 db 3d f2 e5 18 be 55 fc b2 be
       -0.0382858 0.10713301 -0.14931467 -0.3495814
000100 8e f5 6c bc 99 30 bd be ee ac ce be 63 7f 80 3d
       -0.014462842 -0.3695114 -0.4036631 0.06274297
000110 0f 73 65 3e a2 0f ca 3c f7 26 cc be 49 42 eb 3d
       0.22407173 0.024665657 -0.39873478 0.11487252
000120 6a 7a d3 3d c5 5e 52 3e 28 0f 2e 3d 55 ac 07 be
       0.10326083 0.20543964 0.042494923 -0.13249333
000130 1c d4 58 3d 91 6c d1 3d 38 d4 92 3e d4 04 05 3e
       0.05293666 0.102257855 0.28677535 0.12990123
000140 c3 a1 92 3e 73 4b e3 bd 43 d8 0f 3e d3 ce 37 3e
       0.2863904 -0.11098375 0.14047341 0.17949991
000150 86 1a 88 be f6 06 d2 be 23 c8 a2 3d 8e 44 a9 bd
       -0.26582736 -0.41020936 0.07948329 -0.08265029
000160 fc 64 d7 3d 1c 9e b4 3d ea c5 b7 bd 16 47 5a 3d
       0.10517308 0.088192195 -0.08973296 0.05329045
000170 38 79 ea 3d 8f d2 b6 bd f3 85 fc bc 7a 4e 4a 3d
       0.11448902 -0.089268796 -0.03082559 0.049391247
000180 9f 8a d3 3b 2f 0b 36 3d d5 7c c2 bc e7 93 e5 bd
       0.006455734 0.04444426 -0.023741165 -0.11209851
000190 13 0d fa 3d 87 6d fe bd 9b d0 bf be d0 42 89 3e
       0.12209525 -0.124232344 -0.3746384 0.26808786
0001a0 11 eb 6a 3d 2d 1c 27 3e d4 91 a7 be 7b 41 d9 3e
       0.057353083 0.16319342 -0.32728446 0.4243277
0001b0 39 4b ae 3d cc 13 32 be 3f b9 7c be 23 a9 d7 be
       0.08510441 -0.17390364 -0.24680041 -0.4212123
0001c0 45 77 1d 3d e9 27 5d be 61 96 ad 3d 82 53 b2 be
       0.038443822 -0.21597256 0.08475948 -0.34829336
0001d0 4a 65 d9 3d 5e 4b 52 bd 19 7d b4 be e6 f0 c8 be
       0.106150225 -0.051341407 -0.35251692 -0.3924629
0001e0 67 66 b2 bd 35 87 cd 3d f4 04 e7 3b 7d aa d3 be
       -0.08710938 0.10035554 0.007050151 -0.4134101
0001f0 80 97 a0 bc a0 dc e6 3d 89 58 d4 3b a3 b7 5b be
       -0.01960349 0.1127255 0.006480281 -0.2145677
000200 71 81 62 3d b0 44 53 be 2e a9 4a 3e 7b a3 cc 3d
       0.055299226 -0.20631671 0.197911 0.09992119
000210 8f b5 89 3d 4a 53 bb 3d 60 9a 0b 3e 0a 55 d1 bd
       0.06724083 0.091467455 0.13633108 -0.10221298
000220 d4 d0 82 3e c9 7a e2 3d 00 e3 9c bd 60 bc 32 be
       0.25549948 0.11058576 -0.07660484 -0.17454672
000230 05 ec 91 3e 69 62 3e 3e 47 e4 47 3e 91 ab 52 3e
       0.2850038 0.18592228 0.19520675 0.2057326
000240 ad 61 8a ba 35 df 89 3c 2f 71 8c bd a3 2f 0f 3e
       -0.0010557674 0.016830066 -0.068575256 0.13983016
000250 77 df c5 3d 06 aa d7 be 04 27 14 3e cc c2 87 be
       0.09661763 -0.42121905 0.14468008 -0.26515806
000260 72 5a 9e 3e 3b a4 33 be fd 06 f6 bc 77 b6 2f be
       0.3092838 -0.17543118 -0.03003263 -0.17159449
000270 89 99 1e be 22 c3 bb 3d 0a 4b 03 bd f4 cc bd be
       -0.15488257 0.09168078 -0.032053985 -0.3707043
000280 f2 dc 1f 3d 60 62 6d bc fc 05 6e bd d9 8a 30 3e
       0.03902907 -0.014488786 -0.058111176 0.17240466
000290 9e 21 1f be 88 9b 10 3d 23 1d 48 bd d0 d3 09 3e
       -0.15540168 0.035304576 -0.048855912 0.13459706
0002a0 a0 df 15 3e 99 f9 a4 3e 41 55 86 3e ff 47 e1 3d
       0.14636087 0.32221678 0.2623692 0.1100006
0002b0 13 0f d9 be 4b c1 d6 3d b2 38 64 be 35 63 b1 3d
       -0.42394313 0.104860865 -0.22287253 0.086615
0002c0 9f 49 33 3d 6d 77 a8 bd 67 c6 06 3d cb 88 34 3e
       0.043771382 -0.08225904 0.032904055 0.17630307
0002d0 04 51 d7 3e 1b da 7a 3e bf e3 27 3d 5b e6 2a be
       0.42053998 0.24497263 0.04098868 -0.16689436
0002e0 11 60 58 be e3 89 99 be f8 27 8e bd ea 63 f0 bd
       -0.21130396 -0.29988012 -0.06941217 -0.11737807
0002f0 6a af 36 3e a1 f3 3f bd 2d 57 75 3e 93 93 03 3c
       0.17840353 -0.046863202 0.23959036 0.00803079
000300 ec 18 d6 3c de 5b c4 bd 12 4c 83 be 5e 4f 12 be
       0.02613493 -0.09587835 -0.25643975 -0.14288089
000310 31 84 8c 3c b9 f2 b3 3c 8e 9f 68 be e3 94 81 be
       0.017152878 0.021966325 -0.22717115 -0.25308904
000320 76 03 d1 be 5c 27 b2 be 71 24 bd 3e 3b 45 ff bd
       -0.40822953 -0.34795654 0.36941865 -0.124643765
000330 1b 2b b0 3e 0a 58 51 bd d8 e0 08 be f1 fd d7 be
       0.34407887 -0.05110935 -0.13367021 -0.4218593
000340 eb 7d da be f5 85 4b 3e cf a7 07 bd 03 5a ad be
       -0.42674193 0.1987532 -0.03311902 -0.33857736
000350 94 58 a2 be e9 11 b7 3e 9e 75 ab 3d e3 62 8e 3e
       -0.31708205 0.35755852 0.08372043 0.2780982
000360 58 7a 25 be 8e f3 59 be 8d 6d 89 3e 53 06 91 3e
       -0.16159952 -0.21284315 0.26841393 0.28325137
000370 4d 00 de 3c 0d d3 20 be 14 e4 67 3b 46 91 b6 be
       0.027099753 -0.1570551 0.0035383748 -0.3565771
000380 6c a2 45 3e 8d 5a 07 3e 14 c1 61 be 0c 23 26 bd
       0.1930024 0.13218136 -0.2204631 -0.040560767
000390 56 dd 1f be 34 54 aa 3d eb 37 0b bd 56 76 a1 be
       -0.15611777 0.08316842 -0.033988874 -0.31535596
0003a0 26 90 a3 be ec 98 b0 be be a7 22 bd 4c f6 be be
       -0.31945914 -0.3449167 -0.039710753 -0.37297285
0003b0 f4 d2 28 be 3e 18 bb 3e d8 8b 23 3e 79 77 ac 3e
       -0.16486722 0.36541933 0.15971315 0.336849
0003c0 81 8d 48 bd 81 0d b1 3d 45 b7 f9 bc aa 44 bb 3d
       -0.048963074 0.08645154 -0.030482898 0.09143956
0003d0 c0 47 7f be 25 f1 0f 3d 49 d9 99 3e 1e 1d b7 bb
       -0.24929714 0.035142083 0.30048588 -0.005588188
0003e0 5a 07 c7 be d7 26 9a be 35 9b 20 3e 68 f7 78 3e
       -0.38872796 -0.30107757 0.15684207 0.24313128
0003f0 40 bf 54 3c 0d ef 77 3e eb 5a 26 3e 97 c8 05 bd
       0.012985051 0.24212284 0.1624562 -0.032662

layer_3.weight f4 [32, 64]
000000 83 f8 e4 3e ac 58 37 be f0 f0 02 be c1 84 c2 be
       0.4472085 -0.1790492 -0.12787223 -0.37991908
000010 bd 9a 8d 3e 2d 1e f3 3e 5f 96 ed 3e b3 c7 91 be
       0.27657118 0.4748396 0.46403787 -0.2847267
000020 19 40 d3 3c 16 56 4b be e9 0e d9 3d 00 fb d6 3d
       0.0257874 -0.19857058 0.10598547 0.10497093
000030 9c cc c7 3d e6 28 3c 3e b2 26 ea 3e 8c 5d a7 3e
       0.09755823 0.18374977 0.45732647 0.32688558
000040 23 de 0b 3e e4 23 cc bd be 9a c3 bd f0 42 c5 bd
       0.13658957 -0.09967783 -0.09550999 -0.09631908
000050 80 7a f5 3c 17 7f 16 3e 40 d2 92 3d db 48 57 bd
       0.02996564 0.14696918 0.07169008 -0.052559715
000060 ed 95 54 be b1 84 eb be d5 87 da bd 63 b6 a4 be
       -0.20760317 -0.45999673 -0.10670439 -0.321704
000070 e9 02 59 bd 05 53 c6 bc 63 5b e8 3d b2 a5 64 be
       -0.05298129 -0.024209509 0.11345556 -0.22328833
000080 56 42 31 be 9b f0 8e 3e 01 37 eb 3d 2f ce ba bd
       -0.17310461 0.27917942 0.114851005 -0.09121358
000090 8e 0c 61 be 7b 52 7a 3d e0 77 8c be d9 4d da bd
       -0.21977445 0.061113816 -0.27435207 -0.106593795
0000a0 9b da 09 be 20 69 0c be a2 ea 04 bd b8 ed 44 3d
       -0.13462298 -0.13711977 -0.032450326 0.04807827
0000b0 07 a5 8d be 97 28 06 be 07 85 42 3e 19 a0 c7 3d
       -0.27664968 -0.13101421 0.18996058 0.09747333
0000c0 0e 9d 48 3d 95 3c f2 bd f6 0d 92 3c f0 cd df bd
       0.048977904 -0.11827961 0.017828923 -0.10927951
0000d0 ac bc 03 bd 96 40 48 3d a7 64 db 3d 5a d7 02 3d
       -0.032162353 0.04888972 0.10712557 0.031943657
0000e0 f4 b5 ce bc 60 c0 05 3e 77 1a 27 3e 3b 44 83 be
       -0.025233246 0.13061666 0.1631869 -0.25637993
0000f0 16 c4 c5 3d 44 d2 be 3e a0 01 c3 bc 59 0e b0 be
       0.09656541 0.37269795 -0.023804486 -0.34385946
000100 eb e3 1a 3e b3 c9 db be b9 b4 c0 be 24 60 e2 be
       0.15126006 -0.42927322 -0.3763788 -0.44213974
000110 d3 e2 24 3e 17 a0 dd 3d 07 4e 96 3e 9f 50 cc be
       0.16102152 0.1082155 0.29356405 -0.3990526
000120 35 40 ce bc d0 0d ad be ab 3e 4d bb bf b5 35 3d
       -0.0251771 -0.337996 -0.003131787 0.04436278
000130 c4 6e ce 3d d2 9c 34 3e c6 b5 b3 3e 7e 5f 60 3e
       0.100797206 0.17637947 0.3509962 0.21911427
000140 2c 10 28 bd 00 70 9a 3d 5f b7 dd 3c c6 b7 a9 3e
       -0.041031048 0.075408936 0.027064977 0.3314802
000150 59 0d b6 3e c7 e1 00 3e ac 97 04 bd 69 22 cc 3e
       0.35557058 0.12586127 -0.032371208 0.39870003
000160 9c d0 8b be 55 9a 62 3e 50 f2 c1 3e 1e ce d9 be
       -0.27307594 0.22129185 0.37880182 -0.42540067
000170 3c 0d e3 3e 24 b9 0d bd 3e 92 8f bc c5 73 e9 be
       0.44346035 -0.034600392 -0.017525788 -0.45596138
000180 77 29 bc be 3a 43 2a 3e 2d 23 02 3e 95 01 84 be
       -0.36750385 0.16627207 0.12708731 -0.25782457
000190 55 00 46 bd 2c 42 2a bd d8 55 bb be 51 13 b3 3d
       -0.04834016 -0.041567013 -0.3658893 0.08743919
0001a0 2c 7f 64 be 85 f2 5e be b8 b1 fc 3c 05 c3 4a bc
       -0.22314137 -0.21772201 0.030846462 -0.012375598
0001b0 2c 9c 95 be 11 5a 11 3e 54 dd b3 3d 59 80 a3 bc
       -0.29220712 0.14194514 0.08782449 -0.019958662
0001c0 94 ff 3e 3d 63 6c 9f 3d 4d 3d 3c be 19 32 e5 be
       0.046630457 0.07784345 -0.1838276 -0.44764784
0001d0 2c 3d bc 3e 46 82 e9 3e 02 a4 da bd 5c ca 33 3e
       0.3676542 0.45607203 -0.10675813 0.17557663
0001e0 03 6e 9a bd af 62 40 3e cb 38 e4 3d 68 15 9b be
       -0.07540514 0.18787645 0.11143645 -0.3028977
0001f0 d4 cd ea 3e 98 85 97 3e da f3 97 3d 8c 25 eb be
       0.4586016 0.2959411 0.07419558 -0.45927083
000200 0f a0 e2 3e 5b 22 9a be 93 17 32 be 91 0d be be
       0.4426274 -0.30104336 -0.17391805 -0.37119725
000210 64 36 e1 3e 08 91 6a 3e 9e f2 e2 3e bc 8a a4 be
       0.4398681 0.22906888 0.44325727 -0.32137096
000220 59 a6 0f 3a d7 23 3b be 9d 9b c3 bc 60 af bf 3d
       0.0005479805 -0.1827539 -0.023877913 0.09359622
000230 75 0a fd 3d a3 5b 22 3e 74 20 eb 3e f5 af d0 3e
       0.1235551 0.15855269 0.45923197 0.40759245
000240 f1 7c b5 3b 3d 70 e3 3c 86 67 9e 3d 6d e6 88 bd
       0.005538576 0.02776348 0.07734589 -0.06684575
000250 00 c5 0a ba dd 13 3f 3d 5e 83 b9 3d ff 20 22 3d
       -0.00052936375 0.046649802 0.090582594 0.03958225
000260 42 a3 72 be 4c b0 e5 3e 31 65 f0 bd 25 50 9a be
       -0.2369509 0.44861066 -0.11738051 -0.3013927
000270 55 6d c1 bd ba df 29 bd b3 e0 ca 3c 85 36 ad be
       -0.094446816 -0.041473128 0.024765348 -0.33830658
000280 3f cf 92 be bf ed 93 3e 0b f7 14 3e 5c bf 61 be
       -0.2867374 0.28892323 0.14547364 -0.22045654
000290 8a a6 9f bd 4c dc d7 b9 db 19 6d be c6 aa 8f bc
       -0.07795437 -0.0004117213 -0.23154394 -0.017537486
0002a0 44 8a c2 bd c9 00 52 be 58 b1 9b bd b4 87 25 3d
       -0.09499028 -0.20508112 -0.07602185 0.04041262
0002b0 47 5a 86 be 0d bd a2 bd 5b b1 5c 3e 11 62 e1 3d
       -0.2624075 -0.07946215 0.2155203 0.11005033
0002c0 be 1e 08 3d 42 14 bc bd ba fa b2 bd 8a 0b 79 be
       0.033232443 -0.09183551 -0.087392285 -0.24320808
0002d0 3c c2 39 bd 52 e9 b4 3d e7 af 93 3d eb b9 9d 3d
       -0.045351252 0.08833565 0.07211285 0.07701477
0002e0 37 f2 4c bd a3 46 ed be dd 31 27 3e 7e fb 64 be
       -0.05003568 -0.46342954 0.16327615 -0.22361562
0002f0 02 ca 82 3d ad bf e2 3e b7 d8 e3 3d 38 d3 b6 be
       0.06386186 0.44286862 0.111253195 -0.35708022
000300 b7 65 2a 3e 3d 85 2b 3e cb b4 11 3c 57 ac 8f bd
       0.16640364 0.16750045 0.008893202 -0.07015293
000310 56 b1 b1 bd ad a1 da 3e c7 61 32 3e d1 bc 7b 3c
       -0.08676402 0.42701474 0.17420112 0.015364842
000320 e2 e2 6c 3e e4 bb 66 3d ba f9 96 3e 1e f9 aa 3e
       0.23133424 0.05633153 0.294874 0.33393186
000330 5f f1 79 3e 19 76 e1 be 46 92 4c 3e 35 c7 88 bd
       0.24408482 -0.44035414 0.19977674 -0.06678621
000340 94 98 da 3e 09 ae b2 3e ed 73 bd 3e 42 ec 93 be
       0.42694533 0.34898403 0.37002507 -0.28891188
000350 96 cb ef be 60 c4 49 3e a7 4c 7d 3e b0 a4 ea be
       -0.4683501 0.19703817 0.24736272 -0.45828772
000360 da bd 69 3d 96 1a 49 3e e7 d9 1f be 92 86 e3 3c
       0.057065822 0.19639048 -0.15610467 0.027774129
000370 05 d9 dd be 4a de d6 3e 57 78 6d 3e 11 4f 01 3c
       -0.43329635 0.41966468 0.23190437 0.007892386
000380 b4 7f 4b 3e 03 91 df 3d d3 af 8d 3e 98 a3 61 3e
       0.19872934 0.10916331 0.27673206 0.22035062
000390 d6 ba 27 3e 06 f5 e6 3e f4 35 23 3e 45 7b 19 3e
       0.16379866 0.45108813 0.1593855 0.1498843
0003a0 51 62 74 3e 33 da 33 3e 9c bc e0 3d 36 b9 c0 3e
       0.2386563 0.17563705 0.109734744 0.37641305
0003b0 79 77 62 3e a4 75 e3 be bb a1 d8 be 2a 1f 41 3d
       0.22115888 -0.4442569 -0.4231089 0.04714886
0003c0 36 86 c5 3e 9c a7 27 3d 7d a6 ab 3e 58 27 8c 3d
       0.38578957 0.04093133 0.33525458 0.06843442
0003d0 cc 0d e5 be 86 49 87 be 02 5f 86 3d 34 69 b8 be
       -0.4473709 -0.2642328 0.0656109 -0.36017764
0003e0 79 a0 ce 3e 60 88 4a be ff fe 9d 3e f1 3d 56 bc
       0.40356806 -0.19778585 0.3085861 -0.013076291
0003f0 6d 21 d7 be d2 01 2f be b4 52 b9 3e 8f 61 30 bd
       -0.4201769 -0.17090538 0.3619591 -0.04306179

layer_out.weight f4 [3, 32]
000000 56 8e 60 3f 6f 1b cd 3e ad 40 84 3f 63 83 77 3e
       0.8771719 0.40059993 1.0332237 0.24171214
000010 4a 95 79 3e 6b 86 8d bf 26 82 8c bf 83 d2 7d 3e
       0.24373356 -1.1056646 -1.0977218 0.24787335
000020 de 87 83 3e e8 84 8e bf fa 83 b3 bd 85 3f 8e bf
       0.25689596 -1.113431 -0.08765407 -1.1113135
000030 aa c7 70 3e 72 62 78 3e b4 6d 8e bf a1 8a bb 3e
       0.23513666 0.24256304 -1.1127229 0.36629203
000040 38 c5 8e bf c6 ad 8c bf 9d 26 c0 3e 8e 14 8e bf
       -1.1153936 -1.0990531 0.3752946 -1.1100023
000050 1d b2 a9 3e 46 1f 67 3e c8 19 d2 3e ed 41 68 3f
       0.33143702 0.22570524 0.41035295 0.90725595
000060 56 7d 1e 3e 88 d2 74 3e 2f d0 0a 3f 2f 70 74 3e
       0.154775 0.23908436 0.5422391 0.2387092
000070 fa e6 75 3e 54 71 b8 bd 1e 6b 4c 3f d5 7e 80 3e
       0.24013892 -0.090059906 0.7985095 0.25096765
000080 0c 3e 57 bf b9 5e a0 3e 69 c3 0e bf 34 49 8e bf
       -0.8407905 0.31322268 -0.5576692 -1.111609
000090 3a e5 88 3e c7 3a 10 3f ae 6c cc 3e 8c bd 10 3f
       0.26737386 0.5633969 0.39926666 0.56539226
0000a0 4e 5c 8e bf 50 a7 b4 3e dd 2f 37 3f f1 dd d5 3e
       -1.1121919 0.352839 0.7155741 0.4177089
0000b0 4b 67 8d bf 5e ae 8d bf 2b a9 dd 3e 61 01 cc 3e
       -1.1047148 -1.1068838 0.43293127 0.39844802
0000c0 f6 05 10 3f de 7c cb 3e 99 60 18 3e f3 83 00 3f
       0.56259096 0.39743704 0.14880599 0.5020134
0000d0 7b 27 cd 3e 23 58 d8 3e e0 35 8d bf db 76 32 bf
       0.40069184 0.42254743 -1.1032066 -0.6971261
0000e0 da f6 8d bf cf 96 ae 3e eb f4 bb 3c f3 4a 8c bf
       -1.1090958 0.34099433 0.022943934 -1.0960373
0000f0 92 50 8a bf fc b1 8c bf f4 fa 1b bf 6f 64 8d bf
       -1.0805838 -1.0991817 -0.609298 -1.1046275
000100 eb 1c 5b bf 70 94 8e bf 9a a1 41 bf d9 6c 05 3f
       -0.85591 -1.113905 -0.7563721 0.52119213
000110 9a 02 8a bf 20 21 6b 3e 74 36 c4 3e 44 37 8e bf
       -1.0782044 0.22961855 0.38322794 -1.1110616
000120 70 52 e3 3e 04 43 d0 3e 23 23 8d bf ae c1 00 3f
       0.44398832 0.4067613 -1.1026348 0.5029553
000130 7b c9 8b 3e d4 20 c2 3e c7 0b 17 3f 63 7f 8d bf
       0.27302155 0.3791567 0.59002346 -1.10545
000140 28 46 c9 3e 55 56 c6 3e 30 2c 82 bf 01 11 0f 3f
       0.39311337 0.3873774 -1.0169735 0.5588532
000150 59 13 8e bf 7f 71 8d bf 27 dd ac bd 61 39 88 bf
       -1.1099654 -1.1050261 -0.08440619 -1.0642511
000160 28 73 3a 3f a8 b0 8b bf a2 e7 8e bf ac dd e7 3d
       0.72831964 -1.0913286 -1.1164439 0.113215774
000170 2b 5c 22 3e b9 56 5a 3f f6 c6 88 bf fc 5f 10 3f
       0.15855472 0.8528858 -1.0685718 0.5639646

batchnorm1.weight f4 [128]
000000 9c 18 9e 3f 5b bb 86 3f 5c 48 61 3f c7 64 be 3f
       1.235126 1.0525926 0.88001037 1.4874505
000010 84 45 9a 3f 12 6e 68 3f f5 2a 96 3f 4d 7d 88 3f
       1.2052464 0.90792954 1.173186 1.0663239
000020 e5 45 73 3f 17 9c 5b 3f e1 c6 8d 3f 3f b1 7c 3f
       0.95028526 0.8578505 1.1076318 0.98707956
000030 6f 41 81 3f a0 dc 9e 3f d9 09 c4 3f f4 06 9c 3f
       1.0098094 1.241108 1.5315505 1.2189622
000040 c3 8e 9c 3f d0 46 a4 3f d4 06 88 3f 4b 0b 88 3f
       1.2231067 1.283411 1.0627084 1.0628446
000050 77 f1 50 3f 54 ce a4 3f ce e8 9d 3f 04 f9 4e 3f
       0.81618446 1.2875466 1.2336671 0.8084872
000060 1f 73 c2 3f 81 6f 8a 3f e6 45 a8 3f 02 31 5a 3f
       1.5191382 1.0815278 1.3146331 0.8523103
000070 ce 18 87 3f 2f a5 89 3f 86 38 ac 3f fe 47 9e 3f
       1.0554445 1.0753535 1.345475 1.236572
000080 97 02 83 3f 9c c5 a0 3f 45 10 6f 3f ac 3a 8d 3f
       1.0235165 1.2560306 0.933842 1.103353
000090 38 de 8f 3f 3e ca 93 3f 76 55 b5 3f 9a 06 57 3f
       1.1239691 1.1546094 1.4166706 0.8399445
0000a0 bd 46 8d 3f 79 40 80 3f 4e 32 8a 3f ff b9 ab 3f
       1.1037213 1.0019675 1.0796602 1.3416137
0000b0 a2 b5 91 3f 59 c6 60 3f 6b 3b 7e 3f 2d 33 b0 3f
       1.1383555 0.87802655 0.99309415 1.3765618
0000c0 dc 3a 4d 3f e9 13 60 3f 17 ed 83 3f cc 11 99 3f
       0.8016794 0.8753038 1.0306729 1.1958556
0000d0 24 0c 8d 3f 96 dd 68 3f da 22 b5 3f 71 3c c0 3f
       1.101933 0.90963113 1.4151261 1.5018445
0000e0 6c 63 54 3f dc 33 c6 3f 4c 45 9c 3f 67 ea 6a 3f
       0.82964206 1.5484576 1.2208648 0.9176392
0000f0 94 4b 82 3f 5b 8c a3 3f 63 35 6e 3f ad 38 8b 3f
       1.0179315 1.2777208 0.9305021 1.0876671
000100 14 cd 7c 3f aa a2 8d 3f 5d 32 b4 3f 52 b8 83 3f
       0.98750424 1.1065266 1.407787 1.0290625
000110 a2 dc 9e 3f cd 28 8a 3f 34 80 82 3f 2f 9a 58 3f
       1.2411082 1.0793701 1.0195374 0.84610265
000120 ef b0 89 3f 8c f3 76 3f 47 4f 61 3f ab 8a 8b 3f
       1.0757121 0.96465373 0.8801159 1.0901693
000130 12 51 97 3f b9 5f 9f 3f 38 74 8d 3f a3 ba 70 3f
       1.1821616 1.2451087 1.1051092 0.94034785
000140 a5 19 44 3f 6a 4b 86 3f 59 58 86 3f 4b cc 84 3f
       0.7660163 1.0491765 1.0495712 1.0374845
000150 c0 45 86 3f 55 3d 74 3f f6 17 86 3f f8 38 90 3f
       1.0490036 0.95406085 1.0476062 1.1267385
000160 64 4d 75 3f f5 5c 9b 3f 53 35 93 3f 26 d9 49 3f
       0.95821214 1.2137743 1.1500648 0.7884697
000170 1f a5 98 3f 61 d6 81 3f 88 7b c7 3f e5 2f a0 3f
       1.1925391 1.0143548 1.5584574 1.2514616
000180 05 ec 8c 3f 27 8f 88 3f 2e c0 90 3f b3 55 8e 3f
       1.1009527 1.0668687 1.1308649 1.1119903
000190 84 3e 99 3f bb 53 65 3f 7d ee 91 3f 1c 0f 8c 3f
       1.1972203 0.8958089 1.1400906 1.0942111
0001a0 07 ba 86 3f 2f af 5d 3f 3e be ac 3f 52 d2 1e 3f
       1.0525521 0.86595434 1.3495557 0.62039673
0001b0 a8 97 82 3f 85 40 96 3f e1 56 a9 3f 80 de a0 3f
       1.0202532 1.173844 1.3229638 1.2567902
0001c0 f0 12 8c 3f 20 0b 60 3f bb 49 87 3f e3 b2 6a 3f
       1.0943279 0.87516975 1.0569376 0.9167921
0001d0 13 e4 75 3f 26 2e a5 3f 02 fa 68 3f d7 01 9e 3f
       0.9605114 1.2904708 0.9100648 1.2344311
0001e0 06 87 a2 3f 29 60 7c 3f 33 28 73 3f ed 7b 6e 3f
       1.2697456 0.9858423 0.94983214 0.93157846
0001f0 35 2b 90 3f c9 18 84 3f f1 4f 65 3f 51 0c 86 3f
       1.1263186 1.0320064 0.89575106 1.0472509

batchnorm1.bias f4 [128]
000000 06 d7 cc be 7a 59 cc be 07 46 f8 be 92 cc 05 bf
       -0.400078 -0.39912015 -0.48490927 -0.52265275
000010 fc e4 2d bf 74 ab 9b be d3 91 b9 be fb 65 9b be
       -0.6792753 -0.30404246 -0.36244068 -0.30351242
000020 e4 9f db be 15 34 d3 be a9 54 5c be 95 52 0f bf
       -0.42895424 -0.41250673 -0.2151667 -0.55985385
000030 99 dc 92 be 16 a7 69 be 01 3e 35 be 05 03 00 bf
       -0.28683928 -0.22817644 -0.17699434 -0.5000461
000040 55 51 9f be 89 1f cf be 58 33 c1 3c cc 96 cc be
       -0.3111674 -0.40453747 0.023584053 -0.399588
000050 a7 5e d5 be 57 ed f2 be 85 bc d6 be 50 30 d0 be
       -0.41673777 -0.474467 -0.41940704 -0.4066186
000060 20 28 0f bf aa c8 f1 3d a9 2d 26 bf 75 36 78 be
       -0.559206 0.11805852 -0.6491342 -0.24239524
000070 43 88 d8 be d4 c6 a9 be 65 7b 9e be ec b1 93 be
       -0.4229146 -0.33159506 -0.30953518 -0.2884668
000080 54 b5 c6 be 91 8e 96 be 3e d4 97 be da a3 e7 be
       -0.38810217 -0.29405645 -0.29654115 -0.45242196
000090 7d 96 77 be a2 d9 6f be 57 f1 6e be 7e f5 ec 3c
       -0.241785 -0.23422864 -0.23334251 0.028925654
0000a0 60 16 f0 bd 2b 3d 43 be df 26 f6 be fd ad 72 be
       -0.11723018 -0.19066302 -0.4807653 -0.23699184
0000b0 88 a7 0f bf 8b a9 1d bd bd a3 87 be dd 8f 13 3d
       -0.5611501 -0.038491767 -0.2649211 0.03602587
0000c0 69 b6 e7 be 5b d5 3e be 61 12 02 bf 92 58 d8 be
       -0.45256355 -0.18636076 -0.50809294 -0.42255074
0000d0 e0 66 8d be 02 41 30 be 16 43 9c be cc 21 3e bf
       -0.2761755 -0.17212299 -0.30519933 -0.7427032
0000e0 0f 8c 29 bf b4 d6 1e bf 83 b8 a6 be 1a f2 da be
       -0.6622934 -0.6204636 -0.32562646 -0.42762834
0000f0 02 3f 2b bf 53 4b 17 be 0e 48 1b be a1 3a 2a be
       -0.6689302 -0.14774828 -0.15164205 -0.16623928
000100 bb 9e a8 be 8f 72 0c bf a9 72 fd be 28 e9 eb be
       -0.32933602 -0.548623 -0.4950154 -0.46076322
000110 17 e3 fd bd d2 fc 14 bf 90 e5 d3 be 3c 8e b4 3d
       -0.123968296 -0.58198273 -0.4138608 0.088161916
000120 93 27 0d be 27 c1 d8 bd 17 13 87 be b2 d0 98 be
       -0.13784628 -0.10583716 -0.26381752 -0.29846722
000130 18 76 6d be fd 17 66 bd 57 ba dd be 7f e8 b9 be
       -0.2318958 -0.05617522 -0.4330623 -0.36310193
000140 b1 49 95 3b cb 8e bc be 46 34 d9 be 2a 0c 00 be
       0.004555904 -0.36827692 -0.42422694 -0.1250464
000150 29 55 55 be f6 19 2b be 26 97 50 be ac 65 a5 bd
       -0.20833267 -0.16709122 -0.20370159 -0.08076033
000160 62 14 14 be b4 1b 1a bf 8f 61 82 be b1 8f b1 be
       -0.144609 -0.6019852 -0.25465056 -0.3467994
000170 cf 84 02 be f2 ab 4c be 66 2b ee be 69 78 d3 bd
       -0.12745975 -0.19987467 -0.46517485 -0.10325701
000180 52 73 93 be ad 0e 9e be 45 af 71 be d9 c6 45 be
       -0.2879892 -0.30870572 -0.23602016 -0.19314136
000190 f5 dd 0e bf 03 36 25 be 60 4e 1b bf c7 3f 27 bf
       -0.5580743 -0.16133885 -0.60666466 -0.6533169
0001a0 95 24 bc bd 86 cd 21 bf fd 6e bb be ba be ab bc
       -0.09186665 -0.6320423 -0.36608115 -0.020964969
0001b0 c5 8a a6 be d2 d9 af be 77 3f 2e bf be ed ce be
       -0.32527748 -0.3434587 -0.6806559 -0.40415758
0001c0 4f 5d d7 be 32 7b 0f bf 39 e9 f9 be da d3 b1 be
       -0.42063376 -0.56047356 -0.48810747 -0.34731942
0001d0 d3 67 f2 bd 49 37 e4 be 84 33 6c be 62 2c 1b 3e
       -0.11836209 -0.4457343 -0.23066527 0.1515365
0001e0 39 61 df be 9b 05 90 be 8e 66 f2 be c6 69 d1 be
       -0.43628863 -0.28129277 -0.47343868 -0.4090101
0001f0 0d 9e 84 be 85 04 6e be 61 54 67 be c5 56 f4 3c
       -0.25901833 -0.23243912 -0.22590782 0.029826531

batchnorm1.running_mean f4 [128]
000000 1c 56 41 3f 9b 2a e9 42 83 e3 2c 43 d2 00 4d c1
       0.7552202 116.58321 172.88872 -12.8127
000010 3c 42 b9 43 c3 e2 2a 43 6c 34 70 43 f9 ee 0b c3
       370.51746 170.88579 240.20477 -139.93349
000020 73 f5 ff 41 99 12 5d 43 d5 9b f8 41 40 e7 85 c1
       31.994848 221.07265 31.07609 -16.737915
000030 22 5c d5 42 2e 01 16 c3 63 c0 d7 c3 b9 c2 7b 43
       106.67995 -150.00461 -431.50302 251.76064
000040 48 e6 24 c4 e0 d5 30 c3 1e 36 6f c3 7d 26 fc c3
       -659.59814 -176.83545 -239.2114 -504.3007
000050 85 bc 89 43 48 e7 42 c2 93 17 bc c3 25 05 f6 c2
       275.4728 -48.72586 -376.18417 -123.01005
000060 bc 76 be c1 62 5c 85 43 79 1b bb c3 0c 75 95 c3
       -23.807976 266.72174 -374.21463 -298.91443
000070 ec 3e ac c2 79 7d c5 42 48 fb 14 c3 e7 9e ab 43
       -86.122894 98.74506 -148.98157 343.24142
000080 b5 9e 87 c3 24 77 d7 43 18 f5 fb 42 48 46 e7 c2
       -271.2399 430.9308 125.9787 -115.63727
000090 e5 91 34 c3 cb ff 0c c3 dd ea 92 c0 08 6f 4b c3
       -180.5699 -140.99919 -4.59117 -203.43372
0000a0 bd 22 8a 43 d4 e4 90 c3 2a 4f b3 42 85 d1 d7 c1
       276.2714 -289.78772 89.65462 -26.977304
0000b0 b3 00 0d 43 70 54 0f 43 59 3e ba c3 03 ec bf c2
       141.00273 143.32983 -372.4871 -95.96096
0000c0 45 6d 8f c1 72 cf 60 c3 67 51 6a c2 27 23 39 c3
       -17.928354 -224.81033 -58.579494 -185.13731
0000d0 c8 b1 65 43 16 f6 8a c2 94 77 94 43 f6 c3 89 c3
       229.69446 -69.48064 296.9342 -275.53094
0000e0 18 f5 3b c3 04 bc 7f c3 3a 86 8b c3 2c 1f 7f 43
       -187.9574 -255.73444 -279.04865 255.12177
0000f0 4b 1b 78 43 75 cf 6e 42 63 99 ae 43 4a 33 9f c3
       248.10661 59.702595 349.19833 -318.4007
000100 48 54 ff 40 9a b5 98 43 ea b3 b9 42 f8 ef c8 41
       7.9790382 305.41876 92.851395 25.117172
000110 e7 10 7c 42 14 f4 0f 42 cc 0c 9e 41 9e 41 0e 44
       63.016506 35.988358 19.756248 569.02527
000120 66 21 5f c3 38 ae 22 43 93 2e 29 c1 f1 97 8a 43
       -223.13046 162.68054 -10.573871 277.18704
000130 c6 6d 9e c3 88 c9 6b c3 09 23 76 c2 57 f0 5b 42
       -316.8576 -235.78723 -61.534214 54.984707
000140 79 69 aa c1 d0 6a eb c2 8f 5a 08 42 56 6f d6 42
       -21.3015 -117.70862 34.088436 107.21745
000150 37 c9 9b 40 34 96 16 43 2d 19 45 42 80 15 81 c3
       4.8683124 150.58673 49.274586 -258.16797
000160 00 7a e9 42 b1 f7 84 c3 6d 0e 48 43 fe a7 b6 c2
       116.73828 -265.9351 200.05635 -91.32811
000170 20 36 5b c3 be d9 bc c3 44 bc 09 c4 3f 0a 31 c3
       -219.21143 -377.7011 -550.94165 -177.04002
000180 7a 69 71 43 14 ad f8 c2 cc d1 07 43 dc d5 54 c2
       241.41202 -124.33804 135.81952 -53.208847
000190 ca 3d 63 42 7b 18 a2 43 dd b3 2d 43 d0 e7 1f c4
       56.81034 324.19125 173.70259 -639.6221
0001a0 8f e2 92 c3 2e 40 31 40 34 7b 33 c2 c8 d0 3c c3
       -293.77 2.7695422 -44.870316 -188.81555
0001b0 94 5b 1a 43 1d 5a d2 43 c4 41 34 43 dd 5e fd c3
       154.35773 420.704 180.2569 -506.74112
0001c0 27 e1 94 43 ed 24 cf c2 a8 fc 86 c3 ec 43 1d 43
       297.759 -103.57212 -269.97388 157.26532
0001d0 32 2c 85 43 eb 18 91 c3 2a d4 a1 43 b5 34 40 c3
       266.34528 -290.19467 323.65753 -192.20589
0001e0 60 a4 d2 c3 aa 8e 37 c3 e1 61 82 c3 51 1c c9 42
       -421.28418 -183.55728 -260.76468 100.555305
0001f0 50 74 52 c2 24 d3 5e c3 8c 39 1d 41 43 f1 9c 42
       -52.613586 -222.82477 9.82655 78.471214

batchnorm1.running_var f4 [128]
000000 84 52 4b 45 d5 a4 bd 45 3f bf 51 45 fc f6 5f 46
       3253.1572 6068.604 3355.953 14333.746
000010 46 a9 1d 46 17 45 b0 45 b2 32 9d 45 d5 9a b0 45
       10090.318 5640.636 5030.337 5651.354
000020 43 84 3c 45 7d 10 2d 45 30 24 0b 46 39 52 99 45
       3016.2664 2769.0305 8905.047 4906.278
000030 69 d9 b7 45 ca 0c 94 45 cc cc 82 45 ea 11 b1 45
       5883.1763 4737.5986 4185.5996 5666.2393
000040 cb 5f b6 45 1c 5f cc 45 73 d9 78 45 ae 5e 02 46
       5835.974 6539.8887 3981.5906 8343.67
000050 80 1e bc 45 c4 6a da 45 69 84 89 45 51 7c 96 45
       6019.8125 6989.3457 4400.5513 4815.5396
000060 81 d6 0a 46 8a 22 49 45 40 b5 9f 45 14 11 7f 45
       8885.626 3218.1587 5110.6562 4081.0674
000070 ac 73 e3 45 a3 b8 a3 45 2c 56 cd 45 00 54 9c 45
       7278.459 5239.0796 6570.7715 5002.5
000080 88 67 cc 45 ce df e6 45 5f ef 5a 45 01 a2 4e 45
       6540.9414 7387.9756 3502.9607 3306.1252
000090 53 c4 b4 45 59 72 c4 45 3f 05 be 45 d3 e8 ad 45
       5784.5405 6286.2935 6080.656 5565.103
0000a0 e3 75 2a 45 ca cb d3 45 78 8a 9d 45 91 97 9a 45
       2727.368 6777.4736 5041.3086 4946.946
0000b0 21 45 45 45 82 54 c7 45 3b 89 da 45 31 c5 08 46
       3156.3206 6378.5635 6993.154 8753.298
0000c0 c2 cb 7a 45 73 03 a7 45 aa 8a b9 45 7e c2 8c 45
       4012.7349 5344.431 5937.333 4504.3115
0000d0 e8 77 cb 45 44 8e ad 45 0e e2 c0 45 51 8d c7 45
       6510.9883 5553.783 6172.257 6385.6646
0000e0 9a 21 ab 45 12 b2 8d 45 cb 32 31 45 05 11 ee 45
       5476.2 4534.259 2835.1746 7618.1274
0000f0 0f ee 8c 45 9f f8 df 45 e9 6e 89 45 d3 1b af 45
       4509.7573 7167.0776 4397.864 5603.478
000100 69 0b c2 45 79 0c c7 45 5c ca 12 46 70 6d 80 45
       6209.4263 6369.559 9394.59 4109.6797
000110 2e b3 c3 45 53 f1 9e 45 56 84 96 45 92 ae 96 45
       6262.3975 5086.1655 4816.542 4821.8213
000120 8e c4 c4 45 0b 3c f2 45 e7 19 59 45 08 8f 9e 45
       6296.5693 7751.5054 3473.619 5073.879
000130 8a ef b9 45 a9 49 56 45 44 54 8f 45 d0 50 a5 45
       5949.9424 3428.6038 4586.533 5290.1016
000140 d2 b6 94 45 84 96 97 45 91 d6 85 45 57 d9 00 46
       4758.8525 4850.8145 4282.821 8246.335
000150 ae 9d dd 45 34 d6 86 45 0f 05 a1 45 b8 f0 86 45
       7091.71 4314.7754 5152.6323 4318.09
000160 a1 85 9d 45 d0 96 94 45 2b 25 ba 45 9a 0c c6 45
       5040.7036 4754.8516 5956.646 6337.575
000170 b8 7e 4e 46 92 b4 ab 45 eb f8 a2 45 4a 65 ad 45
       13215.68 5494.5713 5215.1147 5548.661
000180 ae fd 5d 45 1f 7a f5 45 9b 0a 38 45 e0 9d 1f 46
       3551.855 7855.265 2944.6628 10215.469
000190 dc 50 7e 45 97 66 a7 45 9a 40 0c 46 44 da e6 45
       4069.0537 5356.8237 8976.15 7387.283
0001a0 b2 d2 8c 45 f0 d3 88 45 91 63 23 46 17 bd a3 45
       4506.337 4378.492 10456.892 5239.636
0001b0 5d c4 a7 45 a2 44 95 45 82 30 bb 45 62 d5 05 46
       5368.5454 4776.579 5990.0635 8565.346
0001c0 8a b7 c2 45 ef 6b 7c 45 b8 82 9c 45 30 da 13 45
       6230.9424 4038.7458 5008.34 2365.6367
0001d0 f5 45 35 45 50 0c 01 46 4f 39 cb 45 8f ce a1 45
       2900.3723 8259.078 6503.1636 5177.82
0001e0 b9 a5 b9 45 1a bb 4d 45 e2 08 f2 45 ef ff a9 45
       5940.7153 3291.6938 7745.1104 5439.9917
0001f0 e7 3f 9b 45 26 26 c9 45 57 7a b8 45 8f 44 9f 45
       4967.988 6436.7686 5903.2925 5096.57

batchnorm2.weight f4 [64]
000000 fc 09 4d 3f 25 aa 3d 3f 01 75 3c 3f de 04 45 3f
       0.8009336 0.74087745 0.73616034 0.7696055
000010 d7 4e 20 3f 97 97 4a 3f 06 ed 22 3f 82 e9 47 3f
       0.626203 0.7913756 0.6364292 0.7809068
000020 7b d8 51 3f e1 f1 49 3f 88 83 3c 3f 97 ac 51 3f
       0.8197095 0.788847 0.736382 0.81903976
000030 08 65 6b 3f 07 7b 7a 3f be 76 20 3f 84 14 3a 3f
       0.91951036 0.97843975 0.62681186 0.72687554
000040 3b 09 37 3f 89 b0 44 3f d9 07 59 3f 41 5d 2d 3f
       0.7149846 0.7683187 0.847776 0.6772042
000050 93 35 43 3f eb 61 68 3f ce 39 40 3f 2d b1 62 3f
       0.7625362 0.9077441 0.750882 0.885516
000060 12 b0 48 3f 94 40 55 3f 24 f7 2d 3f 1e b3 5a 3f
       0.7839366 0.83301663 0.6795523 0.8542956
000070 1a f8 21 3f ea 19 36 3f 88 84 49 3f e0 6f 4a 3f
       0.632692 0.7113329 0.7871785 0.7907696
000080 a5 07 3f 3f 80 a4 39 3f 7b b6 2b 3f 77 0e 33 3f
       0.7462104 0.7251663 0.6707532 0.69943947
000090 b4 1b 2f 3f cc 33 39 3f ac af 53 3f 90 61 41 3f
       0.68401647 0.7234466 0.8268993 0.75539494
0000a0 7d dc 20 3f de 8f 3c 3f 67 1e 6c 3f 04 68 3b 3f
       0.6283644 0.73657024 0.9223389 0.7320559
0000b0 59 56 5e 3f 15 2f 2b 3f 8d cb 72 3f 99 be 51 3f
       0.86850506 0.66868716 0.94841844 0.81931454
0000c0 1d 33 4c 3f 0a 8a 39 3f 00 a3 37 3f 1e 6a 50 3f
       0.7976549 0.72476256 0.71733093 0.8141192
0000d0 a3 19 44 3f f0 b4 47 3f 86 82 6e 3f 5d 25 5c 3f
       0.7660162 0.78010464 0.9316791 0.8599451
0000e0 a8 41 45 3f d7 b3 4f 3f 01 f0 49 3f 23 c1 4b 3f
       0.7705331 0.8113379 0.7888184 0.7959158
0000f0 ea 2f 21 3f 4c 9b 08 3f eb 88 54 3f 6f ca 59 3f
       0.62963736 0.53361964 0.8302142 0.85074514

batchnorm2.bias f4 [64]
000000 45 20 25 bf 83 c9 e2 be 11 c0 cb be 3c a0 bc be
       -0.64502364 -0.44294366 -0.39794973 -0.36841
000010 97 7f ed be 19 38 3a bf f0 3e de be 2d 01 04 bf
       -0.46386406 -0.7274185 -0.43407393 -0.51564294
000020 49 78 df be 3a fe 97 be dc 1e a2 be 6a 4b 62 bf
       -0.43646458 -0.29686147 -0.3166417 -0.8839632
000030 4d 57 2f bf e7 74 05 bf c2 cb d0 be 27 f2 06 bf
       -0.68492585 -0.52131504 -0.40780455 -0.52713245
000040 4c 34 a8 be 38 14 1e bf 2e d4 1d bf 9d 80 f0 be
       -0.328524 -0.617496 -0.61651886 -0.46973124
000050 52 90 2d be af e9 ec be 30 18 d9 be 8e bd c8 be
       -0.16949585 -0.46272036 -0.42401266 -0.3920712
000060 a3 cb b6 be f8 cb 74 bf 93 fa f8 be 05 3c b4 be
       -0.35702237 -0.9562373 -0.48628673 -0.3520204
000070 4b e2 96 be 08 16 18 bf 7b 62 d5 be 58 c4 e6 be
       -0.29469523 -0.59408617 -0.41676697 -0.45071673
000080 5e 93 81 bf c2 49 24 bf e0 21 e4 be e0 22 29 bf
       -1.0123098 -0.64175045 -0.44557095 -0.6606884
000090 44 66 33 bf dc c1 d2 be ae fd f1 be 9f a0 12 bf
       -0.7007792 -0.41163528 -0.47263855 -0.5727634
0000a0 65 12 01 bf 9f 0c 69 bf 13 29 1c bf c2 af a5 be
       -0.5041869 -0.91034883 -0.61000174 -0.32360655
0000b0 9c e2 d5 be db 9e e6 be 50 76 4c bf 15 54 26 bf
       -0.41774452 -0.45043072 -0.7986803 -0.6497205
0000c0 f4 55 d9 be 56 0e 25 bf b0 2f 5b bf 84 2f 14 bf
       -0.4244839 -0.64475 -0.8561964 -0.57885003
0000d0 0e ea b1 be 0a c7 44 be 27 23 35 bf bb 71 e9 be
       -0.34748882 -0.19216552 -0.70756763 -0.45594582
0000e0 23 f5 2d bf 54 aa 69 bf 4a f9 09 bf 32 f5 85 be
       -0.67952174 -0.91275525 -0.5389601 -0.26163632
0000f0 09 44 ff be f2 c9 80 be c4 3a f3 be ed 3a 2c bf
       -0.49856594 -0.25154072 -0.47505772 -0.67277414

batchnorm2.running_mean f4 [64]
000000 2a d2 81 bf 71 f5 dc be ce 12 56 3f 14 d9 57 3f
       -1.0142262 -0.43156007 0.83622444 0.8431561
000010 64 7c c1 3e e3 54 93 3d 5d 06 02 bf 81 ef 02 bf
       0.37790215 0.07193925 -0.5079096 -0.51146704
000020 15 e1 ea 3c 11 d8 86 3d 7c e3 cf be 1c 4b c3 bb
       0.02867178 0.0658418 -0.40603244 -0.0059598815
000030 ae 28 65 bf bd d1 82 3d f0 4b b5 be 2b 5f 66 bf
       -0.895152 0.06387661 -0.35409498 -0.89988965
000040 aa ce 2f bf 46 52 4b 3f 37 bd 5f be e4 91 bb 3f
       -0.6867472 0.79422414 -0.21849523 1.4653897
000050 02 8d 12 3f d9 d9 2e bb f6 4f c7 be e2 95 82 bd
       0.5724641 -0.002668014 -0.38928193 -0.06376244
000060 82 2e 31 bf 1d e1 3f 3e e4 24 b0 3e a8 80 82 3e
       -0.6921159 0.18738218 0.34403145 0.25488782
000070 1f fe a2 3f e5 a5 9f bf 17 ae 0b bf 98 66 33 bc
       1.2733802 -1.2472502 -0.54562515 -0.010949753
000080 52 c0 9d bf ab e1 8c bd 55 eb 17 bf 99 cc 48 bd
       -1.2324317 -0.0687898 -0.59343463 -0.049023245
000090 10 52 73 bf 7b a9 52 bf d3 d4 96 3e 48 82 d4 be
       -0.9504709 -0.82289857 0.29459247 -0.41505647
0000a0 05 fe 52 bf b6 b3 2f be 98 84 d2 3d bc da b2 be
       -0.82418853 -0.17158398 0.102791965 -0.34932506
0000b0 5e 10 bb bc 72 45 56 3f ec ca 28 bf b0 4a aa bf
       -0.022834953 0.83699715 -0.65934634 -1.3304043
0000c0 69 0a 7c bf 9c b2 bf be 89 7c c6 3e 98 95 40 bd
       -0.98453385 -0.37440956 0.38766888 -0.047017664
0000d0 6c 82 cf 3e 67 1b 55 3e 0e 9d 09 bf 38 15 97 be
       0.40529191 0.20811234 -0.5375527 -0.29508376
0000e0 95 75 c1 be 4c dd 41 be 30 0d 66 bf 81 f0 e6 3f
       -0.3778502 -0.18932074 -0.8986387 1.8042146
0000f0 1c e1 ad 3e bf 25 48 bf 31 2f 2b bf 53 15 08 3f
       0.33960807 -0.78182596 -0.66868883 0.5315754

batchnorm2.running_var f4 [64]
000000 e0 32 9c 3f b8 b9 5e 3f ee e4 81 3f 60 5b 71 3f
       1.2203026 0.87002134 1.0147989 0.9428005
000010 11 6f 39 3f a9 d8 82 3f 6f 35 97 3f 32 b5 80 3f
       0.724351 1.022237 1.1813182 1.0055296
000020 34 18 85 3f 18 a9 8b 3f 04 cb 8e 3f 09 ae 68 3f
       1.0398011 1.0910978 1.1155705 0.90890557
000030 c7 58 50 3f 45 08 85 3f ca de 3b 3f 11 18 75 3f
       0.81385463 1.0393149 0.73386824 0.9573985
000040 c2 13 8d 3f e3 cf 43 3f 49 d0 4b 3f f8 79 87 3f
       1.1021655 0.76489085 0.7961469 1.0584097
000050 35 d8 9d 3f 7b 8e 5d 3f 74 a2 5b 3f e1 60 4f 3f
       1.2331606 0.8654553 0.8579476 0.810072
000060 51 45 7b 3f 29 8e 2e 3f d9 97 62 3f 9e 6c 8f 3f
       0.98152643 0.6818567 0.8851295 1.1205022
000070 36 d8 49 3f 1b d0 4b 3f 6e 84 54 3f 12 83 80 3f
       0.78845537 0.7961442 0.8301457 1.004
000080 90 0e 9d 3f 89 6c 5f 3f 54 09 15 3f 0d ad 5c 3f
       1.2270069 0.87274987 0.5821736 0.86201555
000090 41 85 e8 3e aa e6 57 3f eb ce 91 3f 0d 7f 4c 3f
       0.45414165 0.8433634 1.1391271 0.79881364
0000a0 aa 8d 64 3f 45 e2 5d 3f 05 52 92 3f 8c e7 82 3f
       0.8927866 0.86673385 1.143128 1.0226912
0000b0 ab a7 a3 3f a3 e2 62 3f d4 ba 5a 3f fc fa 25 3f
       1.2785543 0.8862707 0.8544133 0.64836097
0000c0 27 15 84 3f ad 71 19 3f e3 f0 07 3f bb 68 99 3f
       1.0318955 0.5993908 0.5310194 1.1985086
0000d0 89 d5 87 3f ec ef 4f 3f d7 40 50 3f ff b4 90 3f
       1.0612041 0.81225467 0.8134894 1.1305236
0000e0 55 40 4d 3f bc d5 69 3f b6 df 4a 3f 1c 79 9d 3f
       0.8017629 0.9134176 0.79247606 1.2302585
0000f0 21 f0 2e 3f 99 9c 56 3f 58 d4 86 3f e3 c9 93 3f
       0.6833516 0.838327 1.0533552 1.1545986

batchnorm3.weight f4 [32]
000000 48 0a a4 3f 08 ea 0f 40 9c 7d a7 3f 3d 1a cc 3f
       1.2815638 2.2486591 1.3085208 1.5945507
000010 51 c2 ab 3f c8 94 fe 3f 0c ae 0a 40 a8 c1 d6 3f
       1.3418676 1.9889154 2.166873 1.6777849
000020 20 1b b7 3f c6 81 07 40 af 83 ac 3f 68 5e 19 40
       1.4305153 2.1172957 1.3477687 2.396387
000030 a7 9d aa 3f 4a 41 c9 3f d2 62 eb 3f 5c 75 d6 3f
       1.3329362 1.572305 1.8389533 1.6754565
000040 43 9c 10 40 f8 36 09 40 a7 dc 00 40 35 06 1d 40
       2.2595375 2.14398 2.0134676 2.4535038
000050 d6 b3 9c 3f 33 d1 ef 3f 32 23 e2 3f 12 05 b1 3f
       1.2242382 1.8735718 1.7666991 1.3829672
000060 83 97 96 3f ff a0 c2 3f 35 b0 d7 3f 79 5c f8 3f
       1.1764988 1.5205382 1.6850649 1.940322
000070 f8 94 c9 3f 74 04 8f 3f f8 8e ac 3f c8 91 bd 3f
       1.5748587 1.1173234 1.3481131 1.4810114

batchnorm3.bias f4 [32]
000000 b5 f3 fe bd 59 d0 28 3e fa 07 10 be f2 56 a2 3d
       -0.12448827 0.16485728 -0.14065543 0.0792674
000010 da 24 ad 3e fe 63 14 be 32 48 c2 3d bb 78 aa bd
       0.33817178 -0.14491269 0.094864264 -0.08323809
000020 23 75 3a 3e 03 31 8a 3e 3e 3a 90 be a7 79 8b 3e
       0.18208747 0.26990518 -0.28169435 0.2724125
000030 e4 b5 9c 3e c9 cc 56 3e ef 01 4e bd 08 0d 0a bd
       0.30607522 0.20976557 -0.050294813 -0.033703834
000040 c7 91 64 bb ae f5 c3 3e 85 87 4f 3e c1 e1 e2 3d
       -0.003487693 0.38273376 0.2026654 0.110782154
000050 1e 44 1f 3e b9 02 6f bd 38 81 82 bb 44 a0 7b be
       0.15553328 -0.058352206 -0.003982689 -0.24572855
000060 a6 e2 81 bc 13 16 9d 3d 4f de 94 bd 33 44 13 3e
       -0.015855145 0.07670226 -0.072689645 0.14381485
000070 55 be 40 3e 81 ea 09 be 27 6b 0a be 3c d5 02 3d
       0.18822606 -0.13468362 -0.13517438 0.031941637

batchnorm3.running_mean f4 [32]
000000 9b fd 3a bd 0f 96 4e 3d 7d da 87 bd 30 55 96 3e
       -0.045652013 0.050436076 -0.0663347 0.29361868
000010 a1 b4 d0 3b 27 4e da bd 60 28 55 be 78 92 1a be
       0.006369189 -0.106594376 -0.20816183 -0.15094936
000020 f0 0f 9a 3e 54 bf 99 bd 42 3c b3 be cf ca 6f 3d
       0.30090284 -0.07507196 -0.3500691 0.058543023
000030 40 3e 8c 3e 82 eb 8f 3e ae d0 59 3d c8 bf 93 be
       0.27391243 0.28109366 0.053177528 -0.28857255
000040 d3 03 20 be 63 06 2b 3e e9 54 52 3e 68 db 84 3e
       -0.15626459 0.16701655 0.20540203 0.25948644
000050 c4 35 69 be eb af 8a be 5c d8 42 3c 28 82 30 be
       -0.22774416 -0.2708734 0.011892404 -0.1723715
000060 60 5c e0 3d 91 4a 73 be 87 bf 8d bd ea 1d 94 3e
       0.10955119 -0.23758914 -0.069212966 0.28929073
000070 9b b1 5a 3e 14 ca dd 3d 16 c3 b2 bd ca d9 2b 3e
       0.21356814 0.10829559 -0.08728616 0.16782299

batchnorm3.running_var f4 [32]
000000 f2 01 a0 3f a5 75 06 40 f2 c0 b2 3f 51 f6 f3 3f
       1.2500594 2.1009305 1.3965132 1.9059545
000010 77 63 8b 3f 12 2f 9f 3f 76 ad aa 3f 2b e4 99 3f
       1.0889729 1.243624 1.3334186 1.2022756
000020 42 a7 09 40 93 82 fa 3f 54 59 83 3f c8 a5 f0 3f
       2.1508336 1.9571098 1.0261636 1.8800592
000030 e7 2a 81 3f ba cb 05 40 2d 25 ef 3f 86 f1 8e 3f
       1.0091218 2.0905595 1.868322 1.1167457
000040 b7 54 b3 3f de 98 c1 3f b6 6f a2 3f 3b e0 13 40
       1.4010228 1.5124776 1.2690341 2.310561
000050 a1 52 b3 3f 18 78 9b 3f 38 df e2 3f e0 52 98 3f
       1.4009591 1.2146025 1.7724371 1.1900291
000060 78 33 bf 3f 80 1e ab 3f fc d9 fd 3f 36 e7 03 40
       1.4937582 1.3368683 1.9832149 2.060987
000070 6e 0c b4 3f af 6b 9b 3f 22 6e bf 3f 94 91 d4 3f
       1.4066293 1.2142237 1.4955485 1.6606927
