src/hardware_fpga/mlp_v1/mlp_partition.onnx (onnx, 687147 bytes, 7 tensors)

MatMul_0_param0 f4 [60, 256]
43.0 16.0 -59.0 -16.0 -11.0 65.0 72.0 -28.0
-23.0 -25.0 42.0 -10.0 -5.0 44.0 21.0 -3.0
35.0 -6.0 -4.0 -32.0 27.0 -14.0 -31.0 -19.0
-46.0 2.0 -15.0 55.0 -25.0 -29.0 -47.0 -5.0
54.0 34.0 -4.0 -69.0 -35.0 -12.0 20.0 24.0
90.0 14.0 -5.0 39.0 43.0 47.0 -15.0 -22.0
-36.0 36.0 2.0 -28.0 13.0 1.0 -9.0 -0.0
7.0 -11.0 4.0 31.0 29.0 -1.0 69.0 11.0
2.0 125.0 28.0 -12.0 4.0 17.0 -2.0 32.0
4.0 -31.0 17.0 46.0 23.0 -22.0 -24.0 14.0
19.0 8.0 -19.0 4.0 -12.0 -47.0 -8.0 -10.0
-74.0 -37.0 5.0 -70.0 -41.0 -19.0 -9.0 -18.0
12.0 -2.0 16.0 -14.0 -62.0 -13.0 -113.0 -43.0
29.0 -59.0 -58.0 -17.0 24.0 15.0 14.0 26.0
-8.0 -5.0 -6.0 -57.0 15.0 -20.0 -48.0 85.0
15.0 -91.0 -9.0 65.0 -15.0 -4.0 36.0 -9.0
-66.0 -15.0 -53.0 12.0 -11.0 -7.0 -22.0 -77.0
28.0 49.0 43.0 13.0 2.0 -98.0 -37.0 -30.0
-107.0 75.0 20.0 34.0 43.0 -26.0 -72.0 -27.0
-59.0 34.0 -15.0 -28.0 -33.0 26.0 5.0 57.0
-19.0 22.0 -30.0 19.0 59.0 -18.0 -5.0 -10.0
102.0 -38.0 16.0 -17.0 39.0 -64.0 24.0 21.0
-33.0 -24.0 3.0 -70.0 26.0 28.0 5.0 70.0
-82.0 31.0 -2.0 36.0 -21.0 -22.0 -45.0 -7.0
-60.0 8.0 74.0 -5.0 18.0 14.0 13.0 15.0
-1.0 -100.0 -45.0 1.0 -2.0 -26.0 18.0 77.0
-33.0 -17.0 -61.0 19.0 49.0 25.0 80.0 -50.0
12.0 -22.0 -106.0 -85.0 -11.0 30.0 -47.0 44.0
11.0 -2.0 -16.0 14.0 -18.0 29.0 15.0 43.0
20.0 32.0 33.0 -33.0 20.0 104.0 -16.0 -85.0
-7.0 18.0 93.0 -13.0 10.0 -51.0 -24.0 -28.0
-2.0 -30.0 -59.0 6.0 44.0 13.0 -21.0 39.0
00000000: 0000 2c42 0000 8041 0000 6cc2 0000 80c1
00000010: 0000 30c1 0000 8242 0000 9042 0000 e0c1
00000020: 0000 b8c1 0000 c8c1 0000 2842 0000 20c1
00000030: 0000 a0c0 0000 3042 0000 a841 0000 40c0
00000040: 0000 0c42 0000 c0c0 0000 80c0 0000 00c2
00000050: 0000 d841 0000 60c1 0000 f8c1 0000 98c1
00000060: 0000 38c2 0000 0040 0000 70c1 0000 5c42
00000070: 0000 c8c1 0000 e8c1 0000 3cc2 0000 a0c0
00000080: 0000 5842 0000 0842 0000 80c0 0000 8ac2
00000090: 0000 0cc2 0000 40c1 0000 a041 0000 c041
000000a0: 0000 b442 0000 6041 0000 a0c0 0000 1c42
000000b0: 0000 2c42 0000 3c42 0000 70c1 0000 b0c1
000000c0: 0000 10c2 0000 1042 0000 0040 0000 e0c1
000000d0: 0000 5041 0000 803f 0000 10c1 0000 0080
000000e0: 0000 e040 0000 30c1 0000 8040 0000 f841
000000f0: 0000 e841 0000 80bf 0000 8a42 0000 3041
00000100: 0000 0040 0000 fa42 0000 e041 0000 40c1
00000110: 0000 8040 0000 8841 0000 00c0 0000 0042
00000120: 0000 8040 0000 f8c1 0000 8841 0000 3842
00000130: 0000 b841 0000 b0c1 0000 c0c1 0000 6041
00000140: 0000 9841 0000 0041 0000 98c1 0000 8040
00000150: 0000 40c1 0000 3cc2 0000 00c1 0000 20c1
00000160: 0000 94c2 0000 14c2 0000 a040 0000 8cc2
00000170: 0000 24c2 0000 98c1 0000 10c1 0000 90c1
00000180: 0000 4041 0000 00c0 0000 8041 0000 60c1
00000190: 0000 78c2 0000 50c1 0000 e2c2 0000 2cc2
000001a0: 0000 e841 0000 6cc2 0000 68c2 0000 88c1
000001b0: 0000 c041 0000 7041 0000 6041 0000 d041
000001c0: 0000 00c1 0000 a0c0 0000 c0c0 0000 64c2
000001d0: 0000 7041 0000 a0c1 0000 40c2 0000 aa42
000001e0: 0000 7041 0000 b6c2 0000 10c1 0000 8242
000001f0: 0000 70c1 0000 80c0 0000 1042 0000 10c1
00000200: 0000 84c2 0000 70c1 0000 54c2 0000 4041
00000210: 0000 30c1 0000 e0c0 0000 b0c1 0000 9ac2
00000220: 0000 e041 0000 4442 0000 2c42 0000 5041
00000230: 0000 0040 0000 c4c2 0000 14c2 0000 f0c1
00000240: 0000 d6c2 0000 9642 0000 a041 0000 0842
00000250: 0000 2c42 0000 d0c1 0000 90c2 0000 d8c1
00000260: 0000 6cc2 0000 0842 0000 70c1 0000 e0c1
00000270: 0000 04c2 0000 d041 0000 a040 0000 6442
00000280: 0000 98c1 0000 b041 0000 f0c1 0000 9841
00000290: 0000 6c42 0000 90c1 0000 a0c0 0000 20c1
000002a0: 0000 cc42 0000 18c2 0000 8041 0000 88c1
000002b0: 0000 1c42 0000 80c2 0000 c041 0000 a841
000002c0: 0000 04c2 0000 c0c1 0000 4040 0000 8cc2
000002d0: 0000 d041 0000 e041 0000 a040 0000 8c42
000002e0: 0000 a4c2 0000 f841 0000 00c0 0000 1042
000002f0: 0000 a8c1 0000 b0c1 0000 34c2 0000 e0c0
00000300: 0000 70c2 0000 0041 0000 9442 0000 a0c0
00000310: 0000 9041 0000 6041 0000 5041 0000 7041
00000320: 0000 80bf 0000 c8c2 0000 34c2 0000 803f
00000330: 0000 00c0 0000 d0c1 0000 9041 0000 9a42
00000340: 0000 04c2 0000 88c1 0000 74c2 0000 9841
00000350: 0000 4442 0000 c841 0000 a042 0000 48c2
00000360: 0000 4041 0000 b0c1 0000 d4c2 0000 aac2
00000370: 0000 30c1 0000 f041 0000 3cc2 0000 3042
00000380: 0000 3041 0000 00c0 0000 80c1 0000 6041
00000390: 0000 90c1 0000 e841 0000 7041 0000 2c42
000003a0: 0000 a041 0000 0042 0000 0442 0000 04c2
000003b0: 0000 a041 0000 d042 0000 80c1 0000 aac2
000003c0: 0000 e0c0 0000 9041 0000 ba42 0000 50c1
000003d0: 0000 2041 0000 4cc2 0000 c0c1 0000 e0c1
000003e0: 0000 00c0 0000 f0c1 0000 6cc2 0000 c040
000003f0: 0000 3042 0000 5041 0000 a8c1 0000 1c42

MatMul_1_param0 f4 [256, 128]
-5.0 -37.0 17.0 2.0 7.0 -8.0 25.0 2.0
-23.0 -0.0 34.0 -8.0 27.0 -19.0 8.0 21.0
-0.0 -20.0 -7.0 -4.0 -14.0 28.0 43.0 31.0
29.0 3.0 1.0 28.0 -7.0 -24.0 46.0 12.0
20.0 34.0 -17.0 -18.0 7.0 15.0 -9.0 -13.0
21.0 26.0 -11.0 7.0 13.0 25.0 41.0 -42.0
45.0 -11.0 25.0 26.0 5.0 25.0 26.0 7.0
-25.0 -28.0 8.0 -8.0 5.0 8.0 -3.0 -10.0
-3.0 7.0 -37.0 -38.0 -13.0 3.0 19.0 14.0
8.0 44.0 25.0 -11.0 14.0 20.0 -11.0 5.0
-14.0 -5.0 1.0 -49.0 -1.0 -17.0 41.0 -22.0
-7.0 20.0 18.0 17.0 3.0 26.0 15.0 39.0
-24.0 -37.0 10.0 24.0 22.0 14.0 19.0 -5.0
24.0 19.0 39.0 -11.0 -11.0 -17.0 37.0 -0.0
22.0 23.0 -22.0 37.0 -31.0 19.0 17.0 20.0
18.0 15.0 35.0 13.0 -16.0 10.0 17.0 26.0
-4.0 -20.0 9.0 10.0 2.0 68.0 -47.0 19.0
32.0 40.0 19.0 11.0 -3.0 -1.0 -12.0 11.0
-2.0 -5.0 7.0 -51.0 -16.0 -11.0 10.0 22.0
22.0 36.0 4.0 7.0 -29.0 35.0 -8.0 14.0
-34.0 -39.0 20.0 -26.0 3.0 -32.0 41.0 12.0
-10.0 4.0 -16.0 6.0 -13.0 8.0 -15.0 -10.0
3.0 -12.0 11.0 29.0 -27.0 -19.0 26.0 19.0
-45.0 -15.0 17.0 -17.0 10.0 35.0 27.0 23.0
-4.0 -5.0 4.0 21.0 -27.0 -13.0 35.0 -23.0
12.0 26.0 34.0 -4.0 29.0 18.0 -14.0 -31.0
-51.0 -26.0 -2.0 75.0 42.0 16.0 30.0 18.0
-20.0 -37.0 26.0 -0.0 -12.0 22.0 -3.0 -54.0
-24.0 42.0 -44.0 20.0 17.0 34.0 14.0 -18.0
-8.0 1.0 -27.0 16.0 46.0 -50.0 27.0 -7.0
12.0 -4.0 36.0 9.0 25.0 36.0 8.0 17.0
27.0 -36.0 -5.0 13.0 -26.0 -15.0 27.0 -5.0
00000000: 0000 a0c0 0000 14c2 0000 8841 0000 0040
00000010: 0000 e040 0000 00c1 0000 c841 0000 0040
00000020: 0000 b8c1 0000 0080 0000 0842 0000 00c1
00000030: 0000 d841 0000 98c1 0000 0041 0000 a841
00000040: 0000 0080 0000 a0c1 0000 e0c0 0000 80c0
00000050: 0000 60c1 0000 e041 0000 2c42 0000 f841
00000060: 0000 e841 0000 4040 0000 803f 0000 e041
00000070: 0000 e0c0 0000 c0c1 0000 3842 0000 4041
00000080: 0000 a041 0000 0842 0000 88c1 0000 90c1
00000090: 0000 e040 0000 7041 0000 10c1 0000 50c1
000000a0: 0000 a841 0000 d041 0000 30c1 0000 e040
000000b0: 0000 5041 0000 c841 0000 2442 0000 28c2
000000c0: 0000 3442 0000 30c1 0000 c841 0000 d041
000000d0: 0000 a040 0000 c841 0000 d041 0000 e040
000000e0: 0000 c8c1 0000 e0c1 0000 0041 0000 00c1
000000f0: 0000 a040 0000 0041 0000 40c0 0000 20c1
00000100: 0000 40c0 0000 e040 0000 14c2 0000 18c2
00000110: 0000 50c1 0000 4040 0000 9841 0000 6041
00000120: 0000 0041 0000 3042 0000 c841 0000 30c1
00000130: 0000 6041 0000 a041 0000 30c1 0000 a040
00000140: 0000 60c1 0000 a0c0 0000 803f 0000 44c2
00000150: 0000 80bf 0000 88c1 0000 2442 0000 b0c1
00000160: 0000 e0c0 0000 a041 0000 9041 0000 8841
00000170: 0000 4040 0000 d041 0000 7041 0000 1c42
00000180: 0000 c0c1 0000 14c2 0000 2041 0000 c041
00000190: 0000 b041 0000 6041 0000 9841 0000 a0c0
000001a0: 0000 c041 0000 9841 0000 1c42 0000 30c1
000001b0: 0000 30c1 0000 88c1 0000 1442 0000 0080
000001c0: 0000 b041 0000 b841 0000 b0c1 0000 1442
000001d0: 0000 f8c1 0000 9841 0000 8841 0000 a041
000001e0: 0000 9041 0000 7041 0000 0c42 0000 5041
000001f0: 0000 80c1 0000 2041 0000 8841 0000 d041
00000200: 0000 80c0 0000 a0c1 0000 1041 0000 2041
00000210: 0000 0040 0000 8842 0000 3cc2 0000 9841
00000220: 0000 0042 0000 2042 0000 9841 0000 3041
00000230: 0000 40c0 0000 80bf 0000 40c1 0000 3041
00000240: 0000 00c0 0000 a0c0 0000 e040 0000 4cc2
00000250: 0000 80c1 0000 30c1 0000 2041 0000 b041
00000260: 0000 b041 0000 1042 0000 8040 0000 e040
00000270: 0000 e8c1 0000 0c42 0000 00c1 0000 6041
00000280: 0000 08c2 0000 1cc2 0000 a041 0000 d0c1
00000290: 0000 4040 0000 00c2 0000 2442 0000 4041
000002a0: 0000 20c1 0000 8040 0000 80c1 0000 c040
000002b0: 0000 50c1 0000 0041 0000 70c1 0000 20c1
000002c0: 0000 4040 0000 40c1 0000 3041 0000 e841
000002d0: 0000 d8c1 0000 98c1 0000 d041 0000 9841
000002e0: 0000 34c2 0000 70c1 0000 8841 0000 88c1
000002f0: 0000 2041 0000 0c42 0000 d841 0000 b841
00000300: 0000 80c0 0000 a0c0 0000 8040 0000 a841
00000310: 0000 d8c1 0000 50c1 0000 0c42 0000 b8c1
00000320: 0000 4041 0000 d041 0000 0842 0000 80c0
00000330: 0000 e841 0000 9041 0000 60c1 0000 f8c1
00000340: 0000 4cc2 0000 d0c1 0000 00c0 0000 9642
00000350: 0000 2842 0000 8041 0000 f041 0000 9041
00000360: 0000 a0c1 0000 14c2 0000 d041 0000 0080
00000370: 0000 40c1 0000 b041 0000 40c0 0000 58c2
00000380: 0000 c0c1 0000 2842 0000 30c2 0000 a041
00000390: 0000 8841 0000 0842 0000 6041 0000 90c1
000003a0: 0000 00c1 0000 803f 0000 d8c1 0000 8041
000003b0: 0000 3842 0000 48c2 0000 d841 0000 e0c0
000003c0: 0000 4041 0000 80c0 0000 1042 0000 1041
000003d0: 0000 c841 0000 1042 0000 0041 0000 8841
000003e0: 0000 d841 0000 10c2 0000 a0c0 0000 5041
000003f0: 0000 d0c1 0000 70c1 0000 d841 0000 a0c0

MatMul_2_param0 f4 [128, 64]
20.0 -2.0 23.0 -4.0 -8.0 82.0 86.0 -37.0
-18.0 -20.0 19.0 84.0 -11.0 -38.0 7.0 -20.0
-9.0 76.0 67.0 11.0 -12.0 -7.0 -10.0 -15.0
-37.0 -31.0 12.0 -31.0 68.0 -25.0 73.0 12.0
-14.0 -14.0 78.0 -23.0 -10.0 17.0 1.0 -7.0
-18.0 21.0 -8.0 -13.0 -35.0 56.0 32.0 -21.0
80.0 1.0 13.0 14.0 16.0 -5.0 -20.0 -2.0
41.0 -5.0 -26.0 13.0 -31.0 -18.0 38.0 74.0
2.0 -8.0 -4.0 -4.0 -68.0 -3.0 -15.0 -7.0
-111.0 -41.0 -30.0 15.0 -42.0 -2.0 18.0 -26.0
-27.0 -11.0 16.0 17.0 -27.0 -31.0 -26.0 -23.0
6.0 -8.0 -70.0 -2.0 9.0 9.0 11.0 -70.0
-24.0 -35.0 13.0 2.0 -43.0 -66.0 -90.0 -43.0
-99.0 -22.0 -64.0 79.0 -56.0 -5.0 -2.0 -61.0
-26.0 9.0 -64.0 2.0 6.0 -40.0 -10.0 -64.0
-40.0 -38.0 -42.0 -11.0 -27.0 22.0 23.0 12.0
-3.0 -35.0 23.0 -12.0 19.0 0.0 -29.0 -34.0
34.0 18.0 18.0 2.0 -39.0 -59.0 36.0 54.0
-15.0 5.0 5.0 39.0 -15.0 34.0 -13.0 31.0
17.0 -15.0 44.0 44.0 -17.0 -23.0 32.0 52.0
-19.0 9.0 -12.0 24.0 -51.0 17.0 -7.0 58.0
-52.0 44.0 38.0 -22.0 -19.0 0.0 -26.0 -14.0
-5.0 34.0 8.0 44.0 -72.0 8.0 37.0 -58.0
3.0 58.0 -5.0 39.0 49.0 -60.0 19.0 9.0
6.0 51.0 3.0 25.0 -18.0 -0.0 19.0 58.0
-41.0 -24.0 -5.0 41.0 83.0 51.0 -21.0 -33.0
26.0 9.0 1.0 15.0 58.0 1.0 56.0 -40.0
-48.0 42.0 -55.0 -58.0 -8.0 30.0 -2.0 -22.0
-10.0 18.0 6.0 -49.0 -18.0 -17.0 -12.0 -52.0
63.0 -21.0 -8.0 11.0 37.0 8.0 7.0 56.0
-10.0 -3.0 -30.0 -2.0 25.0 -16.0 6.0 58.0
5.0 -25.0 -10.0 0.0 -12.0 52.0 3.0 20.0
00000000: 0000 a041 0000 00c0 0000 b841 0000 80c0
00000010: 0000 00c1 0000 a442 0000 ac42 0000 14c2
00000020: 0000 90c1 0000 a0c1 0000 9841 0000 a842
00000030: 0000 30c1 0000 18c2 0000 e040 0000 a0c1
00000040: 0000 10c1 0000 9842 0000 8642 0000 3041
00000050: 0000 40c1 0000 e0c0 0000 20c1 0000 70c1
00000060: 0000 14c2 0000 f8c1 0000 4041 0000 f8c1
00000070: 0000 8842 0000 c8c1 0000 9242 0000 4041
00000080: 0000 60c1 0000 60c1 0000 9c42 0000 b8c1
00000090: 0000 20c1 0000 8841 0000 803f 0000 e0c0
000000a0: 0000 90c1 0000 a841 0000 00c1 0000 50c1
000000b0: 0000 0cc2 0000 6042 0000 0042 0000 a8c1
000000c0: 0000 a042 0000 803f 0000 5041 0000 6041
000000d0: 0000 8041 0000 a0c0 0000 a0c1 0000 00c0
000000e0: 0000 2442 0000 a0c0 0000 d0c1 0000 5041
000000f0: 0000 f8c1 0000 90c1 0000 1842 0000 9442
00000100: 0000 0040 0000 00c1 0000 80c0 0000 80c0
00000110: 0000 88c2 0000 40c0 0000 70c1 0000 e0c0
00000120: 0000 dec2 0000 24c2 0000 f0c1 0000 7041
00000130: 0000 28c2 0000 00c0 0000 9041 0000 d0c1
00000140: 0000 d8c1 0000 30c1 0000 8041 0000 8841
00000150: 0000 d8c1 0000 f8c1 0000 d0c1 0000 b8c1
00000160: 0000 c040 0000 00c1 0000 8cc2 0000 00c0
00000170: 0000 1041 0000 1041 0000 3041 0000 8cc2
00000180: 0000 c0c1 0000 0cc2 0000 5041 0000 0040
00000190: 0000 2cc2 0000 84c2 0000 b4c2 0000 2cc2
000001a0: 0000 c6c2 0000 b0c1 0000 80c2 0000 9e42
000001b0: 0000 60c2 0000 a0c0 0000 00c0 0000 74c2
000001c0: 0000 d0c1 0000 1041 0000 80c2 0000 0040
000001d0: 0000 c040 0000 20c2 0000 20c1 0000 80c2
000001e0: 0000 20c2 0000 18c2 0000 28c2 0000 30c1
000001f0: 0000 d8c1 0000 b041 0000 b841 0000 4041
00000200: 0000 40c0 0000 0cc2 0000 b841 0000 40c1
00000210: 0000 9841 0000 0000 0000 e8c1 0000 08c2
00000220: 0000 0842 0000 9041 0000 9041 0000 0040
00000230: 0000 1cc2 0000 6cc2 0000 1042 0000 5842
00000240: 0000 70c1 0000 a040 0000 a040 0000 1c42
00000250: 0000 70c1 0000 0842 0000 50c1 0000 f841
00000260: 0000 8841 0000 70c1 0000 3042 0000 3042
00000270: 0000 88c1 0000 b8c1 0000 0042 0000 5042
00000280: 0000 98c1 0000 1041 0000 40c1 0000 c041
00000290: 0000 4cc2 0000 8841 0000 e0c0 0000 6842
000002a0: 0000 50c2 0000 3042 0000 1842 0000 b0c1
000002b0: 0000 98c1 0000 0000 0000 d0c1 0000 60c1
000002c0: 0000 a0c0 0000 0842 0000 0041 0000 3042
000002d0: 0000 90c2 0000 0041 0000 1442 0000 68c2
000002e0: 0000 4040 0000 6842 0000 a0c0 0000 1c42
000002f0: 0000 4442 0000 70c2 0000 9841 0000 1041
00000300: 0000 c040 0000 4c42 0000 4040 0000 c841
00000310: 0000 90c1 0000 0080 0000 9841 0000 6842
00000320: 0000 24c2 0000 c0c1 0000 a0c0 0000 2442
00000330: 0000 a642 0000 4c42 0000 a8c1 0000 04c2
00000340: 0000 d041 0000 1041 0000 803f 0000 7041
00000350: 0000 6842 0000 803f 0000 6042 0000 20c2
00000360: 0000 40c2 0000 2842 0000 5cc2 0000 68c2
00000370: 0000 00c1 0000 f041 0000 00c0 0000 b0c1
00000380: 0000 20c1 0000 9041 0000 c040 0000 44c2
00000390: 0000 90c1 0000 88c1 0000 40c1 0000 50c2
000003a0: 0000 7c42 0000 a8c1 0000 00c1 0000 3041
000003b0: 0000 1442 0000 0041 0000 e040 0000 6042
000003c0: 0000 20c1 0000 40c0 0000 f0c1 0000 00c0
000003d0: 0000 c841 0000 80c1 0000 c040 0000 6842
000003e0: 0000 a040 0000 c8c1 0000 20c1 0000 0000
000003f0: 0000 40c1 0000 5042 0000 4040 0000 a041

MatMul_3_param0 f4 [64, 3]
15.0 6.0 -81.0 -27.0 -49.0 49.0 18.0 8.0
-70.0 -37.0 -14.0 19.0 -61.0 28.0 -2.0 69.0
-57.0 -26.0 37.0 -65.0 -11.0 -17.0 -45.0 39.0
-50.0 18.0 8.0 -30.0 10.0 15.0 -24.0 43.0
-62.0 72.0 -78.0 -29.0 -28.0 -61.0 48.0 -22.0
-38.0 52.0 -27.0 43.0 -55.0 -9.0 19.0 -15.0
-83.0 13.0 14.0 62.0 -78.0 -26.0 60.0 -23.0
-45.0 11.0 10.0 -57.0 -37.0 -44.0 46.0 15.0
14.0 -92.0 -18.0 -58.0 57.0 -3.0 13.0 -7.0
-15.0 17.0 10.0 -63.0 9.0 12.0 10.0 28.0
-36.0 -23.0 8.0 -3.0 55.0 -65.0 -24.0 -30.0
-42.0 44.0 38.0 -40.0 -44.0 -5.0 19.0 -34.0
-92.0 17.0 11.0 -91.0 15.0 13.0 75.0 -70.0
-37.0 -19.0 18.0 15.0 -127.0 20.0 18.0 -59.0
21.0 -23.0 -97.0 20.0 4.0 -4.0 16.0 -50.0
0.0 -43.0 37.0 -51.0 44.0 -35.0 -35.0 42.0
-36.0 -34.0 -9.0 27.0 -30.0 -40.0 46.0 51.0
-52.0 -39.0 27.0 9.0 -64.0 -31.0 -64.0 52.0
55.0 -54.0 -38.0 16.0 17.0 -46.0 -50.0 24.0
-16.0 14.0 15.0 -98.0 35.0 -58.0 16.0 -33.0
24.0 -24.0 17.0 17.0 -126.0 17.0 -76.0 40.0
21.0 -14.0 -50.0 8.0 23.0 -58.0 -88.0 25.0
-1.0 14.0 11.0 -96.0 14.0 17.0 -127.0 2.0
-57.0 22.0 12.0 16.0 -43.0 52.0 -61.0 -33.0
00000000: 0000 7041 0000 c040 0000 a2c2 0000 d8c1
00000010: 0000 44c2 0000 4442 0000 9041 0000 0041
00000020: 0000 8cc2 0000 14c2 0000 60c1 0000 9841
00000030: 0000 74c2 0000 e041 0000 00c0 0000 8a42
00000040: 0000 64c2 0000 d0c1 0000 1442 0000 82c2
00000050: 0000 30c1 0000 88c1 0000 34c2 0000 1c42
00000060: 0000 48c2 0000 9041 0000 0041 0000 f0c1
00000070: 0000 2041 0000 7041 0000 c0c1 0000 2c42
00000080: 0000 78c2 0000 9042 0000 9cc2 0000 e8c1
00000090: 0000 e0c1 0000 74c2 0000 4042 0000 b0c1
000000a0: 0000 18c2 0000 5042 0000 d8c1 0000 2c42
000000b0: 0000 5cc2 0000 10c1 0000 9841 0000 70c1
000000c0: 0000 a6c2 0000 5041 0000 6041 0000 7842
000000d0: 0000 9cc2 0000 d0c1 0000 7042 0000 b8c1
000000e0: 0000 34c2 0000 3041 0000 2041 0000 64c2
000000f0: 0000 14c2 0000 30c2 0000 3842 0000 7041
00000100: 0000 6041 0000 b8c2 0000 90c1 0000 68c2
00000110: 0000 6442 0000 40c0 0000 5041 0000 e0c0
00000120: 0000 70c1 0000 8841 0000 2041 0000 7cc2
00000130: 0000 1041 0000 4041 0000 2041 0000 e041
00000140: 0000 10c2 0000 b8c1 0000 0041 0000 40c0
00000150: 0000 5c42 0000 82c2 0000 c0c1 0000 f0c1
00000160: 0000 28c2 0000 3042 0000 1842 0000 20c2
00000170: 0000 30c2 0000 a0c0 0000 9841 0000 08c2
00000180: 0000 b8c2 0000 8841 0000 3041 0000 b6c2
00000190: 0000 7041 0000 5041 0000 9642 0000 8cc2
000001a0: 0000 14c2 0000 98c1 0000 9041 0000 7041
000001b0: 0000 fec2 0000 a041 0000 9041 0000 6cc2
000001c0: 0000 a841 0000 b8c1 0000 c2c2 0000 a041
000001d0: 0000 8040 0000 80c0 0000 8041 0000 48c2
000001e0: 0000 0000 0000 2cc2 0000 1442 0000 4cc2
000001f0: 0000 3042 0000 0cc2 0000 0cc2 0000 2842
00000200: 0000 10c2 0000 08c2 0000 10c1 0000 d841
00000210: 0000 f0c1 0000 20c2 0000 3842 0000 4c42
00000220: 0000 50c2 0000 1cc2 0000 d841 0000 1041
00000230: 0000 80c2 0000 f8c1 0000 80c2 0000 5042
00000240: 0000 5c42 0000 58c2 0000 18c2 0000 8041
00000250: 0000 8841 0000 38c2 0000 48c2 0000 c041
00000260: 0000 80c1 0000 6041 0000 7041 0000 c4c2
00000270: 0000 0c42 0000 68c2 0000 8041 0000 04c2
00000280: 0000 c041 0000 c0c1 0000 8841 0000 8841
00000290: 0000 fcc2 0000 8841 0000 98c2 0000 2042
000002a0: 0000 a841 0000 60c1 0000 48c2 0000 0041
000002b0: 0000 b841 0000 68c2 0000 b0c2 0000 c841
000002c0: 0000 80bf 0000 6041 0000 3041 0000 c0c2
000002d0: 0000 6041 0000 8841 0000 fec2 0000 0040
000002e0: 0000 64c2 0000 b041 0000 4041 0000 8041
000002f0: 0000 2cc2 0000 5042 0000 74c2 0000 04c2

MultiThreshold_0_param0 f4 [256, 255]
10876.0 11304.0 11731.0 12159.0 12586.0 13014.0 13441.0 13869.0
14296.0 14724.0 15151.0 15579.0 16006.0 16434.0 16861.0 17289.0
17716.0 18144.0 18571.0 18999.0 19426.0 19854.0 20281.0 20709.0
21136.0 21564.0 21991.0 22419.0 22846.0 23274.0 23701.0 24129.0
24556.0 24984.0 25411.0 25839.0 26266.0 26694.0 27121.0 27549.0
27976.0 28404.0 28831.0 29259.0 29686.0 30114.0 30541.0 30969.0
31396.0 31824.0 32251.0 32679.0 33106.0 33534.0 33961.0 34389.0
34816.0 35244.0 35671.0 36099.0 36526.0 36954.0 37381.0 37809.0
38236.0 38664.0 39091.0 39519.0 39946.0 40374.0 40801.0 41229.0
41656.0 42084.0 42511.0 42939.0 43366.0 43794.0 44221.0 44649.0
45076.0 45504.0 45932.0 46359.0 46787.0 47214.0 47642.0 48069.0
48497.0 48924.0 49352.0 49779.0 50207.0 50634.0 51062.0 51489.0
51917.0 52344.0 52772.0 53199.0 53627.0 54054.0 54482.0 54909.0
55337.0 55764.0 56192.0 56619.0 57047.0 57474.0 57902.0 58329.0
58757.0 59184.0 59612.0 60039.0 60467.0 60894.0 61322.0 61749.0
62177.0 62604.0 63032.0 63459.0 63887.0 64314.0 64742.0 65169.0
65597.0 66024.0 66452.0 66879.0 67307.0 67734.0 68162.0 68589.0
69017.0 69444.0 69872.0 70299.0 70727.0 71154.0 71582.0 72009.0
72437.0 72864.0 73292.0 73719.0 74147.0 74574.0 75002.0 75429.0
75857.0 76284.0 76712.0 77139.0 77567.0 77994.0 78422.0 78849.0
79277.0 79704.0 80132.0 80559.0 80987.0 81414.0 81842.0 82269.0
82697.0 83124.0 83552.0 83979.0 84407.0 84834.0 85262.0 85689.0
86117.0 86544.0 86972.0 87399.0 87827.0 88254.0 88682.0 89109.0
89537.0 89964.0 90392.0 90819.0 91247.0 91674.0 92102.0 92529.0
92957.0 93384.0 93812.0 94239.0 94667.0 95094.0 95522.0 95949.0
96377.0 96804.0 97232.0 97659.0 98087.0 98514.0 98942.0 99369.0
99797.0 100224.0 100652.0 101079.0 101507.0 101934.0 102362.0 102789.0
103217.0 103644.0 104072.0 104499.0 104927.0 105354.0 105782.0 106209.0
106637.0 107064.0 107492.0 107919.0 108347.0 108774.0 109202.0 109630.0
110057.0 110485.0 110912.0 111340.0 111767.0 112195.0 112622.0 113050.0
113477.0 113905.0 114332.0 114760.0 115187.0 115615.0 116042.0 116470.0
116897.0 117325.0 117752.0 118180.0 118607.0 119035.0 119462.0 12083.0
00000000: 00f0 2946 00a0 3046 004c 3746 00fc 3d46
00000010: 00a8 4446 0058 4b46 0004 5246 00b4 5846
00000020: 0060 5f46 0010 6646 00bc 6c46 006c 7346
00000030: 0018 7a46 0064 8046 00ba 8346 0012 8746
00000040: 0068 8a46 00c0 8d46 0016 9146 006e 9446
00000050: 00c4 9746 001c 9b46 0072 9e46 00ca a146
00000060: 0020 a546 0078 a846 00ce ab46 0026 af46
00000070: 007c b246 00d4 b546 002a b946 0082 bc46
00000080: 00d8 bf46 0030 c346 0086 c646 00de c946
00000090: 0034 cd46 008c d046 00e2 d346 003a d746
000000a0: 0090 da46 00e8 dd46 003e e146 0096 e446
000000b0: 00ec e746 0044 eb46 009a ee46 00f2 f146
000000c0: 0048 f546 00a0 f846 00f6 fb46 004e ff46
000000d0: 0052 0147 00fe 0247 00a9 0447 0055 0647
000000e0: 0000 0847 00ac 0947 0057 0b47 0003 0d47
000000f0: 00ae 0e47 005a 1047 0005 1247 00b1 1347
00000100: 005c 1547 0008 1747 00b3 1847 005f 1a47
00000110: 000a 1c47 00b6 1d47 0061 1f47 000d 2147
00000120: 00b8 2247 0064 2447 000f 2647 00bb 2747
00000130: 0066 2947 0012 2b47 00bd 2c47 0069 2e47
00000140: 0014 3047 00c0 3147 006c 3347 0017 3547
00000150: 00c3 3647 006e 3847 001a 3a47 00c5 3b47
00000160: 0071 3d47 001c 3f47 00c8 4047 0073 4247
00000170: 001f 4447 00ca 4547 0076 4747 0021 4947
00000180: 00cd 4a47 0078 4c47 0024 4e47 00cf 4f47
00000190: 007b 5147 0026 5347 00d2 5447 007d 5647
000001a0: 0029 5847 00d4 5947 0080 5b47 002b 5d47
000001b0: 00d7 5e47 0082 6047 002e 6247 00d9 6347
000001c0: 0085 6547 0030 6747 00dc 6847 0087 6a47
000001d0: 0033 6c47 00de 6d47 008a 6f47 0035 7147
000001e0: 00e1 7247 008c 7447 0038 7647 00e3 7747
000001f0: 008f 7947 003a 7b47 00e6 7c47 0091 7e47
00000200: 801e 8047 00f4 8047 00ca 8147 809f 8247
00000210: 8075 8347 004b 8447 0021 8547 80f6 8547
00000220: 80cc 8647 00a2 8747 0078 8847 804d 8947
00000230: 8023 8a47 00f9 8a47 00cf 8b47 80a4 8c47
00000240: 807a 8d47 0050 8e47 0026 8f47 80fb 8f47
00000250: 80d1 9047 00a7 9147 007d 9247 8052 9347
00000260: 8028 9447 00fe 9447 00d4 9547 80a9 9647
00000270: 807f 9747 0055 9847 002b 9947 8000 9a47
00000280: 80d6 9a47 00ac 9b47 0082 9c47 8057 9d47
00000290: 802d 9e47 0003 9f47 00d9 9f47 80ae a047
000002a0: 8084 a147 005a a247 0030 a347 8005 a447
000002b0: 80db a447 00b1 a547 0087 a647 805c a747
000002c0: 8032 a847 0008 a947 00de a947 80b3 aa47
000002d0: 8089 ab47 005f ac47 0035 ad47 800a ae47
000002e0: 80e0 ae47 00b6 af47 008c b047 8061 b147
000002f0: 8037 b247 000d b347 00e3 b347 80b8 b447
00000300: 808e b547 0064 b647 003a b747 800f b847
00000310: 80e5 b847 00bb b947 0091 ba47 8066 bb47
00000320: 803c bc47 0012 bd47 00e8 bd47 80bd be47
00000330: 8093 bf47 0069 c047 003f c147 8014 c247
00000340: 80ea c247 00c0 c347 0096 c447 806b c547
00000350: 8041 c647 0017 c747 00ed c747 80c2 c847
00000360: 8098 c947 006e ca47 0044 cb47 8019 cc47
00000370: 80ef cc47 00c5 cd47 009b ce47 8070 cf47
00000380: 8046 d047 001c d147 00f2 d147 80c7 d247
00000390: 809d d347 0073 d447 0049 d547 001f d647
000003a0: 80f4 d647 80ca d747 00a0 d847 0076 d947
000003b0: 804b da47 8021 db47 00f7 db47 00cd dc47
000003c0: 80a2 dd47 8078 de47 004e df47 0024 e047
000003d0: 80f9 e047 80cf e147 00a5 e247 007b e347
000003e0: 8050 e447 8026 e547 00fc e547 00d2 e647
000003f0: 80a7 e747 807d e847 0053 e947 00cc 3c46

MultiThreshold_1_param0 f4 [128, 255]
48416.0 48929.0 49442.0 49955.0 50469.0 50982.0 51495.0 52008.0
52522.0 53035.0 53548.0 54061.0 54575.0 55088.0 55601.0 56114.0
56628.0 57141.0 57654.0 58167.0 58681.0 59194.0 59707.0 60220.0
60734.0 61247.0 61760.0 62273.0 62787.0 63300.0 63813.0 64326.0
64840.0 65353.0 65866.0 66380.0 66893.0 67406.0 67919.0 68433.0
68946.0 69459.0 69972.0 70486.0 70999.0 71512.0 72025.0 72539.0
73052.0 73565.0 74078.0 74592.0 75105.0 75618.0 76131.0 76645.0
77158.0 77671.0 78184.0 78698.0 79211.0 79724.0 80237.0 80751.0
81264.0 81777.0 82290.0 82804.0 83317.0 83830.0 84343.0 84857.0
85370.0 85883.0 86396.0 86910.0 87423.0 87936.0 88449.0 88963.0
89476.0 89989.0 90503.0 91016.0 91529.0 92042.0 92556.0 93069.0
93582.0 94095.0 94609.0 95122.0 95635.0 96148.0 96662.0 97175.0
97688.0 98201.0 98715.0 99228.0 99741.0 100254.0 100768.0 101281.0
101794.0 102307.0 102821.0 103334.0 103847.0 104360.0 104874.0 105387.0
105900.0 106413.0 106927.0 107440.0 107953.0 108466.0 108980.0 109493.0
110006.0 110519.0 111033.0 111546.0 112059.0 112572.0 113086.0 113599.0
114112.0 114625.0 115139.0 115652.0 116165.0 116679.0 117192.0 117705.0
118218.0 118732.0 119245.0 119758.0 120271.0 120785.0 121298.0 121811.0
122324.0 122838.0 123351.0 123864.0 124377.0 124891.0 125404.0 125917.0
126430.0 126944.0 127457.0 127970.0 128483.0 128997.0 129510.0 130023.0
130536.0 131050.0 131563.0 132076.0 132589.0 133103.0 133616.0 134129.0
134642.0 135156.0 135669.0 136182.0 136695.0 137209.0 137722.0 138235.0
138748.0 139262.0 139775.0 140288.0 140802.0 141315.0 141828.0 142341.0
142855.0 143368.0 143881.0 144394.0 144908.0 145421.0 145934.0 146447.0
146961.0 147474.0 147987.0 148500.0 149014.0 149527.0 150040.0 150553.0
151067.0 151580.0 152093.0 152606.0 153120.0 153633.0 154146.0 154659.0
155173.0 155686.0 156199.0 156712.0 157226.0 157739.0 158252.0 158765.0
159279.0 159792.0 160305.0 160818.0 161332.0 161845.0 162358.0 162871.0
163385.0 163898.0 164411.0 164924.0 165438.0 165951.0 166464.0 166978.0
167491.0 168004.0 168517.0 169031.0 169544.0 170057.0 170570.0 171084.0
171597.0 172110.0 172623.0 173137.0 173650.0 174163.0 174676.0 175190.0
175703.0 176216.0 176729.0 177243.0 177756.0 178269.0 178782.0 -14188.0
00000000: 0020 3d47 0021 3f47 0022 4147 0023 4347
00000010: 0025 4547 0026 4747 0027 4947 0028 4b47
00000020: 002a 4d47 002b 4f47 002c 5147 002d 5347
00000030: 002f 5547 0030 5747 0031 5947 0032 5b47
00000040: 0034 5d47 0035 5f47 0036 6147 0037 6347
00000050: 0039 6547 003a 6747 003b 6947 003c 6b47
00000060: 003e 6d47 003f 6f47 0040 7147 0041 7347
00000070: 0043 7547 0044 7747 0045 7947 0046 7b47
00000080: 0048 7d47 0049 7f47 00a5 8047 00a6 8147
00000090: 80a6 8247 00a7 8347 80a7 8447 80a8 8547
000000a0: 00a9 8647 80a9 8747 00aa 8847 00ab 8947
000000b0: 80ab 8a47 00ac 8b47 80ac 8c47 80ad 8d47
000000c0: 00ae 8e47 80ae 8f47 00af 9047 00b0 9147
000000d0: 80b0 9247 00b1 9347 80b1 9447 80b2 9547
000000e0: 00b3 9647 80b3 9747 00b4 9847 00b5 9947
000000f0: 80b5 9a47 00b6 9b47 80b6 9c47 80b7 9d47
00000100: 00b8 9e47 80b8 9f47 00b9 a047 00ba a147
00000110: 80ba a247 00bb a347 80bb a447 80bc a547
00000120: 00bd a647 80bd a747 00be a847 00bf a947
00000130: 80bf aa47 00c0 ab47 80c0 ac47 80c1 ad47
00000140: 00c2 ae47 80c2 af47 80c3 b047 00c4 b147
00000150: 80c4 b247 00c5 b347 00c6 b447 80c6 b547
00000160: 00c7 b647 80c7 b747 80c8 b847 00c9 b947
00000170: 80c9 ba47 00ca bb47 00cb bc47 80cb bd47
00000180: 00cc be47 80cc bf47 80cd c047 00ce c147
00000190: 80ce c247 00cf c347 00d0 c447 80d0 c547
000001a0: 00d1 c647 80d1 c747 80d2 c847 00d3 c947
000001b0: 80d3 ca47 00d4 cb47 00d5 cc47 80d5 cd47
000001c0: 00d6 ce47 80d6 cf47 80d7 d047 00d8 d147
000001d0: 80d8 d247 00d9 d347 00da d447 80da d547
000001e0: 00db d647 80db d747 80dc d847 00dd d947
000001f0: 80dd da47 00de db47 00df dc47 80df dd47
00000200: 00e0 de47 80e0 df47 80e1 e047 00e2 e147
00000210: 80e2 e247 80e3 e347 00e4 e447 80e4 e547
00000220: 00e5 e647 00e6 e747 80e6 e847 00e7 e947
00000230: 80e7 ea47 80e8 eb47 00e9 ec47 80e9 ed47
00000240: 00ea ee47 00eb ef47 80eb f047 00ec f147
00000250: 80ec f247 80ed f347 00ee f447 80ee f547
00000260: 00ef f647 00f0 f747 80f0 f847 00f1 f947
00000270: 80f1 fa47 80f2 fb47 00f3 fc47 80f3 fd47
00000280: 00f4 fe47 00f5 ff47 c07a 0048 00fb 0048
00000290: 407b 0148 c0fb 0148 007c 0248 40fc 0248
000002a0: 807c 0348 00fd 0348 407d 0448 80fd 0448
000002b0: c07d 0548 40fe 0548 807e 0648 c0fe 0648
000002c0: 007f 0748 80ff 0748 c07f 0848 0000 0948
000002d0: 8080 0948 c000 0a48 0081 0a48 4001 0b48
000002e0: c081 0b48 0002 0c48 4082 0c48 8002 0d48
000002f0: 0083 0d48 4003 0e48 8083 0e48 c003 0f48
00000300: 4084 0f48 8004 1048 c084 1048 0005 1148
00000310: 8085 1148 c005 1248 0086 1248 4006 1348
00000320: c086 1348 0007 1448 4087 1448 8007 1548
00000330: 0088 1548 4008 1648 8088 1648 c008 1748
00000340: 4089 1748 8009 1848 c089 1848 000a 1948
00000350: 808a 1948 c00a 1a48 008b 1a48 400b 1b48
00000360: c08b 1b48 000c 1c48 408c 1c48 800c 1d48
00000370: 008d 1d48 400d 1e48 808d 1e48 c00d 1f48
00000380: 408e 1f48 800e 2048 c08e 2048 000f 2148
00000390: 808f 2148 c00f 2248 0090 2248 8010 2348
000003a0: c090 2348 0011 2448 4091 2448 c011 2548
000003b0: 0092 2548 4012 2648 8092 2648 0013 2748
000003c0: 4093 2748 8013 2848 c093 2848 4014 2948
000003d0: 8094 2948 c014 2a48 0095 2a48 8015 2b48
000003e0: c095 2b48 0016 2c48 4096 2c48 c016 2d48
000003f0: 0097 2d48 4017 2e48 8097 2e48 00b0 5dc6

MultiThreshold_2_param0 f4 [64, 255]
-7855.0 -7363.0 -6870.0 -6378.0 -5886.0 -5394.0 -4902.0 -4409.0
-3917.0 -3425.0 -2933.0 -2440.0 -1948.0 -1456.0 -964.0 -472.0
21.0 513.0 1005.0 1497.0 1990.0 2482.0 2974.0 3466.0
3958.0 4451.0 4943.0 5435.0 5927.0 6419.0 6912.0 7404.0
7896.0 8388.0 8881.0 9373.0 9865.0 10357.0 10849.0 11342.0
11834.0 12326.0 12818.0 13311.0 13803.0 14295.0 14787.0 15279.0
15772.0 16264.0 16756.0 17248.0 17741.0 18233.0 18725.0 19217.0
19709.0 20202.0 20694.0 21186.0 21678.0 22171.0 22663.0 23155.0
23647.0 24139.0 24632.0 25124.0 25616.0 26108.0 26601.0 27093.0
27585.0 28077.0 28569.0 29062.0 29554.0 30046.0 30538.0 31031.0
31523.0 32015.0 32507.0 32999.0 33492.0 33984.0 34476.0 34968.0
35460.0 35953.0 36445.0 36937.0 37429.0 37922.0 38414.0 38906.0
39398.0 39890.0 40383.0 40875.0 41367.0 41859.0 42352.0 42844.0
43336.0 43828.0 44320.0 44813.0 45305.0 45797.0 46289.0 46782.0
47274.0 47766.0 48258.0 48750.0 49243.0 49735.0 50227.0 50719.0
51212.0 51704.0 52196.0 52688.0 53180.0 53673.0 54165.0 54657.0
55149.0 55642.0 56134.0 56626.0 57118.0 57610.0 58103.0 58595.0
59087.0 59579.0 60072.0 60564.0 61056.0 61548.0 62040.0 62533.0
63025.0 63517.0 64009.0 64501.0 64994.0 65486.0 65978.0 66470.0
66963.0 67455.0 67947.0 68439.0 68931.0 69424.0 69916.0 70408.0
70900.0 71393.0 71885.0 72377.0 72869.0 73361.0 73854.0 74346.0
74838.0 75330.0 75823.0 76315.0 76807.0 77299.0 77791.0 78284.0
78776.0 79268.0 79760.0 80253.0 80745.0 81237.0 81729.0 82221.0
82714.0 83206.0 83698.0 84190.0 84683.0 85175.0 85667.0 86159.0
86651.0 87144.0 87636.0 88128.0 88620.0 89112.0 89605.0 90097.0
90589.0 91081.0 91574.0 92066.0 92558.0 93050.0 93542.0 94035.0
94527.0 95019.0 95511.0 96004.0 96496.0 96988.0 97480.0 97972.0
98465.0 98957.0 99449.0 99941.0 100434.0 100926.0 101418.0 101910.0
102402.0 102895.0 103387.0 103879.0 104371.0 104864.0 105356.0 105848.0
106340.0 106832.0 107325.0 107817.0 108309.0 108801.0 109294.0 109786.0
110278.0 110770.0 111262.0 111755.0 112247.0 112739.0 113231.0 113724.0
114216.0 114708.0 115200.0 115692.0 116185.0 116677.0 117169.0 11242.0
00000000: 0078 f5c5 0018 e6c5 00b0 d6c5 0050 c7c5
00000010: 00f0 b7c5 0090 a8c5 0030 99c5 00c8 89c5
00000020: 00d0 74c5 0010 56c5 0050 37c5 0080 18c5
00000030: 0080 f3c4 0000 b6c4 0000 71c4 0000 ecc3
00000040: 0000 a841 0040 0044 0040 7b44 0020 bb44
00000050: 00c0 f844 0020 1b45 00e0 3945 00a0 5845
00000060: 0060 7745 0018 8b45 0078 9a45 00d8 a945
00000070: 0038 b945 0098 c845 0000 d845 0060 e745
00000080: 00c0 f645 0010 0346 00c4 0a46 0074 1246
00000090: 0024 1a46 00d4 2146 0084 2946 0038 3146
000000a0: 00e8 3846 0098 4046 0048 4846 00fc 4f46
000000b0: 00ac 5746 005c 5f46 000c 6746 00bc 6e46
000000c0: 0070 7646 0020 7e46 00e8 8246 00c0 8646
000000d0: 009a 8a46 0072 8e46 004a 9246 0022 9646
000000e0: 00fa 9946 00d4 9d46 00ac a146 0084 a546
000000f0: 005c a946 0036 ad46 000e b146 00e6 b446
00000100: 00be b846 0096 bc46 0070 c046 0048 c446
00000110: 0020 c846 00f8 cb46 00d2 cf46 00aa d346
00000120: 0082 d746 005a db46 0032 df46 000c e346
00000130: 00e4 e646 00bc ea46 0094 ee46 006e f246
00000140: 0046 f646 001e fa46 00f6 fd46 00e7 0047
00000150: 00d4 0247 00c0 0447 00ac 0647 0098 0847
00000160: 0084 0a47 0071 0c47 005d 0e47 0049 1047
00000170: 0035 1247 0022 1447 000e 1647 00fa 1747
00000180: 00e6 1947 00d2 1b47 00bf 1d47 00ab 1f47
00000190: 0097 2147 0083 2347 0070 2547 005c 2747
000001a0: 0048 2947 0034 2b47 0020 2d47 000d 2f47
000001b0: 00f9 3047 00e5 3247 00d1 3447 00be 3647
000001c0: 00aa 3847 0096 3a47 0082 3c47 006e 3e47
000001d0: 005b 4047 0047 4247 0033 4447 001f 4647
000001e0: 000c 4847 00f8 4947 00e4 4b47 00d0 4d47
000001f0: 00bc 4f47 00a9 5147 0095 5347 0081 5547
00000200: 006d 5747 005a 5947 0046 5b47 0032 5d47
00000210: 001e 5f47 000a 6147 00f7 6247 00e3 6447
00000220: 00cf 6647 00bb 6847 00a8 6a47 0094 6c47
00000230: 0080 6e47 006c 7047 0058 7247 0045 7447
00000240: 0031 7647 001d 7847 0009 7a47 00f5 7b47
00000250: 00e2 7d47 00ce 7f47 00dd 8047 00d3 8147
00000260: 80c9 8247 80bf 8347 80b5 8447 80ab 8547
00000270: 80a1 8647 0098 8747 008e 8847 0084 8947
00000280: 007a 8a47 8070 8b47 8066 8c47 805c 8d47
00000290: 8052 8e47 8048 8f47 003f 9047 0035 9147
000002a0: 002b 9247 0021 9347 8017 9447 800d 9547
000002b0: 8003 9647 80f9 9647 80ef 9747 00e6 9847
000002c0: 00dc 9947 00d2 9a47 00c8 9b47 80be 9c47
000002d0: 80b4 9d47 80aa 9e47 80a0 9f47 8096 a047
000002e0: 008d a147 0083 a247 0079 a347 006f a447
000002f0: 8065 a547 805b a647 8051 a747 8047 a847
00000300: 803d a947 0034 aa47 002a ab47 0020 ac47
00000310: 0016 ad47 000c ae47 8002 af47 80f8 af47
00000320: 80ee b047 80e4 b147 00db b247 00d1 b347
00000330: 00c7 b447 00bd b547 00b3 b647 80a9 b747
00000340: 809f b847 8095 b947 808b ba47 0082 bb47
00000350: 0078 bc47 006e bd47 0064 be47 005a bf47
00000360: 8050 c047 8046 c147 803c c247 8032 c347
00000370: 0029 c447 001f c547 0015 c647 000b c747
00000380: 0001 c847 80f7 c847 80ed c947 80e3 ca47
00000390: 80d9 cb47 00d0 cc47 00c6 cd47 00bc ce47
000003a0: 00b2 cf47 00a8 d047 809e d147 8094 d247
000003b0: 808a d347 8080 d447 0077 d547 006d d647
000003c0: 0063 d747 0059 d847 004f d947 8045 da47
000003d0: 803b db47 8031 dc47 8027 dd47 001e de47
000003e0: 0014 df47 000a e047 0000 e147 00f6 e147
000003f0: 80ec e247 80e2 e347 80d8 e447 00a8 2f46
