src/hardware_fpga/mlp_v1/mlp_2610_1515.onnx (onnx, 191239 bytes, 16 tensors)

34 f4 [60, 64]
00000000: cf3b 0ebd b41e b13e 0360 f3be 74dc 5b3d
00000010: bb0e 17be a47a 50be fdf3 11be c04e a53e
00000020: 8f99 e33d c301 ccbd 8e54 e2bd 87c4 b13d
00000030: 3724 68bd b5bd 38be d891 a6be e95f de3d
00000040: 186c 093e 9c48 60bd 29d9 1ebe c253 713e
00000050: 9c76 e33d 1d77 3f3d 5d41 dc3d a539 a63e
00000060: 66b8 b43d cb14 f3bd bf98 9c3d fe9e de3d
00000070: aca0 7abc 594a fd3e f64c 383e 66de f6bd
00000080: 8a75 533f 91b6 a03e 0903 a5bd 91e9 e53b
00000090: 11ec b2bd 400d ddbe 35bd 4f3e 5312 833d
000000a0: b3c8 4fbe c01d e43a 5f01 943e 2d6f af3d
000000b0: 82f6 0f3f fe64 a53e 9dc4 cdbd bf4e 5ebe
000000c0: de5b 8b3d 7f02 cf3e ba67 b43d d6a2 563d
000000d0: 04a8 7e3e 2ddc 7e3e aa4e a8bd 67ab 413e
000000e0: 88d9 0bbd 0847 613d 6856 08be 8d0e dbbd
000000f0: fbcb 013f 53c7 b9be 984e 9ebc b08a 5bbe
00000100: 2109 98be b32c 1d3e 407f 07be 6522 1f3e
00000110: 0fa0 1ebe 4e4a e4be c46b 83be 42fc 603d
00000120: 2f0f cf3d bada b4be 558d ae3e 3119 8cbb
00000130: 9cd4 f13d fb96 cbbd beeb c0bc 7655 b4bd
00000140: 05a4 2fbd 8220 9abb 223e 393d 7900 d83c
00000150: abb4 15be 82c7 153d fe2c 933e 0bc9 bb3e
00000160: 5987 c0bd 2bf4 37bd 5b0b 993e df74 ae3d
00000170: 80fb 6c3e fa81 23bd ccdb aabe f4e7 403d
00000180: 1e54 70be a354 86bd 9d8f 1b3b 0ea4 8a3e
00000190: c5a8 1d3e 872b ccbc dc0a 96be 7e78 ca3d
000001a0: 34a2 5c3e 7f10 ff3d c51b 9dba 191f d23e
000001b0: 921a 0ebe 5887 8a3e 45cd 85bd 04cf 8ebe
000001c0: 1245 b23d 9deb 893d 2a63 06be df8d a63d
000001d0: 388b b23e 33a5 a2be 79c8 3abd 4a1d b6be
000001e0: c1cf b1be 5a5d 0abe 64c0 17bd 3763 943d
000001f0: 23e6 ac3e 7c38 edbc d4f7 00bf 719a e93d
00000200: f339 84ba 52cb b83e a960 253e 73a4 0b3e
00000210: 3004 96be 1976 a23e b210 9b3e 09bb 2bbd
00000220: 52e6 4f3e 395a 733d 3f33 35be 5f53 903e
00000230: cc73 e9be be55 183e 3445 10be 8de6 073d
00000240: cad4 70be 36b7 893d 6e07 173d de1a 903e
00000250: 1a96 f6be a0a8 f2bd 5899 c93e 7e74 03bd
00000260: c2cb 213e e1a9 aabe 3bd7 53bd 1c11 79be
00000270: 9609 73bd 2718 a0be e9a6 053c 5d12 32be
00000280: 666e 923e fdc6 da3c 2bc7 ec3e 1112 4fbe
00000290: 9266 bb3e ccab 863e b9ff dd3e b236 783d
000002a0: 48bb 913e b6b2 49be 3371 ad3e 6f70 4a3e
000002b0: c40b babd 5c6e b9bd 4f28 c93d 8a7a c1be
000002c0: 97e7 563e ea2a a2be 4e6a e53d 10ce 3c3d
000002d0: c77d e1bb d476 74bd 265a 893e dc60 eabd
000002e0: 0fe4 41be 7409 9ebd 7e22 18be 53dc 8e3e
000002f0: 98b4 1c3d 8eff 653d 78fe 8fbe 3504 fe3e
00000300: 2358 cf3d 0d64 1cbe 8b77 ad3d 9805 163e
00000310: 72ca 86be c537 ac3c 327d 4f3e cabf cfbe
00000320: 7470 383e c23f 293e e399 c9bd 239e bfbe
00000330: 47da 7d3e 371b 11be 5b36 6b3d 447c 9e3b
00000340: ae14 9e3d 5184 553d aa83 0fbd 151a 153e
00000350: 7c23 893e 0fb7 90be d6ea b43d 7f05 8bbd
00000360: 7278 393e 8c04 f5be ff9b 87bd 5138 833c
00000370: 3b3f bdbe 3812 903e fb41 243f 59fb 8e3e
00000380: 0a33 d03e 8436 c5ba 22d1 10bf 5065 81be
00000390: 25d7 783e 62ea a43e ee27 e2bd 6850 b4bc
000003a0: f906 c23e 420a 6ab9 ae33 b8be c630 ee3c
000003b0: 3c19 8abe 7852 1c3e efaf 35be 6e7a 46be
000003c0: e113 5a3e d71f 523e 6e17 483d d62a 053e
000003d0: 3d21 b23d 8c0b 423e 37e4 923e 5a91 413e
000003e0: d798 a13e 0894 14be daec cebe e2a4 913e
000003f0: 91c3 323e 7275 fe3e dd23 093d f6e3 d03e
-0.034725007 0.34593737 -0.4753419 0.053677037 -0.14751713 -0.20359284 -0.1425323 0.32286644
0.11113273 -0.099612735 -0.11051284 0.08680063 -0.056675162 -0.18041117 -0.32533145 0.10858137
0.1342014 -0.054756746 -0.15512528 0.23567107 0.11106607 0.046744455 0.107546546 0.32465854
0.08824234 -0.118692 0.076463215 0.10870169 -0.015297096 0.49470785 0.17998108 -0.12054138
0.82601225 0.31389287 -0.080572195 0.0070163687 -0.08736432 -0.4317417 0.2028702 0.063999794
-0.20291404 0.0017403886 0.28907296 0.08566127 0.56235516 0.32303613 -0.10047267 -0.21709727
0.06804632 0.40431592 0.08808847 0.052401386 0.2486878 0.24888678 -0.08218129 0.18913041
-0.034143 0.05499938 -0.13314211 -0.10696135 0.50701874 -0.36284885 -0.019324586 -0.21439624
-0.29694465 0.15349083 -0.13232136 0.15540464 -0.15490745 -0.4458794 -0.25668156 0.05492807
0.10110318 -0.35323125 0.34092203 -0.004275464 0.1180813 -0.099409066 -0.02354991 -0.08805363
-0.04288103 -0.0047035823 0.04522527 0.026367413 -0.146197 0.03656722 0.28745264 0.3667682
-0.094008155 -0.04491059 0.29891476 0.08518385 0.23142815 -0.039918877 -0.33370817 0.047096208
-0.23469588 -0.06559112 0.0023736723 0.2707829 0.15396412 -0.0249231 -0.2930516 0.09886263
0.2154625 0.12454318 -0.0011986425 0.4103935 -0.13877323 0.27056384 -0.06533293 -0.27892315
0.0870458 0.06734393 -0.13123766 0.081325285 0.3487184 -0.31766662 -0.045601342 -0.3556922
-0.34728816 -0.13512173 -0.037048712 0.07245486 0.3376933 -0.028957598 -0.50378156 0.114064105
-0.0010088071 0.3609262 0.16150154 0.13636951 -0.2930007 0.31730726 0.30286175 -0.041926417
0.20302704 0.059412215 -0.1769533 0.28188607 -0.45596159 0.14876458 -0.14088899 0.033178855
-0.23518673 0.06724398 0.03687232 0.28145498 -0.48161393 -0.11848569 0.39374804 -0.032093517
0.15800384 -0.33332732 -0.05171893 -0.24322933 -0.059335314 -0.31268427 0.00815747 -0.17389818
0.28599852 0.026706213 0.46245703 -0.20221736 0.36601692 0.26302946 0.43359163 0.060599037
0.28463197 -0.19697079 0.33875427 0.19769453 -0.09084275 -0.090542525 0.098221414 -0.37788802
0.20986782 -0.31673366 0.11201917 0.046094954 -0.006881449 -0.059683636 0.2682659 -0.11444256
-0.18934654 -0.07716647 -0.14856908 0.2790247 0.038258165 0.05615192 -0.28123832 0.49612585
0.101242326 -0.15272541 0.08470067 0.14650571 -0.2632633 0.021022687 0.20262602 -0.4057601
0.18011647 0.16528228 -0.09843805 -0.37425336 0.24790297 -0.14170538 0.057424884 0.004836591
0.07718788 0.05212814 -0.035037674 0.14560731 0.26784885 -0.28264663 0.08833854 -0.06788158
0.18112352 -0.47855031 -0.06621551 0.016018065 -0.36962304 0.281389 0.6416318 0.27926138
0.4066394 -0.0015046154 -0.5656911 -0.25272608 0.24300821 0.3221007 -0.11042772 -0.022010997
0.37895945 -0.000223198 -0.35976928 0.029075991 -0.26972377 0.15265834 -0.17742895 -0.1938264
0.21296646 0.20519958 0.04885047 0.13004622 0.08697746 0.18949717 0.2868974 0.18903103
0.3156192 -0.14509594 -0.40415078 0.28446108 0.17457415 0.4969898 0.033481468 0.4079892

35 f4 [64, 128]
00000000: 0cfc 913e a0b9 5f3e 92c6 c2be 4fc9 cebd
00000010: a905 73be e6d6 1abd 4c85 1abc 6016 43bb
00000020: c82d a33d 7193 be3b 5d56 91be 6636 043e
00000030: d03a 6d3e 8e19 c13e ba39 903d 7f03 0d3e
00000040: 2ff3 153e eb6a 0a3e 9598 97be 1fce 1bbe
00000050: ae74 573e 1fa9 9dbd 2c1f aebb 319b 523e
00000060: 22c1 413b 4af9 43bd 5ba0 01bd 7212 aa3c
00000070: d19c e5be 7212 803d f202 de3d 3a17 953e
00000080: 4d69 5bbe 11d2 133e 616c 893d 4ec7 923e
00000090: 3029 f53e c8e6 2bbd 36ee e03d 0c31 80be
000000a0: 31e3 683d 7395 d6bd 448f 843e f236 893e
000000b0: 6d2b a83e 2e7f df3d 5001 083e 5f38 223e
000000c0: a852 29bd a096 a8bd 28b3 43bd c6bc b9ba
000000d0: a560 c0bd 071b 25be 8ee2 fabd 2c27 993e
000000e0: adc7 18bd b55a df3d 4de6 2bbe 903c 693c
000000f0: 2a80 4d3b 0b83 513e 632b 95be 4295 cf3c
00000100: d1bd 86bd 16b4 fabc 3d03 9e3e 5784 f93d
00000110: 2e30 fc3d 8dba 503e 994c 653e 02af a03c
00000120: 3bd6 8c3d f8c6 b73e 98ed 82be 3cc5 993d
00000130: 7e19 2c3e 08d4 8c3e 39a0 18be abcf 843e
00000140: bc02 4abd bff2 a1be dbf2 49be b040 2cbe
00000150: 286d 023d d3d1 2c3d 425d f53d 821b fa3c
00000160: 6079 cd3c 4bcf cebe d00f 413d 2f0d e63d
00000170: bc65 483e fbd8 e9bc 01f0 cb3e c658 323d
00000180: a7f4 c23d 4aea c93e 9a02 0dbe f5d1 e03d
00000190: 852c c5bd 8661 d6be 3706 a13c dfb7 4a3e
000001a0: 2200 15bd 681e 8cbe 2abd 083e 70bd 843e
000001b0: bf60 3b3d dcee 0fbe 0cf7 bf39 c7c1 2dbe
000001c0: 46df 113e 2663 acbe 3441 efbd e80d a03d
000001d0: 42fd 51be d325 edbc 3e1f 8f3e ef1f a9be
000001e0: d19c cb3e f5b0 b1be 4b2c e13d 43e4 543e
000001f0: 7b25 6c3d b7a4 133d 574f 213f a3da b93c
00000200: 2fff c2bd 65eb 46bd 5c04 1c3e 5006 83bc
00000210: 2def e3bd 70e0 81be eb47 88bd 2a44 5c3e
00000220: 479a 823e f592 89bd 34f5 183e 5db9 e33d
00000230: ee1d bebc 3e05 d4bd c795 993e 2978 f03e
00000240: 58f3 743d 539f 2d3f 176a a4bd b4a4 a03d
00000250: ec3e 6c3e e938 cf3e 8903 103e 20c1 0cbb
00000260: 8f9c 49be 138a 573e 13a0 163e 3830 d13d
00000270: 02ff dcbe b11a 89bd 6e51 033e ca63 8a3e
00000280: 2e95 babe 0440 11be 3ee1 103d e5f2 923e
00000290: 596b e63d f9ac 8a3e 3009 ca3e ec8f bfbe
000002a0: 68b1 7cbd 5586 a03d 7d4b 2abe 8cda e43d
000002b0: 1b58 583d 9ffa 143d 052d 80be 2a07 22bd
000002c0: f6a3 8ebc 6cd0 993d 947a b53d f8c6 bbbd
000002d0: da86 893e 410f c1be 84fc 293e ccf5 983e
000002e0: dc08 8abe 4461 a3be f783 a33e d4df 1fbc
000002f0: fefb 6d3e 96f1 2fbe e0dd d93c 68dc f43d
00000300: ded3 90be c8f0 bdbd e7a6 6abe 5fab fe3e
00000310: 48ac 833e f0f8 073f 3d4e e43e 0bc7 66be
00000320: 9686 5d3e c7da 2b3e 9580 9b3c ceba 7dbd
00000330: c185 a13e 36f9 6e3d 373f 9fbe a58a 17be
00000340: e6e4 0c3e 5fbe d83c 844a da3c 883f b8be
00000350: 09d2 c63d 60e6 103e 014f 113e 5e63 203d
00000360: bf28 a03b 40eb 43be 8115 f5bd 1a0c 873e
00000370: 52ab 7abe 4e8c af3e a739 663e 274d 25be
00000380: 9ca6 0d3e a1c9 eabd 8edc 2abd 6697 f63d
00000390: f80a 85bd e865 cbbe 4dcc 9a3d bcc3 03be
000003a0: 6ad2 393e b78a f23d c0ea f13e 882c 6bbe
000003b0: 508b 3dbe 7cf4 333e d79a 6cbb 6fe6 5fbe
000003c0: 4f18 963e 3ebe c93d 7296 be3b 6e6e 903e
000003d0: 6e7d 003e 12ea 3f3e ac46 563e 47a9 bb3e
000003e0: 70ea 68be caef 9f3d 5466 c4bd dd28 fcbb
000003f0: c38a 9e3d 8ca2 d23d f22d cbbe 044d b03e
0.2851261 0.21848154 -0.38042122 -0.1009699 -0.23732628 -0.0378026 -0.0094311945 -0.0029767975
0.079677165 0.005815916 -0.28386202 0.12911376 0.23166966 0.3771481 0.070422605 0.13770865
0.14643548 0.13517348 -0.29608598 -0.15215348 0.21040604 -0.07698273 -0.0053137746 0.20567013
0.002956458 -0.047845162 -0.031647068 0.020760749 -0.44846204 0.06253518 0.108404055 0.29119283
-0.21426888 0.14435603 0.06710125 0.28667682 0.47882986 -0.041968137 0.10982935 -0.2503742
0.05685729 -0.10477724 0.25890553 0.26799732 0.3284563 0.109129295 0.1328175 0.15841816
-0.041338593 -0.082318544 -0.04777828 -0.0014170639 -0.093934335 -0.16123591 -0.12250243 0.29912698
-0.0372998 0.10905973 -0.16787072 0.014235631 0.003135691 0.20460145 -0.29134664 0.025339726
-0.06579173 -0.03060345 0.30861846 0.12183445 0.12313877 0.20383663 0.22392501 0.0196147
0.06876799 0.3589399 -0.25571895 0.075083226 0.168066 0.27505517 -0.1490487 0.25939688
-0.049319014 -0.31630513 -0.19721548 -0.16821551 0.03184238 0.04219229 0.11980678 0.030530695
0.02508229 -0.40392527 0.04713422 0.11232983 0.19570059 -0.028545847 0.39831546 0.043541692
0.0951932 0.3943656 -0.13770524 0.10977546 -0.09627632 -0.4187128 0.019656284 0.19796704
-0.03637708 -0.27366948 0.1335341 0.2592578 0.04574656 -0.14055961 0.00036614423 -0.16968451
0.14245328 -0.33669394 -0.116823584 0.078151524 -0.20506766 -0.0289487 0.27953523 -0.33032176
0.3976808 -0.3470532 0.10994776 0.207902 0.05765293 0.036045756 0.6301169 0.022687262
-0.09521329 -0.048564333 0.15236038 -0.015994221 -0.111296035 -0.25366545 -0.06654342 0.21510378
0.2550833 -0.06717483 0.14937288 0.111193396 -0.023207631 -0.10352562 0.29997084 0.46966675
0.059802383 0.67821234 -0.080280475 0.07843915 0.23070878 0.40473107 0.14063849 -0.0021477416
-0.19688629 0.21048765 0.14709501 0.10214275 -0.43163306 -0.06694544 0.12824032 0.27029258
-0.3644194 -0.14184576 0.035371058 0.2870094 0.11250944 0.27085093 0.39460135 -0.3741449
-0.061692625 0.07838122 -0.16630359 0.11174497 0.0528184 0.036371823 -0.25034347 -0.039557613
-0.017412167 0.075104564 0.088612705 -0.0916881 0.26860696 -0.3770695 0.16600233 0.29875028
-0.26959884 -0.31910145 0.3193662 -0.009757955 0.23240659 -0.17182001 0.026595056 0.11956102
-0.28286642 -0.09274441 -0.2291523 0.4974012 0.25717378 0.53114223 0.4459094 -0.22536866
0.21633372 0.16782676 0.018982211 -0.06194573 0.3154736 0.058343135 -0.31102917 -0.14798982
0.13759193 0.026457964 0.02664686 -0.3598597 0.0970803 0.14150381 0.14190294 0.039157264
0.00488767 -0.1913271 -0.11966992 0.2637642 -0.24479416 0.3428673 0.2248293 -0.16142713
0.13833088 -0.11464239 -0.041714244 0.12040596 -0.06496233 -0.39726186 0.075584985 -0.12867635
0.18146673 0.11842864 0.47249413 -0.22966206 -0.18510175 0.17573732 -0.0036103034 -0.21865247
0.2931542 0.09850739 0.0058162743 0.2820925 0.12547848 0.18741634 0.20925397 0.36652586
-0.22745681 0.07809408 -0.0958983 -0.007695301 0.077413104 0.102849096 -0.3968349 0.34433758

36 f4 [128, 256]
00000000: 1a48 493e 7fb8 50be 595a 94be fd2f 8cbe
00000010: 2178 c43e b0d0 a4be 91fb 563d 9868 413e
00000020: eb0e 4abe bcac fe3e 57e4 8a3e 2253 073e
00000030: 42ae 803e 0d36 ed3d 434f cdbe 2825 f7be
00000040: 3e7a fd3d 428f 373d 5947 cebe 875a 373d
00000050: 593d 083e 5754 2f3d 932b a03b 4b4d b3be
00000060: 1743 bebe 39d5 843e 5f50 9e3d b7e0 533e
00000070: f9d6 a33e b2ee a03e 1ad4 083e 24e2 4cbd
00000080: 4ea4 6bbe 7946 2f3c 3ce1 cb3e 9c07 ccbe
00000090: c78b 8b3e 4d66 0b3e edfc 5b3e 6acf cc3d
000000a0: 72d5 8abe f868 55be e2f2 fb3d 34e5 8abd
000000b0: 9313 433e 7e91 463e 2e91 92be 7fe0 9c3d
000000c0: 5c90 c8be d2b4 f13d 1ca3 75be de7f 0dbe
000000d0: 004c 293d 8e2b a7bc 3156 773d 201e 353d
000000e0: cc9c 803e 2852 573e 6aff ec3e 48f8 8c3d
000000f0: 5930 163e 7d3c 423d 8897 49be ec28 efbe
00000100: 5d7c a2be 63ee 293e 1958 863e 1920 2cbd
00000110: 0393 a23e 6140 f33c 2093 a83d 598c 853d
00000120: 2dea 0a3e 3b88 fe3d e10c a33e afe3 863d
00000130: 7bb7 eb3d cfa6 be3e c8a6 c13d a3a9 323e
00000140: d1e9 c3bc d3c0 e2bd abb1 593e 6faf 013f
00000150: a3bc 243c 8ea8 443d cac6 e73c 5606 ee3b
00000160: f439 a0bd a92b 40bd 8dbe 903e 0241 b43e
00000170: 9a05 0c3e e190 963e 8c1c 4b3d 984f 3abd
00000180: 681d f7bd 1f05 993e 4e97 9a3e 4303 993e
00000190: a109 1c3e 921e 133e 147e 6c3e 4b53 983e
000001a0: 1505 2e3e 8e31 783e 69a6 07bd 2911 98bd
000001b0: 0469 d2be 4eb4 4b3e 1c24 f4bd 5b9d b8be
000001c0: 736c 41bd 34dd 653e 1f1d 0ebe 9153 683e
000001d0: bc96 143f 537d a93d fdb5 253e ea76 043d
000001e0: 6c0a dd3d 5c9f d33c 23d4 7a3d 031e a83d
000001f0: d821 033e c2d9 c5bd 311b 4dbd e28e 213d
00000200: 27dd dfbd f15e 54be a8e3 233d d18c 0f3e
00000210: ed05 4e3d aa27 763e d9b4 15be 1e0b 243e
00000220: dbe0 b33d 0062 8abe bdca 6fbe 4d73 7b3d
00000230: 47af db3e 51f6 c8be 01f0 a83d de7c cb3d
00000240: 4b5d 943e 7dd8 513e 0194 8a3c c781 87bd
00000250: c38a 50bc fae6 183e f2d8 2b3e 39e1 3d3e
00000260: 43e9 b33d d50a 883e da7b f2bd 8953 f73c
00000270: 83e3 dc3d e7ff 853e 249c 763e cbd8 2bbe
00000280: 09a5 4f3e 975a c3bb aceb e93d 344b 2bbe
00000290: 77e1 1ebe f3ff d43c c9ba 1f3f 6492 d73e
000002a0: d0ac c23e 4267 c63d b8b3 533e f43a 983e
000002b0: 12ab 163e 72ca a4be df70 52bd 24e7 cb3d
000002c0: ea36 54be f878 5bbd 9674 15be ae03 c73d
000002d0: c53f 05bf 4b85 c9be e0bf 453e d7f9 41bd
000002e0: 505b 10bd 12b1 2a3e 04f8 1bbe 03da 99be
000002f0: 9f6d ae3e 8055 e6bd 1682 f43b 8bb0 123e
00000300: 9bcd 683e 9132 363e 51c3 773e 4235 4d3d
00000310: e678 f9bd 811e 7e3e a7fb 733e a0e0 483e
00000320: d2d4 6b3e 8f48 003e 3166 1b3f bf2e 943e
00000330: d9be 1a3e 35cc 9fbe 58cd 3abe c2e0 3e3e
00000340: c299 803d 57de aabe 26f4 ab3e c4f1 81bd
00000350: 9b83 213d b82d 343c 04af b03d 3790 fb3a
00000360: 29de bebd ced7 fa3d 759a e73d bcfc ccbe
00000370: 0094 703e c621 823e 9244 273d f159 3fbd
00000380: 06f0 103e 75a0 2f3f 3b4d bc3d edfe a53e
00000390: 9fb9 1dbe 007c c6bc 51f0 633e 1189 993e
000003a0: efe0 163e e477 1cbe 1876 263c 4583 9e3d
000003b0: ac06 3f3e cf45 54be c4f3 65be d6ce 853e
000003c0: cb27 613e 7969 2a3e 711e 8a3d 708c 023e
000003d0: 557a 34be 7fb9 c43d 822f 4c3d ab7c fc3d
000003e0: 9244 383e 284a 71bd 8565 233e 8a0d 9e3e
000003f0: a02e f83d 0124 06be 6a24 5cbe 4075 c93c
0.19656411 -0.2038288 -0.2897518 -0.27380362 0.383729 -0.32190466 0.052486006 0.18887556
-0.19732253 0.4974116 0.27127334 0.13215306 0.25132948 0.11582575 -0.40099534 -0.48270535
0.123768315 0.044814356 -0.4028881 0.044764068 0.13304652 0.042805042 0.004888007 -0.35019907
-0.3716056 0.25943926 0.07730173 0.2069119 0.3199995 0.3143211 0.1336216 -0.050020352
-0.23011896 0.010697954 0.39820278 -0.39849555 0.2725508 0.13613243 0.21483202 0.100004986
-0.2711597 -0.20840824 0.123021856 -0.06781998 0.19050436 0.19391438 -0.28626388 0.07660007
-0.39172637 0.11802067 -0.23988003 -0.13818309 0.041332245 -0.02040651 0.060384933 0.044218183
0.25119627 0.21027434 0.46288615 0.068832934 0.1466688 0.047420967 -0.19686711 -0.46710908
-0.31735507 0.16594844 0.26239088 -0.0420228 0.31752786 0.029693784 0.08231187 0.0652091
0.13565893 0.12428328 0.31845763 0.06586396 0.115096055 0.3723664 0.09455639 0.17447524
-0.023915203 -0.110719346 0.21259181 0.50658315 0.01005474 0.04801231 0.028293032 0.007263939
-0.07823554 -0.046916638 0.2827038 0.35205847 0.13674012 0.2940741 0.04958777 -0.045486063
-0.12066156 0.2988672 0.3019356 0.298853 0.15238048 0.1436713 0.2309497 0.29751047
0.16994126 0.24237654 -0.033117685 -0.07425148 -0.41095746 0.19893 -0.1192095 -0.36057553
-0.047222566 0.22447664 -0.13878296 0.22688128 0.580425 0.08275857 0.16182704 0.032339968
0.107930034 0.025832824 0.061237466 0.08208849 0.12805879 -0.09660675 -0.05007476 0.039442904
-0.10930853 -0.20739342 0.04001203 0.14018561 0.05029862 0.24038568 -0.14619769 0.16019866
0.08783122 -0.27027893 -0.23417182 0.061389256 0.42907164 -0.39250425 0.08248902 0.09935926
0.28977427 0.2049274 0.016916277 -0.0661655 -0.012728396 0.1493186 0.16781977 0.18542947
0.087847255 0.26570764 -0.11840029 0.0301912 0.10785582 0.261718 0.24083 -0.16781919
0.202778 -0.005961727 0.11421904 -0.16727906 -0.15515696 0.026000952 0.62394387 0.42103875
0.3802247 0.096876636 0.20674026 0.29732478 0.14713696 -0.32185704 -0.051377174 0.09956196
-0.20724073 -0.05358216 -0.14595255 0.09717499 -0.5205043 -0.39359507 0.19311476 -0.047357406
-0.035243332 0.1666911 -0.15231329 -0.30049142 0.3406801 -0.112467766 0.0074617965 0.14325158
0.22734682 0.17792727 0.24195601 0.05009962 -0.12181263 0.24816324 0.23826467 0.19616938
0.23030403 0.12527679 0.60702807 0.28941914 0.15111865 -0.31210485 -0.18242395 0.18640426
0.06279327 -0.33372757 0.33584708 -0.06344941 0.03943215 0.010997228 0.086271316 0.001919276
-0.093197174 0.12248193 0.11308757 -0.4003657 0.23493958 0.25416392 0.040836878 -0.046716634
0.14154062 0.68604213 0.09194418 0.32421055 -0.1540284 -0.02422905 0.22259642 0.29987386
0.14734243 -0.1528011 0.010159992 0.077398814 0.18654889 -0.20729755 -0.2245627 0.26134366
0.21987836 0.16641797 0.067440875 0.12748885 -0.17624791 0.09605693 0.049849994 0.12328466
0.17994907 -0.05890861 0.15956695 0.30869704 0.12118268 -0.13099672 -0.21498266 0.024592042

37 f4 [256, 3]
00000000: 92c8 52be 4315 693d 1661 aa3c 042f 00be
00000010: 284b 95be 9534 d53c d455 2cbe 19cd db3d
00000020: ceee 813c 4425 41be 3c23 3f3d 787d 0e3d
00000030: dca1 513d 9b6d 033e aebe e5be 8ed3 ba3d
00000040: d4c3 f1be 4fe1 173e 0ec6 7b3e 9fce ecbe
00000050: 4fc7 1abd c55a c9be 2b32 043e ac99 e03d
00000060: 4061 e63d ce14 0dbf c0f3 7f3d 6514 14bf
00000070: daa5 71bd f62f 4a3e b764 f33d 6eee d9be
00000080: 7efb 7e3d 4fb1 9ebe efe2 693e ccdf 1ebe
00000090: 0897 813d 1ff5 843d 2792 16be 0ff1 aabd
000000a0: 60c6 ce3d 2f0a f6bc 344f 16bf bf49 233e
000000b0: b11d 4c3d ea51 28bf 2dcb 183e 16dd 103e
000000c0: 7a87 0e3e 91c4 24bf 54eb 8c3d 8db5 733e
000000d0: 689b cfbe 43f1 38be 2815 0fbf f75c 1a3e
000000e0: de28 ed3d b32d d0be 61da 2a3e b651 8cbd
000000f0: 7665 cc3d 3550 fdbc 24af b8bd c7a3 5a3d
00000100: 684f bb3d 1e3a edbe 26e7 c43c 7296 d63d
00000110: 0bb7 5fbe 35b6 eebe f56f 8dbd 363f 823e
00000120: de7b 0dbd 45e2 2fbe 4039 e73d 1f8b fb3d
00000130: c0d2 a93d 633d aabe c80d d7be 0af2 8f3e
00000140: d715 9bbd 05d3 0c3e 933f 94bd 7113 9ebe
00000150: 3220 d9bc 44b9 f53d 06e8 d0bd 2de9 7a3e
00000160: e2b4 afbe eed2 b5bd b976 f4be d53b cb3d
00000170: d309 103e 5aab 03bf 5a70 043e 19a6 cf3d
00000180: 6b7c cbbe 8f68 6e3d 4d3d 203d 2df6 d23d
00000190: 7644 fdbe 9c2f 203e e31d 193c d625 f33d
000001a0: 8e1a cbbe 2e30 41bf f45b 1b3e 4543 113c
000001b0: f858 d03d 91ef 893d ac8f 0cbf f646 4a3d
000001c0: 6a92 273e b38f 90be 66f4 4bbf 27cd 8f3d
000001d0: 4abf a43d 5997 aebb e067 3c3b 2f9b f53c
000001e0: d1e2 6ebf 1c83 f93d d13c 953d fc27 aebe
000001f0: e253 3f3d 5e51 d4bc fe00 56be aacb 3fbe
00000200: 56e2 543e d239 d43c 03d5 f7be b92a 0c3e
00000210: b134 b2bd 66fc fdbe 9e08 693e eed6 8abd
00000220: c359 a6be f1e5 123e 4c38 9dbe c37f 943d
00000230: 8398 433c 4b6a 1bbc 71db 2d3d 749d aebd
00000240: afdc 84bf fe83 193e a8f3 cb3d 4922 733e
00000250: ee66 2dbf ecfb 453a 2481 47bf 9978 d63d
00000260: 58f3 5d3d 54a4 ab3c ec0f 7dbe 3c0e 333e
00000270: 85b0 90be 87f0 7c3d 9805 17bd f8fc 9ebe
00000280: e783 433d 37b0 613b 62b3 1b3e f304 cebe
00000290: 76f4 e3bd 5af5 ab3e df08 9ebe c5e0 85be
000002a0: 788c 743d 3fab ddbc 8867 fb3c 8053 db3c
000002b0: 8e72 29bf 8c52 fb3d bb20 f43a 4df5 63bd
000002c0: 0747 3cbd ce75 22bf 7940 e63d a1bd 3d3d
000002d0: 137b 873d 19c7 6dbe fe14 d4bd 4320 2b3e
000002e0: f335 15bf 27be d53d a5ef 21bf 36d0 063e
000002f0: bc3d bebc 36da abbe c1dd b73d f12f 0ebd
00000300: 0964 10bf 170b 013d 63a0 e53d 7860 54bf
00000310: cb8f 59bd d220 eb3c 1cf0 f83c a613 15bd
00000320: fc38 8fbd f335 7ebe b7fa 803e 1f38 18be
00000330: d78e 5dbf e02f 1d3e b2a0 b83d 00e6 1b3e
00000340: c82f 1cbe c998 34be 666f 05be ded3 88bd
00000350: 5948 c33d 86cd 9dbe 9a8c 993d 869c 7d3d
00000360: 3049 0cbc 38da d0bd 8331 5bbe 85f5 0dbf
00000370: 843e 063e 20bf 173c c94e be3d 6f21 e13d
00000380: 3ee0 d0be a524 f8bd d361 eebe 75e9 833e
00000390: 692d 583e d24b 14bf 4bfe 68bd 2978 ab3d
000003a0: 16dd 533d a396 e0be 2001 3abd 9287 b2be
000003b0: 1ec0 3b3e f00b c23d af04 ad3d 39a2 a5be
000003c0: 0bbd 09be 5573 86be 958b f63d 07c1 a3be
000003d0: 727e 1ebe 49bc 983e 837f 27bf 8da2 b83c
000003e0: a9a4 2e3e 5655 963d 302b 9d3d f3b2 9bbe
000003f0: 6cb8 d13d 1ecd 01bf bdee 363e 3d51 d23d
-0.20584324 0.056905042 0.020798247 -0.12517935 -0.29158902 0.02602605 -0.16829616 0.10732479
0.015860941 -0.18861872 0.04666446 0.034787625 0.05117975 0.1283478 -0.4487204 0.09122382
-0.47219718 0.14832042 0.2458727 -0.4625139 -0.03778773 -0.39327064 0.12909763 0.109668106
0.11249018 -0.5510987 0.062488317 -0.5784362 -0.05899606 0.19744858 0.11884444 -0.4256472
0.06225156 -0.3099465 0.22840475 -0.15515059 0.06327635 0.06492066 -0.1470419 -0.083467595
0.10096431 -0.030034153 -0.58714604 0.159461 0.049833003 -0.6574999 0.14921255 0.14146838
0.13918868 -0.64362437 0.06880823 0.23799725 -0.40548253 -0.18060784 -0.55891657 0.15074526
0.115800604 -0.40659866 0.16684867 -0.068515226 0.0998029 -0.030922035 -0.090177804 0.053378846
0.09146005 -0.46333402 0.024036001 0.10477914 -0.21847169 -0.46623388 -0.0690612 0.2543885
-0.034541957 -0.17176159 0.112902164 0.122823946 0.082921505 -0.3324996 -0.42002702 0.2811435
-0.07572525 0.13752373 -0.07238688 -0.30874208 -0.02650461 0.11998227 -0.10200505 0.24503012
-0.3431769 -0.08878122 -0.47746828 0.099235214 0.14066248 -0.51433337 0.12933484 0.101391025
-0.3974336 0.058205184 0.03912096 0.103008606 -0.49466294 0.15643162 0.009345504 0.11872451
-0.39668697 -0.7546414 0.15171796 0.008866136 0.101732194 0.06735147 -0.54906726 0.04938408
0.16364446 -0.28234634 -0.796698 0.070215516 0.08044298 -0.0053281006 0.0028748438 0.029981224
-0.93314844 0.1218321 0.072869904 -0.3401488 0.046710856 -0.025917705 -0.20898816 -0.18730035
0.20789465 0.025906477 -0.48404703 0.13688172 -0.08701456 -0.49606627 0.22757193 -0.06779276
-0.32490358 0.14345528 -0.30707014 0.07250931 0.011938217 -0.009485791 0.042445604 -0.085261256
-1.0379847 0.14991757 0.09958583 0.23743547 -0.67735183 0.0007552493 -0.7793143 0.10472221
0.05418715 0.020952381 -0.24713105 0.17485899 -0.28259674 0.061752822 -0.03687057 -0.31052375
0.047733214 0.0034437308 0.15205148 -0.4023815 -0.111306116 0.33585626 -0.30866143 -0.26148048
0.059704274 -0.027059196 0.030689016 0.026773214 -0.6619042 0.12271604 0.0018625477 -0.05565386
-0.045966174 -0.63461006 0.11242766 0.046323422 0.066152714 -0.23220481 -0.103555664 0.16711526
-0.58285445 0.10436659 -0.63256294 0.13165364 -0.023222797 -0.3356492 0.08977843 -0.03471369
-0.5640264 0.031504717 0.11212232 -0.829597 -0.053115647 0.028702173 0.03038793 -0.03639569
-0.06993291 -0.24825267 0.2519128 -0.14865158 -0.8654608 0.15350294 0.09015025 0.15224457
-0.15252602 -0.17636408 -0.13030776 -0.066810355 0.095352836 -0.30820864 0.07497521 0.06191685
-0.008562371 -0.10197872 -0.21405606 -0.5545276 0.13109785 0.009261876 0.09292371 0.10992705
-0.40796083 -0.121163644 -0.4655901 0.2576405 0.21111073 -0.5792819 -0.056883138 0.08372528
0.051724516 -0.43864927 -0.04541123 -0.34869057 0.18335006 0.09474933 0.08448159 -0.3235033
-0.1345102 -0.26259866 0.12038342 -0.31983206 -0.15477923 0.2983115 -0.6542894 0.022538448
0.17055 0.07340495 0.07674253 -0.30409965 0.10240254 -0.5070361 0.17864509 0.10269401

batchnorm1.bias f4 [64]
00000000: cb79 26be e9f7 92bd a135 07be 0184 45be
00000010: e96c a1be 9610 8b3c 8359 78bd 5e47 33be
00000020: deed 633d 45d7 aebe 5095 cbbd a49c 41bd
00000030: a326 e8bd fb97 45be de9d 2abe a4e7 cd3c
00000040: 8c45 623e a215 79be ed09 60bc 421e a5bc
00000050: 4adc 7dbe 82e5 95be 441b 02be 8ab0 183c
00000060: 353c 6cbe 1bca 20be 82ba 54be ec4b 1abe
00000070: 11a8 48be 7f3f d2bd 997b b2bc 8271 76be
00000080: 9d0c dabd 5a95 9cbe c1b3 76be 508b 8fbe
00000090: 6c2a 043d 6158 80be e522 2cbe 3f4b 80be
000000a0: 5bb9 a7be 4647 a3bd c160 aebd b663 b5be
000000b0: 1095 acbe 791e 8bbd 9828 03bd bb81 8bbe
000000c0: 32a6 11be 82d3 06be e5bf 043d 9721 d73c
000000d0: b50c ebbd 0bd6 11bd b438 76be 03b7 94be
000000e0: 3599 51be 0c7b 08be e53d 0dbf 99ae aabe
000000f0: 10c8 f6bd 41c5 3bbe 13bc 3bbd 540f 55bd
-0.16257398 -0.07176191 -0.13204052 -0.19288637 -0.31528404 0.016975682 -0.06063224 -0.17507693
0.05564677 -0.34148613 -0.099405885 -0.047268525 -0.11335494 -0.19296257 -0.16661784 0.025134869
0.22096843 -0.24324659 -0.0136742415 -0.02015603 -0.24791065 -0.29276663 -0.12705714 0.009319434
-0.23069842 -0.15702097 -0.20774272 -0.15068024 -0.19595362 -0.10266017 -0.021787452 -0.24066737
-0.10646937 -0.30582696 -0.24092008 -0.28035975 0.03226702 -0.25067428 -0.16810186 -0.25057408
-0.32758602 -0.07972579 -0.08514548 -0.35427636 -0.33707476 -0.067929216 -0.032021135 -0.27247414
-0.14223555 -0.13166621 0.032409567 0.026261134 -0.11477033 -0.035604518 -0.24045068 -0.29045877
-0.204686 -0.13328189 -0.5517257 -0.33336332 -0.12049878 -0.18336965 -0.04583366 -0.05201657

batchnorm1.running_mean f4 [64]
00000000: e7da 87bf 7ce7 2240 07b1 01c0 0333 e93f
00000010: 5788 413f 16ad 153f 2e57 3640 fe09 693f
00000020: 2be0 7240 6873 0a3f d334 853f 474c c23f
00000030: 3b8b d43e ad3c 973f 06b2 9abe 7a30 6f40
00000040: ae58 9dbf 264b c43e 5612 35be 46b0 3c3f
00000050: 94d8 3cbf 9503 20bf a451 fc3f 94ae 32bf
00000060: cb6d 5140 9621 1fc0 21bb 7b3f 44fa f4bf
00000070: 4b58 553e 334a ad3e 65a1 9e3f 3e58 13be
00000080: c2a1 9a3f bc04 e03f 70dd 1cc0 1138 0340
00000090: 298e 9cbf 7c9c 8c3f 4ac9 04c0 dc3c 4340
000000a0: 6787 f73f 6b10 7dbf 003b c4bf fafd e63d
000000b0: 8217 0540 1eb4 ff3f 0766 253f 1bc7 8bbf
000000c0: 69bc 10bf 5191 ab3f 9373 7140 a349 00c0
000000d0: ab94 9f3f 07e6 f9be ec28 4e40 a0ac 38bf
000000e0: 4738 e0bf 44a9 0840 1960 ba3e 2528 643e
000000f0: 583b 3140 8048 2240 207e 21c0 5618 31bb
-1.0613679 2.5453787 -2.02643 1.8218693 0.75598663 0.58467233 2.849071 0.9103087
3.7949321 0.54082346 1.0406746 1.5179528 0.41512474 1.1815392 -0.30213946 3.7373338
-1.2292688 0.38338584 -0.17682776 0.7370647 -0.7376797 -0.62505466 1.9712415 -0.69797635
3.2723262 -2.486425 0.9833241 -1.9138875 0.20834462 0.33845672 1.2393004 -0.1438913
1.2080615 1.7501445 -2.4510155 2.050297 -1.2230884 1.0985255 -2.0747857 3.0505896
1.9338197 -0.98853177 -1.5330505 0.11278911 2.0795598 1.9976842 0.64608806 -1.0920137
-0.5653749 1.3403722 3.772679 -2.0044944 1.2467245 -0.4880831 3.2212477 -0.72138405
-1.7517174 2.1353312 0.36401442 0.22280939 2.769247 2.535675 -2.523323 -0.0027022562

batchnorm1.running_var f4 [64]
00000000: 8cde 373e 74c2 4d3e 3f04 623e 9592 a13e
00000010: 5d40 403e 4b82 5f3e 117b 843e 71e5 683e
00000020: 2b5a 883e 92de 423e 9f0b 7f3e 8d60 453e
00000030: 197f 663e 61f5 813e f4d0 883e dc00 993e
00000040: f95f 943e 3845 2e3e aac9 c23e b254 583e
00000050: 12a9 4e3e 2676 163e 6da1 463e f2ce 8c3e
00000060: 7a8b 833e 91fd 993e ec00 513e 331d d03e
00000070: 12c1 3f3e 04d1 a13e 6dfc 8e3e 902d 4d3e
00000080: faa2 903e 1cea 813e 0dca a83e 38fa 883e
00000090: 5ea1 8f3e ebfb 3a3e 1505 9a3e dfbb 803e
000000a0: 138e 3e3e 5003 993e ee12 7e3e 2433 0d3e
000000b0: 6562 5e3e 7527 fa3e 83cf 7d3e 9cd3 213e
000000c0: 02b6 bd3e 3d17 0a3e 0da1 653e 201b 5c3e
000000d0: 5926 443e c37e 583e c70f 6a3e 8ce7 473e
000000e0: be0b 4a3e 9613 623e 2453 323e a3d2 3a3e
000000f0: e1ad 0b3e c661 9c3e 739f 513e 24fb 4d3e
0.17955989 0.20093709 0.22071932 0.31557146 0.18774553 0.21827047 0.25875142 0.22743775
0.26631293 0.19030216 0.24906777 0.19275112 0.22509421 0.25382522 0.2672192 0.29883468
0.2897947 0.17018592 0.38044482 0.21126059 0.20181683 0.14693508 0.19397517 0.27501637
0.2569235 0.30076268 0.20410508 0.40647277 0.18725994 0.3160478 0.2792696 0.20036912
0.2824934 0.25373924 0.32966653 0.26753402 0.280528 0.18260162 0.30082002 0.25143334
0.18608885 0.2988534 0.24811909 0.1378904 0.21717222 0.48858228 0.2478619 0.15803379
0.37052923 0.13485427 0.22424717 0.21494722 0.19155253 0.21142106 0.22857581 0.19521922
0.19731042 0.22077784 0.17414528 0.18244414 0.13640548 0.30543345 0.20470981 0.20115334

batchnorm1.weight f4 [64]
00000000: edb2 793f 47bb 873f 3e6d 853f 9b01 783f
00000010: 457b 613f e65b 6f3f 1766 8e3f 4bdb 663f
00000020: 2698 903f 0c01 7c3f d911 973f 8f83 9d3f
00000030: 7d44 843f f086 663f b1d7 913f 383b 933f
00000040: 7d7c 923f 2093 9f3f 0ed4 763f 6b5c 7f3f
00000050: f711 883f 4b5f 893f a7fb 6c3f f5b8 843f
00000060: 3bcc 8f3f 5daf 893f 39b5 6d3f 3edc bc3f
00000070: cb23 8a3f 740b 8b3f 8654 823f a6cb 5b3f
00000080: ad9c 553f 09b6 763f d553 8b3f 3c3c 623f
00000090: 1eae a73f 249e 943f 62b7 623f 1835 853f
000000a0: d513 bb3f 0e3a 873f 4f94 843f 2151 853f
000000b0: 8bad 843f f117 893f 7010 8b3f 63b6 683f
000000c0: 2113 b03f 0130 753f 1930 8b3f e25f 733f
000000d0: cded 723f 62f7 733f d1a0 8d3f d5c4 8f3f
000000e0: 2163 8a3f cc68 5d3f 58a0 663f 3bcc 953f
000000f0: 5f7b 863f 74ed 6c3f 661b 6a3f 79e0 963f
0.97538644 1.0604028 1.0423963 0.9687745 0.8807872 0.934996 1.1124905 0.90178365
1.1296432 0.984391 1.1802322 1.2305773 1.0333401 0.9004965 1.1393949 1.1502447
1.1444241 1.2466774 0.9641732 0.99750394 1.0630482 1.0732206 0.9257149 1.0368944
1.1234201 1.0756642 0.9285465 1.4754713 1.0792173 1.086287 1.0182045 0.8585762
0.83442193 0.96371514 1.0884959 0.8837316 1.3100011 1.1610761 0.8856107 1.0406828
1.4615427 1.0564592 1.035776 1.0415384 1.0365461 1.0710431 1.0864391 0.909033
1.3755838 0.95776373 1.0874053 0.9506818 0.94894105 0.9529935 1.1064702 1.1231943
1.0811502 0.8648803 0.90088415 1.1702951 1.05064 0.92549825 0.91448057 1.1787254

batchnorm2.bias f4 [128]
00000000: 1749 8cbe 06d2 adbe 17d0 01bf 55b8 ecbe
00000010: 801e 40be b5ff 9cbe f751 eebe f1a3 2cbe
00000020: 4567 3bbe 9b4b c9be 8ee8 53be 8ba4 86be
00000030: 1e7a 803d 1eca d3be f061 8cbe d9bc a9be
00000040: 3fc7 d9be 22be 85be 11a2 59be d12c 3cbd
00000050: 9c9e a3be cfdc 08bf af63 dabe e4cf cebe
00000060: fc6a fcbe 2df1 e7be 1ab9 adbe 51b9 dabe
00000070: 5db5 97be d124 b3be f92a d8be 4333 b2bd
00000080: 56a1 dabe 7df7 b6be f59f cdbe 67a6 f6be
00000090: 2be5 85be 0d8f 29be 3e56 1dbf 1531 aebe
000000a0: 0ed8 03bf b95b 08bf 3c47 c5be 7ce4 9bbe
000000b0: f9ed eebe 00f1 bdbd 72ee cebe 7bdb 67be
000000c0: 6486 afbe 73f4 49be 0656 06bf 5bbe a6be
000000d0: 949a f8be 6a62 c9be f02f ecbe aa55 11bf
000000e0: b803 40be cd3d 85be 2fe4 f2be 0da5 2dbe
000000f0: fba2 19bf 7c4e f4bd d40c 8dbe 8090 08be
00000100: b380 adbe b35b 93be facf d4be 5cc3 75be
00000110: de93 76be 982c 02bf acef 6fbe deb7 94be
00000120: 8608 8cbe 036f 6ebe 23aa a2be 5f1a 6fbe
00000130: 4218 aabd 466d bdbe 50a9 dcbe 6ddb d0be
00000140: ce53 eebe 9096 f9bc e0aa 0fbf 8d35 3fbe
00000150: 202a aebe be60 eabe ff9d 01be 80e1 18bf
00000160: fed8 a0be 6933 84be 92d9 f1be 4f50 5f3d
00000170: 9a40 38be 13e1 52be 35e5 c3be a0e5 c6be
00000180: 0f40 08bf a493 6abe b822 f2be 247d fabe
00000190: d1b6 8d3c d350 a3be 0af8 42be aabc bdbe
000001a0: 937b 9bbe 7793 4bbe 6c79 f0be f388 d2be
000001b0: 02f7 82be 9817 94be b646 a6be 9fa2 a7be
000001c0: 2f73 bebe 3ce8 c4be 6335 d8be 6276 bd3d
000001d0: d15b 67be 65d7 e6be 45fa b1be e15c 07bf
000001e0: 058c 78be def4 a2be 033b c9be 5ff2 85be
000001f0: 4f1c 4ebe eeb2 b7bd 1352 8ebe 11d2 13bf
-0.27399513 -0.33949298 -0.50708145 -0.46234384 -0.18761635 -0.3066384 -0.4654691 -0.16859414
-0.18301113 -0.39315495 -0.20694181 -0.2629741 0.06273292 -0.4136514 -0.2741847 -0.33151892
-0.42534825 -0.26121622 -0.2125323 -0.045941178 -0.31956947 -0.5346193 -0.42654178 -0.40392983
-0.49300373 -0.4530119 -0.33930284 -0.4271951 -0.29630557 -0.34989026 -0.42220286 -0.08701184
-0.42701215 -0.35735694 -0.401611 -0.4817383 -0.26151404 -0.16558476 -0.6145972 -0.34021822
-0.5150155 -0.5326496 -0.3853091 -0.30447757 -0.46665934 -0.09274483 -0.40416294 -0.22642319
-0.3428222 -0.19722156 -0.5247501 -0.32567105 -0.48555434 -0.39332896 -0.46130323 -0.5677134
-0.18751419 -0.26023713 -0.47439715 -0.16957493 -0.60014313 -0.11929032 -0.2754885 -0.13336372
-0.33887252 -0.28780898 -0.41564924 -0.24000305 -0.24079844 -0.50849295 -0.23431271 -0.2904653
-0.27350253 -0.23284535 -0.3177043 -0.23349904 -0.08305408 -0.36997432 -0.43097925 -0.4079241
-0.46548313 -0.030467302 -0.5612011 -0.18672772 -0.34016514 -0.45776933 -0.12657927 -0.59719086
-0.31415552 -0.25820473 -0.47236305 0.054519948 -0.17993394 -0.20593672 -0.3826081 -0.38847065
-0.53222746 -0.22907883 -0.47292113 -0.489236 0.017299088 -0.318976 -0.19039932 -0.37058002
-0.30367717 -0.19880472 -0.46967638 -0.4112011 -0.25579077 -0.2892425 -0.32475823 -0.32741258
-0.37197253 -0.3845843 -0.4222823 0.09251095 -0.22593619 -0.45086208 -0.34761253 -0.52876097
-0.24272163 -0.31827444 -0.39302835 -0.26161477 -0.20127986 -0.08969675 -0.27796993 -0.5774241

batchnorm2.running_mean f4 [128]
00000000: 6274 603f 329b 1f3f 6ec2 61bf 5463 7fbf
00000010: d813 85be a399 8abf 2dac 38be 58ff 3d3f
00000020: 9031 3bbf 331d dabe 80c0 12be 1f6f 783f
00000030: 4bcc cfbe 58b3 b0be c294 6f3f 8d01 c93f
00000040: 0161 a33f d2b9 543f 68b8 a13e d40d 803f
00000050: c0a9 3540 1cf3 1a40 fc40 d8bf 53c0 0740
00000060: 2152 d0bf c5c0 1abf 88d3 043f 07e4 1640
00000070: 48f4 04bf 1688 f6be 719f 40bf db2a cb3e
00000080: 48a2 95bf b75a 14bf 91f0 c23e 3191 5ebf
00000090: b5c2 ce3c 92c3 0bbe 95fd cd3f ee9b 39bf
000000a0: 3e05 02c0 1713 8e3f 4a92 adbe d9e9 eb3e
000000b0: 227a f4bd e067 a2bc cbe8 21bf d07e a73e
000000c0: 2376 0240 939e 423f 58cc 873e 5c93 b13f
000000d0: 1c9b 943f fb87 dcbf c7c2 0e40 744c 07bf
000000e0: 24e9 2d3c b95f 703f 048f d63e 69b7 d43f
000000f0: eded 6f3f 7759 ef3f 59ed f63f 4e46 723f
00000100: 5afc 97bc 40e1 22be b0ec 71be 5719 ed3f
00000110: 8c47 b83e ba44 403f 0bda 633f b678 993f
00000120: f3df 3440 4eeb 703f f2d8 1c40 871e 0f40
00000130: a203 a33f 956f bf3f 40e3 c1bf bcd9 be3d
00000140: d45f cb3f 9a65 523d 119d 03bd dc64 6d3f
00000150: 71a7 dd3e e4be 0bbf 03e3 4340 bcb0 b93e
00000160: a76b c3bf d2eb ac3f a0e1 51bf 251a 743e
00000170: 6671 76be 24f9 013f 8e51 743f e597 95bf
00000180: 1866 3540 42d2 c13e f404 113f 00a0 9c3f
00000190: d897 853f 803e 953d 6cdc ffbf ab05 d83f
000001a0: b99c 323f ff37 a6be 62c3 f8bc 146b b53f
000001b0: 2a2c bbbe dae3 293f 3a05 683f 9ca7 91bf
000001c0: a6ea 1c3f 71c8 2240 9728 7ebf 61d3 d93b
000001d0: f791 9e3e f89b 1a40 c9f4 363e cc36 87bf
000001e0: 85a6 b83e 9b62 c83f ee9c 8ebf d11e 5d3f
000001f0: 5587 973f cdcc 263f 9630 3bbe 3152 b93f
0.87677586 0.62346184 -0.881873 -0.9976094 -0.25991702 -1.0828136 -0.1803443 0.7421775
-0.731225 -0.42600402 -0.14331245 0.9704456 -0.4058555 -0.34511828 0.9358636 1.5703598
1.2763978 0.8309604 0.31586003 1.000422 2.8384857 2.4210882 -1.6894832 2.1211135
-1.6275064 -0.6045039 0.5188527 2.3576677 -0.51935244 -0.481507 -0.7524329 0.39681134
-1.1690149 -0.5795092 0.38074163 -0.86940295 0.025239328 -0.13648823 1.6093012 -0.72503555
-2.03157 1.1099576 -0.33900672 0.4607685 -0.119373575 -0.019824922 -0.6324584 0.32713938
2.0384605 0.76023215 0.2652309 1.3873096 1.1609836 -1.7228998 2.2306383 -0.52851033
0.010614667 0.9389606 0.41905987 1.6618472 0.9372242 1.8699178 1.9291183 0.94638526
-0.018552948 -0.15906239 -0.23625445 1.8523358 0.35992086 0.7510487 0.8900458 1.1989963
2.8261688 0.94109046 2.4507413 2.2362382 1.2735484 1.4955927 -1.5147476 0.09318873
1.588862 0.051366426 -0.032132212 0.92732024 0.4329181 -0.5458815 3.0607307 0.3626765
-1.5267228 1.3509467 -0.819849 0.23838098 -0.24066696 0.50770783 0.9543694 -1.168698
2.8343563 0.37855726 0.5664818 1.2236328 1.0436964 0.072873116 -1.9989142 1.687673
0.6977039 -0.32464597 -0.030366603 1.4173303 -0.36557132 0.663633 0.90632975 -1.1379275
0.61295545 2.543484 -0.99280685 0.006647513 0.30970737 2.4157696 0.17866816 -1.0563598
0.36064544 1.5655092 -1.1141641 0.8637515 1.1838175 0.6515625 -0.18280253 1.4478208

batchnorm2.running_var f4 [128]
00000000: 65a4 e33f a65f 4740 c6b1 813f 16a5 0140
00000010: 56bf b83f 0b1a 1c40 15bf 4440 7320 be3f
00000020: 482c a73f 3737 953f 9dd1 5240 8f9f b73f
00000030: 87c9 c73f c410 b43f 928a cd3f 7357 1d40
00000040: f162 4e40 f22f 723f 6b07 f23f 061b d83f
00000050: 1507 1140 8397 2040 bdd1 7540 bdfd a73f
00000060: 2855 1940 13ff 2940 3af8 a63f 8cc2 3b40
00000070: f1ae 1640 a14d 4640 1023 2240 2a43 943f
00000080: 3292 c03f 12b0 e23f 39f8 0340 18b0 7b40
00000090: 4201 e13f 3bfc 773f c99c 4d40 322c e53f
000000a0: d34c ce3f 32c6 be3f f3b8 833f bc26 0340
000000b0: 4242 4640 1ce6 d03f f6ce 0540 6a20 c53f
000000c0: a565 b83f 840a cb3f 6b67 0f40 f933 9f3f
000000d0: e368 7140 1fbc d83f 5d8c 6340 76a5 5040
000000e0: 5ef7 883f d863 1140 bbdc ca3f 77bb a63f
000000f0: ae4f 923f 5902 0640 13a0 f53f 09ba c63f
00000100: aad8 963f df9c ab3f 7bc9 8b3f 51f1 e63f
00000110: 9bbf b83f d4ba 0640 70df 9840 ab6f c23f
00000120: 06af 2140 a128 0040 43ef b03f 5942 0d40
00000130: c1d5 a53f 4c3c 2040 b49c 2340 fe5e ce3f
00000140: d99d 1140 1ab0 2240 90d1 a53f a227 a53f
00000150: 57fb f43f 62d6 8b40 c75f d33f 244e 7540
00000160: da6d 2240 8602 e53f c122 b53f 73c7 1240
00000170: 02b4 943f 5d99 ad3f c87d a63f 7e7a 7740
00000180: 3027 6740 89da 0340 4ef8 5240 ec21 fe3f
00000190: 1fa9 0140 9fc0 5e40 127b a440 5fd6 4440
000001a0: c8ab 0d40 94a5 513f 347b 0240 e3dc 4540
000001b0: d5fa d73f 0171 2b40 e4c1 1240 57b7 fc3f
000001c0: de01 ee3f ce6f e53f d2ef a93f 1572 0340
000001d0: c4a7 1740 e351 1040 1d08 ad3f b7ee ce3f
000001e0: 7a80 eb3f fce3 2640 ce1a 5640 6a10 d93f
000001f0: e33b 1e40 bcb7 bf3f 9c0a b23f 41f8 933f
1.7784544 3.115213 1.0132377 2.025701 1.4433391 2.4390895 3.0741627 1.4853653
1.3060389 1.1657475 3.2940438 1.4345568 1.5608376 1.4067616 1.6057913 2.4584625
3.224789 0.9460441 1.8908514 1.6883247 2.2660573 2.5092475 3.8409264 1.312431
2.3958225 2.6561935 1.3044503 2.9337492 2.3544276 3.098488 2.53339 1.1582997
1.5044615 1.7709982 2.0620253 3.932623 1.7578509 0.9686925 3.2126944 1.7904112
1.6117195 1.4904234 1.0290817 2.0492392 3.097794 1.6320224 2.090757 1.5400517
1.440602 1.5862584 2.2406871 1.2437736 3.7720268 1.693241 3.555442 3.260099
1.070049 2.271719 1.5848612 1.302596 1.1430566 2.0938933 1.9189476 1.5525523
1.1784871 1.3407248 1.0920862 1.8042394 1.4433473 2.105153 4.777275 1.5190328
2.5263076 2.0024798 1.3823017 2.2071745 1.2955858 2.5036802 2.5564394 1.6122739
2.2752593 2.5419984 1.2954578 1.290272 1.9139203 4.36992 1.6513604 3.8328943
2.5379548 1.7891395 1.4151231 2.2934234 1.1617434 1.3562428 1.3007135 3.8668513
3.6117668 2.0602133 3.2964053 1.9854102 2.0259473 3.4805067 5.140023 3.0755842
2.2136097 0.8189328 2.0387697 3.0916069 1.6873423 2.6787722 2.2930841 1.9743451
1.859432 1.7924745 1.3276312 2.053838 2.3696146 2.254998 1.3518101 1.61666
1.8398583 2.607665 3.345386 1.6958134 2.4724052 1.4977946 1.3909488 1.1560136

batchnorm2.weight f4 [128]
00000000: d982 613f 455d 5f3f f009 603f 9278 513f
00000010: 2f6e 733f 64c5 673f 1687 8c3f 6a2e 763f
00000020: 8f9b 5c3f b6ca 4a3f 400f 5e3f e18a 4c3f
00000030: 9e92 883f 1d71 713f 2b6f 733f 153b 6a3f
00000040: 26ee 623f bf57 853f 1a38 8f3f cdd4 5c3f
00000050: 6dcc 9b3f d8ca 803f c35c 853f 1ea5 763f
00000060: 459a 793f ce48 913f cd3a 863f 1add 5a3f
00000070: 78dc 3d3f 77fc 633f b9c9 7c3f 02b2 963f
00000080: 0665 7d3f 83a1 8c3f 428b 783f 11a5 a23f
00000090: 90d5 8d3f ebc2 ab3f 6b91 873f 7f6a 6e3f
000000a0: 6659 623f 2c05 7f3f 1ea4 703f fab4 973f
000000b0: b830 863f 8781 5d3f 832c 863f a29a 4c3f
000000c0: c77a 723f 8603 653f b692 7a3f 0487 683f
000000d0: 90c0 693f 92a5 453f aeb8 813f f3e4 a43f
000000e0: b014 7b3f 1f14 7c3f b03c 723f c0b6 9d3f
000000f0: a757 6c3f 8900 5a3f e64b 9a3f 0a04 8b3f
00000100: 949e 903f a22e 843f aaa4 633f 1563 803f
00000110: f1b6 863f b6e9 803f c2e3 693f c13b 453f
00000120: df46 993f d5a2 953f 7134 623f 0c80 433f
00000130: 28b4 3e3f 1f0c 883f f3c0 5f3f a8f9 583f
00000140: bbe1 7e3f 48ce ad3f cc8e 3f3f 5505 5f3f
00000150: 6444 7e3f a869 8b3f e8c0 ab3f 269b 903f
00000160: d552 893f 79c4 843f 3d64 6a3f daf5 b03f
00000170: 69bd 9d3f b1ca 823f 7e13 8a3f f348 893f
00000180: 2b7a 7c3f 89ed 753f 5148 883f 89de 5d3f
00000190: e666 563f c5f9 5e3f f39a 853f a449 683f
000001a0: 2e2c 683f 78e5 913f 590d a13f a3bd 583f
000001b0: 7f42 4b3f 10c1 923f 3f91 3c3f d4eb 653f
000001c0: 9f33 683f b50a 853f b4bd 553f 2ffd ab3f
000001d0: f7db 9b3f 2c76 933f 2c8b 6d3f 741f 2c3f
000001e0: 6769 733f 5f72 6b3f a74c 963f 9431 6c3f
000001f0: 2952 4c3f 5949 533f a1bc 833f a99e 5f3f
0.8809028 0.87251693 0.87515163 0.818246 0.9509 0.9053557 1.0978725 0.9616457
0.86174864 0.7921556 0.8674202 0.7989941 1.0669744 0.9431322 0.95091504 0.914964
0.88644636 1.0417403 1.1188996 0.8626221 1.2171761 1.0061903 1.0418934 0.963457
0.9750102 1.1350343 1.0486695 0.85493624 0.74164534 0.89057106 0.98745304 1.1773074
0.98982275 1.098679 0.9708749 1.2706624 1.1080799 1.3418859 1.0591253 0.9313125
0.8841766 0.99617267 0.9400042 1.1852105 1.0483618 0.8652577 1.0482334 0.7992345
0.94718593 0.894585 0.97880113 0.9083102 0.9130945 0.77205765 1.0134485 1.288237
0.9807844 0.984682 0.9462385 1.2321396 0.92321247 0.85157067 1.2054412 1.0860608
1.1298394 1.0326731 0.8892313 1.0030237 1.0524579 1.0071323 0.91363156 0.770443
1.1974753 1.1690317 0.8836127 0.7636726 0.74493647 1.0628699 0.8740379 0.84755945
0.9956319 1.3578577 0.74827266 0.8711751 0.99323106 1.0891619 1.3418245 1.1297348
1.0728403 1.0372459 0.915592 1.3825028 1.2323428 1.0218107 1.0787199 1.0725387
0.98623914 0.96065575 1.0647069 0.86667687 0.8375076 0.8709987 1.0437912 0.90737367
0.9069241 1.1398153 1.2582198 0.8466436 0.7939834 1.1465168 0.7365913 0.8981297
0.9070377 1.0393893 0.8349259 1.343664 1.2176503 1.1520438 0.92790484 0.67235494
0.95082706 0.9197139 1.1742142 0.9226315 0.79812866 0.82533795 1.029194 0.8735147

batchnorm3.bias f4 [256]
00000000: 2486 ac3d 6042 1d3d 3b4d c53d 98ea 4c3d
00000010: 76b9 e43d 10e6 103e 1545 423e 8ec9 80bd
00000020: 4d9e 203e b001 2f3e 2a35 643d f6f4 663e
00000030: 16f9 b33d a08b d03d a20f 373e 921b d83d
00000040: 23c6 eb3d c46d a2bd db63 d93d 7eed 03be
00000050: 7df1 0ebe 62e9 983d f43b 203e 9db3 613c
00000060: 3607 e6bb fe78 da3d 4d66 0dbd 2511 a4bd
00000070: 7351 2ebe b7ff b13d c217 1a3d ad05 c2bc
00000080: 0523 37bc 084f 353e 6962 203e 669a 143e
00000090: 6db3 443e 140c 5e3e d52d 983e 0c62 babe
000000a0: 98b8 2b3e 032f 5e3e ee3c 693e 3699 103e
000000b0: 82a8 183e 1e4d d7bd dd9c 28ba 12d6 6dbd
000000c0: 81cc 2a3e 2932 0b3e 00bd e83d 3270 213e
000000d0: c347 953d 4560 5c3d 59d8 243e df6c 453e
000000e0: fdca 9abe bcc8 5f3d 8ef8 15be 598b fa3d
000000f0: 1cdc 30bd 2161 073e e846 d93d 85cf 103e
00000100: 6a7a ee3d 99bb 483e 715a 003c b15b 643b
00000110: f3d5 4d3e d5e0 cbbd 824c 523e b429 92be
00000120: 66ae 5ebd 59f6 593d 01a3 123e 69c4 453e
00000130: 0350 1e3e 5874 023e 299b 8c3d b132 bc3d
00000140: 0814 37be 45d8 5f3e 82e2 893e 3ee2 8e3b
00000150: acab da3d 5416 b43d b996 833c f09d 333e
00000160: c2c6 303c 48ea 993d 811e dd3d e709 173e
00000170: 595d 35be a121 773d ece0 173e 2687 193e
00000180: 3cee 483e d14a 643e 2f24 703e 6b85 263e
00000190: 2ac0 8cbe 7a7b 913e d6d3 213e e619 9e3d
000001a0: fd1b 9dbd 9a7e 013e ba1b 363e 6f0c 513e
000001b0: edb2 0f3e 55c1 2a3e 2842 743c 68fa d0bd
000001c0: d10e 323e 1263 353d d011 383e 7b0c 26be
000001d0: d30d 5e3e e81d 943d bc48 533d 5198 e63c
000001e0: 4ae9 efbb 596f 9a3e a032 d0bc b491 713e
000001f0: acbc 203e 2306 b0bd 5abd 543e c232 953d
00000200: 073f 283e 526a ca3d 204d 193d c928 593e
00000210: 3f24 85be 4a34 313e fe3f 4dbe bf39 323e
00000220: 57ae 573d 2e7b 413e 6d4a a33d 09c8 5a3e
00000230: 00aa 3b3e c1a2 1b3e c6d3 e53d 96a8 65bd
00000240: b5a7 013e cb53 103e 0eaf 4fbe 3159 d2bc
00000250: 10fd 38bd 9f0c 583e 43b7 d33d 6f44 dc3c
00000260: 58ad 493e ea57 9fbe 5d17 503e fc11 343e
00000270: 269f 883e ad80 9fbd 2fe8 823c f92f c23c
00000280: b15a 4f3e 636c a13e 41e8 e93d 455f cb3d
00000290: d1b5 843d 2eec 273e 2a3b 1c3e 70fb d93d
000002a0: 0c56 ac3c f8b1 553e 2603 4d3e 08b8 5b3e
000002b0: d147 a93d f10c 833d 77d8 043e cb19 143e
000002c0: d094 dbbe 3abb 823c 084e e43d b32e 313e
000002d0: 4edf 023e b48c c13d 4da9 bcbb c2c0 d73d
000002e0: 0145 193e 0e2a 15be 32bf a0bc d371 443e
000002f0: 5e72 923e 2b23 143e a159 e6bd 1352 463b
00000300: 0791 99bb 8c2a d13c 1bde 423e 264d 3d3e
00000310: e2f5 2e3e ca48 1a3d f191 a03d 523e b83d
00000320: 90b1 6b3e e59e 683e 3cbe 453e a116 493d
00000330: c2c7 6dbd 24d7 593e 7953 3b3e 92ac 853e
00000340: d6ea 233e d3aa 263e 3c4b 4f3e 790e 253d
00000350: aeb1 0c3d 3293 abbe b93d c93b 0669 093e
00000360: 79f2 723d f3b8 5d3e f845 423e a653 083e
00000370: b323 203e 71a1 6d3e 0a07 583d f63f c93d
00000380: e871 32be ed8a 103e 98af dabd c806 523e
00000390: 69b1 e53c 142b 043e 8156 1f3e c7f3 563e
000003a0: 795f 4c3e f1b6 c83c 0a41 c73d 419d 9ebc
000003b0: 5592 58be 8016 f13d 884f 233e 7037 ca3d
000003c0: fbe5 6e3e 04c0 893e 1a0c 79be 9813 513e
000003d0: ddb7 fe3d 9c17 023e e9e3 8f3d 7b32 8a3d
000003e0: e0c0 18bc c4bd 8f3d 2bd6 63be dae9 883e
000003f0: edf2 b03d a05d e93d f4ca 0f3e 159a 7abd
0.08424023 0.03839338 0.09633871 0.050028414 0.11168186 0.14150262 0.18971665 -0.062884435
0.15685387 0.17090487 0.055714764 0.22554383 0.08787744 0.10182881 0.17877057 0.105521336
0.11512401 -0.079310924 0.10614749 -0.12883565 -0.13959308 0.07466389 0.1564787 0.013775733
-0.0070199026 0.10667609 -0.03452139 -0.080110826 -0.17023258 0.08691352 0.037620313 -0.023684347
-0.011177783 0.1770593 0.1566254 0.14512023 0.1920907 0.21684295 0.29722467 -0.3640293
0.16769636 0.21697621 0.22777149 0.14120945 0.1490803 -0.10512756 -0.0006432066 -0.05806548
0.16679575 0.13593353 0.11364174 0.15765455 0.07289078 0.053802747 0.16098155 0.19279812
-0.30232993 0.054634795 -0.14645597 0.1223361 -0.043178663 0.13220645 0.106092274 0.14141662
0.116444424 0.19602813 0.007834063 0.0034844691 0.20101146 -0.09954993 0.20536998 -0.28547442
-0.054365538 0.05321345 0.14319994 0.19313206 0.1546021 0.12739694 0.06865532 0.09189356
-0.17878735 0.21859844 0.26930624 0.0043604663 0.10677275 0.08793321 0.016063081 0.17540717
0.010789575 0.07515389 0.10796834 0.14749871 -0.1771139 0.060334805 0.14831895 0.14992961
0.19622129 0.22294165 0.23451303 0.16261832 -0.2749036 0.28414518 0.15803465 0.077197835
-0.07671354 0.12645951 0.17784014 0.204149 0.14033099 0.16675313 0.014908351 -0.10204011
0.17388465 0.044283934 0.17975545 -0.16215698 0.21684961 0.07232267 0.051583037 0.028148802
-0.0073215114 0.30163077 -0.025414765 0.23590738 0.15696973 -0.085949205 0.20775357 0.07285072
0.16430293 0.0988356 0.037427068 0.21206965 -0.26004216 0.17305103 -0.20043942 0.17404841
0.052656498 0.18894646 0.0797318 0.2136537 0.18326569 0.15198804 0.11222033 -0.05606898
0.12661631 0.14094464 -0.20281622 -0.025677295 -0.045163214 0.21098565 0.10337689 0.0268881
0.19695032 -0.3112176 0.20321412 0.17584985 0.2668392 -0.07788215 0.015979854 0.023704516
0.2024944 0.31528005 0.11421252 0.099302806 0.06479991 0.16398689 0.15256944 0.10643661
0.021037124 0.20868671 0.20020732 0.21456921 0.08265651 0.06398953 0.129732 0.14462964
-0.42886972 0.015958417 0.11147696 0.1730297 0.12780496 0.09450665 -0.005757487 0.105348125
0.14967729 -0.14566824 -0.019622419 0.19184045 0.2860288 0.1446654 -0.11247564 0.0030261322
-0.004686478 0.025532983 0.19030039 0.18486461 0.17085984 0.037667073 0.07840336 0.08996262
0.23016953 0.22716863 0.1931085 0.049093846 -0.058051832 0.21273476 0.18293561 0.26108223
0.16007552 0.16276102 0.20243543 0.040297005 0.034349136 -0.3351074 0.006141391 0.1341897
0.05931327 0.21652584 0.18972003 0.1331316 0.15638618 0.23206116 0.052741088 0.09826653
-0.17426264 0.14115496 -0.10678023 0.205104 0.028038697 0.12907058 0.15560342 0.20991431
0.19958295 0.024501296 0.09729202 -0.019362094 -0.21149571 0.1177187 0.15948308 0.09873855
0.23329918 0.2690431 -0.24321023 0.2041763 0.12437413 0.12704319 0.07025892 0.0674791
-0.009323329 0.07018617 -0.22249667 0.26740915 0.086400844 0.11394811 0.14042264 -0.0611821
