src/hardware_fpga/mlp_28oct_v2/mlp_hls_layers.onnx (onnx, 305063 bytes, 7 tensors)

MatMul_0_param0 f4 [60, 128]
000000 00 00 40 40 00 00 40 c0 00 00 80 c0 00 00 40 40
       3.0 -3.0 -4.0 3.0
000010 00 00 00 c0 00 00 80 40 00 00 80 40 00 00 80 bf
       -2.0 4.0 4.0 -1.0
000020 00 00 00 c0 00 00 80 bf 00 00 00 40 00 00 40 c0
       -2.0 -1.0 2.0 -3.0
000030 00 00 40 40 00 00 80 bf 00 00 00 c0 00 00 00 00
       3.0 -1.0 -2.0 0.0
000040 00 00 80 c0 00 00 a0 c0 00 00 80 bf 00 00 00 40
       -4.0 -5.0 -1.0 2.0
000050 00 00 80 bf 00 00 a0 40 00 00 40 40 00 00 40 c0
       -1.0 5.0 3.0 -3.0
000060 00 00 40 40 00 00 80 3f 00 00 80 3f 00 00 00 40
       3.0 1.0 1.0 2.0
000070 00 00 00 00 00 00 80 3f 00 00 00 80 00 00 80 bf
       0.0 1.0 -0.0 -1.0
000080 00 00 00 40 00 00 40 c0 00 00 c0 c0 00 00 40 40
       2.0 -3.0 -6.0 3.0
000090 00 00 00 00 00 00 00 40 00 00 80 3f 00 00 e0 40
       0.0 2.0 1.0 7.0
0000a0 00 00 e0 c0 00 00 40 40 00 00 40 c0 00 00 00 c0
       -7.0 3.0 -3.0 -2.0
0000b0 00 00 00 40 00 00 40 40 00 00 00 80 00 00 c0 40
       2.0 3.0 -0.0 6.0
0000c0 00 00 40 c0 00 00 00 40 00 00 80 bf 00 00 80 40
       -3.0 2.0 -1.0 4.0
0000d0 00 00 00 c0 00 00 80 bf 00 00 00 00 00 00 00 c0
       -2.0 -1.0 0.0 -2.0
0000e0 00 00 00 40 00 00 00 00 00 00 80 bf 00 00 80 bf
       2.0 0.0 -1.0 -1.0
0000f0 00 00 80 3f 00 00 80 3f 00 00 80 bf 00 00 40 40
       1.0 1.0 -1.0 3.0
000100 00 00 80 c0 00 00 80 bf 00 00 a0 40 00 00 80 c0
       -4.0 -1.0 5.0 -4.0
000110 00 00 e0 40 00 00 80 40 00 00 00 80 00 00 80 bf
       7.0 4.0 -0.0 -1.0
000120 00 00 80 c0 00 00 00 c0 00 00 80 bf 00 00 80 3f
       -4.0 -2.0 -1.0 1.0
000130 00 00 80 bf 00 00 00 80 00 00 80 3f 00 00 00 40
       -1.0 -0.0 1.0 2.0
000140 00 00 00 c0 00 00 80 3f 00 00 40 c0 00 00 00 40
       -2.0 1.0 -3.0 2.0
000150 00 00 80 bf 00 00 80 bf 00 00 80 3f 00 00 00 00
       -1.0 -1.0 1.0 0.0
000160 00 00 40 c0 00 00 80 bf 00 00 00 80 00 00 00 c0
       -3.0 -1.0 -0.0 -2.0
000170 00 00 00 00 00 00 80 bf 00 00 80 c0 00 00 80 3f
       0.0 -1.0 -4.0 1.0
000180 00 00 80 bf 00 00 a0 40 00 00 00 40 00 00 e0 40
       -1.0 5.0 2.0 7.0
000190 00 00 00 c0 00 00 80 c0 00 00 00 80 00 00 00 40
       -2.0 -4.0 -0.0 2.0
0001a0 00 00 c0 40 00 00 00 00 00 00 40 40 00 00 00 c0
       6.0 0.0 3.0 -2.0
0001b0 00 00 00 80 00 00 40 40 00 00 40 c0 00 00 40 c0
       -0.0 3.0 -3.0 -3.0
0001c0 00 00 c0 40 00 00 a0 40 00 00 e0 c0 00 00 00 00
       6.0 5.0 -7.0 0.0
0001d0 00 00 00 c0 00 00 00 40 00 00 80 3f 00 00 a0 40
       -2.0 2.0 1.0 5.0
0001e0 00 00 80 3f 00 00 80 bf 00 00 00 80 00 00 00 40
       1.0 -1.0 -0.0 2.0
0001f0 00 00 40 40 00 00 80 3f 00 00 80 3f 00 00 c0 40
       3.0 1.0 1.0 6.0
000200 00 00 80 bf 00 00 80 c0 00 00 00 40 00 00 80 3f
       -1.0 -4.0 2.0 1.0
000210 00 00 00 80 00 00 80 c0 00 00 e0 c0 00 00 00 40
       -0.0 -4.0 -7.0 2.0
000220 00 00 80 c0 00 00 80 40 00 00 00 c0 00 00 80 3f
       -4.0 4.0 -2.0 1.0
000230 00 00 40 40 00 00 80 3f 00 00 00 40 00 00 80 3f
       3.0 1.0 2.0 1.0
000240 00 00 80 bf 00 00 a0 c0 00 00 00 40 00 00 00 40
       -1.0 -5.0 2.0 2.0
000250 00 00 00 80 00 00 80 3f 00 00 40 40 00 00 80 3f
       -0.0 1.0 3.0 1.0
000260 00 00 80 3f 00 00 80 c0 00 00 40 40 00 00 a0 c0
       1.0 -4.0 3.0 -5.0
000270 00 00 80 bf 00 00 80 bf 00 00 00 c0 00 00 00 40
       -1.0 -1.0 -2.0 2.0
000280 00 00 80 3f 00 00 00 c0 00 00 00 c0 00 00 80 bf
       1.0 -2.0 -2.0 -1.0
000290 00 00 80 c0 00 00 80 3f 00 00 40 c0 00 00 80 bf
       -4.0 1.0 -3.0 -1.0
0002a0 00 00 40 40 00 00 80 bf 00 00 a0 c0 00 00 00 80
       3.0 -1.0 -5.0 -0.0
0002b0 00 00 80 bf 00 00 80 40 00 00 00 c0 00 00 00 40
       -1.0 4.0 -2.0 2.0
0002c0 00 00 40 40 00 00 a0 40 00 00 80 3f 00 00 40 c0
       3.0 5.0 1.0 -3.0
0002d0 00 00 80 40 00 00 00 00 00 00 00 80 00 00 00 80
       4.0 0.0 -0.0 -0.0
0002e0 00 00 00 40 00 00 00 00 00 00 40 40 00 00 80 bf
       2.0 0.0 3.0 -1.0
0002f0 00 00 40 40 00 00 40 40 00 00 80 bf 00 00 00 00
       3.0 3.0 -1.0 0.0
000300 00 00 80 40 00 00 80 3f 00 00 80 c0 00 00 80 bf
       4.0 1.0 -4.0 -1.0
000310 00 00 80 3f 00 00 80 c0 00 00 80 bf 00 00 80 bf
       1.0 -4.0 -1.0 -1.0
000320 00 00 80 3f 00 00 40 40 00 00 00 00 00 00 80 3f
       1.0 3.0 0.0 1.0
000330 00 00 00 c0 00 00 40 c0 00 00 00 00 00 00 80 3f
       -2.0 -3.0 0.0 1.0
000340 00 00 00 00 00 00 00 40 00 00 80 3f 00 00 80 3f
       0.0 2.0 1.0 1.0
000350 00 00 80 3f 00 00 80 bf 00 00 00 40 00 00 00 80
       1.0 -1.0 2.0 -0.0
000360 00 00 00 40 00 00 00 40 00 00 80 40 00 00 00 c0
       2.0 2.0 4.0 -2.0
000370 00 00 80 3f 00 00 40 40 00 00 00 c0 00 00 80 bf
       1.0 3.0 -2.0 -1.0
000380 00 00 00 80 00 00 40 40 00 00 80 3f 00 00 00 40
       -0.0 3.0 1.0 2.0
000390 00 00 00 40 00 00 80 3f 00 00 a0 40 00 00 40 c0
       2.0 1.0 5.0 -3.0
0003a0 00 00 80 3f 00 00 40 40 00 00 80 bf 00 00 80 3f
       1.0 3.0 -1.0 1.0
0003b0 00 00 00 40 00 00 40 40 00 00 00 40 00 00 00 c0
       2.0 3.0 2.0 -2.0
0003c0 00 00 00 80 00 00 40 c0 00 00 a0 40 00 00 80 bf
       -0.0 -3.0 5.0 -1.0
0003d0 00 00 00 40 00 00 40 c0 00 00 00 40 00 00 00 c0
       2.0 -3.0 2.0 -2.0
0003e0 00 00 80 3f 00 00 80 bf 00 00 00 c0 00 00 80 bf
       1.0 -1.0 -2.0 -1.0
0003f0 00 00 00 40 00 00 40 40 00 00 80 40 00 00 80 3f
       2.0 3.0 4.0 1.0

MatMul_1_param0 f4 [128, 64]
000000 00 00 40 c0 00 00 40 40 00 00 40 40 00 00 40 40
       -3.0 3.0 3.0 3.0
000010 00 00 a0 40 00 00 40 c0 00 00 a0 40 00 00 00 80
       5.0 -3.0 5.0 -0.0
000020 00 00 00 40 00 00 00 80 00 00 00 80 00 00 40 c0
       2.0 -0.0 -0.0 -3.0
000030 00 00 00 40 00 00 80 40 00 00 00 80 00 00 00 40
       2.0 4.0 -0.0 2.0
000040 00 00 00 80 00 00 00 c0 00 00 80 3f 00 00 40 40
       -0.0 -2.0 1.0 3.0
000050 00 00 40 40 00 00 40 40 00 00 00 40 00 00 a0 40
       3.0 3.0 2.0 5.0
000060 00 00 00 40 00 00 80 40 00 00 a0 40 00 00 80 3f
       2.0 4.0 5.0 1.0
000070 00 00 00 c0 00 00 80 3f 00 00 80 c0 00 00 80 3f
       -2.0 1.0 -4.0 1.0
000080 00 00 40 40 00 00 a0 40 00 00 00 c0 00 00 00 80
       3.0 5.0 -2.0 -0.0
000090 00 00 00 40 00 00 80 bf 00 00 00 00 00 00 80 bf
       2.0 -1.0 0.0 -1.0
0000a0 00 00 00 00 00 00 00 40 00 00 80 bf 00 00 80 bf
       0.0 2.0 -1.0 -1.0
0000b0 00 00 00 40 00 00 00 40 00 00 00 40 00 00 80 3f
       2.0 2.0 2.0 1.0
0000c0 00 00 40 c0 00 00 00 80 00 00 00 80 00 00 00 40
       -3.0 -0.0 -0.0 2.0
0000d0 00 00 80 3f 00 00 80 3f 00 00 80 bf 00 00 80 3f
       1.0 1.0 -1.0 1.0
0000e0 00 00 00 40 00 00 00 40 00 00 80 3f 00 00 80 3f
       2.0 2.0 1.0 1.0
0000f0 00 00 40 c0 00 00 80 3f 00 00 a0 40 00 00 40 c0
       -3.0 1.0 5.0 -3.0
000100 00 00 00 80 00 00 80 3f 00 00 a0 40 00 00 00 40
       -0.0 1.0 5.0 2.0
000110 00 00 80 3f 00 00 c0 c0 00 00 40 40 00 00 c0 c0
       1.0 -6.0 3.0 -6.0
000120 00 00 40 40 00 00 00 c0 00 00 80 3f 00 00 00 40
       3.0 -2.0 1.0 2.0
000130 00 00 00 00 00 00 00 40 00 00 00 c0 00 00 80 bf
       0.0 2.0 -2.0 -1.0
000140 00 00 80 bf 00 00 00 00 00 00 40 c0 00 00 80 3f
       -1.0 0.0 -3.0 1.0
000150 00 00 00 00 00 00 80 40 00 00 80 3f 00 00 00 40
       0.0 4.0 1.0 2.0
000160 00 00 00 40 00 00 c0 40 00 00 80 3f 00 00 40 c0
       2.0 6.0 1.0 -3.0
000170 00 00 00 40 00 00 00 40 00 00 80 3f 00 00 a0 c0
       2.0 2.0 1.0 -5.0
000180 00 00 40 c0 00 00 40 40 00 00 80 3f 00 00 40 c0
       -3.0 3.0 1.0 -3.0
000190 00 00 a0 c0 00 00 40 c0 00 00 00 00 00 00 80 bf
       -5.0 -3.0 0.0 -1.0
0001a0 00 00 80 c0 00 00 00 c0 00 00 80 3f 00 00 40 40
       -4.0 -2.0 1.0 3.0
0001b0 00 00 80 40 00 00 40 40 00 00 40 40 00 00 00 40
       4.0 3.0 3.0 2.0
0001c0 00 00 40 c0 00 00 80 bf 00 00 80 3f 00 00 00 80
       -3.0 -1.0 1.0 -0.0
0001d0 00 00 00 00 00 00 40 c0 00 00 40 c0 00 00 00 c0
       0.0 -3.0 -3.0 -2.0
0001e0 00 00 80 3f 00 00 00 00 00 00 a0 c0 00 00 80 3f
       1.0 0.0 -5.0 1.0
0001f0 00 00 a0 40 00 00 80 3f 00 00 80 40 00 00 80 3f
       5.0 1.0 4.0 1.0
000200 00 00 00 40 00 00 80 3f 00 00 40 40 00 00 00 40
       2.0 1.0 3.0 2.0
000210 00 00 00 80 00 00 80 bf 00 00 80 3f 00 00 80 c0
       -0.0 -1.0 1.0 -4.0
000220 00 00 40 40 00 00 00 c0 00 00 c0 c0 00 00 a0 c0
       3.0 -2.0 -6.0 -5.0
000230 00 00 40 40 00 00 40 c0 00 00 c0 c0 00 00 80 3f
       3.0 -3.0 -6.0 1.0
000240 00 00 80 c0 00 00 00 c0 00 00 a0 c0 00 00 80 c0
       -4.0 -2.0 -5.0 -4.0
000250 00 00 40 40 00 00 80 3f 00 00 80 3f 00 00 00 c0
       3.0 1.0 1.0 -2.0
000260 00 00 80 40 00 00 80 40 00 00 00 40 00 00 80 bf
       4.0 4.0 2.0 -1.0
000270 00 00 80 c0 00 00 80 bf 00 00 00 40 00 00 80 bf
       -4.0 -1.0 2.0 -1.0
000280 00 00 80 3f 00 00 80 c0 00 00 00 40 00 00 80 c0
       1.0 -4.0 2.0 -4.0
000290 00 00 80 3f 00 00 c0 c0 00 00 00 00 00 00 00 40
       1.0 -6.0 0.0 2.0
0002a0 00 00 80 c0 00 00 00 40 00 00 00 40 00 00 00 00
       -4.0 2.0 2.0 0.0
0002b0 00 00 80 3f 00 00 40 40 00 00 00 40 00 00 00 40
       1.0 3.0 2.0 2.0
0002c0 00 00 40 40 00 00 40 c0 00 00 00 40 00 00 00 40
       3.0 -3.0 2.0 2.0
0002d0 00 00 80 bf 00 00 80 3f 00 00 80 c0 00 00 40 40
       -1.0 1.0 -4.0 3.0
0002e0 00 00 80 3f 00 00 00 00 00 00 80 bf 00 00 80 40
       1.0 0.0 -1.0 4.0
0002f0 00 00 00 00 00 00 80 40 00 00 a0 40 00 00 00 40
       0.0 4.0 5.0 2.0
000300 00 00 00 c0 00 00 00 40 00 00 c0 40 00 00 80 3f
       -2.0 2.0 6.0 1.0
000310 00 00 80 bf 00 00 80 3f 00 00 a0 40 00 00 40 40
       -1.0 1.0 5.0 3.0
000320 00 00 80 bf 00 00 80 3f 00 00 80 bf 00 00 00 00
       -1.0 1.0 -1.0 0.0
000330 00 00 80 3f 00 00 40 40 00 00 00 80 00 00 80 bf
       1.0 3.0 -0.0 -1.0
000340 00 00 80 3f 00 00 00 40 00 00 80 3f 00 00 40 40
       1.0 2.0 1.0 3.0
000350 00 00 80 3f 00 00 c0 40 00 00 00 c0 00 00 00 40
       1.0 6.0 -2.0 2.0
000360 00 00 80 3f 00 00 40 40 00 00 c0 40 00 00 00 40
       1.0 3.0 6.0 2.0
000370 00 00 40 40 00 00 80 3f 00 00 80 c0 00 00 80 bf
       3.0 1.0 -4.0 -1.0
000380 00 00 00 00 00 00 00 40 00 00 00 c0 00 00 40 40
       0.0 2.0 -2.0 3.0
000390 00 00 a0 c0 00 00 80 bf 00 00 80 bf 00 00 80 bf
       -5.0 -1.0 -1.0 -1.0
0003a0 00 00 80 bf 00 00 80 c0 00 00 80 40 00 00 00 40
       -1.0 -4.0 4.0 2.0
0003b0 00 00 40 40 00 00 00 c0 00 00 80 40 00 00 a0 c0
       3.0 -2.0 4.0 -5.0
0003c0 00 00 00 c0 00 00 40 40 00 00 a0 40 00 00 e0 40
       -2.0 3.0 5.0 7.0
0003d0 00 00 80 bf 00 00 00 00 00 00 40 40 00 00 80 bf
       -1.0 0.0 3.0 -1.0
0003e0 00 00 00 40 00 00 00 00 00 00 00 c0 00 00 80 c0
       2.0 0.0 -2.0 -4.0
0003f0 00 00 00 00 00 00 80 c0 00 00 a0 40 00 00 00 c0
       0.0 -4.0 5.0 -2.0

MatMul_2_param0 f4 [64, 32]
000000 00 00 00 00 00 00 00 c0 00 00 80 40 00 00 00 80
       0.0 -2.0 4.0 -0.0
000010 00 00 80 bf 00 00 00 40 00 00 00 00 00 00 a0 40
       -1.0 2.0 0.0 5.0
000020 00 00 00 40 00 00 80 40 00 00 00 c0 00 00 00 40
       2.0 4.0 -2.0 2.0
000030 00 00 80 bf 00 00 00 80 00 00 00 00 00 00 00 00
       -1.0 -0.0 0.0 0.0
000040 00 00 a0 40 00 00 80 bf 00 00 80 40 00 00 00 00
       5.0 -1.0 4.0 0.0
000050 00 00 80 3f 00 00 a0 40 00 00 00 80 00 00 00 80
       1.0 5.0 -0.0 -0.0
000060 00 00 80 3f 00 00 80 40 00 00 80 3f 00 00 00 00
       1.0 4.0 1.0 0.0
000070 00 00 40 c0 00 00 00 c0 00 00 80 bf 00 00 80 bf
       -3.0 -2.0 -1.0 -1.0
000080 00 00 40 40 00 00 a0 40 00 00 80 bf 00 00 00 40
       3.0 5.0 -1.0 2.0
000090 00 00 80 3f 00 00 80 3f 00 00 00 40 00 00 80 c0
       1.0 1.0 2.0 -4.0
0000a0 00 00 40 c0 00 00 00 c0 00 00 80 40 00 00 00 40
       -3.0 -2.0 4.0 2.0
0000b0 00 00 40 40 00 00 00 40 00 00 40 40 00 00 40 40
       3.0 2.0 3.0 3.0
0000c0 00 00 40 c0 00 00 00 40 00 00 00 80 00 00 00 40
       -3.0 2.0 -0.0 2.0
0000d0 00 00 40 40 00 00 80 bf 00 00 00 40 00 00 80 40
       3.0 -1.0 2.0 4.0
0000e0 00 00 00 80 00 00 80 3f 00 00 80 3f 00 00 00 40
       -0.0 1.0 1.0 2.0
0000f0 00 00 40 40 00 00 80 40 00 00 00 40 00 00 00 40
       3.0 4.0 2.0 2.0
000100 00 00 00 40 00 00 80 40 00 00 80 bf 00 00 00 00
       2.0 4.0 -1.0 0.0
000110 00 00 40 40 00 00 40 c0 00 00 00 40 00 00 00 c0
       3.0 -3.0 2.0 -2.0
000120 00 00 00 c0 00 00 00 c0 00 00 00 40 00 00 80 3f
       -2.0 -2.0 2.0 1.0
000130 00 00 80 40 00 00 00 40 00 00 80 3f 00 00 40 40
       4.0 2.0 1.0 3.0
000140 00 00 40 c0 00 00 80 3f 00 00 40 c0 00 00 80 3f
       -3.0 1.0 -3.0 1.0
000150 00 00 00 40 00 00 80 c0 00 00 80 3f 00 00 80 3f
       2.0 -4.0 1.0 1.0
000160 00 00 00 00 00 00 00 c0 00 00 80 3f 00 00 00 40
       0.0 -2.0 1.0 2.0
000170 00 00 00 40 00 00 00 40 00 00 40 40 00 00 80 3f
       2.0 2.0 3.0 1.0
000180 00 00 00 c0 00 00 40 40 00 00 80 bf 00 00 80 bf
       -2.0 3.0 -1.0 -1.0
000190 00 00 80 40 00 00 a0 40 00 00 80 bf 00 00 00 40
       4.0 5.0 -1.0 2.0
0001a0 00 00 80 3f 00 00 80 40 00 00 40 40 00 00 80 bf
       1.0 4.0 3.0 -1.0
0001b0 00 00 a0 40 00 00 80 bf 00 00 00 80 00 00 80 40
       5.0 -1.0 -0.0 4.0
0001c0 00 00 40 40 00 00 00 80 00 00 40 40 00 00 40 40
       3.0 -0.0 3.0 3.0
0001d0 00 00 80 bf 00 00 40 40 00 00 00 c0 00 00 00 80
       -1.0 3.0 -2.0 -0.0
0001e0 00 00 00 40 00 00 40 40 00 00 00 c0 00 00 00 c0
       2.0 3.0 -2.0 -2.0
0001f0 00 00 80 40 00 00 40 40 00 00 80 40 00 00 c0 40
       4.0 3.0 4.0 6.0
000200 00 00 00 80 00 00 00 c0 00 00 00 40 00 00 80 bf
       -0.0 -2.0 2.0 -1.0
000210 00 00 40 c0 00 00 40 40 00 00 00 80 00 00 80 40
       -3.0 3.0 -0.0 4.0
000220 00 00 80 3f 00 00 a0 40 00 00 80 bf 00 00 00 80
       1.0 5.0 -1.0 -0.0
000230 00 00 00 c0 00 00 00 00 00 00 00 00 00 00 80 bf
       -2.0 0.0 0.0 -1.0
000240 00 00 80 40 00 00 80 bf 00 00 c0 40 00 00 80 3f
       4.0 -1.0 6.0 1.0
000250 00 00 00 80 00 00 c0 40 00 00 80 bf 00 00 80 bf
       -0.0 6.0 -1.0 -1.0
000260 00 00 00 40 00 00 40 40 00 00 80 3f 00 00 00 80
       2.0 3.0 1.0 -0.0
000270 00 00 40 c0 00 00 00 c0 00 00 80 bf 00 00 80 bf
       -3.0 -2.0 -1.0 -1.0
000280 00 00 80 bf 00 00 00 40 00 00 80 3f 00 00 80 bf
       -1.0 2.0 1.0 -1.0
000290 00 00 80 3f 00 00 00 c0 00 00 40 c0 00 00 a0 c0
       1.0 -2.0 -3.0 -5.0
0002a0 00 00 40 c0 00 00 c0 c0 00 00 00 80 00 00 80 bf
       -3.0 -6.0 -0.0 -1.0
0002b0 00 00 80 bf 00 00 00 c0 00 00 00 c0 00 00 80 bf
       -1.0 -2.0 -2.0 -1.0
0002c0 00 00 c0 c0 00 00 00 00 00 00 a0 c0 00 00 80 bf
       -6.0 0.0 -5.0 -1.0
0002d0 00 00 80 bf 00 00 a0 c0 00 00 00 c0 00 00 00 c0
       -1.0 -5.0 -2.0 -2.0
0002e0 00 00 80 bf 00 00 a0 c0 00 00 80 bf 00 00 80 bf
       -1.0 -5.0 -1.0 -1.0
0002f0 00 00 00 80 00 00 80 3f 00 00 80 3f 00 00 00 c0
       -0.0 1.0 1.0 -2.0
000300 00 00 00 00 00 00 80 40 00 00 40 c0 00 00 80 bf
       0.0 4.0 -3.0 -1.0
000310 00 00 c0 40 00 00 00 00 00 00 00 c0 00 00 00 c0
       6.0 0.0 -2.0 -2.0
000320 00 00 00 80 00 00 00 80 00 00 e0 40 00 00 00 c0
       -0.0 -0.0 7.0 -2.0
000330 00 00 c0 40 00 00 80 bf 00 00 80 bf 00 00 a0 40
       6.0 -1.0 -1.0 5.0
000340 00 00 00 80 00 00 00 80 00 00 00 c0 00 00 80 40
       -0.0 -0.0 -2.0 4.0
000350 00 00 80 bf 00 00 00 c0 00 00 00 00 00 00 80 3f
       -1.0 -2.0 0.0 1.0
000360 00 00 00 40 00 00 80 c0 00 00 00 c0 00 00 80 bf
       2.0 -4.0 -2.0 -1.0
000370 00 00 a0 40 00 00 40 40 00 00 80 40 00 00 80 40
       5.0 3.0 4.0 4.0
000380 00 00 00 00 00 00 80 bf 00 00 00 80 00 00 40 40
       0.0 -1.0 -0.0 3.0
000390 00 00 80 bf 00 00 a0 c0 00 00 80 3f 00 00 80 bf
       -1.0 -5.0 1.0 -1.0
0003a0 00 00 40 c0 00 00 00 c0 00 00 40 c0 00 00 80 3f
       -3.0 -2.0 -3.0 1.0
0003b0 00 00 80 3f 00 00 80 40 00 00 80 40 00 00 80 bf
       1.0 4.0 4.0 -1.0
0003c0 00 00 40 c0 00 00 a0 40 00 00 80 bf 00 00 a0 c0
       -3.0 5.0 -1.0 -5.0
0003d0 00 00 40 40 00 00 00 c0 00 00 80 3f 00 00 40 40
       3.0 -2.0 1.0 3.0
0003e0 00 00 a0 c0 00 00 80 3f 00 00 00 40 00 00 40 40
       -5.0 1.0 2.0 3.0
0003f0 00 00 00 40 00 00 80 3f 00 00 80 bf 00 00 80 bf
       2.0 1.0 -1.0 -1.0

MatMul_3_param0 f4 [32, 3]
000000 00 00 00 40 00 00 00 40 00 00 e0 c0 00 00 80 3f
       2.0 2.0 -7.0 1.0
000010 00 00 00 40 00 00 e0 c0 00 00 00 40 00 00 a0 c0
       2.0 -7.0 2.0 -5.0
000020 00 00 00 40 00 00 80 3f 00 00 80 3f 00 00 c0 c0
       2.0 1.0 1.0 -6.0
000030 00 00 40 c0 00 00 80 3f 00 00 80 bf 00 00 e0 c0
       -3.0 1.0 -1.0 -7.0
000040 00 00 00 40 00 00 80 3f 00 00 40 40 00 00 a0 c0
       2.0 1.0 3.0 -5.0
000050 00 00 00 c0 00 00 00 00 00 00 c0 c0 00 00 40 40
       -2.0 0.0 -6.0 3.0
000060 00 00 e0 c0 00 00 00 40 00 00 00 40 00 00 80 bf
       -7.0 2.0 2.0 -1.0
000070 00 00 e0 c0 00 00 40 40 00 00 80 c0 00 00 80 40
       -7.0 3.0 -4.0 4.0
000080 00 00 80 c0 00 00 80 40 00 00 e0 c0 00 00 00 80
       -4.0 4.0 -7.0 -0.0
000090 00 00 80 c0 00 00 80 40 00 00 00 c0 00 00 80 40
       -4.0 4.0 -2.0 4.0
0000a0 00 00 80 c0 00 00 a0 c0 00 00 40 40 00 00 00 c0
       -4.0 -5.0 3.0 -2.0
0000b0 00 00 c0 c0 00 00 a0 c0 00 00 80 40 00 00 80 bf
       -6.0 -5.0 4.0 -1.0
0000c0 00 00 00 80 00 00 c0 c0 00 00 40 40 00 00 80 3f
       -0.0 -6.0 3.0 1.0
0000d0 00 00 00 00 00 00 e0 c0 00 00 80 3f 00 00 c0 c0
       0.0 -7.0 1.0 -6.0
0000e0 00 00 40 40 00 00 e0 c0 00 00 00 40 00 00 80 3f
       3.0 -7.0 2.0 1.0
0000f0 00 00 80 40 00 00 00 c0 00 00 a0 c0 00 00 80 3f
       4.0 -2.0 -5.0 1.0
000100 00 00 e0 c0 00 00 40 40 00 00 80 3f 00 00 80 3f
       -7.0 3.0 1.0 1.0
000110 00 00 e0 c0 00 00 00 40 00 00 00 40 00 00 e0 c0
       -7.0 2.0 2.0 -7.0
000120 00 00 e0 c0 00 00 00 40 00 00 80 3f 00 00 80 3f
       -7.0 2.0 1.0 1.0
000130 00 00 e0 c0 00 00 40 40 00 00 80 40 00 00 c0 c0
       -7.0 3.0 4.0 -6.0
000140 00 00 00 c0 00 00 40 40 00 00 c0 c0 00 00 00 c0
       -2.0 3.0 -6.0 -2.0
000150 00 00 00 80 00 00 00 40 00 00 00 c0 00 00 00 40
       -0.0 2.0 -2.0 2.0
000160 00 00 00 40 00 00 e0 c0 00 00 40 c0 00 00 a0 40
       2.0 -7.0 -3.0 5.0
000170 00 00 80 c0 00 00 e0 c0 00 00 00 40 00 00 00 80
       -4.0 -7.0 2.0 -0.0

MultiThreshold_0_param0 f4 [128, 255]
000000 00 b0 df 45 00 38 e0 45 00 c8 e0 45 00 58 e1 45
       7158.0 7175.0 7193.0 7211.0
000010 00 e0 e1 45 00 70 e2 45 00 00 e3 45 00 90 e3 45
       7228.0 7246.0 7264.0 7282.0
000020 00 18 e4 45 00 a8 e4 45 00 38 e5 45 00 c8 e5 45
       7299.0 7317.0 7335.0 7353.0
000030 00 50 e6 45 00 e0 e6 45 00 70 e7 45 00 00 e8 45
       7370.0 7388.0 7406.0 7424.0
000040 00 88 e8 45 00 18 e9 45 00 a8 e9 45 00 38 ea 45
       7441.0 7459.0 7477.0 7495.0
000050 00 c0 ea 45 00 50 eb 45 00 e0 eb 45 00 70 ec 45
       7512.0 7530.0 7548.0 7566.0
000060 00 f8 ec 45 00 88 ed 45 00 18 ee 45 00 a8 ee 45
       7583.0 7601.0 7619.0 7637.0
000070 00 30 ef 45 00 c0 ef 45 00 50 f0 45 00 e0 f0 45
       7654.0 7672.0 7690.0 7708.0
000080 00 68 f1 45 00 f8 f1 45 00 88 f2 45 00 18 f3 45
       7725.0 7743.0 7761.0 7779.0
000090 00 a0 f3 45 00 30 f4 45 00 c0 f4 45 00 50 f5 45
       7796.0 7814.0 7832.0 7850.0
0000a0 00 d8 f5 45 00 68 f6 45 00 f8 f6 45 00 80 f7 45
       7867.0 7885.0 7903.0 7920.0
0000b0 00 10 f8 45 00 a0 f8 45 00 30 f9 45 00 b8 f9 45
       7938.0 7956.0 7974.0 7991.0
0000c0 00 48 fa 45 00 d8 fa 45 00 68 fb 45 00 f0 fb 45
       8009.0 8027.0 8045.0 8062.0
0000d0 00 80 fc 45 00 10 fd 45 00 a0 fd 45 00 28 fe 45
       8080.0 8098.0 8116.0 8133.0
0000e0 00 b8 fe 45 00 48 ff 45 00 d8 ff 45 00 30 00 46
       8151.0 8169.0 8187.0 8204.0
0000f0 00 78 00 46 00 c0 00 46 00 08 01 46 00 4c 01 46
       8222.0 8240.0 8258.0 8275.0
000100 00 94 01 46 00 dc 01 46 00 24 02 46 00 68 02 46
       8293.0 8311.0 8329.0 8346.0
000110 00 b0 02 46 00 f8 02 46 00 40 03 46 00 84 03 46
       8364.0 8382.0 8400.0 8417.0
000120 00 cc 03 46 00 14 04 46 00 5c 04 46 00 a0 04 46
       8435.0 8453.0 8471.0 8488.0
000130 00 e8 04 46 00 30 05 46 00 78 05 46 00 bc 05 46
       8506.0 8524.0 8542.0 8559.0
000140 00 04 06 46 00 4c 06 46 00 90 06 46 00 d8 06 46
       8577.0 8595.0 8612.0 8630.0
000150 00 20 07 46 00 68 07 46 00 ac 07 46 00 f4 07 46
       8648.0 8666.0 8683.0 8701.0
000160 00 3c 08 46 00 84 08 46 00 c8 08 46 00 10 09 46
       8719.0 8737.0 8754.0 8772.0
000170 00 58 09 46 00 a0 09 46 00 e4 09 46 00 2c 0a 46
       8790.0 8808.0 8825.0 8843.0
000180 00 74 0a 46 00 bc 0a 46 00 00 0b 46 00 48 0b 46
       8861.0 8879.0 8896.0 8914.0
000190 00 90 0b 46 00 d8 0b 46 00 1c 0c 46 00 64 0c 46
       8932.0 8950.0 8967.0 8985.0
0001a0 00 ac 0c 46 00 f4 0c 46 00 38 0d 46 00 80 0d 46
       9003.0 9021.0 9038.0 9056.0
0001b0 00 c8 0d 46 00 10 0e 46 00 54 0e 46 00 9c 0e 46
       9074.0 9092.0 9109.0 9127.0
0001c0 00 e4 0e 46 00 2c 0f 46 00 70 0f 46 00 b8 0f 46
       9145.0 9163.0 9180.0 9198.0
0001d0 00 00 10 46 00 44 10 46 00 8c 10 46 00 d4 10 46
       9216.0 9233.0 9251.0 9269.0
0001e0 00 1c 11 46 00 60 11 46 00 a8 11 46 00 f0 11 46
       9287.0 9304.0 9322.0 9340.0
0001f0 00 38 12 46 00 7c 12 46 00 c4 12 46 00 0c 13 46
       9358.0 9375.0 9393.0 9411.0
000200 00 54 13 46 00 98 13 46 00 e0 13 46 00 28 14 46
       9429.0 9446.0 9464.0 9482.0
000210 00 70 14 46 00 b4 14 46 00 fc 14 46 00 44 15 46
       9500.0 9517.0 9535.0 9553.0
000220 00 8c 15 46 00 d0 15 46 00 18 16 46 00 60 16 46
       9571.0 9588.0 9606.0 9624.0
000230 00 a8 16 46 00 ec 16 46 00 34 17 46 00 7c 17 46
       9642.0 9659.0 9677.0 9695.0
000240 00 c4 17 46 00 08 18 46 00 50 18 46 00 98 18 46
       9713.0 9730.0 9748.0 9766.0
000250 00 e0 18 46 00 24 19 46 00 6c 19 46 00 b4 19 46
       9784.0 9801.0 9819.0 9837.0
000260 00 fc 19 46 00 40 1a 46 00 88 1a 46 00 d0 1a 46
       9855.0 9872.0 9890.0 9908.0
000270 00 14 1b 46 00 5c 1b 46 00 a4 1b 46 00 ec 1b 46
       9925.0 9943.0 9961.0 9979.0
000280 00 30 1c 46 00 78 1c 46 00 c0 1c 46 00 08 1d 46
       9996.0 10014.0 10032.0 10050.0
000290 00 4c 1d 46 00 94 1d 46 00 dc 1d 46 00 24 1e 46
       10067.0 10085.0 10103.0 10121.0
0002a0 00 68 1e 46 00 b0 1e 46 00 f8 1e 46 00 40 1f 46
       10138.0 10156.0 10174.0 10192.0
0002b0 00 84 1f 46 00 cc 1f 46 00 14 20 46 00 5c 20 46
       10209.0 10227.0 10245.0 10263.0
0002c0 00 a0 20 46 00 e8 20 46 00 30 21 46 00 78 21 46
       10280.0 10298.0 10316.0 10334.0
0002d0 00 bc 21 46 00 04 22 46 00 4c 22 46 00 94 22 46
       10351.0 10369.0 10387.0 10405.0
0002e0 00 d8 22 46 00 20 23 46 00 68 23 46 00 b0 23 46
       10422.0 10440.0 10458.0 10476.0
0002f0 00 f4 23 46 00 3c 24 46 00 84 24 46 00 cc 24 46
       10493.0 10511.0 10529.0 10547.0
000300 00 10 25 46 00 58 25 46 00 a0 25 46 00 e4 25 46
       10564.0 10582.0 10600.0 10617.0
000310 00 2c 26 46 00 74 26 46 00 bc 26 46 00 00 27 46
       10635.0 10653.0 10671.0 10688.0
000320 00 48 27 46 00 90 27 46 00 d8 27 46 00 1c 28 46
       10706.0 10724.0 10742.0 10759.0
000330 00 64 28 46 00 ac 28 46 00 f4 28 46 00 38 29 46
       10777.0 10795.0 10813.0 10830.0
000340 00 80 29 46 00 c8 29 46 00 10 2a 46 00 54 2a 46
       10848.0 10866.0 10884.0 10901.0
000350 00 9c 2a 46 00 e4 2a 46 00 2c 2b 46 00 70 2b 46
       10919.0 10937.0 10955.0 10972.0
000360 00 b8 2b 46 00 00 2c 46 00 48 2c 46 00 8c 2c 46
       10990.0 11008.0 11026.0 11043.0
000370 00 d4 2c 46 00 1c 2d 46 00 64 2d 46 00 a8 2d 46
       11061.0 11079.0 11097.0 11114.0
000380 00 f0 2d 46 00 38 2e 46 00 80 2e 46 00 c4 2e 46
       11132.0 11150.0 11168.0 11185.0
000390 00 0c 2f 46 00 54 2f 46 00 98 2f 46 00 e0 2f 46
       11203.0 11221.0 11238.0 11256.0
0003a0 00 28 30 46 00 70 30 46 00 b4 30 46 00 fc 30 46
       11274.0 11292.0 11309.0 11327.0
0003b0 00 44 31 46 00 8c 31 46 00 d0 31 46 00 18 32 46
       11345.0 11363.0 11380.0 11398.0
0003c0 00 60 32 46 00 a8 32 46 00 ec 32 46 00 34 33 46
       11416.0 11434.0 11451.0 11469.0
0003d0 00 7c 33 46 00 c4 33 46 00 08 34 46 00 50 34 46
       11487.0 11505.0 11522.0 11540.0
0003e0 00 98 34 46 00 e0 34 46 00 24 35 46 00 6c 35 46
       11558.0 11576.0 11593.0 11611.0
0003f0 00 b4 35 46 00 fc 35 46 00 40 36 46 00 20 8f 44
       11629.0 11647.0 11664.0 1145.0

MultiThreshold_1_param0 f4 [64, 255]
000000 00 20 d0 44 00 60 d3 44 00 80 d6 44 00 c0 d9 44
       1665.0 1691.0 1716.0 1742.0
000010 00 e0 dc 44 00 20 e0 44 00 40 e3 44 00 80 e6 44
       1767.0 1793.0 1818.0 1844.0
000020 00 a0 e9 44 00 e0 ec 44 00 00 f0 44 00 40 f3 44
       1869.0 1895.0 1920.0 1946.0
000030 00 60 f6 44 00 80 f9 44 00 c0 fc 44 00 e0 ff 44
       1971.0 1996.0 2022.0 2047.0
000040 00 90 01 45 00 20 03 45 00 c0 04 45 00 50 06 45
       2073.0 2098.0 2124.0 2149.0
000050 00 f0 07 45 00 80 09 45 00 20 0b 45 00 b0 0c 45
       2175.0 2200.0 2226.0 2251.0
000060 00 50 0e 45 00 e0 0f 45 00 80 11 45 00 10 13 45
       2277.0 2302.0 2328.0 2353.0
000070 00 b0 14 45 00 40 16 45 00 e0 17 45 00 70 19 45
       2379.0 2404.0 2430.0 2455.0
000080 00 10 1b 45 00 a0 1c 45 00 40 1e 45 00 d0 1f 45
       2481.0 2506.0 2532.0 2557.0
000090 00 70 21 45 00 00 23 45 00 a0 24 45 00 30 26 45
       2583.0 2608.0 2634.0 2659.0
0000a0 00 d0 27 45 00 60 29 45 00 00 2b 45 00 90 2c 45
       2685.0 2710.0 2736.0 2761.0
0000b0 00 30 2e 45 00 c0 2f 45 00 60 31 45 00 f0 32 45
       2787.0 2812.0 2838.0 2863.0
0000c0 00 90 34 45 00 20 36 45 00 b0 37 45 00 50 39 45
       2889.0 2914.0 2939.0 2965.0
0000d0 00 e0 3a 45 00 80 3c 45 00 10 3e 45 00 b0 3f 45
       2990.0 3016.0 3041.0 3067.0
0000e0 00 40 41 45 00 e0 42 45 00 70 44 45 00 10 46 45
       3092.0 3118.0 3143.0 3169.0
0000f0 00 a0 47 45 00 40 49 45 00 d0 4a 45 00 70 4c 45
       3194.0 3220.0 3245.0 3271.0
000100 00 00 4e 45 00 a0 4f 45 00 30 51 45 00 d0 52 45
       3296.0 3322.0 3347.0 3373.0
000110 00 60 54 45 00 00 56 45 00 90 57 45 00 30 59 45
       3398.0 3424.0 3449.0 3475.0
000120 00 c0 5a 45 00 60 5c 45 00 f0 5d 45 00 90 5f 45
       3500.0 3526.0 3551.0 3577.0
000130 00 20 61 45 00 c0 62 45 00 50 64 45 00 f0 65 45
       3602.0 3628.0 3653.0 3679.0
000140 00 80 67 45 00 20 69 45 00 b0 6a 45 00 50 6c 45
       3704.0 3730.0 3755.0 3781.0
000150 00 e0 6d 45 00 70 6f 45 00 10 71 45 00 a0 72 45
       3806.0 3831.0 3857.0 3882.0
000160 00 40 74 45 00 d0 75 45 00 70 77 45 00 00 79 45
       3908.0 3933.0 3959.0 3984.0
000170 00 a0 7a 45 00 30 7c 45 00 d0 7d 45 00 60 7f 45
       4010.0 4035.0 4061.0 4086.0
000180 00 80 80 45 00 48 81 45 00 18 82 45 00 e0 82 45
       4112.0 4137.0 4163.0 4188.0
000190 00 b0 83 45 00 78 84 45 00 48 85 45 00 10 86 45
       4214.0 4239.0 4265.0 4290.0
0001a0 00 e0 86 45 00 a8 87 45 00 78 88 45 00 40 89 45
       4316.0 4341.0 4367.0 4392.0
0001b0 00 10 8a 45 00 d8 8a 45 00 a8 8b 45 00 70 8c 45
       4418.0 4443.0 4469.0 4494.0
0001c0 00 40 8d 45 00 08 8e 45 00 d8 8e 45 00 a0 8f 45
       4520.0 4545.0 4571.0 4596.0
0001d0 00 70 90 45 00 38 91 45 00 08 92 45 00 d0 92 45
       4622.0 4647.0 4673.0 4698.0
0001e0 00 98 93 45 00 68 94 45 00 30 95 45 00 00 96 45
       4723.0 4749.0 4774.0 4800.0
0001f0 00 c8 96 45 00 98 97 45 00 60 98 45 00 30 99 45
       4825.0 4851.0 4876.0 4902.0
000200 00 f8 99 45 00 c8 9a 45 00 90 9b 45 00 60 9c 45
       4927.0 4953.0 4978.0 5004.0
000210 00 28 9d 45 00 f8 9d 45 00 c0 9e 45 00 90 9f 45
       5029.0 5055.0 5080.0 5106.0
000220 00 58 a0 45 00 28 a1 45 00 f0 a1 45 00 c0 a2 45
       5131.0 5157.0 5182.0 5208.0
000230 00 88 a3 45 00 58 a4 45 00 20 a5 45 00 f0 a5 45
       5233.0 5259.0 5284.0 5310.0
000240 00 b8 a6 45 00 88 a7 45 00 50 a8 45 00 20 a9 45
       5335.0 5361.0 5386.0 5412.0
000250 00 e8 a9 45 00 b8 aa 45 00 80 ab 45 00 50 ac 45
       5437.0 5463.0 5488.0 5514.0
000260 00 18 ad 45 00 e8 ad 45 00 b0 ae 45 00 80 af 45
       5539.0 5565.0 5590.0 5616.0
000270 00 48 b0 45 00 10 b1 45 00 e0 b1 45 00 a8 b2 45
       5641.0 5666.0 5692.0 5717.0
000280 00 78 b3 45 00 40 b4 45 00 10 b5 45 00 d8 b5 45
       5743.0 5768.0 5794.0 5819.0
000290 00 a8 b6 45 00 70 b7 45 00 40 b8 45 00 08 b9 45
       5845.0 5870.0 5896.0 5921.0
0002a0 00 d8 b9 45 00 a0 ba 45 00 70 bb 45 00 38 bc 45
       5947.0 5972.0 5998.0 6023.0
0002b0 00 08 bd 45 00 d0 bd 45 00 a0 be 45 00 68 bf 45
       6049.0 6074.0 6100.0 6125.0
0002c0 00 38 c0 45 00 00 c1 45 00 d0 c1 45 00 98 c2 45
       6151.0 6176.0 6202.0 6227.0
0002d0 00 68 c3 45 00 30 c4 45 00 00 c5 45 00 c8 c5 45
       6253.0 6278.0 6304.0 6329.0
0002e0 00 98 c6 45 00 60 c7 45 00 30 c8 45 00 f8 c8 45
       6355.0 6380.0 6406.0 6431.0
0002f0 00 c8 c9 45 00 90 ca 45 00 60 cb 45 00 28 cc 45
       6457.0 6482.0 6508.0 6533.0
000300 00 f0 cc 45 00 c0 cd 45 00 88 ce 45 00 58 cf 45
       6558.0 6584.0 6609.0 6635.0
000310 00 20 d0 45 00 f0 d0 45 00 b8 d1 45 00 88 d2 45
       6660.0 6686.0 6711.0 6737.0
000320 00 50 d3 45 00 20 d4 45 00 e8 d4 45 00 b8 d5 45
       6762.0 6788.0 6813.0 6839.0
000330 00 80 d6 45 00 50 d7 45 00 18 d8 45 00 e8 d8 45
       6864.0 6890.0 6915.0 6941.0
000340 00 b0 d9 45 00 80 da 45 00 48 db 45 00 18 dc 45
       6966.0 6992.0 7017.0 7043.0
000350 00 e0 dc 45 00 b0 dd 45 00 78 de 45 00 48 df 45
       7068.0 7094.0 7119.0 7145.0
000360 00 10 e0 45 00 e0 e0 45 00 a8 e1 45 00 78 e2 45
       7170.0 7196.0 7221.0 7247.0
000370 00 40 e3 45 00 10 e4 45 00 d8 e4 45 00 a8 e5 45
       7272.0 7298.0 7323.0 7349.0
000380 00 70 e6 45 00 40 e7 45 00 08 e8 45 00 d8 e8 45
       7374.0 7400.0 7425.0 7451.0
000390 00 a0 e9 45 00 68 ea 45 00 38 eb 45 00 00 ec 45
       7476.0 7501.0 7527.0 7552.0
0003a0 00 d0 ec 45 00 98 ed 45 00 68 ee 45 00 30 ef 45
       7578.0 7603.0 7629.0 7654.0
0003b0 00 00 f0 45 00 c8 f0 45 00 98 f1 45 00 60 f2 45
       7680.0 7705.0 7731.0 7756.0
0003c0 00 30 f3 45 00 f8 f3 45 00 c8 f4 45 00 90 f5 45
       7782.0 7807.0 7833.0 7858.0
0003d0 00 60 f6 45 00 28 f7 45 00 f8 f7 45 00 c0 f8 45
       7884.0 7909.0 7935.0 7960.0
0003e0 00 90 f9 45 00 58 fa 45 00 28 fb 45 00 f0 fb 45
       7986.0 8011.0 8037.0 8062.0
0003f0 00 c0 fc 45 00 88 fd 45 00 58 fe 45 00 80 fc 43
       8088.0 8113.0 8139.0 505.0

MultiThreshold_2_param0 f4 [32, 255]
000000 00 00 74 42 00 00 8e 42 00 00 a0 42 00 00 b4 42
       61.0 71.0 80.0 90.0
000010 00 00 c8 42 00 00 da 42 00 00 ee 42 00 00 00 43
       100.0 109.0 119.0 128.0
000020 00 00 0a 43 00 00 13 43 00 00 1d 43 00 00 26 43
       138.0 147.0 157.0 166.0
000030 00 00 30 43 00 00 3a 43 00 00 43 43 00 00 4d 43
       176.0 186.0 195.0 205.0
000040 00 00 56 43 00 00 60 43 00 00 69 43 00 00 73 43
       214.0 224.0 233.0 243.0
000050 00 00 7c 43 00 00 83 43 00 00 88 43 00 80 8c 43
       252.0 262.0 272.0 281.0
000060 00 80 91 43 00 00 96 43 00 00 9b 43 00 80 9f 43
       291.0 300.0 310.0 319.0
000070 00 80 a4 43 00 00 a9 43 00 00 ae 43 00 00 b3 43
       329.0 338.0 348.0 358.0
000080 00 80 b7 43 00 80 bc 43 00 00 c1 43 00 00 c6 43
       367.0 377.0 386.0 396.0
000090 00 80 ca 43 00 80 cf 43 00 00 d4 43 00 00 d9 43
       405.0 415.0 424.0 434.0
0000a0 00 00 de 43 00 80 e2 43 00 80 e7 43 00 00 ec 43
       444.0 453.0 463.0 472.0
0000b0 00 00 f1 43 00 80 f5 43 00 80 fa 43 00 00 ff 43
       482.0 491.0 501.0 510.0
0000c0 00 00 02 44 00 80 04 44 00 c0 06 44 00 40 09 44
       520.0 530.0 539.0 549.0
0000d0 00 80 0b 44 00 00 0e 44 00 40 10 44 00 c0 12 44
       558.0 568.0 577.0 587.0
0000e0 00 00 15 44 00 80 17 44 00 00 1a 44 00 40 1c 44
       596.0 606.0 616.0 625.0
0000f0 00 c0 1e 44 00 00 21 44 00 80 23 44 00 c0 25 44
       635.0 644.0 654.0 663.0
000100 00 40 28 44 00 80 2a 44 00 00 2d 44 00 80 2f 44
       673.0 682.0 692.0 702.0
000110 00 c0 31 44 00 40 34 44 00 80 36 44 00 00 39 44
       711.0 721.0 730.0 740.0
000120 00 40 3b 44 00 c0 3d 44 00 00 40 44 00 80 42 44
       749.0 759.0 768.0 778.0
000130 00 00 45 44 00 40 47 44 00 c0 49 44 00 00 4c 44
       788.0 797.0 807.0 816.0
000140 00 80 4e 44 00 c0 50 44 00 40 53 44 00 80 55 44
       826.0 835.0 845.0 854.0
000150 00 00 58 44 00 80 5a 44 00 c0 5c 44 00 40 5f 44
       864.0 874.0 883.0 893.0
000160 00 80 61 44 00 00 64 44 00 40 66 44 00 c0 68 44
       902.0 912.0 921.0 931.0
000170 00 00 6b 44 00 80 6d 44 00 00 70 44 00 40 72 44
       940.0 950.0 960.0 969.0
000180 00 c0 74 44 00 00 77 44 00 80 79 44 00 c0 7b 44
       979.0 988.0 998.0 1007.0
000190 00 40 7e 44 00 40 80 44 00 80 81 44 00 c0 82 44
       1017.0 1026.0 1036.0 1046.0
0001a0 00 e0 83 44 00 20 85 44 00 40 86 44 00 80 87 44
       1055.0 1065.0 1074.0 1084.0
0001b0 00 a0 88 44 00 e0 89 44 00 00 8b 44 00 40 8c 44
       1093.0 1103.0 1112.0 1122.0
0001c0 00 80 8d 44 00 a0 8e 44 00 e0 8f 44 00 00 91 44
       1132.0 1141.0 1151.0 1160.0
0001d0 00 40 92 44 00 60 93 44 00 a0 94 44 00 c0 95 44
       1170.0 1179.0 1189.0 1198.0
0001e0 00 00 97 44 00 40 98 44 00 60 99 44 00 a0 9a 44
       1208.0 1218.0 1227.0 1237.0
0001f0 00 c0 9b 44 00 00 9d 44 00 20 9e 44 00 60 9f 44
       1246.0 1256.0 1265.0 1275.0
000200 00 80 a0 44 00 c0 a1 44 00 00 a3 44 00 20 a4 44
       1284.0 1294.0 1304.0 1313.0
000210 00 60 a5 44 00 80 a6 44 00 c0 a7 44 00 e0 a8 44
       1323.0 1332.0 1342.0 1351.0
000220 00 20 aa 44 00 60 ab 44 00 80 ac 44 00 c0 ad 44
       1361.0 1371.0 1380.0 1390.0
000230 00 e0 ae 44 00 20 b0 44 00 40 b1 44 00 80 b2 44
       1399.0 1409.0 1418.0 1428.0
000240 00 a0 b3 44 00 e0 b4 44 00 20 b6 44 00 40 b7 44
       1437.0 1447.0 1457.0 1466.0
000250 00 80 b8 44 00 a0 b9 44 00 e0 ba 44 00 00 bc 44
       1476.0 1485.0 1495.0 1504.0
000260 00 40 bd 44 00 60 be 44 00 a0 bf 44 00 e0 c0 44
       1514.0 1523.0 1533.0 1543.0
000270 00 00 c2 44 00 40 c3 44 00 60 c4 44 00 a0 c5 44
       1552.0 1562.0 1571.0 1581.0
000280 00 c0 c6 44 00 00 c8 44 00 20 c9 44 00 60 ca 44
       1590.0 1600.0 1609.0 1619.0
000290 00 a0 cb 44 00 c0 cc 44 00 00 ce 44 00 20 cf 44
       1629.0 1638.0 1648.0 1657.0
0002a0 00 60 d0 44 00 80 d1 44 00 c0 d2 44 00 e0 d3 44
       1667.0 1676.0 1686.0 1695.0
0002b0 00 20 d5 44 00 60 d6 44 00 80 d7 44 00 c0 d8 44
       1705.0 1715.0 1724.0 1734.0
0002c0 00 e0 d9 44 00 20 db 44 00 40 dc 44 00 80 dd 44
       1743.0 1753.0 1762.0 1772.0
0002d0 00 a0 de 44 00 e0 df 44 00 20 e1 44 00 40 e2 44
       1781.0 1791.0 1801.0 1810.0
0002e0 00 80 e3 44 00 a0 e4 44 00 e0 e5 44 00 00 e7 44
       1820.0 1829.0 1839.0 1848.0
0002f0 00 40 e8 44 00 60 e9 44 00 a0 ea 44 00 e0 eb 44
       1858.0 1867.0 1877.0 1887.0
000300 00 00 ed 44 00 40 ee 44 00 60 ef 44 00 a0 f0 44
       1896.0 1906.0 1915.0 1925.0
000310 00 c0 f1 44 00 00 f3 44 00 20 f4 44 00 60 f5 44
       1934.0 1944.0 1953.0 1963.0
000320 00 a0 f6 44 00 c0 f7 44 00 00 f9 44 00 20 fa 44
       1973.0 1982.0 1992.0 2001.0
000330 00 60 fb 44 00 80 fc 44 00 c0 fd 44 00 e0 fe 44
       2011.0 2020.0 2030.0 2039.0
000340 00 10 00 45 00 b0 00 45 00 40 01 45 00 e0 01 45
       2049.0 2059.0 2068.0 2078.0
000350 00 70 02 45 00 10 03 45 00 a0 03 45 00 40 04 45
       2087.0 2097.0 2106.0 2116.0
000360 00 d0 04 45 00 70 05 45 00 10 06 45 00 a0 06 45
       2125.0 2135.0 2145.0 2154.0
000370 00 40 07 45 00 d0 07 45 00 70 08 45 00 00 09 45
       2164.0 2173.0 2183.0 2192.0
000380 00 a0 09 45 00 30 0a 45 00 d0 0a 45 00 70 0b 45
       2202.0 2211.0 2221.0 2231.0
000390 00 00 0c 45 00 a0 0c 45 00 30 0d 45 00 d0 0d 45
       2240.0 2250.0 2259.0 2269.0
0003a0 00 60 0e 45 00 00 0f 45 00 90 0f 45 00 30 10 45
       2278.0 2288.0 2297.0 2307.0
0003b0 00 d0 10 45 00 60 11 45 00 00 12 45 00 90 12 45
       2317.0 2326.0 2336.0 2345.0
0003c0 00 30 13 45 00 c0 13 45 00 60 14 45 00 f0 14 45
       2355.0 2364.0 2374.0 2383.0
0003d0 00 90 15 45 00 30 16 45 00 c0 16 45 00 60 17 45
       2393.0 2403.0 2412.0 2422.0
0003e0 00 f0 17 45 00 90 18 45 00 20 19 45 00 c0 19 45
       2431.0 2441.0 2450.0 2460.0
0003f0 00 50 1a 45 00 f0 1a 45 00 90 1b 45 00 00 01 43
       2469.0 2479.0 2489.0 129.0
