src/hardware_fpga/mlp/mlp_pre_post.onnx (onnx, 242766 bytes, 19 tensors)

BatchNormalization_0_param1 f4 [256]
00000000: c167 7f3d 18ff a9be 5836 b0be 6314 41be
00000010: abd4 f2be 6f84 6abe 3417 c9be 7a82 1ebe
00000020: 4b54 83be 9f0d 95bc 4daa 81be 4ac8 68be
00000030: 9a00 53be fe77 d5bc cde1 cbbe 4d0d b7be
00000040: 9eac a0be b07c f8bd 02d7 2cbe 6e88 5cbe
00000050: 7887 b5be 5a1b 8cbe e4ad 95be 7d5f 81be
00000060: bcfb e5be cf21 84be 54c7 62be 7335 65be
00000070: 5f53 c9be fae4 76be a558 acbe d502 3bbe
00000080: e8df bdbe 6d13 8cbe bc7d 90be eec6 a4be
00000090: d1c2 38be 27e8 3abe c2ef 2cbe e5fd 2cbc
000000a0: 8a20 5cbe 2aa9 0bbe 3df6 9abe 52c1 55be
000000b0: 6055 9bbe a66f 1bbe 7c8d 80be 0d96 a3be
000000c0: 87f7 44be b99b 21be 025d 95bd 6426 64be
000000d0: b2e8 68be c230 9fbe 4c53 adbe e068 9bbe
000000e0: d28f 0abe 0e98 cfbd b921 a1bd b4c5 23be
000000f0: 16ef 79be 2e9b bdbe bbf5 99bd 0699 66be
00000100: ee7c a2be dd19 9fbe 47eb 2dbe af19 a1be
00000110: f20e 88be 3833 59be 0dcf 8dbe 3ce8 89be
00000120: a426 8bbe dc2b 8ebe abaa fbbe 0ae8 d6be
00000130: 3e7e acbe fae0 52be 606a 2fbe e9df bbbe
00000140: cb0e 6bbe f558 a1be 4499 81be 79ff 0abe
00000150: e8dd b0bd 91ca c4be 9a6b 84be d1f8 b1be
00000160: 961c 84be 7a62 7dbe 397c 86be b295 69be
00000170: 7367 93be 84bb 4bbe f495 f3bd a0ac 2abe
00000180: f673 55be 6198 b4bd 7e30 61bd 92ec 6e3d
00000190: 0604 58be 8d38 3fbe 5dd7 3ebe 0ce6 b4bd
000001a0: 11ad 8bbd 1f50 8abe 47ed e9be 5a56 c0bd
000001b0: d2a4 a3be 2bfc 3fbe d3bd 9cbe c252 91be
000001c0: 01f3 acbe 782b 7ebe a5c1 88be 8d8b 32be
000001d0: d0ee 83be c332 bdbe ce64 1abe 53f3 10be
000001e0: 4eb8 96be 1b21 49be aa6b b1be 09c4 99be
000001f0: af09 ddbe a28b c4be 211f 98be 98f9 93be
00000200: 49be 99be 18e2 89be 7936 ccbe b808 21bd
00000210: d687 34be 4a83 8bbe 6659 56be 7a4b 16bc
00000220: 7580 90be 4cbf 67be ec19 babe ca98 7bbe
00000230: 9cbb 21be dbd8 3abe 3399 cfbe 751d 233e
00000240: fed7 b5bd 40cd bebe 1561 70be 1391 a8be
00000250: c678 483c 500f 92be 7be1 ddbd 3562 46be
00000260: 9a60 84be 877f 9bbe 9fd5 94be d1de 85be
00000270: 73bd 5bbe 0bfd d8be ba6a 1fbe 0df3 aebe
00000280: 59b4 cabd 346e c7bc d98c 4dbe d6d4 cfbd
00000290: 6302 99be 63cc 54be beec b7be bf9d f5bd
000002a0: c585 a7be 9ed1 5bbe b3e2 cbbe 63ea 9abe
000002b0: d3d1 bcbc 8659 d3be 3a16 8cbe c373 8abe
000002c0: b9d9 a4be c862 6cbe 1afd 19be fd30 98be
000002d0: 1412 c6be 753c 9bbe 8bf6 87be 3861 b9be
000002e0: 20e9 65be b8ec 9fbc 93dc 9cbe 4b75 18be
000002f0: f3d7 31be da9f c8be d5b1 4ebe 6e80 a6be
00000300: 7f9e 4cbe 77be dfbe 81cc 9fbe 7158 55be
00000310: 6763 45be 73b8 66be 0455 59be a981 75be
00000320: 744c b5be 01fb b1be 2090 b6be a148 7fbe
00000330: a8ff 5fbe 11ab abbd fc2f 59be 2327 13bf
00000340: 542d 643c ce1f 05be f368 0ebc e03a acbe
00000350: 6a98 1dbe 845d 07bf 2fa7 87be cc7c cabd
00000360: b424 32be 32ec abbe c4d8 bebe f055 94be
00000370: eb59 b2be d1a4 6bbe 6dab 85be 01dd 583d
00000380: 994d 14be affb 8ebd adcd b4be c642 92be
00000390: dd0c 88bd 2c42 a5be b0a3 85be 1901 fdbd
000003a0: b854 62be e071 1fbe 31c2 8cbe 808c d9be
000003b0: 1f43 73be 8ee9 a7be d047 bd3c b091 2ebe
000003c0: cfa0 d6be cd0e 8dbe a5ab f4bd 4916 a5be
000003d0: de2c d2bc b8ec 2bbe 5c78 5fbd 77d6 79be
000003e0: be69 91be ed97 33be 0555 cabe 36b4 1fbd
000003f0: b05b 2fbe e6df 83be fdad 92be 3283 5fbe
0.062354807 -0.33202434 -0.3441646 -0.18855433 -0.47427878 -0.22902082 -0.39275515 -0.1547946
-0.25650248 -0.018194972 -0.25325242 -0.22732654 -0.20605698 -0.026058193 -0.3982071 -0.35752335
-0.31381696 -0.12133157 -0.16878894 -0.21536419 -0.35454917 -0.27364618 -0.2923423 -0.25268164
-0.4491862 -0.25807044 -0.2214635 -0.2238367 -0.3932142 -0.24110785 -0.3366138 -0.18262799
-0.3708489 -0.2735857 -0.28220928 -0.3218302 -0.18043067 -0.18252622 -0.16888335 -0.01055858
-0.21496788 -0.1363875 -0.3026599 -0.20874527 -0.30338573 -0.15179309 -0.25107944 -0.31950417
-0.19235049 -0.1578206 -0.072931305 -0.2228027 -0.22745016 -0.31091887 -0.33852613 -0.3035345
-0.13531426 -0.10136424 -0.0786776 -0.15993387 -0.2440761 -0.37032455 -0.075175725 -0.22519311
-0.3173594 -0.3107442 -0.16984282 -0.31464908 -0.26573902 -0.21210945 -0.2769703 -0.26934993
-0.27177918 -0.27767837 -0.49153647 -0.41973907 -0.33690065 -0.20593634 -0.17130423 -0.36694267
-0.22954862 -0.3151318 -0.25312245 -0.13574018 -0.08636075 -0.38435796 -0.25863343 -0.34760144
-0.2580306 -0.24744597 -0.2626665 -0.2281101 -0.28789863 -0.1989575 -0.11893836 -0.16667414
-0.20845017 -0.088181265 -0.054977886 0.05833108 -0.21095285 -0.18673916 -0.18636842 -0.088329405
-0.06820119 -0.27014253 -0.4568884 -0.0939147 -0.31961685 -0.18748538 -0.30613574 -0.28383452
-0.33779147 -0.2482127 -0.2671024 -0.17436047 -0.25768137 -0.3695279 -0.15077516 -0.14155321
-0.29437488 -0.19641535 -0.34652454 -0.30032375 -0.4317145 -0.3838778 -0.2971125 -0.28901362
-0.3002799 -0.26930308 -0.3988531 -0.039314955 -0.17629942 -0.27248603 -0.2093254 -0.009173268
-0.28223005 -0.22631568 -0.36347902 -0.24570003 -0.15794224 -0.18246786 -0.4054657 0.15929206
-0.08879088 -0.37265968 -0.23474534 -0.32923183 0.012235826 -0.28527308 -0.108340226 -0.193734
-0.2585495 -0.30370733 -0.2906923 -0.26146558 -0.21458988 -0.42380556 -0.15568057 -0.34169808
-0.0989768 -0.024344541 -0.2007326 -0.10148017 -0.29884633 -0.20781092 -0.35922807 -0.11992978
-0.32719246 -0.21466681 -0.39821395 -0.30256948 -0.02304927 -0.41279238 -0.27360708 -0.27041444
-0.3219736 -0.23084557 -0.15037957 -0.29724875 -0.38685668 -0.30319563 -0.26555285 -0.36206985
-0.22452211 -0.019522056 -0.30637035 -0.14888494 -0.17367534 -0.39184457 -0.20185025 -0.3251986
-0.19982336 -0.437 -0.31210712 -0.20834519 -0.192762 -0.225313 -0.21223837 -0.23975243
-0.35409892 -0.34761813 -0.35656834 -0.2493005 -0.21874869 -0.08382238 -0.21209711 -0.5748159
0.013926823 -0.13000414 -0.008692014 -0.33638668 -0.15390173 -0.5287707 -0.26494738 -0.09887084
-0.17396814 -0.3357864 -0.37274754 -0.28971815 -0.34834227 -0.23012091 -0.2610735 0.05294514
-0.14482726 -0.069815986 -0.35313168 -0.2856657 -0.066430785 -0.32277048 -0.26101446 -0.12353725
-0.2210263 -0.15570784 -0.27491906 -0.42490005 -0.23756073 -0.32795376 0.023105532 -0.17047763
-0.41919562 -0.27550355 -0.11946801 -0.32243565 -0.02565616 -0.1678952 -0.054558143 -0.24398218
-0.28400987 -0.17538424 -0.3951799 -0.038990222 -0.1712482 -0.25756758 -0.28648368 -0.21827391

BatchNormalization_0_param2 f4 [256]
00000000: eb88 853e 7777 013e b1ce b0bf a124 4fbf
00000010: f465 d43f b348 313f 1c8c 0f40 5ed5 023f
00000020: 61b6 403e b8b4 9f3f 8b87 6a3f c404 b7be
00000030: eee6 d03f 9340 1a40 9774 8bbe aadd 423f
00000040: 676b c6bf 2b1b ca3a 53bb 0b3f da09 fcbf
00000050: 9cc8 0e40 3e14 82bf ab03 6b3d bd2a 06bf
00000060: 2455 4fbf 28a5 8ebf 9040 0840 3004 393e
00000070: 6fd9 a93f f3bf a73e 8695 ac3e 1f53 58be
00000080: 50b6 d43f 0243 3e40 cb4d b33f 8b0f 1e3f
00000090: 5cc7 0b3f 444f 1fbf fb55 833f a36b a23f
000000a0: bff4 c23f 8016 163d 7fd2 aa3e aac0 0f40
000000b0: f43f 8fbf 7653 2d40 1f4e 1140 993f 1ac0
000000c0: 9f62 4a3f 79d3 02bd 6df5 483f 603b 6bbe
000000d0: b42a 803f 0ef4 b1be ec39 56be 68c5 753f
000000e0: 1b2d c4bd c735 2abf 733d afbf 0eeb b53f
000000f0: dc10 87bd 69f9 973e 7878 57be 235c 1640
00000100: 20f8 da3f 198d cf3f 523d 073e 53fc 8a3f
00000110: c455 1ebf 5aa4 913f 2db9 87bd a7f0 bdbe
00000120: 281e 0140 57a2 14c0 57cc 37bd e66d 77bf
00000130: d890 a43c aebf 64bf 53d9 053f 3aae ea3f
00000140: 1c3a da3f 1f4d 023f 47c2 8ebf c7a6 d23f
00000150: c06a 1440 3962 843f dd57 0ac0 9a58 14bf
00000160: d890 5d3f 7b93 043e 91a9 cf3f f805 76bf
00000170: c4ca 773e 2c95 aa3f 6c92 933f c43b bb3e
00000180: 3f68 05c0 956d 493f a3e6 193f b981 303e
00000190: d1f2 84be 9806 27bf 3aa5 063f cda8 e5be
000001a0: 6f16 243f 62e9 fc3f 8b56 df3d 84b8 93bb
000001b0: fc50 c83f ca38 ae3f 9d12 a83e 7059 0d3e
000001c0: 5002 e2be b71e be3f 9baa 9a3c 5b75 74bf
000001d0: 6818 d3bf b30f 303f 43c2 823d 6ef3 4d3f
000001e0: cdd9 01bf 28b6 4f3f 4251 0dbf b993 cf3f
000001f0: fbfc fb3e 57cf e03e 9820 74be 4dd1 803f
00000200: 61e5 fa3e cd6e d13e c279 a1bf 45a2 863f
00000210: fdb7 32be 27c1 34bf 63c1 0540 9577 bb3f
00000220: 5afe 1d40 fa41 80bd c808 913f 241a d23f
00000230: 505b d83f 7aae a1bf 281a d6bf 7f43 14c0
00000240: 9954 12bf c804 673e 6a1a 023e c6de 2c40
00000250: 5949 73bf fb4a e6bf b9fe ac3e 22d8 963f
00000260: 4639 0d40 8635 b23f a7e3 163e 618f 193f
00000270: 169d 88be a494 b43e 658e d63f 07fc 06bf
00000280: a5a3 8a3f cc10 6fbd 6240 d23d 6ac4 6a3f
00000290: 394b f33f cb57 c23f 7ca4 fcbf e341 8f3e
000002a0: 0b61 d63f 848b 40bf 6edc a83f 8c2a 1e3e
000002b0: 7f22 383f d6f6 babe c2a6 1d40 680a e83f
000002c0: c97a 163f 119e 6d3f e3b0 0440 b323 fabc
000002d0: fd47 9f3f 5e36 cebf e38e 3fbf 7c9a 283f
000002e0: 2183 743e 6bf6 273f 3e3a 743f 8e2e 623f
000002f0: f701 83bf 90c1 00bf cca1 693e 7cd5 a5bf
00000300: 7698 a33f 0778 83bf cd95 4b40 40ed 09bf
00000310: 8dbd 07c0 304c 923e fa1d 943f 5187 df3f
00000320: 4fba 3e3f ef84 1c3f 2c0b 243f e89b 1abd
00000330: 9bc7 ab3e 8065 133e fcf2 35be 3c28 0d40
00000340: f891 adbf 4555 8a3f 9b2c d33f 16f2 783f
00000350: 9c7f 62bf 49a4 113e e445 2d40 d6b3 bf3e
00000360: eb71 0440 0681 813f be9c 8dbf 3fe2 0fbf
00000370: e1b5 9e3f aaa9 e03f 041e 5e3f 7f16 c53f
00000380: 6517 733f 6457 3e40 c278 443f 7508 bc3f
00000390: dc86 0640 b606 57bf c2a5 c8be 7f93 70bf
000003a0: eea7 163f ad0a cb3c 0cee cf3e 515f 62be
000003b0: e973 1cc0 1884 843f 86ce dc3e 5079 babd
000003c0: 1d77 d5bd 31ff 6c3f a3f8 093e 16d0 a33f
000003d0: d395 cf3e 645e 18bf 51a6 a23e 551c abbf
000003e0: 0efb b23f 5d22 903c b634 8bbe 303f b1bf
000003f0: 46c2 3440 2dbe db3f d895 1640 35d0 9ebd
0.26081023 0.12643228 -1.3813077 -0.80915266 1.6593614 0.69251555 2.2429266 0.5110682
0.18819572 1.2477026 0.9161307 -0.35745823 1.6320474 2.4101913 -0.27237388 0.7611948
-1.5501527 0.0015419474 0.5458271 -1.9690506 2.2309942 -1.0162427 0.057376545 -0.52408963
-0.8098929 -1.1144152 2.1289406 0.18068004 1.326948 0.32763633 0.33707827 -0.21125458
1.6618137 2.9728398 1.4008116 0.61742467 0.54601073 -0.62230325 1.0260614 1.2689098
1.523094 0.03664255 0.3336372 2.2461343 -1.1191392 2.708219 2.2703931 -2.4101317
0.79056734 -0.031939957 0.7849949 -0.22971869 1.0013032 -0.3475651 -0.20920533 0.96004343
-0.09578916 -0.6648831 -1.3690628 1.4212358 -0.065950125 0.29682472 -0.21042049 2.3493736
1.7106972 1.6214935 0.13206986 1.0858253 -0.6184962 1.1378281 -0.06627116 -0.37097666
2.0174656 -2.3224084 -0.044872608 -0.96652067 0.020088598 -0.8935498 0.52284735 1.833442
1.7048984 0.5089893 -1.1153039 1.6457146 2.3190155 1.0342475 -2.1616127 -0.57947695
0.8654914 0.12946884 1.6223623 -0.9610286 0.24198443 1.3326774 1.152906 0.36569035
-2.0844877 0.78682834 0.6011755 0.17236985 -0.25966504 -0.65244436 0.52595866 -0.44855347
0.6409673 1.9758723 0.10905179 -0.00450808 1.5649714 1.3611081 0.328267 0.13803649
-0.4414239 1.4853123 0.01888018 -0.9549157 -1.6491823 0.68773955 0.06384709 0.8044957
-0.5072296 0.81137323 -0.55202115 1.6216956 0.49216446 0.43908188 -0.23840559 1.0063874
0.49003127 0.40904847 -1.2615283 1.0518271 -0.17452998 -0.7060723 2.0899284 1.4645869
2.4686494 -0.06262584 1.1330805 1.6414227 1.6902866 -1.2631371 -1.6726732 -2.3166196
-0.57160336 0.22560418 0.12705389 2.701097 -0.95033795 -1.7991632 0.33788088 1.1784708
2.2066207 1.3922584 0.1473528 0.59984404 -0.26682347 0.35269654 1.6762205 -0.52728313
1.083119 -0.058365628 0.10266186 0.91705954 1.9007331 1.5183042 -1.9737697 0.27979955
1.6748365 -0.75212884 1.319227 0.15445918 0.71927637 -0.36516446 2.463303 1.8128176
0.58781105 0.92819315 2.0732963 -0.0305346 1.2443844 -1.6110342 -0.748274 0.65860724
0.23878147 0.6561038 0.9540137 0.88352287 -1.0234975 -0.5029535 0.22815627 -1.2955775
1.2780902 -1.0271004 3.181018 -0.5387764 -2.1209443 0.2857375 1.1571648 1.746317
0.74503034 0.6114034 0.64079547 -0.03774634 0.33550724 0.14394188 -0.17768472 2.2055807
-1.3560171 1.0807272 1.6497988 0.97244394 -0.88475966 0.14222826 2.7073908 0.3744189
2.069453 1.01175 -1.1063459 -0.562046 1.2399255 1.7551777 0.8676455 1.539749
0.9495757 2.974084 0.7674676 1.4690081 2.1019812 -0.83994615 -0.39188963 -0.9397506
0.5884999 0.024785364 0.40611303 -0.22106673 -2.4445746 1.0352812 0.43126315 -0.0910517
-0.1042311 0.9257689 0.13473754 1.2797878 0.40543994 -0.5951903 0.31767514 -1.3368021
1.3982866 0.01759451 -0.27188653 -1.3847408 2.8243575 1.7167412 2.3528957 -0.07754556

BatchNormalization_0_param3 f4 [256]
00000000: 56ac 353e 4c62 d83d d031 1e3e f8cb f73d
00000010: 06b3 c83d 0859 2a3e b6b0 ca3d dc29 773d
00000020: e770 933d 1d86 463e 16e2 df3d 5805 d33d
00000030: 3524 043e 1a98 cf3d 5b0f 183e 8519 073e
00000040: d93d 063e a515 f43d 974e bf3d 0ad8 d63d
00000050: dae3 c73d c770 053e 85d5 723d 824a 8b3d
00000060: 28b3 ec3d 253a f23d 8aba 093e 22ba c53d
00000070: 542d ea3d 6cff 383e e1b4 a83d 9819 243e
00000080: 23c8 db3d 3bd1 3c3e 5ed6 d63d 955b fa3d
00000090: 1f7b 913d 0bc2 173e 6736 e53d e01e 0f3e
000000a0: e5b2 0d3e 83ec 3e3e 69e1 083e 1777 023e
000000b0: 1288 da3d 9baf b93d 8026 b93d 3a75 0c3e
000000c0: 3446 0c3e d425 993d 439f 003e b3e9 fd3d
000000d0: 0c15 9c3d c2ee d93d 8d30 f73d 3a78 e03d
000000e0: f298 3c3e 3bba ca3d 97d4 083e eb48 0c3e
000000f0: b46b a03d b894 a33d e130 bd3d c5e9 a63d
00000100: 6d93 063e 843d 8c3d 80ea 6e3d a73e ea3d
00000110: 64ce fa3d 5177 a13d 8587 f73d 3e19 fc3d
00000120: 23de b03d a7d6 3a3e d37c 7e3d 5f99 023e
00000130: e480 fc3d 2a83 123e f844 513e b0a2 e33d
00000140: 224c 9f3d 31c0 ab3d fd8b 2a3e db35 af3d
00000150: b82d 133e 1820 8b3d 6f5c 383e 6778 de3d
00000160: 43d7 dd3d 6a2a 123e a277 c83d 6042 a93d
00000170: 28ca b93d c0a3 a43d 6c22 ca3d 1110 c93d
00000180: 2dd4 263e 2abf dd3d b0d7 eb3d c146 0e3e
00000190: d2f9 6d3d 3b66 153e 39d6 803d 6882 de3d
000001a0: 7504 cd3d 1c41 223e 26bf c33d f95c 9d3d
000001b0: 81bd 8c3d a434 c43d 17d3 263e 1672 0d3e
000001c0: 59d0 dd3d 5c02 3c3e a2ff e43d e1b8 b53d
000001d0: 3363 003e 7436 a33d 58cb f93d 2d22 e73d
000001e0: 252d de3d ccbc b03d 9ab7 b43d 86e8 e23d
000001f0: 7fe4 973d baa0 993d 6ac6 f33d 301a 243e
00000200: 77a5 313e 97f6 1a3e c4c8 c73d 26b0 ab3d
00000210: d15a 2a3e 0120 ed3d 6b71 533e ee40 063e
00000220: d442 563e edcf b53d a1fb fb3d b091 1c3e
00000230: 0ab9 f53d 019a e23d af26 193e ef34 ea3d
00000240: d80b a13d 00d0 b73d 053a b13d c432 e33d
00000250: a687 bb3d dc9d f73d 4e83 8f3d 9491 ca3d
00000260: f701 c03d 3ea4 be3d 29a8 dc3d 9cae 333e
00000270: 3aa8 d33d 7be4 353e 7e82 603e a5f6 ec3d
00000280: 53e2 023e 8bc9 ee3d b27a 0d3e 55d2 c03d
00000290: 3b26 dc3d 0067 933d 74c5 0c3e 122e 313e
000002a0: 8eeb ca3d f121 ce3d 86e9 b13d 26db b03d
000002b0: 825a 2f3e 2c3a 8e3d 8122 193e aba7 d23d
000002c0: 0019 053e 0b44 003e da98 e63d f8a8 bb3d
000002d0: f7f2 f43d 499e 1a3e 5fa6 d93d f970 933d
000002e0: b724 143e 6f03 d53d 19f5 043e 1537 1b3e
000002f0: 5037 f63d c5fe ae3d 93f1 8d3d 21a6 043e
00000300: bb7e b83d 3351 d03d 9a60 393e 4397 163e
00000310: d3d6 003e 9380 ff3d 9991 cd3d 7da5 343e
00000320: a58b ee3d d49b be3d 4e9d b93d 8c56 e13d
00000330: 3b5c 223e 3455 b93d 64e4 0e3e 42e0 133e
00000340: 212c 403e 9a48 a53d 0c83 ca3d 4f7b a03d
00000350: 0fa1 113e e0c2 4c3d 4eec f33d f40d d03d
00000360: d376 013e 2ada 123e 8b11 ba3d c9de cd3d
00000370: bea9 1f3e 0b02 a13d 8583 8b3d 7a79 043e
00000380: 6f40 c93d 4152 1b3e fa8f 143e c052 fb3d
00000390: 492a 023e 867f 1f3e cd8b 0d3e 0847 773d
000003a0: 0f58 f83d 2d31 e13d fe59 1e3e cc03 b13d
000003b0: 4423 353e ac63 a33d 3379 e03d 98a4 983d
000003c0: f912 183e d862 b63d 99ac 963d 53cc 003e
000003d0: acb7 ed3d 355c a43d 60b0 d53d 0426 b93d
000003e0: 2d95 ae3d 2bcc d03d 0f47 143e 97fb 0d3e
000003f0: a570 f03d 9340 f73d aa42 b63d ca07 303e
0.17741522 0.10565624 0.1544869 0.12099451 0.09799771 0.16635525 0.09896986 0.060342655
0.07199269 0.19387098 0.10931794 0.103037536 0.12904437 0.10136433 0.14849608 0.13193329
0.1310953 0.11918191 0.09341162 0.10490425 0.09760256 0.13031302 0.05928566 0.068013206
0.11557609 0.118274964 0.13450065 0.09654643 0.11434427 0.18066186 0.08237625 0.16025388
0.107315324 0.1843919 0.10490106 0.12224499 0.071035616 0.14820115 0.11192017 0.13976622
0.13837774 0.1864491 0.13367237 0.12740742 0.106704846 0.09066697 0.090405464 0.13716593
0.13698655 0.07477918 0.12560754 0.1239809 0.07621202 0.106412426 0.12069807 0.109604314
0.18417719 0.09898802 0.13362347 0.13699691 0.07833043 0.0798735 0.092378385 0.08150057
0.13142176 0.06847671 0.058329105 0.11437731 0.12246397 0.07884086 0.12086395 0.12309502
0.08636119 0.18245946 0.06213076 0.12753819 0.123292714 0.14307848 0.20436466 0.111150146
0.07778193 0.08386267 0.16654964 0.08555194 0.14372909 0.06793231 0.1800401 0.10862809
0.108320735 0.14273992 0.09788443 0.08264613 0.09071761 0.08039045 0.09869847 0.098175175
0.16291876 0.10827477 0.115157485 0.13894178 0.058099575 0.14589779 0.0629086 0.10864717
0.10010616 0.1584515 0.09557943 0.07683749 0.068720825 0.09580353 0.16291462 0.13813052
0.10830755 0.18360275 0.111815706 0.088731535 0.12537841 0.079693705 0.12196988 0.112858154
0.108484544 0.0862976 0.08824082 0.110795066 0.07416629 0.07501359 0.11903079 0.16025615
0.17348276 0.15133129 0.0975509 0.08383207 0.16636206 0.1157837 0.20648734 0.13110706
0.2092393 0.08877549 0.12303854 0.1528995 0.11998184 0.1106453 0.14956163 0.114358775
0.07863587 0.0897522 0.086536445 0.11093667 0.09156732 0.12090656 0.07007466 0.09891048
0.09375375 0.093086705 0.107742615 0.17547077 0.10334821 0.1776294 0.21924779 0.11570481
0.12781648 0.11659535 0.13816336 0.09415118 0.107494794 0.0719738 0.13747197 0.1730273
0.0990821 0.100650676 0.08687119 0.08635549 0.1712437 0.06944689 0.14954568 0.102858864
0.12997818 0.12525956 0.11259623 0.091630876 0.11960404 0.15099443 0.10627436 0.07199282
0.1446713 0.104010455 0.12984122 0.15157731 0.12022269 0.08544687 0.06930842 0.12953998
0.09008547 0.101717375 0.18103257 0.1470614 0.12581949 0.124756955 0.10037536 0.17641254
0.11647729 0.093070656 0.090632066 0.11002836 0.15855496 0.09049454 0.13954312 0.14441016
0.18766834 0.08070488 0.098882765 0.07836019 0.14221595 0.049990535 0.11910306 0.10158911
0.12642984 0.14341035 0.09085377 0.100522585 0.15592095 0.07861718 0.06812195 0.12936965
0.09826743 0.15168096 0.14508048 0.12271643 0.12711443 0.1557599 0.13822861 0.060370475
0.12126171 0.10995708 0.15464017 0.08643302 0.17689234 0.07977995 0.10960617 0.07453269
0.14850987 0.08905572 0.07357139 0.12577944 0.11607298 0.080253996 0.104340315 0.09040454
0.08524547 0.10195192 0.14480232 0.13865505 0.11740235 0.120728634 0.08899434 0.17190471

BatchNormalization_0_param0 f4 [256]
00000000: b3e4 453f 09d3 583f 305b 863f 34b7 573f
00000010: d3e9 623f ff35 8b3f 9cab 643f ba8d 573f
00000020: 2fe1 883f c3d1 773f e1ee 593f 8cdf 753f
00000030: 3651 853f 10a1 a63f 5ccb 793f 63dc 843f
00000040: abad 893f 7340 813f ace7 6a3f 231f 743f
00000050: f856 563f 83c8 723f af73 7e3f 80ed 6f3f
00000060: 2342 663f 1e56 663f deb0 403f 2837 963f
00000070: e2e8 7d3f b756 543f 0e0e 393f 43e7 873f
00000080: a5b4 803f a57f 5c3f 878c 5d3f 2e02 5e3f
00000090: f010 693f 720b 933f b61a 8c3f a387 8c3f
000000a0: b09a 283f 727f 953f a55a 653f 55da 743f
000000b0: d5d0 813f 6dca 743f 05ca 983f ba6c 553f
000000c0: dcb5 8c3f 4f42 883f 8ac3 783f 406e 7e3f
000000d0: dcf7 723f 2e8c 753f fdca 923f 6ffa 663f
000000e0: c0c6 383f fa3c 8a3f 1582 873f a0e1 813f
000000f0: 0189 543f 2f93 6d3f 7f7c 693f 139c 823f
00000100: 2fbf 7a3f e0a2 763f fcca 863f ed33 3e3f
00000110: cc01 443f 799e 783f 9044 863f bb64 9d3f
00000120: 6abc 573f 0688 863f e96e 4b3f d00f 743f
00000130: a8fd 413f fa59 763f 1d6c a13f b086 953f
00000140: 7f3f 883f d3b0 833f 4728 7d3f d8c9 663f
00000150: ec6a 533f 912b 9a3f 537b 6e3f 988c 403f
00000160: 58fa 5f3f 9741 693f 1449 8f3f ea16 773f
00000170: 7a02 883f d690 873f 0a11 5d3f 498c 803f
00000180: 20ad 873f 1cae 913f ffac 9a3f f0af 353f
00000190: 17f4 4d3f 412c 553f b623 913f eb09 783f
000001a0: 9d73 813f 728c 4d3f 9aa5 643f 6fb2 8e3f
000001b0: 06c9 873f 59ad 7d3f 767b 813f 7801 8b3f
000001c0: f6c1 8a3f e886 803f b583 793f c7ee 8d3f
000001d0: 1818 6c3f 25d9 723f 9974 8a3f 2449 883f
000001e0: 39fc 903f c4fe 303f c154 393f df01 783f
000001f0: eb5c 863f 1ca4 733f eaac 4b3f 27b7 603f
00000200: 92b3 683f 6def 313f a611 4b3f 79fd 8d3f
00000210: 60a7 893f 9576 9c3f 5805 843f ae45 903f
00000220: 15b1 403f 434a 883f f8b0 403f a243 733f
00000230: b1d2 303f 9745 7d3f d564 853f d3db 813f
00000240: 31a0 5e3f b3d9 7d3f 280b 883f aa01 893f
00000250: ad21 803f 86f2 7f3f ec55 8c3f 0474 763f
00000260: 93e9 6c3f ebda 553f 9a0d 793f 7c39 a33f
00000270: 8887 883f 695a 4d3f 0cd5 5f3f ef17 233f
00000280: 73ed 803f 7dc3 8f3f 0f75 8e3f eb71 6d3f
00000290: a4e4 853f f46b 6e3f 21e9 6e3f eabf 883f
000002a0: dff6 803f 9ac7 753f d0be 853f fff2 8a3f
000002b0: 2a68 623f 0329 8b3f cbd1 813f 9b28 643f
000002c0: 6b46 753f 2bd0 613f 947e 873f 4889 813f
000002d0: cf6d 733f 569c 893f a627 793f 9ca1 853f
000002e0: 1adb 8b3f 8d1d 663f 8df2 5d3f 5b52 803f
000002f0: 0ad5 9d3f 43f4 5c3f eddb 463f b933 5f3f
00000300: 3049 4c3f 45ad 553f 1052 623f 261b 813f
00000310: ee39 903f 3bba 353f 5747 5d3f 03ee 723f
00000320: 45f1 6d3f ba9b 883f 0e47 743f 5087 923f
00000330: eaf6 9f3f fad7 863f 12f3 5a3f 09c0 8f3f
00000340: c364 823f 44a9 743f 15c8 8c3f 829b 8b3f
00000350: 6066 953f 8e45 4c3f 2136 7f3f fc67 513f
00000360: 131e 4e3f 36d6 683f 8f79 453f 5540 563f
00000370: 6ba4 473f b88e 4a3f ea50 933f aa00 803f
00000380: 4c51 823f 24ae 873f 92f5 883f 45e7 763f
00000390: c108 593f 6d2f 263f ec5b 593f 88b6 8b3f
000003a0: 82a8 903f cfe3 653f 7f6d 513f 42d1 803f
000003b0: 53e8 723f cdd4 923f 9e20 883f 8be9 923f
000003c0: d38a fa3e ed87 6b3f 9f7e 733f 042f 513f
000003d0: 1ee5 783f aa15 863f eb05 803f 903e 6c3f
000003e0: fe47 873f 0034 6a3f fda7 6c3f 66d3 893f
000003f0: 3778 653f 9418 833f f8c3 763f 3bba 803f
0.7730209 0.84697014 1.0496578 0.8426392 0.8863804 1.0875853 0.89324355 0.8420063
1.069372 0.96804446 0.85130125 0.9604423 1.0415409 1.3017902 0.97575927 1.0379757
1.0756124 1.0097793 0.91759753 0.9536001 0.83726454 0.94837207 0.9939527 0.9372177
0.89944667 0.89975154 0.7526988 1.1735582 0.99183476 0.82944816 0.7228707 1.061745
1.0055128 0.8613227 0.8654255 0.86722076 0.9104147 1.1487868 1.0945652 1.0978893
0.65861034 1.1679518 0.8959144 0.9564565 1.0141855 0.9562138 1.1936651 0.8336903
1.0992999 1.0645236 0.9717337 0.9938698 0.94909453 0.9591702 1.1468197 0.9022588
0.7217827 1.0799859 1.0586573 1.014698 0.8302155 0.9280271 0.9120559 1.020388
0.97947973 0.9634228 1.0530696 0.7429798 0.7656524 0.9711681 1.0489674 1.2296365
0.8427187 1.0510261 0.7946611 0.9533663 0.75777674 0.96231043 1.2611119 1.1681728
1.0644377 1.0288337 0.98889583 0.9015174 0.82585025 1.2044545 0.9315693 0.7521453
0.8749137 0.9111571 1.1194177 0.9651934 1.0625756 1.0591075 0.86354125 1.0042812
1.0599709 1.1381259 1.2084044 0.70971584 0.80450577 0.8327065 1.1339023 0.96890134
1.0113407 0.8029243 0.8931519 1.1148204 1.0608222 0.9909263 1.0115802 1.0859823
1.0840442 1.004117 0.97466594 1.1088494 0.92224264 0.94862586 1.0816833 1.0647321
1.1326972 0.6913874 0.7239495 0.96877855 1.0497106 0.95172286 0.7956072 0.8777947
0.90899 0.6950596 0.79323804 1.1092979 1.0754204 1.2223688 1.0314131 1.1271265
0.75270206 1.0647663 0.7527003 0.95025074 0.6907149 0.9893431 1.0421396 1.014521
0.8696318 0.9916031 1.0628405 1.0703633 1.0010277 0.99979436 1.0963721 0.96270776
0.92543906 0.8353717 0.9728638 1.2751918 1.0666361 0.8021608 0.8743446 0.63708395
1.0072464 1.1231533 1.1129473 0.9275195 1.04604 0.93133473 0.93324476 1.0683568
1.0075339 0.9600769 1.0448856 1.0855407 0.8844019 1.0871891 1.0142149 0.8912446
0.95810574 0.88208264 1.0585504 1.012002 0.9508943 1.0750835 0.97326124 1.0439944
1.092624 0.8988884 0.8669823 1.0025133 1.2330639 0.86310214 0.7767933 0.871883
0.79799175 0.83467513 0.8840647 1.008641 1.1267679 0.7098729 0.8643698 0.9489443
0.92946273 1.0672524 0.9542092 1.1447544 1.2497227 1.0534661 0.85527146 1.123048
1.0187 0.9557078 1.099856 1.0906832 1.1671867 0.7979363 0.9969197 0.8179929
0.8051464 0.9095186 0.7713861 0.8369191 0.77985257 0.7912402 1.1509068 1.0000203
1.018106 1.0600019 1.0699942 0.9644664 0.8477898 0.64916116 0.84905887 1.0915079
1.1301425 0.89800733 0.818077 1.006386 0.9488575 1.1471192 1.0634954 1.1477522
0.4893404 0.9200428 0.95115083 0.81712365 0.97224605 1.0475361 1.0001806 0.9228296
1.0568845 0.91485596 0.9244383 1.0767639 0.8963656 1.0241876 0.96392775 1.0056833

BatchNormalization_1_param1 f4 [128]
00000000: 5020 3cbe fe0b a0be 7ab4 97be 1bfe 4dbe
00000010: bccb 9dbe 6824 a1be 7ffd 86be 20b0 c7be
00000020: 4488 23bf 4dcf 15be 20f0 cbbe ee2c 3bbe
00000030: 8f68 3dbe 536c 1dbe 0136 4bbe 6ea3 5dbe
00000040: 6ca5 b6be f0ed 72bd 1f89 b6be 64c2 a7be
00000050: 8242 0cbf a1de 9fbe ce7e aabe 73db 79be
00000060: e415 a8be cd97 8bbe 03fa 95be 9c1e 21be
00000070: 2fe0 15bf 53bd edbd bb42 81be 3102 7bbe
00000080: a301 80be c48e 85be ab75 14be 7ca4 93be
00000090: 7f7b f9bd fe53 9abe f9db 88be 708f 7ebe
000000a0: 1346 90be 1ab2 46be a823 1d3c c5b7 13be
000000b0: fd05 b0be 0137 05be af20 7fbe 55c7 febd
000000c0: af5c 35be 5474 3cbe 1e23 88be 9d1f 09be
000000d0: 8c0f 5ebe 7ce4 47be 822b 7dbe c625 16be
000000e0: ba9e 87be 2c34 8fbe 378a 8abe a04f 5dbe
000000f0: e89b ebbe 81cf 40be 9de0 38be 4f31 46be
00000100: 5334 61be b0e5 99be b548 5cbe 1806 fbbd
00000110: 88b4 a9be be17 82be ac88 48be d54b c7be
00000120: c6d8 50be 4ab6 78be c069 7bbe 62f6 80be
00000130: b7fb 65be 952d 64be 2f2b 5cbe 3d24 69be
00000140: 8109 53be 82e7 03bf e37d 5fbe 78cf 47be
00000150: 58d8 9cbe 3779 35be 44ec 64be 5ccc 3cbe
00000160: d15f 84be acb2 afbe 27db 60be 79d1 4cbe
00000170: e993 bbbe f812 2fbe 9c9b 85be 5723 b2be
00000180: e606 16be 5460 47be ba48 9ebe e307 51be
00000190: 5a54 65be d94c 1fbe 7cad 7dbe 88f5 27be
000001a0: 147d 97be 139c b9be 408f 89be 2f64 93be
000001b0: 66f6 19be 857a e9be 35d5 06bf a3c3 65be
000001c0: 6fd8 aabe 3137 8abe 3b71 50be 2620 84be
000001d0: b99e aebd 11c9 1ebe 123e bfbe 17f0 36be
000001e0: e51f 27be 03e7 06be df08 b0be c5c9 94be
000001f0: 5a57 71be 45d9 a7be fd31 0dbe 76fb c2be
-0.18371701 -0.3125915 -0.2962988 -0.20116465 -0.308195 -0.31473088 -0.26365277 -0.3900156
-0.638798 -0.1462986 -0.39831638 -0.18278858 -0.18496917 -0.15373354 -0.1984482 -0.21644375
-0.35673082 -0.059308946 -0.3565149 -0.32765496 -0.5478898 -0.3122454 -0.3329987 -0.2440012
-0.328292 -0.27264252 -0.29292306 -0.15734333 -0.585452 -0.11608376 -0.25246224 -0.24512555
-0.2500125 -0.26085484 -0.14498012 -0.2883643 -0.12181758 -0.30142206 -0.26730326 -0.24859405
-0.28178462 -0.19403878 0.009591021 -0.14425571 -0.3437957 -0.13009264 -0.24914812 -0.12440363
-0.17711137 -0.1840375 -0.26589292 -0.13390966 -0.21685618 -0.19520754 -0.24723628 -0.14662847
-0.26488286 -0.2796949 -0.27058575 -0.21612406 -0.46017385 -0.18829156 -0.18054433 -0.19354747
-0.21992616 -0.3005805 -0.2151211 -0.12257022 -0.33145547 -0.2540874 -0.19583386 -0.38925043
-0.20395193 -0.24288288 -0.24552059 -0.25187975 -0.22459303 -0.22283013 -0.21500848 -0.2276773
-0.20609094 -0.5152513 -0.21825366 -0.19512737 -0.30633807 -0.17722021 -0.22355753 -0.18437332
-0.25854352 -0.34316003 -0.219586 -0.20001782 -0.36636284 -0.1709708 -0.26095283 -0.34792587
-0.14651069 -0.1947034 -0.3091486 -0.20413165 -0.22395459 -0.15556659 -0.2477321 -0.16402256
-0.29587615 -0.36251888 -0.26867104 -0.28787372 -0.150354 -0.45601287 -0.5266908 -0.2243791
-0.3336825 -0.26995233 -0.20355694 -0.25805777 -0.08526368 -0.15506388 -0.37352043 -0.17865025
-0.1632076 -0.13174061 -0.34381768 -0.29060188 -0.23568478 -0.3278295 -0.137886 -0.38082474

BatchNormalization_1_param2 f4 [128]
00000000: d4c2 7a40 bd55 02c0 39b9 2440 2e62 1a40
00000010: 4c88 2cbf 39e0 91bf e0b4 3ac0 f1c4 f4bf
00000020: 2baa 17c0 f437 a63f d377 0f40 a9af cc3e
00000030: c177 2b40 acd6 0940 6ffa 033f 7d39 54bf
00000040: 5970 f93f 08c2 003f 0654 06c0 7690 17c0
00000050: 6003 34c0 d159 1440 f279 6e40 22a7 b13f
00000060: 67cb 34c0 25cb 3340 cf6a c43f 68f1 6840
00000070: 20f6 f1bf e111 d13e f3e5 fcbe fa33 33bf
00000080: 19ff 4e3f 6a10 853f 41cb d53e 256a 863e
00000090: d589 413c 0273 58bf 6ad2 cbbc 7630 3e40
000000a0: 9c3b 05c0 0bf2 65be 547e 05bf 04d5 86bf
000000b0: 9f84 19c0 be36 1240 7ade 91bf 79e4 2640
000000c0: 8f70 1c40 10bd e13f 165d 36c0 a896 3540
000000d0: 1695 d7bf a002 55bf 3a5b 3740 ff5f a43e
000000e0: 7d70 0ec0 45d5 3bbf 3189 c23f 9214 033e
000000f0: 972c 1640 2ff6 8d40 d30e 4c40 8d13 97bf
00000100: a2fc 4ac0 34da 2b40 c913 fd3e 9869 473e
00000110: 5424 f4bf 817c 0abf 1f21 bf3f ece8 1a40
00000120: ac1a 713f 4d7e 1d3f 08cf 66be 239a 7bbe
00000130: 5172 f0bf b171 98bf 0e57 9ebf 9e7e 5abf
00000140: 0147 043f c01c 49bf 73f7 3b3f 7d13 343f
00000150: d7e1 42bf 9dcb 3d40 1d78 2140 9d52 95be
00000160: 618f 86bd 5d29 b03f b542 0340 82d0 5dbf
00000170: 4d34 11c0 7e29 763d 74ae 5dc0 6abf 3640
00000180: 7b5f 6e3e 31aa 04be bbdc 2c3f 938c 59bf
00000190: 9e25 64bf 1e45 82bf e822 89bf e507 f3bf
000001a0: ca6e 7ebe 21a7 6cc0 283c 31be 0ca7 20c0
000001b0: 568b 043e caca c9bf 6a1e 09bf 5c34 c0bf
000001c0: f744 04c0 0cd6 edbf a196 e23f 7a94 63bc
000001d0: 6721 ae3d 8c25 45bf 85e5 1940 befc cebe
000001e0: f7c2 4140 a25b 0b40 d975 cf3f b35c 1ec0
000001f0: 157c e9bf 295f fa3f 757c df3f a020 a53f
3.9181414 -2.036483 2.573805 2.4122424 -0.6739547 -1.1396552 -2.9172897 -1.9122602
-2.3697612 1.2985826 2.2416885 0.39977768 2.6791842 2.1537275 0.51554006 -0.8290022
1.9487411 0.5029607 -2.0988784 -2.3681922 -2.812706 2.317982 3.726193 1.387913
-2.8249147 2.809274 1.5345095 3.6397343 -1.8903236 0.40833953 -0.49394187 -0.70001185
0.80858 1.0395634 0.41756633 0.26252857 0.011812647 -0.8455049 -0.024880607 2.9717078
-2.0817633 -0.22455613 -0.52145886 -1.0533757 -2.3987195 2.2845912 -1.139602 2.6076949
2.44437 1.7635822 -2.8494315 2.8373203 -1.6842372 -0.8320713 2.864943 0.3210449
-2.2256157 -0.733723 1.5198117 0.12800816 2.3464715 4.4363017 3.1884048 -1.1802841
-3.1716695 2.685193 0.49429157 0.19473875 -1.9073586 -0.5409623 1.4931983 2.4204664
0.94181323 0.61520845 -0.22539914 -0.24570517 -1.8784887 -1.1909696 -1.2370317 -0.8534945
0.51670843 -0.78559494 0.7342445 0.70342237 -0.76125854 2.9655526 2.5229561 -0.2916459
-0.06570316 1.3762623 2.0509465 -0.8664628 -2.2688172 0.060098164 -3.4637728 2.855433
0.2327861 -0.12955548 0.6752431 -0.84980124 -0.891199 -1.0177343 -1.0713778 -1.8986784
-0.2484695 -3.6977007 -0.17308104 -2.5101957 0.12943777 -1.5765011 -0.53562033 -1.5015979
-2.0667093 -1.8580947 1.7702218 -0.01389038 0.08502465 -0.77010417 2.4046338 -0.40427202
3.0275247 2.1774678 1.6207839 -2.474408 -1.8240992 1.956029 1.7459856 1.2900581

BatchNormalization_1_param3 f4 [128]
00000000: e0d7 1b41 162a 9240 4283 6340 3868 dc40
00000010: 1914 b340 8023 3540 998f 0c41 1e79 5840
00000020: af0c 5640 9fcb 0041 9eb1 ae40 baaf ac40
00000030: b742 cc40 c70a 1c41 8d5b c040 42c1 5440
00000040: 267b b440 74d4 9b40 5756 c740 df0e d940
00000050: a3a4 8040 a930 aa40 7392 8b40 cd91 b740
00000060: fc04 5b41 fad1 6140 8a30 b140 fdab 1b41
00000070: c733 3c40 1fd1 1341 774b 7b40 278d e140
00000080: 0695 7840 4382 b640 af7d 0241 bc57 dc40
00000090: 965e ea40 818e 6040 83da d240 c567 1941
000000a0: 4b89 3641 f8d7 c740 4cbd 1240 76ff e840
000000b0: 5c4f 9740 4dd8 b940 f331 a040 15e3 0641
000000c0: 4cfc cd40 5086 1841 b4de 8141 e3e2 c040
000000d0: 8ab0 4f41 26e2 ef40 f309 5940 f30b 9b40
000000e0: 34f2 2a41 ebb0 4a40 e141 0141 91d4 2f40
000000f0: 8ab5 cc40 7dcb 4741 6b10 0941 f24c eb40
00000100: 0e1a 1541 5c4a aa40 c1ba 5840 f608 c440
00000110: 7329 5840 5ffc fa3f 899b bc40 4314 8540
00000120: 70bb a440 0e8e e440 621e 8640 1eaa 3840
00000130: b0d2 3b41 cc54 5e40 de5c 2641 b6ee cf40
00000140: fc5a 8a40 4191 4240 0e2c ad40 6773 1740
00000150: 1a09 8640 d8c6 c640 6dac 9640 eb85 1740
00000160: 29a1 4940 34bd e740 87ce bc40 7105 af40
00000170: e727 0d41 0c5e 7840 8fba 9341 fa58 7e40
00000180: 19b4 a740 82f7 3f40 a714 b140 2eb8 bd40
00000190: c994 6040 aef5 0541 8dce 8240 042f 1d41
000001a0: 3399 1b40 4986 eb40 196d e840 fde1 e240
000001b0: c79e 8340 6b5c 5240 ee75 4a40 7b29 ab40
000001c0: eb90 2741 c2ad 3141 c81e 8740 5303 c540
000001d0: 676a 0941 ba6e 0341 7064 bf40 7d81 9740
000001e0: 2d62 bc40 ef1c 8540 3138 8d40 080a 3a41
000001f0: 97df 0041 247e 2840 fc03 f240 8711 9a40
9.740204 4.5676374 3.5548863 6.887722 5.5962033 2.8302917 8.785058 3.3823924
3.3445241 8.049712 5.459182 5.396451 6.383144 9.752631 6.0111756 3.3242955
5.640033 4.869684 6.2292895 6.7830653 4.0200973 5.31844 4.361627 5.736548
13.688717 3.528441 5.537175 9.729489 2.9406602 9.238555 3.926481 7.0484805
3.8840957 5.703401 8.155684 6.88571 7.324046 3.5086977 6.589174 9.587834
11.408519 6.2451134 2.2928038 7.281184 4.7284374 5.807654 5.0060973 8.43044
6.437048 9.532791 16.233742 6.027696 12.9806 7.496356 3.3912323 4.8452086
10.684132 3.1670482 8.078584 2.747349 6.3971605 12.48718 8.566508 7.3531427
9.318861 5.321577 3.3863986 6.126094 3.3775299 1.9608268 5.893986 4.1587234
5.1478806 7.1423407 4.191209 2.8853831 11.738937 3.4739256 10.397673 6.4978895
4.3236065 3.0401156 5.411628 2.3664186 4.188611 6.211773 4.708548 2.3675487
3.1504614 7.241846 5.900211 5.469414 8.822242 3.8807402 18.466093 3.9741807
5.2407346 2.9994817 5.533771 5.928733 3.5090811 8.37248 4.0877137 9.823978
2.4312255 7.360142 7.2633176 7.0900865 4.113132 3.2868907 3.1634479 5.3488135
10.47288 11.104921 4.2225075 6.156656 8.588477 8.214533 5.9810104 4.7345567
5.8869843 4.159782 4.4131093 11.627449 8.054587 2.632699 7.5629864 4.8146396

BatchNormalization_1_param0 f4 [128]
00000000: 72f2 8c3f 8ef8 703f 1486 733f 9b04 833f
00000010: 8b9d 4d3f 8baf 653f 1b7d 7e3f 8bc2 733f
00000020: c17d 4f3f aa8b 6d3f 1969 623f 23d7 8a3f
00000030: d5a0 713f 722e 743f 31c4 6e3f ca8c 643f
00000040: ce04 633f 8b06 8d3f 1322 753f b834 883f
00000050: 579e 783f 00c0 713f e007 773f 345a 783f
00000060: 128b 8e3f 00d4 863f cf90 783f a610 7c3f
00000070: 8805 6a3f c5fc 453f e17f 863f 4c11 413f
00000080: 2177 6d3f 6aee 5f3f 9fca 853f bcdc 763f
00000090: ffc7 803f 5b4d 823f b108 593f 24e8 843f
000000a0: 8f0e 803f d663 7e3f 090a 9e3f 2cfc 343f
000000b0: adf0 663f 6213 823f 4c3b 4d3f e454 853f
000000c0: 3b89 833f 8b7b 363f 32e0 823f 3c11 723f
000000d0: ec0b 883f 06ed 853f d6cd 863f 28c2 733f
000000e0: be1e 793f 1486 7c3f c0ef 6a3f 16e2 853f
000000f0: 1c8d 5e3f a285 813f 07ad 893f 45e6 4e3f
00000100: caa4 773f 27ad 5c3f be85 8a3f 9436 8b3f
00000110: de9a 6d3f f9ca 6d3f b384 843f 3254 763f
00000120: d23b 7f3f 656c 763f c8a5 883f 3f9c 993f
00000130: cad7 773f a5ba 873f afaa 973f c3bd 533f
00000140: cab3 963f 9158 7d3f 5f0a 743f c75c 863f
00000150: 7077 4a3f 4ffc 813f a9ae 6e3f 2fb3 913f
00000160: 6ebb 943f 4af0 4a3f 5033 783f e91d 5d3f
00000170: cfc6 823f 9279 733f 6b0b 783f 40fc 623f
00000180: 61df 793f 9960 953f 5f7d 5a3f 7b16 833f
00000190: 5cb2 8e3f 58a2 6e3f 482a 433f 7de7 af3f
000001a0: 5c8a 873f 4c05 573f 9463 423f 3f1f 853f
000001b0: 0a9b 6d3f 1c44 803f a3b7 663f 4cbf 773f
000001c0: d96c 813f 1980 883f f994 763f 95ef 643f
000001d0: 3f28 653f e5fc 4f3f c26e 633f e84c 9b3f
000001e0: ab31 843f 8ab7 8d3f 50e0 803f 0ac6 8c3f
000001f0: 0180 913f fc06 813f b45e 813f 56ef 763f
1.1011488 0.94129264 0.9512646 1.023578 0.80318516 0.8972098 0.99409646 0.95218724
0.8105126 0.92791235 0.88441616 1.0846905 0.94386035 0.9538337 0.93268114 0.8927733
0.88679206 1.1017622 0.9575512 1.0641088 0.9711661 0.94433594 0.9649639 0.9701264
1.1136191 1.0533447 0.9709596 0.98462903 0.9141469 0.7733882 1.0507776 0.7541702
0.927599 0.87473166 1.045246 0.96430564 1.0061034 1.0179857 0.8477889 1.0383344
1.0004443 0.9937109 1.2346812 0.70697284 0.9021099 1.0162165 0.80168605 1.0416532
1.0276254 0.7128226 1.0224669 0.9455755 1.0628638 1.0462959 1.0531566 0.95218134
0.97312534 0.98642087 0.9177208 1.0459621 0.86934066 1.0118906 1.0755929 0.80820113
0.96735823 0.8620171 1.0822065 1.0876031 0.92814434 0.92887837 1.0352997 0.9622222
0.99700654 0.96259147 1.0675592 1.2000808 0.9681364 1.0603834 1.1848963 0.8271143
1.1773617 0.98963267 0.95328325 1.0497063 0.790885 1.0155123 0.9323526 1.1382807
1.1619699 0.792729 0.96953297 0.86373764 1.0216922 0.95107377 0.9689242 0.8866615
0.97606474 1.1670104 0.8534755 1.0241235 1.1148181 0.93216467 0.7623639 1.374252
1.0589099 0.8399246 0.75933194 1.040016 0.92814696 1.0020785 0.9012396 0.9677627
1.0111343 1.0664092 0.96321064 0.89428073 0.89514536 0.8124526 0.8884088 1.2132845
1.0327657 1.1071637 1.0068455 1.0997937 1.1367189 1.0080256 1.0107026 0.9645895

BatchNormalization_2_param1 f4 [64]
00000000: 82a8 223e 1313 ea3d 76cc 183e 522f 363d
00000010: c0a5 173e c085 713e 53cf 463e a880 bb3d
00000020: ba21 473e 8e26 1f3e 0664 043e 368a 343e
00000030: e2e3 ca3d 1b43 363e 1216 f23d a1a5 293e
00000040: be1b b43d bdb5 613e 5452 333e 8268 703e
00000050: 9804 c73d 8cd4 763e d9f9 de3d 8d9a 493e
00000060: 2318 5e3e b6fe da3d 42a9 533e 840a 4f3e
00000070: 5569 693e 0456 693d 5e1f 483e 0331 203e
00000080: 9f2a 5e3e 12ad 1e3e 690b 5b3e a567 5f3e
00000090: 2c68 623e 4aff 0b3e 586c 6d3e da1a 673e
000000a0: 44a7 893e 576c e63d 4006 f03d 1435 ca3c
000000b0: 5463 b33c cdac 473e 5413 373e e852 a33d
000000c0: aae7 183e 7259 803e 2fb4 d13d 10a6 4a3e
000000d0: 6baa 683e 8ca9 103e 87a5 8f3e baba 6d3e
000000e0: 1bd0 133e 395d 3f3e f6f4 2e3e 006c 503e
000000f0: 1c47 903e 0669 6a3e 4aa8 6b3e b408 403e
0.15884593 0.11429419 0.14921746 0.044478722 0.14809322 0.23586178 0.19415025 0.091553986
0.1944646 0.15542051 0.12928781 0.17630848 0.099067464 0.17799036 0.11820616 0.16567089
0.08794354 0.22041984 0.17511874 0.23477367 0.09717673 0.24104518 0.108874984 0.19687863
0.21688895 0.106931135 0.20670035 0.20218855 0.22794087 0.056966797 0.19543216 0.15643696
0.21695946 0.15495709 0.21391071 0.21816881 0.22110051 0.13671604 0.23185861 0.22568837
0.26885426 0.11251133 0.11719942 0.024683513 0.02189795 0.19499512 0.17878467 0.079747975
0.14932123 0.2506824 0.102394454 0.1978991 0.2272126 0.14127177 0.28055975 0.23215762
0.14434855 0.18687905 0.17085633 0.20353699 0.28179252 0.22891626 0.23013416 0.1875332

BatchNormalization_2_param2 f4 [64]
00000000: f432 8abe 333e 8b3f 299e 463d 7043 003f
00000010: 6fbf 543f cebd 4b3f a938 1540 5a7b 8a3f
00000020: 684a afbe 8ab8 07bf d837 dc3f 89fe e03f
00000030: 7ea8 903f 797a 3d3f f1d6 0b40 62dc ad3e
00000040: fd12 31bf 8ac4 b83f fa1a b03f 0ce4 753e
00000050: 55f6 983f cc72 513e 1e5c c23f 1309 b43e
00000060: 4fd5 d13e 1269 96be f9fa d23e 9753 2bbd
00000070: 2cdd 9f3f c02d 863f 49f8 a53f 34ce 503f
00000080: 4b12 87be 10b4 ccbd c8f3 a53f 1218 2d3e
00000090: fe20 b83d 5b19 9c3f cb51 833f d045 a33e
000000a0: cc3e 3c3f 7d5b 0940 3d4e ab3f 466f c43e
000000b0: 6d75 5e3f c620 933f 4dce 1fbe 008d 993f
000000c0: c83c f43f da02 c83d 886b a13f cd32 30be
000000d0: 299d d43f dd8e 943f 82f4 11be ac0b 793f
000000e0: 8475 6a3f c187 0f3f 25c7 eb3e 8e59 313e
000000f0: 8fbd cd3e b08e b23f 5d08 113e bfb4 e13f
-0.26992 1.0878357 0.048490677 0.501029 0.83104604 0.79586494 2.3315833 1.0818894
-0.34236455 -0.5301596 1.7204542 1.7577678 1.130142 0.74015003 2.184994 0.339572
-0.691696 1.4434979 1.3758233 0.24012774 1.1950175 0.20453948 1.5184362 0.35163173
0.40983054 -0.29377037 0.41207102 -0.041827764 1.2489371 1.0482712 1.2966396 0.8156464
-0.26381144 -0.09995282 1.2965021 0.16903713 0.08990668 1.2195238 1.0259336 0.318892
0.7353332 2.146209 1.3383251 0.38366145 0.8689793 1.1494377 -0.15606041 1.1996155
1.9081049 0.09766169 1.2610941 -0.17206879 1.6610461 1.1606098 -0.14253429 0.97283435
0.91585565 0.5606652 0.46050373 0.17319319 0.40183684 1.3949795 0.14163347 1.7633284

BatchNormalization_2_param3 f4 [64]
00000000: a3a6 2c41 d533 2041 ee9d 3541 e060 f440
00000010: 287b 2841 0819 3d41 8cfb 6341 b909 4241
00000020: 5dcf 1b41 f657 4541 4328 2341 8ac9 6041
00000030: 3326 2941 e55e 1e41 677e 2e41 e414 2741
00000040: 6029 0e41 904c 5c41 871c 4d41 f267 4541
00000050: 61b5 2641 3339 c740 27f8 0841 97be 1541
00000060: f497 3641 6b06 2341 aadd 4141 7d0b 2d41
00000070: 6b89 8441 3b33 1241 fa47 6241 a2fa 2d41
00000080: 72a2 0341 9d61 d340 edc4 5c41 811a 2b41
00000090: 32fa 8a40 d253 3341 9d36 0c41 b85d 5141
000000a0: 9754 1e41 31ac 2441 b40d 2641 da8e e840
000000b0: 18f1 2641 8682 6241 5a2f 4641 c3a7 2041
000000c0: 2625 7a41 004d 0141 d808 2c41 dbd1 0f41
000000d0: d69d 0541 1e2c 3d41 2231 7540 a902 1141
000000e0: 14bf 2741 4db7 5d41 498c 1241 b0ea 0641
000000f0: 0ffc b940 084a 0341 a768 5c41 b5c1 6441
10.790683 10.012654 11.351057 7.6368256 10.530067 11.818611 14.248913 12.127374
9.738126 12.333975 10.1973295 14.049204 10.571826 9.898168 10.90586 10.4426
8.885101 13.768692 12.819465 12.337877 10.419282 6.2257323 8.560584 9.359031
11.412098 10.189067 12.116617 10.815305 16.567099 9.137507 14.142572 10.87369
8.2271595 6.6056657 13.798078 10.693971 4.3430414 11.207964 8.763333 13.085381
9.895652 10.292039 10.3783455 7.267438 10.433861 14.156866 12.38656 10.040957
15.634069 8.081299 10.752159 8.988734 8.351034 11.823271 3.8311238 9.063149
10.48415 13.857251 9.159249 8.432297 5.812019 8.205574 13.77555 14.297292

BatchNormalization_2_param0 f4 [64]
00000000: 0583 b43f aaa6 d63f b094 b73f a2f7 a63f
00000010: 8e45 aa3f 1cc8 f73f dc1c eb3f feaf e13f
00000020: 2f1e 973f 1d30 933f d870 dc3f 7726 0640
00000030: 30c9 d63f f9f3 d83f 6378 d23f be4c 873f
00000040: 79b2 ac3f ba3b 0940 8785 f33f 7d87 973f
00000050: 19d8 c43f d8a6 bd3f 23af e43f 88bc 7a3f
00000060: b13f 6d3f c820 a73f 395b ad3f 74a0 6b3f
00000070: 3987 ff3f 7396 d33f 9b50 d93f 60de 9c3f
00000080: f8cc cb3f 6c2a d03f 7ee3 0240 d751 883f
00000090: 2783 ee3f 47ee b93f e67f bf3f 812c a93f
000000a0: afcc d63f b199 e13f 2640 c33f c718 a13f
000000b0: 3161 cf3f 2ce6 d33f 13cd b83f 9ce5 d73f
000000c0: 6831 dc3f 83f4 853f b20c a43f 06ed c73f
000000d0: a5e4 ed3f e113 af3f daec ce3f eae9 eb3f
000000e0: 36dd b53f 0e54 b13f f907 a93f f7a7 c13f
000000f0: b546 ca3f 7f8b dc3f e646 833f 1e18 e83f
1.4102484 1.6769612 1.4342251 1.3044322 1.3302476 1.9357944 1.8368182 1.7631834
1.1806086 1.1499058 1.7221937 2.0960977 1.6780148 1.6949455 1.6442989 1.0570295
1.3491966 2.1442704 1.9025124 1.1838223 1.5378448 1.4816542 1.7865947 0.97943926
0.9267531 1.3056879 1.3543464 0.9204171 1.9963142 1.6530288 1.6977724 1.2255363
1.5921926 1.6262946 2.045135 1.0649976 1.8633775 1.4525841 1.4960907 1.3216707
1.6781214 1.7625028 1.5253952 1.2585686 1.6201535 1.6554618 1.4437584 1.6866946
1.7202578 1.0465244 1.2816374 1.5619209 1.8585402 1.3677942 1.6166031 1.843076
1.4208133 1.3853776 1.3205558 1.5129384 1.5802828 1.7230071 1.0256011 1.813236

MatMul_0_param0 f4 [60, 256]
00000000: 0000 2c42 0000 8041 0000 6cc2 0000 80c1
00000010: 0000 30c1 0000 8242 0000 9042 0000 e0c1
00000020: 0000 b8c1 0000 c8c1 0000 2842 0000 20c1
00000030: 0000 a0c0 0000 3042 0000 a841 0000 40c0
00000040: 0000 0c42 0000 c0c0 0000 80c0 0000 00c2
00000050: 0000 d841 0000 60c1 0000 f8c1 0000 98c1
00000060: 0000 38c2 0000 0040 0000 70c1 0000 5c42
00000070: 0000 c8c1 0000 e8c1 0000 3cc2 0000 a0c0
00000080: 0000 5842 0000 0842 0000 80c0 0000 8ac2
00000090: 0000 0cc2 0000 40c1 0000 a041 0000 c041
000000a0: 0000 b442 0000 6041 0000 a0c0 0000 1c42
000000b0: 0000 2c42 0000 3c42 0000 70c1 0000 b0c1
000000c0: 0000 10c2 0000 1042 0000 0040 0000 e0c1
000000d0: 0000 5041 0000 803f 0000 10c1 0000 0080
000000e0: 0000 e040 0000 30c1 0000 8040 0000 f841
000000f0: 0000 e841 0000 80bf 0000 8a42 0000 3041
00000100: 0000 0040 0000 fa42 0000 e041 0000 40c1
00000110: 0000 8040 0000 8841 0000 00c0 0000 0042
00000120: 0000 8040 0000 f8c1 0000 8841 0000 3842
00000130: 0000 b841 0000 b0c1 0000 c0c1 0000 6041
00000140: 0000 9841 0000 0041 0000 98c1 0000 8040
00000150: 0000 40c1 0000 3cc2 0000 00c1 0000 20c1
00000160: 0000 94c2 0000 14c2 0000 a040 0000 8cc2
00000170: 0000 24c2 0000 98c1 0000 10c1 0000 90c1
00000180: 0000 4041 0000 00c0 0000 8041 0000 60c1
00000190: 0000 78c2 0000 50c1 0000 e2c2 0000 2cc2
000001a0: 0000 e841 0000 6cc2 0000 68c2 0000 88c1
000001b0: 0000 c041 0000 7041 0000 6041 0000 d041
000001c0: 0000 00c1 0000 a0c0 0000 c0c0 0000 64c2
000001d0: 0000 7041 0000 a0c1 0000 40c2 0000 aa42
000001e0: 0000 7041 0000 b6c2 0000 10c1 0000 8242
000001f0: 0000 70c1 0000 80c0 0000 1042 0000 10c1
00000200: 0000 84c2 0000 70c1 0000 54c2 0000 4041
00000210: 0000 30c1 0000 e0c0 0000 b0c1 0000 9ac2
00000220: 0000 e041 0000 4442 0000 2c42 0000 5041
00000230: 0000 0040 0000 c4c2 0000 14c2 0000 f0c1
00000240: 0000 d6c2 0000 9642 0000 a041 0000 0842
00000250: 0000 2c42 0000 d0c1 0000 90c2 0000 d8c1
00000260: 0000 6cc2 0000 0842 0000 70c1 0000 e0c1
00000270: 0000 04c2 0000 d041 0000 a040 0000 6442
00000280: 0000 98c1 0000 b041 0000 f0c1 0000 9841
00000290: 0000 6c42 0000 90c1 0000 a0c0 0000 20c1
000002a0: 0000 cc42 0000 18c2 0000 8041 0000 88c1
000002b0: 0000 1c42 0000 80c2 0000 c041 0000 a841
000002c0: 0000 04c2 0000 c0c1 0000 4040 0000 8cc2
000002d0: 0000 d041 0000 e041 0000 a040 0000 8c42
000002e0: 0000 a4c2 0000 f841 0000 00c0 0000 1042
000002f0: 0000 a8c1 0000 b0c1 0000 34c2 0000 e0c0
00000300: 0000 70c2 0000 0041 0000 9442 0000 a0c0
00000310: 0000 9041 0000 6041 0000 5041 0000 7041
00000320: 0000 80bf 0000 c8c2 0000 34c2 0000 803f
00000330: 0000 00c0 0000 d0c1 0000 9041 0000 9a42
00000340: 0000 04c2 0000 88c1 0000 74c2 0000 9841
00000350: 0000 4442 0000 c841 0000 a042 0000 48c2
00000360: 0000 4041 0000 b0c1 0000 d4c2 0000 aac2
00000370: 0000 30c1 0000 f041 0000 3cc2 0000 3042
00000380: 0000 3041 0000 00c0 0000 80c1 0000 6041
00000390: 0000 90c1 0000 e841 0000 7041 0000 2c42
000003a0: 0000 a041 0000 0042 0000 0442 0000 04c2
000003b0: 0000 a041 0000 d042 0000 80c1 0000 aac2
000003c0: 0000 e0c0 0000 9041 0000 ba42 0000 50c1
000003d0: 0000 2041 0000 4cc2 0000 c0c1 0000 e0c1
000003e0: 0000 00c0 0000 f0c1 0000 6cc2 0000 c040
000003f0: 0000 3042 0000 5041 0000 a8c1 0000 1c42
43.0 16.0 -59.0 -16.0 -11.0 65.0 72.0 -28.0
-23.0 -25.0 42.0 -10.0 -5.0 44.0 21.0 -3.0
35.0 -6.0 -4.0 -32.0 27.0 -14.0 -31.0 -19.0
-46.0 2.0 -15.0 55.0 -25.0 -29.0 -47.0 -5.0
54.0 34.0 -4.0 -69.0 -35.0 -12.0 20.0 24.0
90.0 14.0 -5.0 39.0 43.0 47.0 -15.0 -22.0
-36.0 36.0 2.0 -28.0 13.0 1.0 -9.0 -0.0
7.0 -11.0 4.0 31.0 29.0 -1.0 69.0 11.0
2.0 125.0 28.0 -12.0 4.0 17.0 -2.0 32.0
4.0 -31.0 17.0 46.0 23.0 -22.0 -24.0 14.0
19.0 8.0 -19.0 4.0 -12.0 -47.0 -8.0 -10.0
-74.0 -37.0 5.0 -70.0 -41.0 -19.0 -9.0 -18.0
12.0 -2.0 16.0 -14.0 -62.0 -13.0 -113.0 -43.0
29.0 -59.0 -58.0 -17.0 24.0 15.0 14.0 26.0
-8.0 -5.0 -6.0 -57.0 15.0 -20.0 -48.0 85.0
15.0 -91.0 -9.0 65.0 -15.0 -4.0 36.0 -9.0
-66.0 -15.0 -53.0 12.0 -11.0 -7.0 -22.0 -77.0
28.0 49.0 43.0 13.0 2.0 -98.0 -37.0 -30.0
-107.0 75.0 20.0 34.0 43.0 -26.0 -72.0 -27.0
-59.0 34.0 -15.0 -28.0 -33.0 26.0 5.0 57.0
-19.0 22.0 -30.0 19.0 59.0 -18.0 -5.0 -10.0
102.0 -38.0 16.0 -17.0 39.0 -64.0 24.0 21.0
-33.0 -24.0 3.0 -70.0 26.0 28.0 5.0 70.0
-82.0 31.0 -2.0 36.0 -21.0 -22.0 -45.0 -7.0
-60.0 8.0 74.0 -5.0 18.0 14.0 13.0 15.0
-1.0 -100.0 -45.0 1.0 -2.0 -26.0 18.0 77.0
-33.0 -17.0 -61.0 19.0 49.0 25.0 80.0 -50.0
12.0 -22.0 -106.0 -85.0 -11.0 30.0 -47.0 44.0
11.0 -2.0 -16.0 14.0 -18.0 29.0 15.0 43.0
20.0 32.0 33.0 -33.0 20.0 104.0 -16.0 -85.0
-7.0 18.0 93.0 -13.0 10.0 -51.0 -24.0 -28.0
-2.0 -30.0 -59.0 6.0 44.0 13.0 -21.0 39.0
