src/sw_machine_learning/onnx/mlp_1710_1621.onnx (onnx, 236746 bytes, 17 tensors)

batchnorm1.bias f4 [256]
0	0xbd271ce3	-0.040799033
1	0x3c9f5a3e	0.01945221
2	0x3c924c8b	0.017858764
3	0xbc81d8e1	-0.015850486
4	0xbcae03fd	-0.021242136
5	0xbcdc073f	-0.026858924
6	0xbb35c6e3	-0.0027736954
7	0xbc76f3f6	-0.015072813
8	0xbc844522	-0.016146246
9	0x3cb04726	0.021518301
10	0x3b3e5907	0.0029044764
11	0x3bda01aa	0.0066530304
12	0xbcc8204f	-0.024429468
13	0xbcef6b4e	-0.029225972
14	0xbcabb13e	-0.02095854
15	0xbc766081	-0.015037657
16	0x3cec6822	0.028858248
17	0xbbcce18f	-0.0062524746
18	0xbd4e0d66	-0.050305746
19	0x3cff3b0a	0.031156082
20	0xbcb8094b	-0.022465369
21	0x3c55f546	0.013058966
22	0xbbbf0117	-0.0058289873
23	0xbc4eaa1f	-0.012613802
24	0xbb9d2cc0	-0.0047965944
25	0xbbeedb98	-0.007289361
26	0xbd0d462f	-0.03449076
27	0xbc64ac0f	-0.013957038
28	0xbca7bbe1	-0.02047533
29	0xbd923a69	-0.07140047
30	0xbcf03069	-0.029319959
31	0x3b5dc109	0.0033836982
32	0x3c886900	0.01665163
33	0x3b98c657	0.004662316
34	0x3c44fdff	0.012023448
35	0x3bf5ce2d	0.0075013847
36	0xbd23a8e7	-0.039956
37	0x3d130ae1	0.035899047
38	0xbc23ac7d	-0.009989855
39	0xbcc87a96	-0.024472516
40	0xbb6308d5	-0.0034642715
41	0xbc19f8ec	-0.0093977265
42	0xbbe418fc	-0.006960986
43	0xbc19770b	-0.009366761
44	0xbd133847	-0.035942342
45	0xbc93798d	-0.018002296
46	0xbd158e26	-0.036512516
47	0x3c9447a6	0.01810057
48	0x3d80ff6f	0.0629872
49	0xbc6690fc	-0.014072653
50	0xbbf0c476	-0.0073476387
51	0xbc3b7d29	-0.011443415
52	0x3c985fcd	0.018600369
53	0x3bce7154	0.006300131
54	0x3aa4cd08	0.0012573311
55	0xbc08aeeb	-0.008342485
56	0xbc95229f	-0.018204985
57	0xbbcb2501	-0.0061994796
58	0xbd14dbae	-0.036342315
59	0xbce264e5	-0.027636
60	0xbd230fcb	-0.039809983
61	0x3c28989c	0.010290291
62	0xbcab7205	-0.020928392
63	0xbd502a74	-0.050821736
64	0xbc92c863	-0.017917817
65	0x3d063503	0.0327654
66	0x3d08152f	0.033223327
67	0x3c847663	0.016169732
68	0x3c4ca2cf	0.0124899885
69	0xbd119a5c	-0.0355476
70	0xbc873f62	-0.016509715
71	0xbd10604d	-0.03524809
72	0x3c44474d	0.01197989
73	0xbd0b9090	-0.034073412
74	0xbca4879f	-0.0200842
75	0xbca675d0	-0.02031985
76	0x3bd38f9e	0.0064563295
77	0xbc347c14	-0.011015911
78	0xbd1474cc	-0.0362442
79	0xbcba0f63	-0.022712415
80	0xbd531545	-0.051533956
81	0x3ba48c83	0.005021633
82	0xbb7ae26a	-0.0038281926
83	0xbd13522a	-0.03596703
84	0x3c3f4c16	0.011675855
85	0xbd4ebb86	-0.050471805
86	0x3c3ee720	0.011651784
87	0xbc6b5249	-0.01436288
88	0xbcd30326	-0.025758337
89	0x3c8c43ef	0.017122237
90	0xbbd3c1e9	-0.006462325
91	0xbc99567e	-0.018718
92	0xbb6d109d	-0.0036173232
93	0xbd18856a	-0.03723661
94	0xbd0c0bd8	-0.034190983
95	0xbd13dfbd	-0.036102045
96	0xbcea5b5b	-0.028608015
97	0x3cb18805	0.021671304
98	0x39e8aefe	0.00044380868
99	0x3cd6f80b	0.026241323
100	0x3c73d5be	0.014882503
101	0x3c7e5362	0.01552281
102	0x3be755f0	0.007059805
103	0xbd4f6a1a	-0.050638296
104	0xbc45fd33	-0.012084293
105	0x3cb68707	0.022281183
106	0x3b8f6b00	0.004376769
107	0xbd3fb936	-0.04680749
108	0xbc93acda	-0.018026758
109	0xbd00e211	-0.031465594
110	0x3c6aead7	0.014338217
111	0xbcc89442	-0.024484757
112	0x3c7c1bee	0.015387518
113	0xbd12d034	-0.03584309
114	0x3c4b0020	0.0123901665
115	0x3c61b8f9	0.013777011
116	0x3c3e120d	0.011600983
117	0xbc8412d6	-0.016122263
118	0xbd1f684c	-0.038917825
119	0xbce57f7d	-0.028014893
120	0xbd4f6865	-0.050636668
121	0xbcaec7bb	-0.021335473
122	0xbce42c64	-0.027853198
123	0x3bc95d56	0.0061451597
124	0xbb5c1d37	-0.003358675
125	0x3ca05261	0.019570531
126	0xbaadb1fd	-0.0013251897
127	0xbd2fcc71	-0.04291958
128	0x3b9bfc98	0.004760336
129	0xbc8d6b81	-0.017263176
130	0xbcf698bc	-0.030102126
131	0xbd649f0a	-0.055815734
132	0xbc82c50b	-0.015963098
133	0x3c19abef	0.009379371
134	0x3cb2f24d	0.021844054
135	0x3c0a5ff3	0.008445728
136	0xbcda1171	-0.026619645
137	0xbc86d683	-0.016459709
138	0x3a0b5318	0.0005314811
139	0xbcb424ba	-0.021990169
140	0x3c401ac7	0.011725134
141	0x3b84e1a8	0.0040552206
142	0x3ca390ff	0.0199666
143	0xbc07453f	-0.008256256
144	0x3d4b50de	0.049637668
145	0xbbd969bb	-0.0066349185
146	0xbc8d8341	-0.0172745
147	0xbc971d52	-0.018446598
148	0x3c69a98f	0.014261617
149	0x3bdf759b	0.0068194396
150	0x3c6a5973	0.014303553
151	0xbcfe8bfc	-0.03107261
152	0xbd0b7274	-0.034044698
153	0x3d143771	0.036185686
154	0xbc3fd8c6	-0.011709398
155	0xbc92638e	-0.017869737
156	0x3a87a868	0.0010349872
157	0x3bde456c	0.006783178
158	0xbbfc1837	-0.0076933163
159	0xbd7e2feb	-0.062057417
160	0xbd34b81c	-0.044120893
161	0xbce413e9	-0.027841525
162	0xbc4425b9	-0.011971884
163	0xbcaf0cb8	-0.02136837
164	0xbb2c9c57	-0.0026338303
165	0xbc25e0db	-0.0101244105
166	0xbc26a52e	-0.010171218
167	0xbcf8a281	-0.030350925
168	0x3d143b78	0.036189526
169	0x3cc5c23e	0.024140473
170	0x3c0c84b0	0.008576557
171	0xbcb1be51	-0.021697195
172	0xbcecdbca	-0.028913397
173	0x3cbe1eab	0.023207983
174	0xbbd7f7a9	-0.0065908027
175	0xbce0bd13	-0.027433908
176	0xbd084cc5	-0.033276338
177	0xbcccb8bb	-0.02499043
178	0xbd3a81c4	-0.04553391
179	0xbd8d2b5b	-0.06893035
180	0x3bd84c26	0.0066008745
181	0xbc958428	-0.018251494
182	0x3cd5f73e	0.02611887
183	0x3c8f32f4	0.017480351
184	0x3bc21d9d	0.0059239403
185	0xbca71be1	-0.020399036
186	0xbc5cda66	-0.013479805
187	0xbd395095	-0.045242865
188	0x3c7b14f4	0.01532482
189	0xbd40914c	-0.047013566
190	0xbccc17ab	-0.02491363
191	0xbcd81f0c	-0.026381992
192	0xbcd8ca4e	-0.026463654
193	0xbd087374	-0.03331323
194	0x3cec7210	0.028862983
195	0x3b42a870	0.0029702447
196	0xbc2dbaee	-0.01060365
197	0xbd056de3	-0.0325755
198	0xbc3f37b8	-0.011670999
199	0xbcbd72f9	-0.023126112
200	0xbd283e4e	-0.041075043
201	0xbd02e418	-0.03195581
202	0xbd0123dd	-0.031528343
203	0x3c7f0fa3	0.015567693
204	0xbd1600b8	-0.03662178
205	0x3cafa049	0.021438735
206	0xbb72aef0	-0.003703054
207	0xbc6a6382	-0.014305951
208	0x3ce370a7	0.027763678
209	0xbb10e6ec	-0.0022110296
210	0xbc543dec	-0.012954216
211	0xbce1097e	-0.027470347
212	0xbc92654b	-0.017870566
213	0xbcea749b	-0.028620055
214	0x3c1716f1	0.009221778
215	0xbd158d7d	-0.036511887
216	0xbc55b3a7	-0.013043321
217	0x3c8446cd	0.016147042
218	0x3cc94441	0.024568679
219	0xbcf211b6	-0.02954946
220	0x3cd3ae54	0.025839962
221	0xbc4eb4fb	-0.012616391
222	0xbd23d8cb	-0.04000167
223	0xbb994f76	-0.004678662
224	0x3cb6e62b	0.02232655
225	0x3c2052f3	0.009785402
226	0xbb69bb70	-0.00356647
227	0xbcb812d9	-0.022469925
228	0x3bdc96b2	0.0067318315
229	0xbd2775da	-0.040883876
230	0xba71ba72	-0.0009221203
231	0xbce4d14f	-0.027931837
232	0xbc931ff6	-0.017959576
233	0xbb8eedae	-0.0043618297
234	0xbc9917aa	-0.018688042
235	0xbd3872e1	-0.045031432
236	0x3c9854a8	0.018595055
237	0x3c277a44	0.0102220215
238	0xbd0b68b3	-0.034035396
239	0xbb906ec9	-0.004407738
240	0xbc2b0b07	-0.010439641
241	0xbb6ecdd2	-0.0036438596
242	0xba05add9	-0.00050994527
243	0xbd0b34de	-0.033985965
244	0x3c99a126	0.0187536
245	0xbd02d272	-0.031938978
246	0xbceaf60a	-0.028681774
247	0xbc8df35b	-0.017327955
248	0xbaffdfa0	-0.0019521601
249	0xbc47dc40	-0.012198508
250	0xbc6be693	-0.014398235
251	0xbc0282df	-0.007965772
252	0xbcd5ce96	-0.026099484
253	0xbca9a4ca	-0.02070846
254	0xbb21ff7a	-0.0024718926
255	0x3c6994a3	0.014256629

batchnorm1.running_mean f4 [256]
0	0x3ef62f25	0.48082843
1	0x3ec9527d	0.39320746
2	0xbf045797	-0.5169615
3	0xbecf33e6	-0.40469283
4	0xbe8fe271	-0.2810245
5	0x3f4386be	0.76377475
6	0xbec0c788	-0.3765223
7	0x3e38d18a	0.18048683
8	0xbeb850d3	-0.35999164
9	0xbf862874	-1.0481095
10	0x3e1c76fe	0.15279767
11	0x3dfebc08	0.12438208
12	0xbdb6a6de	-0.08918546
13	0xbe845c93	-0.2585188
14	0xbdd66e43	-0.104702495
15	0x3e05b4a6	0.13057193
16	0x3effa479	0.4993017
17	0x3e5c6199	0.21521606
18	0xbf41b99c	-0.7567384
19	0x3dbb817c	0.091555566
20	0xbec5e162	-0.38648516
21	0xbeb935df	-0.36173913
22	0x3f1438cf	0.57899183
23	0x3e83822a	0.25685245
24	0xbebe33ef	-0.37148997
25	0xbed40284	-0.4140817
26	0xbed30628	-0.41215634
27	0xbe6c9ab7	-0.23105894
28	0x3ce4eeaf	0.027945844
29	0x3f26147f	0.64875025
30	0x3e40e1e9	0.18836178
31	0x3ea037f9	0.31292704
32	0x3e94808f	0.29004332
33	0xbe1f4c2a	-0.15556398
34	0x3e9dc738	0.30816054
35	0xbdd41ccb	-0.10357054
36	0xbef386ed	-0.47563878
37	0x3e8ce8b8	0.275213
38	0x3f165532	0.5872375
39	0xbbfe22ec	-0.007755628
40	0x3e330acf	0.17484592
41	0xbc64f0ab	-0.013973395
42	0xbe9fd7bf	-0.3121929
43	0x3e5ca83c	0.21548551
44	0x3e9522bf	0.29128072
45	0xbf1c75ac	-0.61117053
46	0x3be258b9	0.006907549
47	0x3d886738	0.066603124
48	0xbe14736a	-0.14497152
49	0xbf58a914	-0.8463299
50	0x3dae0d8a	0.08498676
51	0x3e95acd7	0.2923343
52	0xbde3a42a	-0.11115296
53	0x3ed8a312	0.42311913
54	0x3ed3026f	0.41212794
55	0x3ea89d8d	0.32932702
56	0x3edafe83	0.42772302
57	0x3e999115	0.299935
58	0xbcf34515	-0.029696027
59	0x3f8d75c0	1.105156
60	0x3d2bca95	0.041941244
61	0xbe28ebf8	-0.16496265
62	0x3edfea2d	0.4373335
63	0x3f028263	0.50980204
64	0xbf2814be	-0.6565665
65	0x3e620814	0.22073394
66	0x3f6f98eb	0.9359271
67	0xbefa0af2	-0.48836476
68	0xbe7ddcdd	-0.24791284
69	0x3ee58123	0.44825086
70	0xbbb78389	-0.005600397
71	0x3e658c50	0.22416806
72	0xbe3b622d	-0.1829917
73	0x3d893afc	0.067007035
74	0x3cd6fad6	0.026242655
75	0x3ddc8981	0.10768414
76	0xbcb107c0	-0.02161014
77	0x3f2378f6	0.63856447
78	0xbe5d8bdb	-0.21635382
79	0xbf1a5a3e	-0.6029395
80	0xbeaccbca	-0.3374923
81	0x3f19841a	0.59967196
82	0xbf50a333	-0.8149902
83	0xbefd4eb4	-0.49474108
84	0x3ebb7344	0.36611378
85	0x3e667496	0.22505412
86	0x3e1b2a41	0.15152837
87	0xbe23a238	-0.1597985
88	0xbf0f8b48	-0.560719
89	0x3eac5010	0.33654833
90	0xbe90b681	-0.2826424
91	0x3ebd8d06	0.37021655
92	0xbec4643c	-0.38357723
93	0xbdea0ad9	-0.1142785
94	0xbeb5b5dc	-0.3549031
95	0x3cdf245f	0.027239023
96	0x3f1ae813	0.6051037
97	0xbe359ce1	-0.17735626
98	0x3f8db03d	1.1069409
99	0x3e6a5671	0.22884537
100	0xbe923a60	-0.28560162
101	0x3c053f9e	0.008132843
102	0x3f28c07b	0.659187
103	0xbebac5a1	-0.36478904
104	0xbf0509ad	-0.5196789
105	0x3f2e1c3f	0.6801185
106	0x3ee19b62	0.4406386
107	0x3efcb3c9	0.49355915
108	0x3e64d6c0	0.22347546
109	0x3e829014	0.25500548
110	0x3f72d0a0	0.94849586
111	0xbf0802f3	-0.531295
112	0x3de37fd3	0.11108365
113	0x3d7a0f8c	0.061049983
114	0x3eec21b0	0.46119452
115	0xbe1dacad	-0.15397902
116	0x3f227233	0.63455504
117	0xbd8b1d1d	-0.06792662
118	0xbe376fbd	-0.17913719
119	0xbe9a750a	-0.3016742
120	0x3eae1173	0.33997688
121	0x3ed4dda6	0.41575354
122	0xbebbcbb2	-0.36678845
123	0xbe59ef4e	-0.21282694
124	0xbeb60b74	-0.35555613
125	0x3ef99526	0.48746604
126	0x3e8c935e	0.27456182
127	0xbd31f117	-0.04344281
128	0xbd9891cb	-0.07449683
129	0xbe2d5cc6	-0.16929922
130	0x3dd552f4	0.10416213
131	0x3ea1b8a3	0.3158618
132	0xbe55192c	-0.20810384
133	0xbe9c0543	-0.30472764
134	0xbd932e8a	-0.07186611
135	0x3f016753	0.50548285
136	0x3b8717a8	0.004122693
137	0x3c61e0a1	0.013786466
138	0x3ef6590d	0.48114815
139	0xbe9c1fb1	-0.3049293
140	0xbdc96553	-0.09833779
141	0xbeae99a0	-0.34101582
142	0x3df1886c	0.117935985
143	0xbe74bb51	-0.2389958
144	0xbec5c9aa	-0.3863042
145	0x3ec4fc3a	0.38473684
146	0x3f061536	0.52376115
147	0x3f090dc9	0.5353666
148	0x3f5e2633	0.8677704
149	0x3e6578fb	0.22409432
150	0x3e645826	0.22299251
151	0xbf207b7a	-0.6268841
152	0x3e981fb1	0.2971168
153	0x3ea1d0c9	0.31604603
154	0x3e1a5f84	0.15075499
155	0xbebd5786	-0.36980838
156	0x3e21eaf1	0.1581228
157	0xbf07f784	-0.53112054
158	0x3e1cd0ae	0.1531398
159	0xbe360412	-0.1777499
160	0xbe5619ad	-0.20908232
161	0x3ec95394	0.39321578
162	0x3e895022	0.2681895
163	0xbeb57176	-0.35438126
164	0x3efa2f85	0.4886438
165	0x3e50fb6f	0.20408414
166	0x3ec76db3	0.3895088
167	0x3e461ec9	0.19347681
168	0x3dc6d224	0.0970805
169	0x3f4ddfb4	0.8041947
170	0xbef539c5	-0.47895637
171	0xbeecfdba	-0.46287328
172	0xbde30079	-0.110840745
173	0x3dab86f8	0.083753526
174	0xbcc32959	-0.023823427
175	0xbe483e9d	-0.19555135
176	0x3da9d080	0.08291721
177	0xbeda315e	-0.4261579
178	0xbe59d31a	-0.21271935
179	0x3d789042	0.06068445
180	0xbe94b81f	-0.29046723
181	0x3e10ae66	0.14129028
182	0xbf280d50	-0.65645313
183	0x3f60f0e1	0.8786755
184	0xbe0bf6cd	-0.13668366
185	0x3dc4d21b	0.09610387
186	0x3e58113b	0.21100323
187	0x3e038259	0.12842692
188	0x3f458cc8	0.7716794
189	0x3d88827e	0.066655144
190	0x3d9e0b99	0.07717056
191	0xbe5bb59f	-0.21456002
192	0xbf06e2db	-0.52689904
193	0x3d680e27	0.05665412
194	0x3e673a94	0.2258094
195	0x3e867c13	0.26266536
196	0x3bdac65f	0.0066764797
197	0xbef0cc01	-0.47030643
198	0x3d864ab0	0.06557214
199	0x3f2db289	0.6785055
200	0x3e261cda	0.16221943
201	0x3f007e24	0.50192475
202	0xbef8b2ab	-0.48573813
203	0xbf5c2df5	-0.86007625
204	0x3e8e7a10	0.278275
205	0xbe911d22	-0.2834254
206	0xbdab1d06	-0.08355145
207	0x3ea51374	0.32241404
208	0x3f6278cb	0.88465565
209	0xbef4ebd1	-0.47836164
210	0xbee12129	-0.43970612
211	0x3eac36ab	0.33635458
212	0xbf432aa1	-0.7623692
213	0x3d855e1c	0.065120906
214	0xbe432245	-0.19056042
215	0x3eb9eebb	0.3631495
216	0x3e39e146	0.18152341
217	0xbef3c78c	-0.4761318
218	0x3eb0c7d7	0.34527466
219	0x3e468737	0.19387518
220	0xbe860085	-0.2617227
221	0xbf4216be	-0.7581595
222	0x3e30fba9	0.172835
223	0x3e00cd08	0.12578213
224	0xbd7cd4d9	-0.061726425
225	0xbebed1bd	-0.37269393
226	0x3e004c7f	0.12529181
227	0x3dae454c	0.08509311
228	0x3eb9351e	0.36173338
229	0x3ca7952f	0.020456878
230	0xbeaf609b	-0.34253392
231	0x3ed66ebc	0.4188136
232	0xbf27fb51	-0.65617853
233	0xbd9f35c5	-0.077739276
234	0x3d277541	0.040883306
235	0x3ec063f9	0.37576273
236	0xbdf6953f	-0.12040185
237	0x3e7d0ccb	0.24711911
238	0xbdf1c2e9	-0.11804754
239	0xbe066aa3	-0.13126616
240	0xbe1d3741	-0.15353109
241	0x3e0abfd2	0.13549736
242	0x3da199ad	0.078906395
243	0x3f173e52	0.5907947
244	0xbea24f6d	-0.31701222
245	0xbe795eba	-0.24352542
246	0x3e94d1d3	0.29066333
247	0xbec61983	-0.3869134
248	0x3f271da1	0.65279585
249	0xbf0ac796	-0.54210794
250	0xbef0a91e	-0.47004026
251	0x3eaf41b7	0.34229824
252	0x3e0a419f	0.13501595
253	0x3f1523d6	0.58257806
254	0xbdc68b28	-0.09694511
255	0x3eb6545a	0.3561123

batchnorm1.running_var f4 [256]
0	0x3c8eb431	0.017419906
1	0x3c9ae4cd	0.018907929
2	0x3c9e5c04	0.019330986
3	0x3ccb57d3	0.024822151
4	0x3c76e5db	0.01506945
5	0x3c7176a8	0.0147377625
6	0x3c929e72	0.017897818
7	0x3c18436b	0.009293417
8	0x3c8b9b5f	0.01704186
9	0x3d037220	0.03209126
10	0x3c5da837	0.013528875
11	0x3c958cc1	0.018255593
12	0x3cb7e5fc	0.022448532
13	0x3ca68c18	0.020330474
14	0x3c969a70	0.018384188
15	0x3c8944c7	0.016756428
16	0x3c6cfb32	0.0144641865
17	0x3c831696	0.01600198
18	0x3c7c3dac	0.015395563
19	0x3cc95822	0.024578158
20	0x3c928ba6	0.017888855
21	0x3c964c55	0.018346945
22	0x3cbe586d	0.023235524
23	0x3cdbc379	0.026826607
24	0x3c7ca444	0.015420023
25	0x3c86ed8f	0.016470699
26	0x3c3d5250	0.011555269
27	0x3c8534da	0.016260553
28	0x3cae8638	0.021304235
29	0x3c70db90	0.014700785
30	0x3ca04ea3	0.019568747
31	0x3c65254a	0.013985941
32	0x3c3aa7e4	0.011392567
33	0x3c87a859	0.016559767
34	0x3c8be475	0.01707671
35	0x3c6780e8	0.014129855
36	0x3c96726d	0.01836511
37	0x3c9d3985	0.019192467
38	0x3c8525ef	0.01625344
39	0x3c632503	0.013863805
40	0x3c8d556c	0.017252646
41	0x3c32b877	0.010908238
42	0x3c55b04d	0.013042522
43	0x3ca6b290	0.020348817
44	0x3cb1a48e	0.021684911
45	0x3c8fb576	0.017542582
46	0x3cd672d9	0.02617781
47	0x3c97e21e	0.018540438
48	0x3c9ef14d	0.01940217
49	0x3ca9d22f	0.020730106
50	0x3cc53d8c	0.0240772
51	0x3ca39a18	0.019970939
52	0x3c90e2f2	0.017686341
53	0x3cd398f2	0.025829766
54	0x3c95a310	0.01826623
55	0x3c949828	0.01813896
56	0x3c57aca6	0.013163721
57	0x3c9c968d	0.019114757
58	0x3c048a85	0.008089666
59	0x3cd397b2	0.02582917
60	0x3c5a4212	0.013321416
61	0x3c37c058	0.011215292
62	0x3c9d1bf1	0.019178363
63	0x3c5b602f	0.013389631
64	0x3c92e6d4	0.017932333
65	0x3c7e5ccf	0.015525057
66	0x3c74e21f	0.01494649
67	0x3c984499	0.018587397
68	0x3c9b028d	0.018922115
69	0x3c89dd49	0.01682915
70	0x3cae2e37	0.021262271
71	0x3c9fbc60	0.019499004
72	0x3ccff329	0.025384502
73	0x3c9a8f91	0.018867286
74	0x3ca11abc	0.019666068
75	0x3cbbdf00	0.022933483
76	0x3c49b3ca	0.012310931
77	0x3cd98bd2	0.02655593
78	0x3c7ea86e	0.015543086
79	0x3c885b57	0.016645117
80	0x3c4d05ae	0.012513561
81	0x3c4c6453	0.012475091
82	0x3cc0f531	0.023554416
83	0x3c5133e0	0.012768716
84	0x3cad4d8b	0.02115514
85	0x3ca58201	0.020203592
86	0x3cf67901	0.030086996
87	0x3c713ad4	0.014723498
88	0x3c6fe8de	0.014642922
89	0x3c7df727	0.01550082
90	0x3c99e764	0.018787093
91	0x3c8573c7	0.016290559
92	0x3cb826a1	0.022479357
93	0x3c58d9b2	0.013235496
94	0x3c88bd4d	0.016691828
95	0x3c90b1c5	0.017662892
96	0x3c93518f	0.017983226
97	0x3cb67b39	0.022275554
98	0x3ca106f5	0.019656638
99	0x3c589267	0.013218499
100	0x3cb10b6e	0.021611895
101	0x3c9abb4c	0.018888138
102	0x3c64e69f	0.013971
103	0x3c67964b	0.014134954
104	0x3c67ea71	0.014155016
105	0x3c819483	0.015817886
106	0x3c8b6ac2	0.01701868
107	0x3c77b2f6	0.015118351
108	0x3c64ddc1	0.013968886
109	0x3c7646c7	0.015031523
110	0x3cd12453	0.025530016
111	0x3c67b590	0.014142409
112	0x3c31cd05	0.010852103
113	0x3c9db2b2	0.019250248
114	0x3c5ee087	0.013603336
115	0x3caaa88d	0.020832324
116	0x3cbad0d3	0.022804653
117	0x3c1bfbaa	0.009520451
118	0x3c902a28	0.017598227
119	0x3c4b4831	0.0124073485
120	0x3c8293ee	0.015939679
121	0x3cbf2578	0.023333296
122	0x3c9d0b2e	0.01917037
123	0x3c8d22f2	0.017228577
124	0x3d04e601	0.03244591
125	0x3c98686f	0.018604485
126	0x3cd7220b	0.02626135
127	0x3c3ee814	0.011652011
128	0x3c789e0c	0.0151744
129	0x3c566367	0.013085223
130	0x3c3f0089	0.011657842
131	0x3c93e110	0.018051654
132	0x3c97f8b7	0.018551214
133	0x3ce38a7c	0.027775995
134	0x3ca3c8c1	0.019993188
135	0x3c4905b4	0.012269426
136	0x3c8ca571	0.017168732
137	0x3ca3ebde	0.020009931
138	0x3c94c8b5	0.01816211
139	0x3c6dcfbe	0.014514862
140	0x3c8c44ed	0.01712271
141	0x3c4f922e	0.012669129
142	0x3cb599ad	0.022168005
143	0x3c7de741	0.01549703
144	0x3cd4e78b	0.025989315
145	0x3c712e76	0.01472055
146	0x3c5c99e6	0.013464427
147	0x3c8697dd	0.016429836
148	0x3c6eb58a	0.0145696495
149	0x3c75ffa2	0.015014561
150	0x3c8ec02d	0.01742562
151	0x3c9a64e7	0.018846942
152	0x3cbdcee8	0.02316995
153	0x3c88b146	0.016686093
154	0x3c7cb07c	0.0154229365
155	0x3c8d3bef	0.017240493
156	0x3c9dfd4d	0.019285822
157	0x3ca4e864	0.020130344
158	0x3cada5f8	0.021197304
159	0x3c7c4df2	0.015399443
160	0x3cac2a5a	0.021016289
161	0x3ca14867	0.019687844
162	0x3c94f28b	0.01818206
163	0x3cecffb2	0.028930519
164	0x3c99fde7	0.018797828
165	0x3c4ad9be	0.012381015
166	0x3c71c2aa	0.014755884
167	0x3c37826a	0.011200527
168	0x3cbacd28	0.022802904
169	0x3c8e552d	0.0173746
170	0x3c80e9f1	0.015736552
171	0x3c6d1b60	0.014471859
172	0x3c907499	0.017633723
173	0x3cdf658d	0.027270103
174	0x3cb13b11	0.02163461
175	0x3c58f0eb	0.013241033
176	0x3ca748b3	0.020420408
177	0x3c68cda3	0.014209184
178	0x3cbccef2	0.023047898
179	0x3c8cec9b	0.017202666
180	0x3cc57566	0.024103831
181	0x3c8ac557	0.016939802
182	0x3cb8d726	0.022563528
183	0x3c5a18bd	0.013311562
184	0x3cd1369a	0.025538731
185	0x3c8117f2	0.015758488
186	0x3c3ec556	0.011643728
187	0x3cd93459	0.02651422
188	0x3ca6ed5a	0.02037685
189	0x3c6f5a17	0.014608881
190	0x3c691b7d	0.014227745
191	0x3c1af057	0.009456716
192	0x3c873af3	0.016507601
193	0x3c58f2e4	0.013241503
194	0x3c747ee7	0.014922834
195	0x3caca60e	0.021075275
196	0x3cd93d79	0.02651857
197	0x3c6fdcdb	0.014640058
198	0x3c86c947	0.016453398
199	0x3c312286	0.010811454
200	0x3c6adebd	0.0143353315
201	0x3ca896e8	0.02057977
202	0x3c97aee2	0.018516008
203	0x3cbbc70f	0.022922067
204	0x3ca88812	0.020572696
205	0x3cb0e87d	0.021595234
206	0x3c96dcf3	0.018415904
207	0x3c4692b3	0.012119937
208	0x3cb28481	0.021791698
209	0x3cb938c8	0.022610083
210	0x3ca4c0af	0.02011141
211	0x3c9ae794	0.018909253
212	0x3ca1a1c9	0.019730465
213	0x3ceef356	0.029168766
214	0x3ccf9011	0.02533725
215	0x3ca520a2	0.020157162
216	0x3c395bbb	0.011313374
217	0x3cb89903	0.0225339
218	0x3cb564fe	0.022142883
219	0x3cbc9856	0.023021858
220	0x3c6ab2d0	0.014324859
221	0x3cb4780c	0.022029899
222	0x3c58fc46	0.01324374
223	0x3ca47c0f	0.020078687
224	0x3c973e80	0.01846242
225	0x3c934d93	0.017981326
226	0x3c9f189c	0.019420914
227	0x3ce8a8ab	0.02840074
228	0x3c8600a7	0.016357733
229	0x3c576082	0.013145568
230	0x3c129add	0.008948055
231	0x3c644e1d	0.013934639
232	0x3c8af109	0.016960638
233	0x3c876626	0.0165282
234	0x3c89fe99	0.016845034
235	0x3c998d83	0.018744236
236	0x3c6cd3fe	0.01445484
237	0x3c70e559	0.014703118
238	0x3c8ca27f	0.017167328
239	0x3cc568da	0.024097849
240	0x3c80f246	0.015740525
241	0x3cac2825	0.021015236
242	0x3cabbc4c	0.02096381
243	0x3c4d2406	0.012520796
244	0x3c8d9269	0.017281728
245	0x3c97e709	0.018542783
246	0x3c875aaa	0.016522724
247	0x3c89e32f	0.016831962
248	0x3c5ec10a	0.013595829
249	0x3c854c3b	0.016271701
250	0x3c8f3572	0.01748154
251	0x3c5b109f	0.013370662
252	0x3c88e46c	0.016710483
253	0x3c9a9bfa	0.018873204
254	0x3c9bac60	0.019003093
255	0x3cc52daf	0.024069635

batchnorm1.weight f4 [256]
0	0x3f79cc5c	0.9757745
1	0x3f7fc1c8	0.9990506
2	0x3f7fd467	0.99933475
3	0x3f82873a	1.0197518
4	0x3f7d7843	0.9901163
5	0x3f811ce0	1.0086937
6	0x3f804802	1.0021975
7	0x3f78a392	0.9712459
8	0x3f75b9b4	0.95986485
9	0x3f84edb8	1.0385046
10	0x3f7b088f	0.98059934
11	0x3f7e5e8c	0.9936302
12	0x3f84177a	1.0319664
13	0x3f81627c	1.010818
14	0x3f802c9a	1.0013611
15	0x3f7de534	0.9917786
16	0x3f8191c1	1.0122606
17	0x3f8186ac	1.0119224
18	0x3f7f3162	0.9968473
19	0x3f814595	1.009936
20	0x3f7a191b	0.9769456
21	0x3f83aa41	1.0286332
22	0x3f7cd460	0.9876156
23	0x3f7d201b	0.98877114
24	0x3f79e4a6	0.97614515
25	0x3f7c9283	0.9866106
26	0x3f7d08f5	0.9884179
27	0x3f8078c9	1.0036861
28	0x3f817cf8	1.0116262
29	0x3f7d5678	0.98960066
30	0x3f7b0fd1	0.9807101
31	0x3f7626d9	0.96153027
32	0x3f814eaa	1.0102131
33	0x3f7f42ff	0.997116
34	0x3f7b8fee	0.98266494
35	0x3f86e662	1.0539057
36	0x3f7af866	0.98035276
37	0x3f82f40c	1.0230727
38	0x3f7ead7d	0.9948347
39	0x3f75d41e	0.9602679
40	0x3f7ef96e	0.9959935
41	0x3f833e07	1.0253304
42	0x3f7b069e	0.9805697
43	0x3f7f4e11	0.99728495
44	0x3f7f1dbd	0.9965475
45	0x3f80cfdd	1.0063435
46	0x3f807604	1.0036016
47	0x3f81a3be	1.0128095
48	0x3f7cb28f	0.9870996
49	0x3f820cb9	1.0160133
50	0x3f7d5de7	0.9897141
51	0x3f813600	1.0094604
52	0x3f7932af	0.9734296
53	0x3f80a6bf	1.0050887
54	0x3f7c70f3	0.98609847
55	0x3f808c38	1.0042791
56	0x3f805855	1.0026957
57	0x3f7c1228	0.98465204
58	0x3f7ed799	0.99547726
59	0x3f76e7ef	0.9644765
60	0x3f776e76	0.96652925
61	0x3f79106e	0.97290695
62	0x3f7cbf41	0.9872933
63	0x3f7cdd5a	0.98775256
64	0x3f80d4cc	1.006494
65	0x3f81feb2	1.0155852
66	0x3f7f10d0	0.9963503
67	0x3f7dd29a	0.9914948
68	0x3f8400a0	1.0312691
69	0x3f7a3df2	0.9775077
70	0x3f817eb1	1.0116788
71	0x3f802b76	1.0013263
72	0x3f826735	1.0187746
73	0x3f77807f	0.96680444
74	0x3f807c1c	1.0037875
75	0x3f7d77b4	0.9901078
76	0x3f824c1c	1.0179477
77	0x3f792668	0.9732423
78	0x3f807173	1.0034622
79	0x3f788444	0.9707682
80	0x3f76d9c0	0.9642601
81	0x3f78c883	0.97180957
82	0x3f83afe1	1.0288049
83	0x3f76da3b	0.96426743
84	0x3f822996	1.0168941
85	0x3f7cbefe	0.9872893
86	0x3f84459f	1.0333747
87	0x3f7b722b	0.9822108
88	0x3f7e296a	0.9928194
89	0x3f800bed	1.000364
90	0x3f7dcd22	0.9914113
91	0x3f77319c	0.9656007
92	0x3f7f5812	0.9974376
93	0x3f79c724	0.9756949
94	0x3f79fc07	0.9765019
95	0x3f784150	0.9697466
96	0x3f7b0529	0.9805475
97	0x3f794eb4	0.97385716
98	0x3f7deb81	0.99187475
99	0x3f81f5ee	1.0153177
100	0x3f84be8f	1.0370654
101	0x3f81a84e	1.0129488
102	0x3f7bbca0	0.98334694
103	0x3f7ae20b	0.98001164
104	0x3f7f49c9	0.9972196
105	0x3f80e77f	1.0070647
106	0x3f810224	1.0078778
107	0x3f79083e	0.972782
108	0x3f7d93a0	0.9905338
109	0x3f7fc45b	0.9990899
110	0x3f82111c	1.0161471
111	0x3f795dcb	0.9740874
112	0x3f7d44ce	0.9893311
113	0x3f76a19f	0.96340364
114	0x3f84037a	1.0313561
115	0x3f8459c7	1.0339898
116	0x3f7f4a72	0.9972297
117	0x3f750bb8	0.95721006
118	0x3f7f6170	0.9975805
119	0x3f7ea085	0.99463683
120	0x3f7f445a	0.9971367
121	0x3f833edb	1.0253557
122	0x3f8109a1	1.0081064
123	0x3f80670a	1.0031445
124	0x3f825d1f	1.0184668
125	0x3f813df4	1.0097032
126	0x3f7aef9e	0.98021877
127	0x3f78ea90	0.97232914
128	0x3f7cf2ee	0.9880818
129	0x3f8293c5	1.0201346
130	0x3f80487d	1.0022122
131	0x3f7aa627	0.9790978
132	0x3f8395ab	1.028005
133	0x3f81eaad	1.0149742
134	0x3f843c97	1.033099
135	0x3f851a8e	1.0398729
136	0x3f7f6d55	0.997762
137	0x3f7c001a	0.98437655
138	0x3f7a7ebd	0.9784964
139	0x3f78ef37	0.9724001
140	0x3f81b619	1.0133697
141	0x3f7ff079	0.9997631
142	0x3f838407	1.0274667
143	0x3f81998a	1.0124981
144	0x3f8110c7	1.0083245
145	0x3f787076	0.970466
146	0x3f7b7fab	0.9824168
147	0x3f80da4a	1.0066617
148	0x3f809c8d	1.0047776
149	0x3f83e10f	1.0303057
150	0x3f810e97	1.0082577
151	0x3f7d60f6	0.98976076
152	0x3f82a80b	1.0207533
153	0x3f8051f9	1.0025016
154	0x3f7f5ef6	0.99754274
155	0x3f846c8d	1.0345627
156	0x3f79503d	0.9738806
157	0x3f810225	1.007878
158	0x3f837cef	1.0272502
159	0x3f820cf9	1.0160209
160	0x3f7fed8f	0.9997186
161	0x3f81eadc	1.0149798
162	0x3f7c5f35	0.98582774
163	0x3f7cc408	0.9873662
164	0x3f7ffdfd	0.9999693
165	0x3f7c1b00	0.984787
166	0x3f7c0cc3	0.9845697
167	0x3f750a46	0.957188
168	0x3f8200bd	1.0156475
169	0x3f803a48	1.0017786
170	0x3f827695	1.0192438
171	0x3f7c0bb0	0.98455334
172	0x3f77d1b6	0.9680437
173	0x3f827441	1.0191728
174	0x3f8448f8	1.0334768
175	0x3f799a5c	0.9750116
176	0x3f823595	1.0172602
177	0x3f7b9117	0.98268265
178	0x3f7787ab	0.9669139
179	0x3f764ff1	0.9621573
180	0x3f7cb37f	0.9871139
181	0x3f8243e0	1.0176964
182	0x3f83503c	1.025886
183	0x3f82fa59	1.023265
184	0x3f790db6	0.97286546
185	0x3f803018	1.0014677
186	0x3f7a7c20	0.9784565
187	0x3f7a0cb3	0.9767563
188	0x3f810223	1.0078777
189	0x3f83cf02	1.0297549
190	0x3f836ac5	1.0266958
191	0x3f7cb013	0.9870617
192	0x3f793584	0.97347283
193	0x3f7a06de	0.9766673
194	0x3f7e8c87	0.9943318
195	0x3f80c8a8	1.0061235
196	0x3f85403a	1.0410225
197	0x3f7e72f1	0.99394137
198	0x3f80bd09	1.0057689
199	0x3f7d9272	0.9905158
200	0x3f81dcce	1.0145509
201	0x3f7df423	0.9920065
202	0x3f7c58a8	0.9857278
203	0x3f81aa94	1.0130181
204	0x3f8490ea	1.0356724
205	0x3f833e9c	1.0253482
206	0x3f82363e	1.0172803
207	0x3f806163	1.002972
208	0x3f7fd5d6	0.9993566
209	0x3f80416e	1.0019968
210	0x3f7b1453	0.9807789
211	0x3f78bc99	0.9716278
212	0x3f7984bc	0.9746816
213	0x3f83338c	1.0250106
214	0x3f80b377	1.0054768
215	0x3f7ee2bf	0.9956474
216	0x3f74956b	0.95540494
217	0x3f8325de	1.0245931
218	0x3f82948f	1.0201586
219	0x3f779e4b	0.9672591
220	0x3f81e0b2	1.0146697
221	0x3f7ee095	0.99561435
222	0x3f82a10f	1.0205401
223	0x3f803a86	1.001786
224	0x3f7d3aea	0.9891802
225	0x3f80a382	1.0049899
226	0x3f82e3d1	1.0225774
227	0x3f85796d	1.0427681
228	0x3f7c828e	0.9863671
229	0x3f7a9943	0.9789011
230	0x3f77aedf	0.9675121
231	0x3f79d43d	0.97589475
232	0x3f7be504	0.98396325
233	0x3f7d0120	0.9882984
234	0x3f7c834c	0.98637843
235	0x3f7aa73f	0.9791145
236	0x3f829a02	1.020325
237	0x3f80e9d9	1.0071365
238	0x3f7f7c24	0.997988
239	0x3f8049d8	1.0022535
240	0x3f7d65b3	0.98983306
241	0x3f7c1d11	0.9848185
242	0x3f80ef12	1.0072958
243	0x3f83929b	1.0279115
244	0x3f80ee76	1.0072773
245	0x3f819d7c	1.0126185
246	0x3f79f9c0	0.97646713
247	0x3f811eeb	1.008756
248	0x3f80f3bb	1.0074381
249	0x3f7da824	0.9908469
250	0x3f800219	1.000064
251	0x3f7ed0d1	0.9953738
252	0x3f808301	1.0039979
253	0x3f82bcf2	1.0213912
254	0x3f810694	1.0080132
255	0x3f816e4c	1.0111785

batchnorm2.bias f4 [128]
0	0xbd36c352	-0.044619866
1	0xbd3d31f1	-0.046190206
2	0xbc98431f	-0.018586693
3	0xbd173087	-0.036911514
4	0x3c0b22b4	0.008492161
5	0xbd3989f4	-0.045297578
6	0xbbc3ef4a	-0.005979453
7	0xbb3c4ee2	-0.0028733541
8	0xbc109bf1	-0.008826242
9	0xbd03a38a	-0.032138385
10	0xbc935612	-0.017985377
11	0xbd09234e	-0.033480935
12	0xbd4d6007	-0.050140407
13	0xbd40012f	-0.04687613
14	0x3c03f158	0.008053146
15	0xbcecc0c7	-0.028900517
16	0x3c9ab2dc	0.018884115
17	0xbc93f819	-0.018062638
18	0x3cdb2940	0.026753068
19	0xbca0f6ea	-0.019648988
20	0xbd042187	-0.032258537
21	0xbb102463	-0.0021994344
22	0xbb1d1720	-0.0023970082
23	0xbc16e558	-0.009209953
24	0xbbfd31ce	-0.0077268844
25	0x3cc41bfa	0.023939122
26	0xbb346c2c	-0.0027530296
27	0xbccb7961	-0.024838151
28	0x3c8ff3cd	0.017572308
29	0x3ceb8e08	0.02875425
30	0xbcb94f41	-0.022620799
31	0x3ce1119f	0.027474223
32	0xbd0b1dbd	-0.033963908
33	0xbd0f56a8	-0.03499475
34	0xbc84265b	-0.01613157
35	0xbcc80d2a	-0.02442034
36	0xbcdc74c0	-0.02691114
37	0xbaf53b1a	-0.001870963
38	0xbc9ed001	-0.019386293
39	0x3d020cda	0.031750537
40	0x3b759b92	0.003747676
41	0xbcd94f03	-0.026526934
42	0xbd898e9b	-0.06716653
43	0xbcc51ac2	-0.02406061
44	0xbd0dedb2	-0.034650512
45	0xbbbafb8e	-0.005706257
46	0xbcff22fb	-0.03114461
47	0xbbe3270e	-0.006932146
48	0xbd704991	-0.05866391
49	0xbc70086a	-0.014650444
50	0xbc66fbe1	-0.014098139
51	0xbcc6ebbb	-0.024282327
52	0xbd19520f	-0.037431773
53	0xbce902ac	-0.028443657
54	0xbc8d524f	-0.017251162
55	0xbc19e0e8	-0.009392001
56	0xbd2a3634	-0.0415556
57	0xbd0f7054	-0.035019234
58	0xbc837da7	-0.016051127
59	0xbca412e5	-0.02002854
60	0x3cb4d111	0.022072347
61	0xbc2cf81f	-0.010557204
62	0xbd1c2672	-0.0381226
63	0xba1e219d	-0.00060322304
64	0xbcc5fae3	-0.024167484
65	0xbc43def0	-0.011955008
66	0xbd0989b3	-0.033578586
67	0xbc605c5b	-0.013693894
68	0xbd227bd9	-0.03966889
69	0xbd366d10	-0.044537604
70	0xbc2c1d4f	-0.010505035
71	0x3c390e4d	0.0112949135
72	0xbcc43905	-0.02395297
73	0xbd5cc8a8	-0.0539023
74	0x3a19748b	0.0005853853
75	0xbbc45f3c	-0.005992798
76	0xbd3df6ca	-0.046377935
77	0xbc57662c	-0.013146918
78	0x3b5f362e	0.0034059393
79	0xbbe8be54	-0.007102767
80	0xbd514b38	-0.051097125
81	0xbd48c41c	-0.04901515
82	0xbd2e703c	-0.042587504
83	0xbd43df5d	-0.047820438
84	0xbd29a0d7	-0.041413154
85	0xbd558951	-0.05213291
86	0xbd53fb2f	-0.05175322
87	0xbc4f5a57	-0.012655816
88	0x3bd7e262	0.006588266
89	0xbca6cdc0	-0.020361781
90	0x3cd30bea	0.025762517
91	0xbd0e02e4	-0.034670725
92	0xbbee5a93	-0.007273981
93	0x3c75e31f	0.015007763
94	0xbd1fdf9c	-0.03903161
95	0xbb0ecf55	-0.002179106
96	0xbd421a16	-0.04738816
97	0x3c24b067	0.010051823
98	0xbcb43621	-0.021998467
99	0xbc68cea3	-0.014209422
100	0xbd2ec288	-0.04266599
101	0xbd5b22d5	-0.053500015
102	0xbd2b906a	-0.04188577
103	0x3900f678	0.00012298848
104	0xbc4c7669	-0.012479403
105	0xbd221888	-0.039574176
106	0xbc87a7d9	-0.016559528
107	0x3d0015b6	0.031270705
108	0xbc510600	-0.012757778
109	0xbd53c7b2	-0.051704116
110	0xbd00a4c5	-0.031407136
111	0x3c7aa4ed	0.01529811
112	0xbd1e6287	-0.03866818
113	0xbd15c98f	-0.036569174
114	0xbcbdda0f	-0.023175268
115	0xbb3930b5	-0.0028257791
116	0x3b329342	0.0027248417
117	0x3cfd328c	0.030907892
118	0xbd03fde9	-0.03222457
119	0x3d02b6ef	0.03191274
120	0x3c3ad776	0.011403909
121	0xbc8464b1	-0.016161295
122	0xbce60a12	-0.028080974
123	0xbd41a8ab	-0.047279995
124	0x3c00c496	0.00785937
125	0xbc5ffc32	-0.013670968
126	0xba9eb73c	-0.0012109051
127	0xbd91ce75	-0.07119457

batchnorm2.running_mean f4 [128]
0	0xbdc21cb7	-0.09478133
1	0x3f32f197	0.69899887
2	0x3c3e42ca	0.011612603
3	0x3e0de2a3	0.13855986
4	0xbf4ec659	-0.80771405
5	0x3f2201ac	0.632838
6	0x3efae005	0.48999038
7	0xbcdad853	-0.02671448
8	0xbe3d407e	-0.18481633
9	0x3f1c6e51	0.6110583
10	0x3ed22b43	0.4104863
11	0xbe370c90	-0.17875886
12	0x3ea49759	0.3214672
13	0x3e98a16c	0.29810655
14	0x3e09b36d	0.13447352
15	0x3f045e38	0.51706266
16	0xbde79f37	-0.11309665
17	0x3f4317c5	0.76208144
18	0x3eb9942b	0.36245856
19	0x3e89f520	0.26944828
20	0xbc89ccd1	-0.016821297
21	0x3f827358	1.019145
22	0xbe368c1f	-0.1782689
23	0x3f2dd3e8	0.6790147
24	0xbeed74a3	-0.4637805
25	0xbf0701e8	-0.52737284
26	0xbdf2248e	-0.118233785
27	0x3f14f05e	0.5817927
28	0xbe18624c	-0.14881247
29	0xbb1af563	-0.0023644797
30	0x3f0c0f7e	0.5471114
31	0xbf20d5a2	-0.6282598
32	0xbf23dd92	-0.64009964
33	0x3d3f4220	0.04669392
34	0xbf1f3352	-0.62187684
35	0xbe90d2da	-0.28285867
36	0x3ea78661	0.3271971
37	0xbef120da	-0.47095376
38	0x3e6879e0	0.22702742
39	0x3e8ec20e	0.27882427
40	0x3d493be4	0.04912938
41	0xbf2bbe8e	-0.6708764
42	0xbd371d6e	-0.0447058
43	0xbf0ed39e	-0.5579165
44	0x3cf22e31	0.029563041
45	0xbe9f5cb0	-0.31125402
46	0x3ed73d99	0.42039183
47	0xbec71cde	-0.3888921
48	0x3f891e96	1.0712459
49	0x3e98e5b9	0.29862764
50	0xbe8c309c	-0.27380836
51	0xbf04d12d	-0.51881677
52	0x3e2cf42a	0.16890016
53	0x3f1fdefc	0.6244962
54	0x3f509f22	0.8149282
55	0xbf216712	-0.630479
56	0x3e2bc587	0.1677457
57	0x3ee03bdc	0.4379567
58	0x3e33e6d1	0.17568518
59	0x3f272d44	0.65303445
60	0x3eb6fdba	0.35740453
61	0x3e5d619c	0.21619266
62	0x3b5305fb	0.003219961
63	0xbe5fa3a1	-0.21839763
64	0x3ed3c5f9	0.4136198
65	0xbd26c819	-0.04071817
66	0x3e6dc794	0.23220664
67	0x3e859a5b	0.26094326
68	0xbe8c85ba	-0.27445775
69	0x3f5e5f6e	0.86864364
70	0x3ea82ad8	0.32845187
71	0xbf23d08c	-0.6399009
72	0x3dc46264	0.09589079
73	0xbec73bb8	-0.3891275
74	0xbe1bab70	-0.15202117
75	0x3ea997e3	0.33123693
76	0xbf56cd34	-0.83906865
77	0x3ed9e85e	0.42560095
78	0x3f0804d0	0.53132343
79	0xbf3b1c4d	-0.7309006
80	0x3f141d28	0.5785699
81	0x3e479e2d	0.19493933
82	0x3d921a97	0.07133978
83	0x3e5e86cb	0.21731107
84	0x3ee2a5bc	0.4426707
85	0x3f00e45f	0.50348467
86	0xbed1e5db	-0.40995678
87	0xbecc63af	-0.39919803
88	0xbe5c02b8	-0.21485412
89	0x3f3ad8ab	0.7298686
90	0x3f2c96f7	0.67417854
91	0x3efc2bfd	0.4925231
92	0xbe05b3fb	-0.13056938
93	0x3f4ad194	0.7922604
94	0xbe725951	-0.23666884
95	0x3f088515	0.5332807
96	0xbf9c419f	-1.2207526
97	0xbd069289	-0.03285459
98	0x3e853fc3	0.2602521
99	0x3e1787db	0.14797918
100	0x3f2b12da	0.6682564
101	0x3e3708ca	0.17874447
102	0x3e3c8a50	0.18412137
103	0x3e8c094d	0.27350846
104	0xbe0b764e	-0.13619348
105	0xbf52af55	-0.82298785
106	0xbf099259	-0.53738934
107	0x3f1d8b7f	0.6154098
108	0x3f4981d3	0.7871372
109	0xbf274a04	-0.65347314
110	0x3eb17090	0.3465619
111	0xbe88396e	-0.26606315
112	0xbf63537e	-0.88799274
113	0xbee3220f	-0.44361922
114	0x3f2051e5	0.6262496
115	0x3f052431	0.5200835
116	0xbe620f8c	-0.22076243
117	0x3dd57772	0.10423173
118	0x3f041b0a	0.5160376
119	0x3e7c98af	0.24667619
120	0x3e53f63f	0.20699404
121	0x3ec7918c	0.3897823
122	0xbde34cdd	-0.11098645
123	0x3f0cdcd4	0.55024457
124	0xbe1ce6e0	-0.15322447
125	0xbf2b2a68	-0.6686158
126	0xbda9151e	-0.08255981
127	0xbdd304f0	-0.10303676

batchnorm2.running_var f4 [128]
0	0x3e1bd69d	0.15218587
1	0x3eafe0c3	0.34351167
2	0x3e4c52cb	0.19953458
3	0x3e2f9bbd	0.17149253
4	0x3e8df0b8	0.27722716
5	0x3eb87519	0.36026838
6	0x3e928e2c	0.28624094
7	0x3e6c24ac	0.23060864
8	0x3e979cdd	0.29611865
9	0x3e6c9b50	0.23106122
10	0x3e8f22e9	0.27956322
11	0x3e9da211	0.3078771
12	0x3e9d5e5e	0.3073606
13	0x3e8748fd	0.26422873
14	0x3ebb1310	0.3653798
15	0x3ece4688	0.40288186
16	0x3eaf5a8f	0.34248778
17	0x3ea54af5	0.3228375
18	0x3e6af07f	0.22943304
19	0x3e6fc6a2	0.23415616
20	0x3e6e16d9	0.23250903
21	0x3e8167d1	0.25274518
22	0x3ee5e777	0.44903156
23	0x3eb5b297	0.35487816
24	0x3e9bad82	0.30405813
25	0x3e7b84f7	0.24562441
26	0x3e8f3015	0.2796637
27	0x3ec14564	0.37748253
28	0x3e7c569f	0.24642418
29	0x3ebf9ecf	0.3742585
30	0x3eb79135	0.35852972
31	0x3e96aaa5	0.29427066
32	0x3e7440fd	0.23852916
33	0x3e80a1cb	0.25123438
34	0x3e9519a6	0.2912113
35	0x3e99e753	0.300593
36	0x3e8e94a4	0.2784778
37	0x3e864475	0.26224104
38	0x3e8253ea	0.25454646
39	0x3e5dab39	0.21647348
40	0x3ea81c95	0.32834306
41	0x3ea81da7	0.32835123
42	0x3e3e4197	0.18579708
43	0x3e1c66fa	0.15273657
44	0x3df79a0b	0.12089928
45	0x3e7e7a3c	0.24851316
46	0x3e94694e	0.2898659
47	0x3e1b4ecf	0.15166782
48	0x3ea32397	0.3186309
49	0x3ebb52dc	0.36586654
50	0x3ea0c3e7	0.31399462
51	0x3e492c78	0.1964587
52	0x3e68cd9c	0.22734684
53	0x3e4cfb34	0.20017701
54	0x3e34de6f	0.17662977
55	0x3e6614e2	0.22468904
56	0x3e4586cc	0.19289702
57	0x3e7dd13d	0.2478685
58	0x3e921324	0.28530228
59	0x3e894578	0.26810813
60	0x3eab580a	0.33465606
61	0x3e8b4e07	0.27207968
62	0x3e2e69ce	0.17032549
63	0x3e894889	0.26813152
64	0x3e6bd6dc	0.23031181
65	0x3ea5e00f	0.32397506
66	0x3e71cb8c	0.23612803
67	0x3ef4813e	0.47754854
68	0x3e44728a	0.19184318
69	0x3eb84661	0.35991195
70	0x3e8db0d4	0.27673972
71	0x3e85f6a2	0.26164728
72	0x3e87d193	0.2652708
73	0x3e51afe5	0.20477255
74	0x3eb39e3f	0.3508167
75	0x3e558a60	0.20853567
76	0x3e89c430	0.26907492
77	0x3ea6f203	0.32606515
78	0x3e89cbde	0.2691335
79	0x3ec001f1	0.3750148
80	0x3e8819d0	0.26582193
81	0x3e1766fe	0.14785382
82	0x3eaae5ae	0.33378357
83	0x3e6ecb8d	0.23319836
84	0x3eae7997	0.3407714
85	0x3e9f8d1b	0.31162342
86	0x3e46e46f	0.19423078
87	0x3e40eaf7	0.18839632
88	0x3e4f555e	0.20247409
89	0x3ed65bb2	0.41866833
90	0x3eb48685	0.3525888
91	0x3e8c4552	0.27396637
92	0x3e8dc128	0.2768643
93	0x3eacad9c	0.33726203
94	0x3ea2e765	0.31817165
95	0x3e7471b8	0.23871505
96	0x3e6c79de	0.23093364
97	0x3e82178e	0.25408596
98	0x3eaa8820	0.3330698
99	0x3e8f3ad5	0.27974573
100	0x3e9b8281	0.30373004
101	0x3df5ee1f	0.120083086
102	0x3ea375bb	0.3192576
103	0x3ebc483a	0.36773854
104	0x3eb66231	0.3562179
105	0x3e1f26c8	0.15542138
106	0x3eb91398	0.3614776
107	0x3eccf684	0.40031826
108	0x3ed4ed05	0.41587082
109	0x3e890dba	0.26768285
110	0x3ea11de9	0.31468132
111	0x3ebe8aa9	0.37215164
112	0x3e9d7e5d	0.3076047
113	0x3eb9f21d	0.3631753
114	0x3e90d485	0.2828714
115	0x3eab42a4	0.3344928
116	0x3ea8627a	0.32887632
117	0x3ece3e61	0.40281966
118	0x3e7d70f9	0.24750127
119	0x3ed996c0	0.42497826
120	0x3ec390b3	0.38196334
121	0x3e5d3720	0.2160306
122	0x3ef50e31	0.4786239
123	0x3e79be0a	0.243889
124	0x3e58da25	0.21176966
125	0x3e8e59fa	0.27803022
126	0x3eb59023	0.3546153
127	0x3e22cf83	0.15899472

batchnorm2.weight f4 [128]
0	0x3f7287bc	0.94738364
1	0x3f810692	1.008013
2	0x3f7c1cc5	0.984814
3	0x3f777943	0.96669406
4	0x3f842f8a	1.0327008
5	0x3f7f6a75	0.99771816
6	0x3f794f19	0.9738632
7	0x3f7c5c3c	0.9857824
8	0x3f80a5a1	1.0050546
9	0x3f75fc7b	0.9608838
10	0x3f840258	1.0313215
11	0x3f80034e	1.0001009
12	0x3f7456b9	0.9544483
13	0x3f789603	0.971039
14	0x3f81b9e5	1.0134856
15	0x3f79303b	0.9733922
16	0x3f806ce8	1.0033236
17	0x3f7f2e2f	0.99679846
18	0x3f84031b	1.0313448
19	0x3f77676f	0.966422
20	0x3f788a1b	0.9708573
21	0x3f78701b	0.9704606
22	0x3f825e0a	1.0184948
23	0x3f81880b	1.0119642
24	0x3f81a6f1	1.0129071
25	0x3f831d16	1.0243251
26	0x3f80d880	1.006607
27	0x3f7de0ec	0.9917133
28	0x3f837743	1.0270771
29	0x3f80d262	1.0064204
30	0x3f7f23ff	0.996643
31	0x3f830f81	1.0239106
32	0x3f7ac1e1	0.97952086
33	0x3f7afefd	0.9804533
34	0x3f806cc5	1.0033194
35	0x3f7b61dc	0.98196197
36	0x3f7b27d7	0.98107666
37	0x3f81f6fd	1.01535
38	0x3f828d73	1.0199417
39	0x3f8411e4	1.031796
40	0x3f823e8b	1.0175337
41	0x3f7a6ab6	0.9781908
42	0x3f7fdab7	0.9994311
43	0x3f814f00	1.0102234
44	0x3f886046	1.065438
45	0x3f8389f0	1.027647
46	0x3f792f34	0.9733765
47	0x3f7f7642	0.9978982
48	0x3f7e6e13	0.9938671
49	0x3f7aba03	0.9794008
50	0x3f7829c4	0.9693873
51	0x3f7fb566	0.9988617
52	0x3f6e9411	0.9319468
53	0x3f7b7565	0.98226005
54	0x3f7ef288	0.99588823
55	0x3f79bee3	0.97556895
56	0x3f7a1ebc	0.97703147
57	0x3f7e8d7b	0.9943463
58	0x3f84e06e	1.038099
59	0x3f832435	1.0245425
60	0x3f835c61	1.0262567
61	0x3f801695	1.0006891
62	0x3f749e8f	0.9555444
63	0x3f8132ba	1.0093606
64	0x3f834214	1.025454
65	0x3f7cf0c5	0.98804885
66	0x3f7a9a9d	0.9789217
67	0x3f7dc8ba	0.9913441
68	0x3f769037	0.96313804
69	0x3f834101	1.0254213
70	0x3f798f79	0.97484547
71	0x3f809733	1.0046142
72	0x3f7649fa	0.9620663
73	0x3f7d4ab5	0.9894212
74	0x3f84b454	1.0367532
75	0x3f7f1ec9	0.9965635
76	0x3f7ccedc	0.9875314
77	0x3f80f4ba	1.0074685
78	0x3f823a08	1.017396
79	0x3f8041ff	1.002014
80	0x3f742e41	0.9538308
81	0x3f70cba9	0.9406076
82	0x3f7a7d28	0.97847223
83	0x3f6ec3cb	0.93267506
84	0x3f7b28cb	0.9810912
85	0x3f8115eb	1.0084814
86	0x3f8310ee	1.0239542
87	0x3f82c7a7	1.0217179
88	0x3f81db95	1.0145136
89	0x3f7f5c07	0.997498
90	0x3f820911	1.0159017
91	0x3f796982	0.9742662
92	0x3f8169b1	1.011038
93	0x3f822214	1.016665
94	0x3f78202e	0.969241
95	0x3f848531	1.0353147
96	0x3f80640e	1.0030534
97	0x3f8194c5	1.0123526
98	0x3f7cf2c5	0.98807937
99	0x3f801c4f	1.0008639
100	0x3f7751ba	0.9660908
101	0x3f842012	1.0322287
102	0x3f7862fa	0.97026026
103	0x3f8065da	1.0031083
104	0x3f7d2196	0.98879373
105	0x3f7cae6a	0.98703635
106	0x3f83bd30	1.029211
107	0x3f82a3bb	1.0206217
108	0x3f7ce0bd	0.98780423
109	0x3f7cae4e	0.9870347
110	0x3f78e172	0.97219
111	0x3f830a5f	1.023754
112	0x3f814d1b	1.0101656
113	0x3f7bc92e	0.9835385
114	0x3f7be037	0.98389
115	0x3f7c141c	0.98468184
116	0x3f82757c	1.0192103
117	0x3f81abf8	1.0130606
118	0x3f7d9e62	0.990698
119	0x3f81716e	1.0112741
120	0x3f80b5d6	1.0055492
121	0x3f82b4db	1.0211443
122	0x3f787d1e	0.97065914
123	0x3f82a170	1.0205517
124	0x3f83b935	1.0290896
125	0x3f786ff6	0.9704584
126	0x3f7be264	0.9839232
127	0x3f7cf425	0.98810035

batchnorm3.bias f4 [64]
0	0x3da0b20d	0.078464605
1	0x3db83c18	0.08995837
2	0x3dcfdb2d	0.10149226
3	0x3dee5cb3	0.11638775
4	0x3d6f3fee	0.058410577
5	0x3dacaf24	0.08431843
6	0x3e05afe4	0.13055378
7	0x3db30e94	0.08743015
8	0x3d257a0a	0.04039959
9	0x3de53c3d	0.1119313
10	0x3dc4ada5	0.096034326
11	0x3d889e54	0.06670824
12	0x3d659ab7	0.05605575
13	0x3dbbca47	0.09169441
14	0x3db7fb15	0.08983437
15	0x3dd6caa9	0.10487873
16	0x3d2e8a15	0.042612154
17	0x3de30782	0.110854164
18	0x3dc053e5	0.093910016
19	0x3d34ce5f	0.044142123
20	0x3d8045c9	0.062633105
21	0x3e0299dc	0.12754005
22	0x3c1f30e0	0.009716243
23	0x3dc286b3	0.09498348
24	0x3c1179a1	0.008879096
25	0x3dc08b17	0.09401529
26	0x3e086da8	0.1332308
27	0x3d9b790a	0.07591446
28	0x3dd4a0f5	0.103822626
29	0x3d34c283	0.044130813
30	0x3dcaccbf	0.099023335
31	0x3c9d3a36	0.019192796
32	0x3dae1780	0.08500576
33	0x3dce5a9e	0.100758776
34	0x3db439fb	0.088001214
35	0x3dd21401	0.10257722
36	0x3d3087d1	0.043098275
37	0x3d96aebc	0.07357547
38	0x3d826718	0.0636732
39	0x3da00039	0.078125425
40	0x3dbefbb4	0.09325352
41	0x3da5898f	0.08082878
42	0x3d4e40b0	0.05035466
43	0x3dc4cac8	0.0960899
44	0x3dd8fe32	0.10595359
45	0x3d441903	0.047875416
46	0x3db86619	0.090038486
47	0x3ddb93fa	0.10721584
48	0x3ddff1e1	0.109348066
49	0x3dc5524f	0.0963484
50	0x3de6079a	0.11231919
51	0x3e0018d1	0.12509467
52	0x3dc9ffd9	0.09863252
53	0x3d45a6dc	0.048254833
54	0x3ddaade0	0.10677695
55	0x3dbef4db	0.09324046
56	0x3dc90386	0.09815125
57	0x3dd32aad	0.10310874
58	0x3d3029ba	0.043008544
59	0x3df1c29f	0.11804699
60	0x3da11dc8	0.078670084
61	0x3dba4fdf	0.090972655
62	0x3da530fc	0.08065984
63	0x3de27ddf	0.11059164

batchnorm3.running_mean f4 [64]
0	0x3b09b6d9	0.0021013527
1	0x3ece3c48	0.40280366
2	0xbe8c9bfe	-0.27462763
3	0xbf067572	-0.5252296
4	0xbe4b70c6	-0.19867238
5	0xbd29392c	-0.04131429
6	0x3e7d1211	0.24713923
7	0xbe2d20b3	-0.16907005
8	0xbe46b53e	-0.19405076
9	0xbea21053	-0.3165308
10	0xbd107492	-0.03526742
11	0xbea2f023	-0.31823835
12	0xbea9cea7	-0.33165476
13	0xbe2ba1cb	-0.16760938
14	0x3e308b60	0.17240667
15	0x3ea201d8	0.31642032
16	0xbe49313a	-0.19647685
17	0xbef13468	-0.47110295
18	0xbf1367d4	-0.57580304
19	0xbeb6e3ca	-0.35720664
20	0xbe7d3ece	-0.2473099
21	0xbe7c2a30	-0.24625468
22	0xbf078c34	-0.5294831
23	0xbdd2c52f	-0.10291516
24	0xbeb08702	-0.34478003
25	0x3d908d1a	0.07058163
26	0xbf1d73f2	-0.61505044
27	0xbe0ec3ca	-0.13941875
28	0xbed85412	-0.4225164
29	0xbe2a8ec9	-0.1665603
30	0xbe9510c6	-0.2911436
31	0xbeadaf54	-0.33922827
32	0xbe1acef0	-0.15118003
33	0xbe23c0b1	-0.15991475
34	0xbd88e773	-0.066847704
35	0xbe881dee	-0.26585335
36	0xbeb5b36b	-0.35488448
37	0xbd5d8bc5	-0.054088373
38	0xbec77ea7	-0.38963816
39	0xbe7ba000	-0.24572754
40	0x3ecc2d8c	0.398785
41	0xbe1c63b3	-0.15272407
42	0x3e8b5d1f	0.27219483
43	0xbeaa961b	-0.33317646
44	0xbe81a3ef	-0.25320384
45	0x3e74287f	0.23843573
46	0x3ea96282	0.33082968
47	0xbe72c19a	-0.23706666
48	0xbe91284e	-0.28351063
49	0xbe91b6f7	-0.28459904
50	0xbec7501a	-0.389283
51	0xbf0e6d59	-0.556356
52	0x3dad8af9	0.084737726
53	0x3e413ba6	0.1887041
54	0xbd584e26	-0.052808903
55	0x3cddee6c	0.027091227
56	0xbe567ba0	-0.20945597
57	0xbeb4d33a	-0.35317403
58	0x3e1cd765	0.15316541
59	0xbe65ae8f	-0.2242987
60	0x3e03f2e3	0.12885623
61	0x3dac397a	0.084094
62	0xbdf69979	-0.12040991
63	0x3ecff4d9	0.4061649

batchnorm3.running_var f4 [64]
0	0x3f6acda5	0.9172004
1	0x3f7d54ea	0.98957694
2	0x3f5e0adf	0.8673534
3	0x3f83f79e	1.0309942
4	0x3f1a9381	0.60381323
5	0x3f4ab3d4	0.79180646
6	0x3f7a9eee	0.9789876
7	0x3f8a9052	1.0825293
8	0x3f1d9e9d	0.6157015
9	0x3f4ba562	0.7954923
10	0x3f356bc5	0.7086757
11	0x3f284ac5	0.6573909
12	0x3f1481ef	0.5801076
13	0x3f57e8a8	0.8433938
14	0x3f61ee74	0.88254476
15	0x3f58f804	0.8475344
16	0x3f2f2791	0.6841975
17	0x3f8e9f40	1.1142349
18	0x3f322b77	0.6959757
19	0x3f0ab405	0.5418094
20	0x3f0a5240	0.54031754
21	0x3fb211a6	1.3911636
22	0x3ef375b9	0.47550753
23	0x3f4f2799	0.80919796
24	0x3ee9aff4	0.45642054
25	0x3f846461	1.0343133
26	0x3fd4337b	1.657821
27	0x3f45adcd	0.77218324
28	0x3ef020c5	0.469
29	0x3f4c9c6b	0.79926175
30	0x3efb8875	0.49127546
31	0x3f1343f6	0.57525575
32	0x3f860efc	1.0473323
33	0x3f7dbba9	0.9911447
34	0x3f934236	1.1504581
35	0x3f82022d	1.0156914
36	0x3f31180b	0.6917731
37	0x3f54a02b	0.83056897
38	0x3f1930a9	0.59839875
39	0x3f2c6ff1	0.6735831
40	0x3f89a13d	1.0752331
41	0x3f5aa626	0.8540977
42	0x3f0a7e27	0.54098743
43	0x3f75e0c1	0.9604607
44	0x3fbaf446	1.4605796
45	0x3f709675	0.9397958
46	0x3f92d395	1.147082
47	0x3f488b3f	0.7833747
48	0x3e8d145c	0.27554595
49	0x3f6d052c	0.92586017
50	0x3ef35a17	0.4752967
51	0x3f3f1cb0	0.7465315
52	0x3f9b5749	1.2136012
53	0x3f374351	0.7158709
54	0x3f8f6adc	1.1204486
55	0x3f7358dd	0.9505747
56	0x3f7f70f5	0.99781734
57	0x3ee3c9ce	0.44489902
58	0x3eeb2662	0.4592772
59	0x3f814b47	1.0101098
60	0x3ec7fb14	0.39058745
61	0x3f44dbce	0.76897895
62	0x3f126409	0.5718389
63	0x3f71a066	0.94385374

batchnorm3.weight f4 [64]
0	0x3f8d2d9f	1.1029547
1	0x3f8eca7b	1.1155542
2	0x3f8d37a1	1.1032602
3	0x3f9043d1	1.1270696
4	0x3f8cf70a	1.101289
5	0x3f90e671	1.1320325
6	0x3f91696e	1.13603
7	0x3f8b866c	1.0900397
8	0x3f8dd054	1.1079202
9	0x3f914635	1.134955
10	0x3f9034e1	1.1266137
11	0x3f939200	1.1528931
12	0x3f916bab	1.1360983
13	0x3f8e53d6	1.1119335
14	0x3f8f2d83	1.1185764
15	0x3f9356af	1.1510829
16	0x3f8b1d58	1.086833
17	0x3f9081c6	1.1289604
18	0x3f8e8404	1.1134038
19	0x3f8e5ae5	1.1121489
20	0x3f91a1d0	1.1377506
21	0x3f93fc9f	1.1561469
22	0x3f8db2bb	1.1070169
23	0x3f8dc334	1.1075196
24	0x3f8af158	1.0854902
25	0x3f8c5d9e	1.096607
26	0x3f9382cb	1.152429
27	0x3f8ddaee	1.1082437
28	0x3f8d15f1	1.1022321
29	0x3f8c7aed	1.0975014
30	0x3f928582	1.1446993
31	0x3f8c0499	1.0938903
32	0x3f8c11e2	1.0942957
33	0x3f917cba	1.1366189
34	0x3f8dca76	1.1077411
35	0x3f8f8f19	1.1215545
36	0x3f8d88d9	1.1057388
37	0x3f8cec9a	1.1009705
38	0x3f8b298d	1.0872055
39	0x3f8be5ee	1.0929544
40	0x3f8e1174	1.1099076
41	0x3f8f5fd2	1.1201117
42	0x3f8d6c07	1.1048592
43	0x3f8d2712	1.1027548
44	0x3f8e622a	1.1123707
45	0x3f8c8c8b	1.098039
46	0x3f8f0cf9	1.1175834
47	0x3f8fb8e5	1.12283
48	0x3f8d6d0e	1.1048906
49	0x3f8d9b31	1.1062986
50	0x3f8f7bd2	1.1209662
51	0x3f908ffa	1.1293938
52	0x3f8e7b8e	1.1131456
53	0x3f8b5b96	1.0887325
54	0x3f9108c1	1.1330796
55	0x3f8f146f	1.1178111
56	0x3f8fc4a9	1.1231891
57	0x3f903145	1.1265036
58	0x3f895317	1.0728482
59	0x3f92b7e0	1.1462364
60	0x3f8c8d95	1.0980707
61	0x3f8fcb71	1.123396
62	0x3f8e6ef7	1.1127614
63	0x3f92a708	1.1457224
