src/hardware_fpga/mlp_v2/mlp_2810_1742.onnx (onnx, 79164 bytes, 17 tensors)

batchnorm1.bias f4 [128]
00000000: 01cf 3b3c 4884 f2be d8f5 d2be 9b0d bcbe
00000010: 29c2 a2be a0b0 82be 1b74 86be 2b27 a5bd
00000020: 793f 8bbe dab2 c5be 6f70 a9be fc37 06bc
00000030: 8f22 b6be ad2e 65be a80c 18be 83f6 79be
00000040: 5707 61be 16e4 90be 9fa5 4abe a827 95be
00000050: b6a8 d3be 3188 8bbe f9af a9be baa2 6fbe
00000060: 30cc bbbd a4d0 efbe 484e 89be f4c6 e4be
00000070: e207 74be 89ff 1ebe 9616 cbbe c4ec 1dbd
00000080: 8c14 c5be aa75 74be 69d4 0abf 1d7c cebe
00000090: eb95 b0be de7e 8bbe 596d 8dbe 6d07 9abe
000000a0: 7141 38bd 5ccc 34be 8f35 2ebe f96c 84bd
000000b0: e5b1 f8bd 8881 e8bd ad16 8abe 6c99 7ebe
000000c0: 4c30 03be 464c 9bbe 52e6 01bf b75a a8be
000000d0: d6d5 1fbe 3f67 3abe ef2e a2be 6207 17bd
000000e0: 696c 71be 3f2e 99be b8ce 34be d557 c0be
000000f0: 2430 a1be fb4e 47be c908 dabe 2487 61be
00000100: f586 95bd 251b 95ba c42c 1bbd 2518 07bf
00000110: 14cb a4be 9050 aebe 50a3 e0be 6244 96be
00000120: f1cb acbe c693 52be 9967 10be df22 81be
00000130: 0673 f5be caba ccbe 4180 6abe 994b 90be
00000140: f040 97be f3c2 d3be da14 9abe 1aec 0bbd
00000150: 780a f1be 4c16 9cbe 4fc3 953c c1d4 8abe
00000160: 6da6 f0be ec69 29be 72f9 62be 933b 5dbe
00000170: 0bab 9dbe 848a d4be 4d36 aebe d4b8 46be
00000180: b969 c3bd 334b 0cbf d7a6 2fbe f55b 8abe
00000190: 3363 57be 1b55 4fbe f34f 39be 7714 90be
000001a0: 2589 91be 48b9 e5be 1bdf fcbe 35e5 94be
000001b0: aad9 0bbe ee17 a6be b8a5 7cbe 79a1 99be
000001c0: c6d3 91be fcfe c4be 0330 f3be 6206 8cbe
000001d0: e204 9cbe eb8a 5cbd 90ad acbe df85 07bf
000001e0: 6450 a7be 8cf8 a6be 7415 a6be 85f7 42be
000001f0: 2e80 2fbd d4ae 4cbe 1fd2 c9be e62e c6be
0.011462928 -0.47366548 -0.4120319 -0.3672913 -0.31788757 -0.2552538 -0.26260456 -0.08064111
-0.27196863 -0.38613015 -0.33093593 -0.008192059 -0.3557324 -0.22381087 -0.14848578 -0.24410443
-0.21975456 -0.28299016 -0.19789742 -0.29131818 -0.41339654 -0.27252343 -0.3314207 -0.23401919
-0.09169805 -0.46838868 -0.26817536 -0.4468304 -0.23831132 -0.15527166 -0.3966567 -0.038555875
-0.3849224 -0.2387301 -0.5423036 -0.40329066 -0.34489378 -0.2724523 -0.27622488 -0.3008379
-0.044984285 -0.17656082 -0.17012618 -0.064660974 -0.12143306 -0.11352831 -0.26970425 -0.24863213
-0.12811393 -0.3033163 -0.50742066 -0.3288171 -0.15608916 -0.18203448 -0.31676432 -0.036872275
-0.23576511 -0.29918095 -0.17656982 -0.3756701 -0.3148204 -0.19463722 -0.42584828 -0.22024208
-0.07301132 -0.0011375888 -0.03788449 -0.52771217 -0.32186186 -0.3404584 -0.43874598 -0.29349047
-0.33749345 -0.20564184 -0.1410202 -0.25221917 -0.47939318 -0.3998626 -0.22900487 -0.28182676
-0.2954173 -0.41359672 -0.30094033 -0.03416071 -0.470783 -0.3048576 0.018281607 -0.27115443
-0.47001973 -0.16544312 -0.22165468 -0.21604757 -0.30794558 -0.4151193 -0.34025803 -0.19406444
-0.09541649 -0.54802245 -0.17153488 -0.27023283 -0.21033935 -0.20247309 -0.18096904 -0.28140613
-0.28424945 -0.4486792 -0.49388966 -0.2908112 -0.13657251 -0.32440132 -0.24672592 -0.30006006
-0.28481883 -0.38475788 -0.47497568 -0.2734862 -0.30472475 -0.05384342 -0.33726168 -0.52938646
-0.3267852 -0.326115 -0.32438242 -0.19039734 -0.04284685 -0.19988567 -0.39418122 -0.38707656

batchnorm1.running_mean f4 [128]
00000000: f614 1e40 5ab8 4a3e 66ec c8bf c24d 9a3f
00000010: 1e4c 3dc0 c373 a0be e2c8 0f3d 4697 f33d
00000020: 597f 073f ae9c 9ebc 0bd5 febf 207a 0a40
00000030: b00f 1e3f 30c6 8340 9ad1 8340 5f05 173f
00000040: 1c0b 3ec0 e1db 673e fe39 2640 ee7e cc3f
00000050: 6cfa aebf b03b bbbf 122d 953f c11d b9bf
00000060: 3eec 0940 d1f9 473f 95e0 bb3f dd5d 8e40
00000070: 7fae ef3e 3bfb 16c0 3492 b03f 7030 1740
00000080: 7296 9fbf 4ce4 3ebe 231b 18bf 5447 b8be
00000090: a26c 293e 226a d33f b835 563f 58d6 3f40
000000a0: c52e dfbf 832c 0cbf ca86 b7bf e649 2d40
000000b0: 0f71 2fc0 92b5 bd3f b54a 4dbf ac14 16bf
000000c0: 569a 88be 0a6a 3840 432c 453f 9019 6140
000000d0: 17c3 ee3f 473d b03f 56af 27bf 426e 903f
000000e0: ac31 2abf 75a6 1e3e 79ac 243d 0eac 41be
000000f0: 3066 1f3f 56d5 1e40 f984 7340 3dd7 043f
00000100: f7b3 cdbf 8f83 6cbf 2737 c2bf a94e a0bf
00000110: 8e9b fa3f ceb4 80bf 2dd9 6abf 131d 9f3f
00000120: d6bb eb3e 31c2 353f dde4 89bf 2342 76bf
00000130: 1e89 13bf 52a6 26be 8670 9d3f 4a7f 0bc0
00000140: e070 cd3f 9c95 973f ab05 8e3f 1099 1dbf
00000150: cdb0 cabf 58f8 ecbd 61c9 42bf 165e 8c3f
00000160: 68e6 1d3f dab4 113f 77b8 53c0 6881 05bc
00000170: 938e 5240 12bb 96be f0e6 e4bf c573 07c0
00000180: 7b15 303f e8fb 9bbf 401c 8340 3b2c 153f
00000190: b858 d33f 5038 9040 a5f2 3b40 10ee febf
000001a0: 631e 803f b4dd 2d3f f479 e13f aada 93bf
000001b0: 049f d9be f131 2a40 d409 0840 19a3 42be
000001c0: a8b2 eabe 3408 4940 1cd1 483f e54e e53f
000001d0: 9fc2 8d3e a7d9 3bc0 abf1 9b3d d25b 8040
000001e0: ae40 983f 58cd 34c0 67db f2bf 1587 ca3f
000001f0: 456c e73e 7488 a8bf abb6 3e40 2bc7 8040
2.4700294 0.19796887 -1.5697143 1.205498 -2.9577708 -0.3133832 0.035103686 0.118940875
0.5292869 -0.01936182 -1.9908766 2.163704 0.6174269 4.117943 4.119336 0.5899257
-2.969428 0.22642471 2.5972896 1.5976236 -1.3670173 -1.462759 1.1654379 -1.4462205
2.155044 0.78115565 1.4677912 4.448958 0.46812817 -2.359084 1.3794618 2.3623314
-1.2467787 -0.18641776 -0.5941641 -0.3599192 0.16545346 1.6516764 0.8367572 2.9974575
-1.7436148 -0.5475542 -1.4338009 2.7076354 -2.7412755 1.4821036 -0.8019212 -0.5862529
-0.2668025 2.881472 0.77020663 3.5171852 1.8653287 1.37687 -0.65501916 1.1283648
-0.66482043 0.15493186 0.040203545 -0.1891329 0.622653 2.481771 3.804991 0.5189093
-1.6070546 -0.9238824 -1.5173081 -1.2524005 1.9578722 -1.0055177 -0.91737634 1.2430748
0.46041745 0.7099944 -1.0772969 -0.96194667 -0.576311 -0.16274384 1.2299964 -2.179644
1.6050072 1.1842532 1.109548 -0.6156168 -1.5835205 -0.11570805 -0.7608853 1.0966213
0.616797 0.5691658 -3.3081338 -0.008148529 3.289952 -0.29439598 -1.7882977 -2.116441
0.68782777 -1.2186251 4.0971985 0.58270615 1.651145 4.506874 2.9366848 -1.9916401
1.0009273 0.6791642 1.7615342 -1.1551106 -0.42504132 2.6592982 2.1255999 -0.1900753
-0.4583943 3.1411257 0.78444076 1.7914702 0.27687547 -2.9351594 0.07614454 4.0112085
1.1894739 -2.8250332 -1.8973206 1.5822474 0.4519979 -1.3166642 2.9798992 4.0243125

batchnorm1.running_var f4 [128]
00000000: 771f 5f3e d55b 553e 62c2 c83e dbff 9a3e
00000010: 163c 7a3e f5c1 a93e 7c35 1a3e 6bc7 753e
00000020: b2d5 9e3e cb73 f03d 7a7f 8a3e c7b9 9b3e
00000030: d056 413e 51f4 953e 7638 5d3e ad70 403e
00000040: dd81 a53e 3c3d 683e 30f0 a03e 93d9 543e
00000050: 0ff8 163e bce5 633e 0184 813e 31e7 a83e
00000060: 490c 353e aed7 423e 77ec 8b3e 5270 a63e
00000070: 8ec3 473e 3860 a63e 1317 933e b69c 963e
00000080: 1ac1 773e c840 c53e bd29 d33d e856 1b3e
00000090: 9925 113e 3c49 3f3e 17b1 513e 9545 6f3e
000000a0: 43fa 853e fbf8 833e 9a8b 353e 5e16 833e
000000b0: d1d4 873e cbe3 953e a553 1c3e 7df3 1e3e
000000c0: 4cf9 d63e 5942 8e3e 60f2 f43d 0f03 863e
000000d0: 8ca6 193e 032d bf3e d9d4 363e c50e 9f3e
000000e0: e00b 7f3e 45c5 813e 0782 043e 4e80 493e
000000f0: ef5e af3e c06e f53d 1520 9e3e cc2b 1e3e
00000100: 5172 943e f09b e73e fbfd 973e 8242 853e
00000110: 2a07 c03e 644f 653e cbca 8e3e 18d2 4a3e
00000120: 3f00 1c3e ea09 953e a592 193e 642d b63e
00000130: fe8c 693e 5c83 153e 8ae3 333e 10e0 c23e
00000140: e556 8a3e b897 9a3e 1ff3 813e e7b5 173e
00000150: ac37 523e 4901 523e 7dc1 293e 4d9c 0d3e
00000160: fa68 903e 3c9a 443e ade9 993e 753d b73e
00000170: 7fc4 5c3e 626c 313e d680 9f3e aae0 513e
00000180: 6945 d63d 19dc 8f3e 866f 4f3e eb47 0e3e
00000190: 98ab 8e3e f18e 663e eed7 973e 94a1 1b3e
000001a0: 2741 7a3e 4d09 183e 0138 083e 9642 853e
000001b0: c7fa af3e f3fd 9c3e 65b2 753e 0a79 b93e
000001c0: 3799 233e 047d 3b3e 5bb0 123e 37c9 4e3e
000001d0: 8f5b 9c3e 8fb3 503e 38de 133e 2031 823e
000001e0: 13a4 573e 92a1 743e 3dc9 b23e f781 643e
000001f0: 9c70 623e 907c a63e 98c5 6b3e 35e6 783e
0.21789347 0.20835812 0.39210802 0.30273327 0.24436983 0.3315579 0.15059465 0.24001853
0.31022412 0.11740836 0.27050382 0.30415174 0.18880773 0.2928796 0.2160357 0.18792982
0.3232564 0.22679609 0.3143325 0.20786123 0.14743064 0.22255605 0.25296023 0.32988885
0.17680468 0.19027588 0.27328846 0.3250757 0.19508192 0.32495284 0.28728542 0.29416436
0.24194756 0.38525987 0.10310695 0.15169871 0.14174499 0.1868028 0.2047771 0.23366387
0.26167497 0.25775895 0.17729035 0.25603002 0.26529554 0.29275355 0.15266283 0.15522571
0.41987073 0.27784994 0.11960292 0.2617421 0.15004939 0.3733903 0.17854632 0.31065956
0.24906874 0.25345817 0.12940226 0.1967785 0.34252116 0.119840145 0.30883852 0.15446395
0.28993466 0.45236158 0.2968596 0.26027304 0.37505466 0.22393566 0.27889094 0.19806707
0.15234469 0.29109126 0.14997347 0.35581505 0.2280769 0.14600891 0.17567268 0.3806157
0.2701942 0.30193877 0.253808 0.14815484 0.2052905 0.20508303 0.16577716 0.13829155
0.2820509 0.1919946 0.30061093 0.35789075 0.21559332 0.17326501 0.31152982 0.20495859
0.10462458 0.2809761 0.20257387 0.13894622 0.2786529 0.22515465 0.2965693 0.15198356
0.24438916 0.14847298 0.13302614 0.26027364 0.34371015 0.30662498 0.23993833 0.36225158
0.15976416 0.18309408 0.14325087 0.20193945 0.30538604 0.20380996 0.14440238 0.25428104
0.21058683 0.23889759 0.34919158 0.22315203 0.2211327 0.3251691 0.23024595 0.24306567

batchnorm1.weight f4 [128]
00000000: 5621 a03f d513 8f3f edfd 8a3f 1ba2 993f
00000010: 82fb 8b3f 1810 823f 6197 583f 285a 413f
00000020: ef66 8d3f e70e 8a3f bb5e 633f 3eaf 983f
00000030: fb68 593f 3111 9d3f 29cc 843f b5d9 4e3f
00000040: 80cc 9a3f d1fc 873f 0685 503f ca55 3c3f
00000050: 0573 853f b596 733f 8d46 813f ee17 8f3f
00000060: 2ab2 5a3f 57c5 703f 88ad 8b3f 69dc 743f
00000070: 1a88 703f cf8f 813f adae 813f 9517 783f
00000080: 5e65 703f 322f 7c3f 269f 613f fd25 613f
00000090: f592 813f eb9d ac3f 055d 633f 4f49 833f
000000a0: 86a4 6f3f 0763 a83f 7d23 923f fd3b 843f
000000b0: 9faa 843f 48b5 973f 3a20 7a3f 4b03 713f
000000c0: f2aa 833f ffe0 8a3f 23fb 883f dc68 8c3f
000000d0: b6c5 793f b350 823f f852 803f 8acb 453f
000000e0: 751d 653f 7a5b 8f3f 750d 693f db1f 723f
000000f0: 805d 963f 078c 793f 98a0 733f c2bb 843f
00000100: 4263 853f c369 a03f 3de6 883f 6f97 0d3f
00000110: 984d 7a3f 2d18 4a3f 61fc 8f3f 94f2 773f
00000120: d74d 483f afe5 963f dbb8 8b3f 9b18 7b3f
00000130: 2f0e 663f c69e 873f fc7e 5b3f c14c 813f
00000140: ab9e 5f3f a64c 813f 4251 a03f e71b 4f3f
00000150: 47bc 8e3f e1f6 aa3f d48d 933f 30ee 403f
00000160: f8f5 8d3f 0716 933f 62bc 933f 4a1a a93f
00000170: 896f a23f ba39 833f 7d25 883f 4da5 973f
00000180: dcbe 553f 730d 873f 9c44 803f f73b 7d3f
00000190: 3038 8d3f a266 473f 86ea a03f 43d1 383f
000001a0: 7856 823f 6737 6e3f 7e09 523f 06d0 7a3f
000001b0: 317e 8c3f a4af 6e3f c32d 963f b272 7e3f
000001c0: aa18 673f 030c 4c3f 540c 533f b4d9 543f
000001d0: 4fee 943f a938 7d3f c520 823f 28ed 8d3f
000001e0: 1171 8c3f 2496 6e3f a3ec 413f ac91 763f
000001f0: a36a 793f d833 7e3f b391 793f bd66 523f
1.2510173 1.1177927 1.0858742 1.2002596 1.0936129 1.0161161 0.84605986 0.7552819
1.1047038 1.0785798 0.8881642 1.192848 0.8492581 1.2270871 1.0374805 0.80800945
1.2093658 1.0624028 0.8145298 0.73568404 1.0425726 0.95151836 1.0099655 1.1179178
0.85428107 0.94051117 1.0912333 0.9564882 0.93957675 1.0122012 1.0131432 0.96910983
0.93904674 0.98509514 0.88133466 0.8794859 1.0122973 1.3485693 0.8881381 1.0256747
0.9361042 1.3155221 1.141708 1.0330807 1.036457 1.1852198 0.97705424 0.9414565
1.0286543 1.0849913 1.0701641 1.09695 0.9756731 1.0180877 1.002532 0.772637
0.8949807 1.1199791 0.9103616 0.9457986 1.1747284 0.9747929 0.9516692 1.0369799
1.0420916 1.2532276 1.0695263 0.55309194 0.9777465 0.7894314 1.1248895 0.9685452
0.78243774 1.1788844 1.0915788 0.9808442 0.8986539 1.0595329 0.8574064 1.0101548
0.87351483 1.0101516 1.2524798 0.8090195 1.1151208 1.3356591 1.1527658 0.75363445
1.1090689 1.1491097 1.1541865 1.3211148 1.2690288 1.0251992 1.063644 1.1847321
0.83494353 1.0550979 1.0020938 0.98919624 1.1032772 0.7789098 1.2571571 0.7219431
1.0182638 0.9305329 0.82045734 0.9797367 1.097601 0.93236756 1.1732715 0.9939376
0.9027201 0.7970583 0.82440686 0.8314469 1.1635226 0.9891458 1.016625 1.1087999
1.0972005 0.93197846 0.75751704 0.9631603 0.9742834 0.9929786 0.97487944 0.82188016

batchnorm2.bias f4 [64]
00000000: 6c7d 2bbe 4d63 9cbe ebc2 28be fc8f 74be
00000010: bec3 a3be 1589 03bf 329b 33bf 35ea 8ebe
00000020: 52b1 e9be ee65 82be c2a9 0bbe 3419 14bf
00000030: 61fd cdbe 4018 7fbe 5599 c8be 3277 e1bd
00000040: e96e a7be 8acc 47bf 9d3e e8be afb2 28be
00000050: 6d15 57be 123b edbe 42d8 9fbe 774e 3bbe
00000060: 39e6 19bf d51d d3be aadc 44bf 840b ddbd
00000070: 12d4 4abf f436 33be 4d30 1cbf 495f 1dbe
00000080: 83f2 92be e6bc 7ebe fe43 e9be d154 2dbf
00000090: 954d d5be 514e d9be 4ad6 bebe 9766 59be
000000a0: 67b9 ccbe 5a90 c9be f206 2dbe cd8d 82be
000000b0: d67b 72bd 6eb2 25be 500c 33be e5b6 f2be
000000c0: 9204 c1bd 4e8b 2fbe a4b9 4ebe cc8e 05bf
000000d0: fe33 93be 48a5 62be d716 f2bd 4566 f1be
000000e0: 0493 e0be 447b 1abf 116d 19bf 9e7f 09bf
000000f0: 3c17 f2be 4d40 10bf b8ef 11bf 2cdc bbbc
-0.16747063 -0.3054451 -0.16480605 -0.2388305 -0.31985277 -0.51381046 -0.70158684 -0.2791306
-0.45643097 -0.2546839 -0.13638976 -0.57850957 -0.40232375 -0.24911594 -0.39179483 -0.11009063
-0.32701805 -0.78046477 -0.4536027 -0.16474412 -0.21004267 -0.4633413 -0.3121968 -0.1829165
-0.60116917 -0.41233698 -0.76899207 -0.10793212 -0.79229844 -0.17501432 -0.610112 -0.1536838
-0.28700647 -0.24876747 -0.45559686 -0.67707545 -0.41660753 -0.42442563 -0.37272865 -0.21230541
-0.399852 -0.39367944 -0.1689718 -0.2549881 -0.05920013 -0.16181347 -0.17485166 -0.47405162
-0.094247 -0.17142984 -0.20188004 -0.52171016 -0.28750604 -0.22133362 -0.118207626 -0.47148338
-0.43862164 -0.6034434 -0.5993205 -0.53710353 -0.4728335 -0.56348115 -0.57006407 -0.022932135

batchnorm2.running_mean f4 [64]
00000000: f72a 0d40 7d0b 513e 4a06 f33f ea19 3ebf
00000010: 2cec 2f40 88ff e4bf e0f3 3240 cd1b 07bf
00000020: ba3f d13f 42a9 a33d 847b 093f 1207 973f
00000030: d9ce 88bf 6ba0 c23e a3c9 efbe a8eb 2d40
00000040: 2063 2fbf ada9 a83f 40ad a4bf 304e 1a3f
00000050: 0607 2640 cf2b 0b40 d30b 40c0 124f 163f
00000060: 167f 51bf 55a6 3840 1190 863f bdf3 e33e
00000070: 1a62 0940 cdbe d83e 7611 b3bf ddb8 663e
00000080: 0e16 0840 3ce9 5a3e 349e 50bf de85 c73e
00000090: 053f b13c 724e 3cbf 955a 913f 91fd 06c0
000000a0: 00e6 9cbe 4f12 70bf 5c6f 9dbe 29ff e0bf
000000b0: 7484 313f 3fce 1dc0 a0c9 833b 96fd eabf
000000c0: 332c a53f 3f10 383f dc69 593e bee2 3240
000000d0: e9ea f43f 3477 0540 7fb2 893f e63b c9bf
000000e0: 3323 23c0 88f0 adbf 8150 a8bf bcad 2bbf
000000f0: 8187 8a40 025f 60bf c0bd 3f40 f311 2040
2.2057474 0.20414539 1.8986294 -0.7425829 2.7487898 -1.7890482 2.796135 -0.52776796
1.6347573 0.07991268 0.53704095 1.1799033 -1.0688125 0.38013014 -0.46833524 2.7175083
-0.6851063 1.3176781 -1.2865372 0.60275555 2.5941787 2.1745489 -3.0007217 0.587144
-0.8183454 2.885152 1.0512716 0.44521895 2.1466126 0.4233307 -1.3989704 0.22531457
2.126346 0.21378034 -0.814914 0.3896932 0.021636495 -0.735572 1.1355768 -2.1092265
-0.30644226 -0.93777937 -0.30749023 -1.7577869 0.6934273 -2.4657133 0.0040218383 -1.8358638
1.2904114 0.7189979 0.21231788 2.7950892 1.9134189 2.0854006 1.0757598 -1.5721405
-2.5490234 -1.3589029 -1.3149568 -0.6706197 4.329041 -0.8764497 2.9959564 2.5010955

batchnorm2.running_var f4 [64]
00000000: 9b3f b340 d8d0 7740 8f83 e340 3897 2a41
00000010: c2e1 8140 06bf 3140 abc8 0141 0595 3441
00000020: 4cb9 9840 29bc c540 29cd c740 50a7 c440
00000030: 6572 2b41 a8e3 0140 0b23 1a40 4118 ad40
00000040: 283a 5340 013b fe40 def9 a240 6758 d340
00000050: a8d7 ac40 8acc a740 da13 3a41 9539 8240
00000060: 0d6e 2b41 3e24 a140 6050 1541 29ee a840
00000070: 2031 0641 6be7 9240 ee1e 6c40 d24c 9d40
00000080: daf6 b340 8e26 8540 7aa7 8440 d92f c440
00000090: e0e9 8440 0986 6940 ca8e 9240 9d1c fe40
000000a0: 3163 6640 baee ba40 d4ad 2540 a8fa b840
000000b0: 531c 9a40 5503 3641 6e3e 9140 f818 0c41
000000c0: c591 a040 47f0 d340 e96c 6540 83a1 9e40
000000d0: 7ba4 9240 c426 7e40 029a 1d41 a60c 4440
000000e0: f828 bc40 fffc 4840 6a9e 0f40 814e e040
000000f0: c52f e940 cc55 4841 b482 e740 a2fe cd40
5.6015143 3.8721218 7.1098094 10.661919 4.0588083 2.7772841 8.111491 11.286382
4.7726192 6.179219 6.243794 6.145424 10.715428 2.02952 2.4083889 5.4092107
3.3004246 7.9447026 5.0930014 6.6045413 5.401325 5.243718 11.629847 4.069529
10.714368 5.035674 9.332123 5.2790723 8.386993 4.5907493 3.6893878 4.9156275
5.6238832 4.1609564 4.145444 6.130841 4.153549 3.6488059 4.5799303 7.940993
3.5998042 5.8416414 2.5887346 5.7805977 4.8159575 11.3758135 4.538871 8.756096
5.017794 6.6230807 3.5847723 4.957216 4.582578 3.971116 9.8501 3.063272
5.880001 3.1404417 2.2440438 7.009583 7.2870812 12.5209465 7.234705 6.437333

batchnorm2.weight f4 [64]
00000000: ed0a 763f 0b87 843f 1b21 773f 554d 923f
00000010: bad5 5e3f 3c15 583f 1af5 713f 2512 5a3f
00000020: 16a0 673f 3921 703f 2824 563f 93c8 6c3f
00000030: 21f2 823f 4476 5e3f 0eba 803f 1462 553f
00000040: 8e01 8f3f b214 773f 4717 5b3f 74c4 6a3f
00000050: fd93 643f fa2e 773f fd2b 803f 661d 823f
00000060: 1306 8b3f e1e9 853f 61a7 5c3f b213 623f
00000070: 7703 753f dc41 583f f315 633f ee4e 743f
00000080: 170b 6d3f fc22 7a3f b46d 4e3f 367e 763f
00000090: 994e 4b3f 2bfd 8c3f 31e2 503f 4b5f 443f
000000a0: e6ee 863f 31a6 663f 1202 933f 4976 553f
000000b0: 5559 7d3f 3b36 7e3f d067 8d3f 3e54 923f
000000c0: 9727 753f be87 6a3f 6eda 813f 706a 7b3f
000000d0: 6940 6b3f 05cb 3b3f 6716 673f 0d0e 703f
000000e0: c1b9 6a3f 3e4b 5a3f 808c 603f fee1 8d3f
000000f0: 8d05 573f 0a9a 893f bb98 7e3f ede1 463f
0.9611042 1.0353712 0.9653489 1.142985 0.8704487 0.844074 0.9451462 0.85183936
0.90478647 0.93800694 0.8364892 0.9249355 1.0230142 0.8689921 1.0056779 0.8335278
1.117235 0.96515954 0.85582393 0.91706014 0.8928831 0.96556056 1.0013424 1.0165222
1.0861229 1.0461999 0.861929 0.883113 0.9570841 0.84475493 0.88705367 0.9543294
0.92595047 0.9770963 0.80636144 0.9628633 0.79416806 1.1014761 0.8159514 0.76707906
1.0541656 0.9009734 1.1485007 0.83383614 0.98964435 0.993015 1.1047306 1.1431959
0.95763534 0.91613376 1.0144784 0.98209286 0.9189516 0.7335666 0.9026856 0.9377144
0.9168969 0.8527106 0.87714386 1.1084592 0.83992845 1.0750134 0.994518 0.77688485

batchnorm3.bias f4 [32]
00000000: 7f63 9d3e 8001 853e cc4b 963e d3b0 be3e
00000010: 39c8 a53e 3b19 ef3e 9ecf 053e 63bc c43e
00000020: 7d73 af3e 4186 9f3e a8a5 1e3e ddc8 713e
00000030: 41d1 153e 2cec 9d3d 5807 343e 072d b93d
00000040: db68 bc3e fdb6 5d3e 59ee aa3e c0eb f63e
00000050: b97f 1a3e 018a bd3e 7f41 9c3e e4f0 963e
00000060: 96dd 9f3e 16be 013f bde9 2a3e b46f 0f3e
00000070: 4100 793e a53c 883e f184 b83d a20b 853e
0.30739972 0.25977707 0.29354703 0.3724428 0.3237932 0.46698937 0.13067481 0.38424978
0.34267798 0.31157115 0.1549288 0.2361178 0.14630605 0.07711062 0.17580926 0.090417914
0.36798748 0.21651836 0.3338497 0.48226738 0.15087785 0.3701935 0.3051872 0.2948066
0.31223744 0.50680673 0.16690727 0.14007455 0.24316503 0.26608768 0.090097316 0.25985438

batchnorm3.running_mean f4 [32]
00000000: fff1 b13e b1f3 053f d311 823f d476 1c3b
00000010: 3ebf eabc e4d0 f83e d415 dd3e 4cc5 273f
00000020: cacb 1d3e 88f0 603f 7772 ff3e 95be fe3e
00000030: fac7 0e3f 8df8 e63e b4c4 183f 23f8 e63e
00000040: f71a 673f f2f8 a93e 2de3 813f ab0f be3e
00000050: b6f4 b13e 02cd 833f e7dd 3dbb 4e59 c53c
00000060: 2459 af3e d1ea 063f 4840 f33e cd4e dc3e
00000070: 56cd 07bf 3f39 1e3f df50 f33e 1433 593e
0.3475494 0.5232497 1.016169 0.0023874538 -0.028655645 0.4859687 0.43180716 0.65535426
0.1540977 0.8786702 0.49892017 0.49754778 0.5577389 0.45111504 0.59675145 0.45111188
0.9027552 0.33197743 1.0147454 0.3712133 0.34757012 1.0296938 -0.0028971375 0.024090435
0.34247696 0.5270205 0.4750998 0.4302887 -0.5304769 0.618061 0.47522637 0.21210891

batchnorm3.running_var f4 [32]
00000000: 144a 6e40 d8e7 fa40 49ce d840 cc9f 6d40
00000010: 085a c740 fb01 bc40 11ca e640 34c4 cb40
00000020: bc6b 6e40 a19c a040 4262 d140 682c ec40
00000030: 5b0c cf40 83b0 c340 ed57 af40 5fb6 b840
00000040: 2e46 af40 e518 c740 0ddc be40 d5b0 f140
00000050: 3bb5 b340 7e63 c440 8d53 5e40 5ebe a340
00000060: 03de bd40 31a5 9d40 e0e6 0041 d68a d740
00000070: b31c a040 d660 c340 17de 9540 c887 bd40
3.7232714 7.8408012 6.7751813 3.7128782 6.22974 5.8752418 7.2121663 6.3677006
3.7253256 5.0191197 6.5432444 7.3804207 6.470258 6.115297 5.479483 5.772262
5.477317 6.221789 5.9643617 7.552836 5.615873 6.137145 3.4738495 5.116988
5.933351 4.926415 8.056366 6.7356977 5.0035033 6.105571 4.6833606 5.922825

batchnorm3.weight f4 [32]
00000000: 1b63 0f40 475a 0740 5f27 fb3f 59e3 f63f
00000010: 40ac 8e3f d31d 0d40 33a8 f83f 8bb9 f83f
00000020: bbb7 3140 2df7 db3f 1cbe e23f 1003 0a40
00000030: 3fef e33f 563a ec3f 318b e93f 6e55 eb3f
00000040: fdb0 f03f 040c ba3f ab50 f93f 8a86 c03f
00000050: 4d86 ef3f b495 0040 757b 0040 0640 cd3f
00000060: 9e9e d83f b8b0 1d40 3d4d 0240 1f05 0340
00000070: 46de 613f f806 0a40 aa6a 0040 041b ed3f
2.240424 2.114885 1.962139 1.9288131 1.1146317 2.2049453 1.942633 1.9431623
2.776839 1.7184807 1.7714267 2.156437 1.7807387 1.8455303 1.8245603 1.8385446
1.8804013 1.4534917 1.9477743 1.5041058 1.871286 2.0091372 2.0075352 1.6035163
1.6923406 2.463911 2.0359643 2.0471876 0.8822979 2.1566753 2.0065103 1.852387

21 f4 [60, 128]
00000000: 0000 4040 0000 40c0 0000 80c0 0000 4040
00000010: 0000 00c0 0000 8040 0000 8040 0000 80bf
00000020: 0000 00c0 0000 80bf 0000 0040 0000 40c0
00000030: 0000 4040 0000 80bf 0000 00c0 0000 0000
00000040: 0000 80c0 0000 a0c0 0000 80bf 0000 0040
00000050: 0000 80bf 0000 a040 0000 4040 0000 40c0
00000060: 0000 4040 0000 803f 0000 803f 0000 0040
00000070: 0000 0000 0000 803f 0000 0080 0000 80bf
00000080: 0000 0040 0000 40c0 0000 c0c0 0000 4040
00000090: 0000 0000 0000 0040 0000 803f 0000 e040
000000a0: 0000 e0c0 0000 4040 0000 40c0 0000 00c0
000000b0: 0000 0040 0000 4040 0000 0080 0000 c040
000000c0: 0000 40c0 0000 0040 0000 80bf 0000 8040
000000d0: 0000 00c0 0000 80bf 0000 0000 0000 00c0
000000e0: 0000 0040 0000 0000 0000 80bf 0000 80bf
000000f0: 0000 803f 0000 803f 0000 80bf 0000 4040
00000100: 0000 80c0 0000 80bf 0000 a040 0000 80c0
00000110: 0000 e040 0000 8040 0000 0080 0000 80bf
00000120: 0000 80c0 0000 00c0 0000 80bf 0000 803f
00000130: 0000 80bf 0000 0080 0000 803f 0000 0040
00000140: 0000 00c0 0000 803f 0000 40c0 0000 0040
00000150: 0000 80bf 0000 80bf 0000 803f 0000 0000
00000160: 0000 40c0 0000 80bf 0000 0080 0000 00c0
00000170: 0000 0000 0000 80bf 0000 80c0 0000 803f
00000180: 0000 80bf 0000 a040 0000 0040 0000 e040
00000190: 0000 00c0 0000 80c0 0000 0080 0000 0040
000001a0: 0000 c040 0000 0000 0000 4040 0000 00c0
000001b0: 0000 0080 0000 4040 0000 40c0 0000 40c0
000001c0: 0000 c040 0000 a040 0000 e0c0 0000 0000
000001d0: 0000 00c0 0000 0040 0000 803f 0000 a040
000001e0: 0000 803f 0000 80bf 0000 0080 0000 0040
000001f0: 0000 4040 0000 803f 0000 803f 0000 c040
00000200: 0000 80bf 0000 80c0 0000 0040 0000 803f
00000210: 0000 0080 0000 80c0 0000 e0c0 0000 0040
00000220: 0000 80c0 0000 8040 0000 00c0 0000 803f
00000230: 0000 4040 0000 803f 0000 0040 0000 803f
00000240: 0000 80bf 0000 a0c0 0000 0040 0000 0040
00000250: 0000 0080 0000 803f 0000 4040 0000 803f
00000260: 0000 803f 0000 80c0 0000 4040 0000 a0c0
00000270: 0000 80bf 0000 80bf 0000 00c0 0000 0040
00000280: 0000 803f 0000 00c0 0000 00c0 0000 80bf
00000290: 0000 80c0 0000 803f 0000 40c0 0000 80bf
000002a0: 0000 4040 0000 80bf 0000 a0c0 0000 0080
000002b0: 0000 80bf 0000 8040 0000 00c0 0000 0040
000002c0: 0000 4040 0000 a040 0000 803f 0000 40c0
000002d0: 0000 8040 0000 0000 0000 0080 0000 0080
000002e0: 0000 0040 0000 0000 0000 4040 0000 80bf
000002f0: 0000 4040 0000 4040 0000 80bf 0000 0000
00000300: 0000 8040 0000 803f 0000 80c0 0000 80bf
00000310: 0000 803f 0000 80c0 0000 80bf 0000 80bf
00000320: 0000 803f 0000 4040 0000 0000 0000 803f
00000330: 0000 00c0 0000 40c0 0000 0000 0000 803f
00000340: 0000 0000 0000 0040 0000 803f 0000 803f
00000350: 0000 803f 0000 80bf 0000 0040 0000 0080
00000360: 0000 0040 0000 0040 0000 8040 0000 00c0
00000370: 0000 803f 0000 4040 0000 00c0 0000 80bf
00000380: 0000 0080 0000 4040 0000 803f 0000 0040
00000390: 0000 0040 0000 803f 0000 a040 0000 40c0
000003a0: 0000 803f 0000 4040 0000 80bf 0000 803f
000003b0: 0000 0040 0000 4040 0000 0040 0000 00c0
000003c0: 0000 0080 0000 40c0 0000 a040 0000 80bf
000003d0: 0000 0040 0000 40c0 0000 0040 0000 00c0
000003e0: 0000 803f 0000 80bf 0000 00c0 0000 80bf
000003f0: 0000 0040 0000 4040 0000 8040 0000 803f
3.0 -3.0 -4.0 3.0 -2.0 4.0 4.0 -1.0
-2.0 -1.0 2.0 -3.0 3.0 -1.0 -2.0 0.0
-4.0 -5.0 -1.0 2.0 -1.0 5.0 3.0 -3.0
3.0 1.0 1.0 2.0 0.0 1.0 -0.0 -1.0
2.0 -3.0 -6.0 3.0 0.0 2.0 1.0 7.0
-7.0 3.0 -3.0 -2.0 2.0 3.0 -0.0 6.0
-3.0 2.0 -1.0 4.0 -2.0 -1.0 0.0 -2.0
2.0 0.0 -1.0 -1.0 1.0 1.0 -1.0 3.0
-4.0 -1.0 5.0 -4.0 7.0 4.0 -0.0 -1.0
-4.0 -2.0 -1.0 1.0 -1.0 -0.0 1.0 2.0
-2.0 1.0 -3.0 2.0 -1.0 -1.0 1.0 0.0
-3.0 -1.0 -0.0 -2.0 0.0 -1.0 -4.0 1.0
-1.0 5.0 2.0 7.0 -2.0 -4.0 -0.0 2.0
6.0 0.0 3.0 -2.0 -0.0 3.0 -3.0 -3.0
6.0 5.0 -7.0 0.0 -2.0 2.0 1.0 5.0
1.0 -1.0 -0.0 2.0 3.0 1.0 1.0 6.0
-1.0 -4.0 2.0 1.0 -0.0 -4.0 -7.0 2.0
-4.0 4.0 -2.0 1.0 3.0 1.0 2.0 1.0
-1.0 -5.0 2.0 2.0 -0.0 1.0 3.0 1.0
1.0 -4.0 3.0 -5.0 -1.0 -1.0 -2.0 2.0
1.0 -2.0 -2.0 -1.0 -4.0 1.0 -3.0 -1.0
3.0 -1.0 -5.0 -0.0 -1.0 4.0 -2.0 2.0
3.0 5.0 1.0 -3.0 4.0 0.0 -0.0 -0.0
2.0 0.0 3.0 -1.0 3.0 3.0 -1.0 0.0
4.0 1.0 -4.0 -1.0 1.0 -4.0 -1.0 -1.0
1.0 3.0 0.0 1.0 -2.0 -3.0 0.0 1.0
0.0 2.0 1.0 1.0 1.0 -1.0 2.0 -0.0
2.0 2.0 4.0 -2.0 1.0 3.0 -2.0 -1.0
-0.0 3.0 1.0 2.0 2.0 1.0 5.0 -3.0
1.0 3.0 -1.0 1.0 2.0 3.0 2.0 -2.0
-0.0 -3.0 5.0 -1.0 2.0 -3.0 2.0 -2.0
1.0 -1.0 -2.0 -1.0 2.0 3.0 4.0 1.0

26 f4 [1, 255]
00000000: 7c5f 063c 3a8f c93c 5bf7 273d 1927 6b3d
00000010: 6c2b 973d 4ac3 b83d 2a5b da3d 08f3 fb3d
00000020: 74c5 0e3e 6491 1f3e 535d 303e 4229 413e
00000030: 32f5 513e 22c1 623e 118d 733e 802c 823e
00000040: 7892 8a3e 70f8 923e 685e 9b3e 5fc4 a33e
00000050: 572a ac3e 4f90 b43e 46f6 bc3e 3e5c c53e
00000060: 36c2 cd3e 2e28 d63e 268e de3e 1df4 e63e
00000070: 155a ef3e 0dc0 f73e 0213 003f fe45 043f
00000080: fa78 083f f6ab 0c3f f2de 103f ee11 153f
00000090: ea44 193f e577 1d3f e1aa 213f dddd 253f
000000a0: d910 2a3f d543 2e3f d176 323f cda9 363f
000000b0: c8dc 3a3f c40f 3f3f c042 433f bc75 473f
000000c0: b8a8 4b3f b4db 4f3f b00e 543f ac41 583f
000000d0: a874 5c3f a3a7 603f 9fda 643f 9b0d 693f
000000e0: 9740 6d3f 9373 713f 8fa6 753f 8bd9 793f
000000f0: 860c 7e3f c11f 813f 3f39 833f bd52 853f
00000100: 3b6c 873f b985 893f 379f 8b3f b5b8 8d3f
00000110: 33d2 8f3f b1eb 913f 2f05 943f ad1e 963f
00000120: 2b38 983f a851 9a3f 266b 9c3f a484 9e3f
00000130: 229e a03f a0b7 a23f 1ed1 a43f 9cea a63f
00000140: 1a04 a93f 981d ab3f 1637 ad3f 9450 af3f
00000150: 126a b13f 9083 b33f 0e9d b53f 8cb6 b73f
00000160: 09d0 b93f 87e9 bb3f 0503 be3f 831c c03f
00000170: 0136 c23f 7f4f c43f fd68 c63f 7b82 c83f
00000180: f99b ca3f 77b5 cc3f f5ce ce3f 73e8 d03f
00000190: f101 d33f 6f1b d53f ed34 d73f 6b4e d93f
000001a0: e967 db3f 6681 dd3f e49a df3f 62b4 e13f
000001b0: e0cd e33f 5ee7 e53f dc00 e83f 5a1a ea3f
000001c0: d833 ec3f 564d ee3f d466 f03f 5280 f23f
000001d0: d099 f43f 4eb3 f63f cccc f83f 4ae6 fa3f
000001e0: c7ff fc3f 4519 ff3f 6199 0040 20a6 0140
000001f0: dfb2 0240 9ebf 0340 5dcc 0440 1cd9 0540
00000200: dbe5 0640 9af2 0740 59ff 0840 180c 0a40
00000210: d718 0b40 9625 0c40 5532 0d40 143f 0e40
00000220: d34b 0f40 9258 1040 5165 1140 1072 1240
00000230: cf7e 1340 8e8b 1440 4d98 1540 0ca5 1640
00000240: cbb1 1740 89be 1840 48cb 1940 07d8 1a40
00000250: c6e4 1b40 85f1 1c40 44fe 1d40 030b 1f40
00000260: c217 2040 8124 2140 4031 2240 ff3d 2340
00000270: be4a 2440 7d57 2540 3c64 2640 fb70 2740
00000280: ba7d 2840 798a 2940 3897 2a40 f7a3 2b40
00000290: b6b0 2c40 75bd 2d40 34ca 2e40 f3d6 2f40
000002a0: b2e3 3040 71f0 3140 30fd 3240 ef09 3440
000002b0: ae16 3540 6d23 3640 2c30 3740 eb3c 3840
000002c0: a949 3940 6856 3a40 2763 3b40 e66f 3c40
000002d0: a57c 3d40 6489 3e40 2396 3f40 e2a2 4040
000002e0: a1af 4140 60bc 4240 1fc9 4340 ded5 4440
000002f0: 9de2 4540 5cef 4640 1bfc 4740 da08 4940
00000300: 9915 4a40 5822 4b40 172f 4c40 d63b 4d40
00000310: 9548 4e40 5455 4f40 1362 5040 d26e 5140
00000320: 917b 5240 5088 5340 0f95 5440 cea1 5540
00000330: 8dae 5640 4cbb 5740 0bc8 5840 cad4 5940
00000340: 89e1 5a40 47ee 5b40 06fb 5c40 c507 5e40
00000350: 8414 5f40 4321 6040 022e 6140 c13a 6240
00000360: 8047 6340 3f54 6440 fe60 6540 bd6d 6640
00000370: 7c7a 6740 3b87 6840 fa93 6940 b9a0 6a40
00000380: 78ad 6b40 37ba 6c40 f6c6 6d40 b5d3 6e40
00000390: 74e0 6f40 33ed 7040 f2f9 7140 b106 7340
000003a0: 7013 7440 2f20 7540 ee2c 7640 ad39 7740
000003b0: 6c46 7840 2b53 7940 ea5f 7a40 a96c 7b40
000003c0: 6779 7c40 2686 7d40 e592 7e40 a49f 7f40
000003d0: 3256 8040 92dc 8040 f162 8140 51e9 8140
000003e0: b06f 8240 10f6 8240 6f7c 8340 cf02 8440
000003f0: 2e89 8440 8e0f 8540 ed95 8540
0.008201476 0.024604429 0.04100738 0.057410333 0.07381329 0.090216234 0.106619194 0.12302214
0.1394251 0.15582806 0.172231 0.18863395 0.20503691 0.22143987 0.23784281 0.25424576
0.27064872 0.28705168 0.30345464 0.31985757 0.33626053 0.3526635 0.36906642 0.38546938
0.40187234 0.4182753 0.43467826 0.4510812 0.46748415 0.4838871 0.50029004 0.516693
0.53309596 0.5494989 0.5659019 0.58230484 0.5987078 0.6151107 0.63151366 0.6479166
0.6643196 0.68072253 0.6971255 0.71352845 0.72993135 0.7463343 0.7627373 0.77914023
0.7955432 0.81194615 0.8283491 0.8447521 0.86115503 0.87755793 0.8939609 0.91036385
0.9267668 0.9431698 0.95957273 0.9759757 0.9923786 1.0087816 1.0251845 1.0415875
1.0579904 1.0743934 1.0907964 1.1071993 1.1236023 1.1400052 1.1564082 1.1728112
1.1892141 1.205617 1.2220199 1.2384229 1.2548258 1.2712288 1.2876318 1.3040347
1.3204377 1.3368406 1.3532436 1.3696465 1.3860495 1.4024525 1.4188554 1.4352584
1.4516612 1.4680642 1.4844671 1.5008701 1.5172731 1.533676 1.550079 1.566482
1.5828849 1.5992879 1.6156908 1.6320938 1.6484967 1.6648997 1.6813027 1.6977056
1.7141086 1.7305114 1.7469144 1.7633173 1.7797203 1.7961233 1.8125262 1.8289292
1.8453321 1.8617351 1.8781381 1.894541 1.910944 1.927347 1.9437499 1.9601529
1.9765557 1.9929587 2.0093615 2.0257645 2.0421674 2.0585704 2.0749733 2.0913763
2.1077793 2.1241822 2.1405852 2.1569881 2.173391 2.189794 2.206197 2.2226
2.239003 2.255406 2.2718089 2.2882118 2.3046148 2.3210177 2.3374207 2.3538237
2.3702266 2.3866293 2.4030323 2.4194353 2.4358382 2.4522412 2.4686441 2.485047
2.50145 2.517853 2.534256 2.550659 2.567062 2.5834649 2.5998678 2.6162708
2.6326737 2.6490767 2.6654797 2.6818826 2.6982856 2.7146885 2.7310915 2.7474945
2.7638974 2.7803004 2.7967033 2.8131063 2.8295093 2.8459122 2.8623152 2.8787181
2.8951209 2.9115238 2.9279268 2.9443297 2.9607327 2.9771357 2.9935386 3.0099416
3.0263445 3.0427475 3.0591505 3.0755534 3.0919564 3.1083593 3.1247623 3.1411653
3.1575682 3.1739712 3.1903741 3.206777 3.22318 3.239583 3.255986 3.272389
3.288792 3.3051949 3.3215978 3.3380008 3.3544037 3.3708067 3.3872097 3.4036126
3.4200156 3.4364183 3.4528213 3.4692242 3.4856272 3.5020301 3.518433 3.534836
3.551239 3.567642 3.584045 3.600448 3.6168509 3.6332538 3.6496568 3.6660597
3.6824627 3.6988657 3.7152686 3.7316716 3.7480745 3.7644775 3.7808805 3.7972834
3.8136864 3.8300893 3.8464923 3.8628953 3.8792982 3.8957012 3.9121041 3.928507
3.9449098 3.9613128 3.9777157 3.9941187 4.010522 4.026925 4.043328 4.059731
4.0761337 4.092537 4.1089396 4.125343 4.1417456 4.158149 4.1745515

30 f4 [128, 64]
00000000: 0000 40c0 0000 4040 0000 4040 0000 4040
00000010: 0000 a040 0000 40c0 0000 a040 0000 0080
00000020: 0000 0040 0000 0080 0000 0080 0000 40c0
00000030: 0000 0040 0000 8040 0000 0080 0000 0040
00000040: 0000 0080 0000 00c0 0000 803f 0000 4040
00000050: 0000 4040 0000 4040 0000 0040 0000 a040
00000060: 0000 0040 0000 8040 0000 a040 0000 803f
00000070: 0000 00c0 0000 803f 0000 80c0 0000 803f
00000080: 0000 4040 0000 a040 0000 00c0 0000 0080
00000090: 0000 0040 0000 80bf 0000 0000 0000 80bf
000000a0: 0000 0000 0000 0040 0000 80bf 0000 80bf
000000b0: 0000 0040 0000 0040 0000 0040 0000 803f
000000c0: 0000 40c0 0000 0080 0000 0080 0000 0040
000000d0: 0000 803f 0000 803f 0000 80bf 0000 803f
000000e0: 0000 0040 0000 0040 0000 803f 0000 803f
000000f0: 0000 40c0 0000 803f 0000 a040 0000 40c0
00000100: 0000 0080 0000 803f 0000 a040 0000 0040
00000110: 0000 803f 0000 c0c0 0000 4040 0000 c0c0
00000120: 0000 4040 0000 00c0 0000 803f 0000 0040
00000130: 0000 0000 0000 0040 0000 00c0 0000 80bf
00000140: 0000 80bf 0000 0000 0000 40c0 0000 803f
00000150: 0000 0000 0000 8040 0000 803f 0000 0040
00000160: 0000 0040 0000 c040 0000 803f 0000 40c0
00000170: 0000 0040 0000 0040 0000 803f 0000 a0c0
00000180: 0000 40c0 0000 4040 0000 803f 0000 40c0
00000190: 0000 a0c0 0000 40c0 0000 0000 0000 80bf
000001a0: 0000 80c0 0000 00c0 0000 803f 0000 4040
000001b0: 0000 8040 0000 4040 0000 4040 0000 0040
000001c0: 0000 40c0 0000 80bf 0000 803f 0000 0080
000001d0: 0000 0000 0000 40c0 0000 40c0 0000 00c0
000001e0: 0000 803f 0000 0000 0000 a0c0 0000 803f
000001f0: 0000 a040 0000 803f 0000 8040 0000 803f
00000200: 0000 0040 0000 803f 0000 4040 0000 0040
00000210: 0000 0080 0000 80bf 0000 803f 0000 80c0
00000220: 0000 4040 0000 00c0 0000 c0c0 0000 a0c0
00000230: 0000 4040 0000 40c0 0000 c0c0 0000 803f
00000240: 0000 80c0 0000 00c0 0000 a0c0 0000 80c0
00000250: 0000 4040 0000 803f 0000 803f 0000 00c0
00000260: 0000 8040 0000 8040 0000 0040 0000 80bf
00000270: 0000 80c0 0000 80bf 0000 0040 0000 80bf
00000280: 0000 803f 0000 80c0 0000 0040 0000 80c0
00000290: 0000 803f 0000 c0c0 0000 0000 0000 0040
000002a0: 0000 80c0 0000 0040 0000 0040 0000 0000
000002b0: 0000 803f 0000 4040 0000 0040 0000 0040
000002c0: 0000 4040 0000 40c0 0000 0040 0000 0040
000002d0: 0000 80bf 0000 803f 0000 80c0 0000 4040
000002e0: 0000 803f 0000 0000 0000 80bf 0000 8040
000002f0: 0000 0000 0000 8040 0000 a040 0000 0040
00000300: 0000 00c0 0000 0040 0000 c040 0000 803f
00000310: 0000 80bf 0000 803f 0000 a040 0000 4040
00000320: 0000 80bf 0000 803f 0000 80bf 0000 0000
00000330: 0000 803f 0000 4040 0000 0080 0000 80bf
00000340: 0000 803f 0000 0040 0000 803f 0000 4040
00000350: 0000 803f 0000 c040 0000 00c0 0000 0040
00000360: 0000 803f 0000 4040 0000 c040 0000 0040
00000370: 0000 4040 0000 803f 0000 80c0 0000 80bf
00000380: 0000 0000 0000 0040 0000 00c0 0000 4040
00000390: 0000 a0c0 0000 80bf 0000 80bf 0000 80bf
000003a0: 0000 80bf 0000 80c0 0000 8040 0000 0040
000003b0: 0000 4040 0000 00c0 0000 8040 0000 a0c0
000003c0: 0000 00c0 0000 4040 0000 a040 0000 e040
000003d0: 0000 80bf 0000 0000 0000 4040 0000 80bf
000003e0: 0000 0040 0000 0000 0000 00c0 0000 80c0
000003f0: 0000 0000 0000 80c0 0000 a040 0000 00c0
-3.0 3.0 3.0 3.0 5.0 -3.0 5.0 -0.0
2.0 -0.0 -0.0 -3.0 2.0 4.0 -0.0 2.0
-0.0 -2.0 1.0 3.0 3.0 3.0 2.0 5.0
2.0 4.0 5.0 1.0 -2.0 1.0 -4.0 1.0
3.0 5.0 -2.0 -0.0 2.0 -1.0 0.0 -1.0
0.0 2.0 -1.0 -1.0 2.0 2.0 2.0 1.0
-3.0 -0.0 -0.0 2.0 1.0 1.0 -1.0 1.0
2.0 2.0 1.0 1.0 -3.0 1.0 5.0 -3.0
-0.0 1.0 5.0 2.0 1.0 -6.0 3.0 -6.0
3.0 -2.0 1.0 2.0 0.0 2.0 -2.0 -1.0
-1.0 0.0 -3.0 1.0 0.0 4.0 1.0 2.0
2.0 6.0 1.0 -3.0 2.0 2.0 1.0 -5.0
-3.0 3.0 1.0 -3.0 -5.0 -3.0 0.0 -1.0
-4.0 -2.0 1.0 3.0 4.0 3.0 3.0 2.0
-3.0 -1.0 1.0 -0.0 0.0 -3.0 -3.0 -2.0
1.0 0.0 -5.0 1.0 5.0 1.0 4.0 1.0
2.0 1.0 3.0 2.0 -0.0 -1.0 1.0 -4.0
3.0 -2.0 -6.0 -5.0 3.0 -3.0 -6.0 1.0
-4.0 -2.0 -5.0 -4.0 3.0 1.0 1.0 -2.0
4.0 4.0 2.0 -1.0 -4.0 -1.0 2.0 -1.0
1.0 -4.0 2.0 -4.0 1.0 -6.0 0.0 2.0
-4.0 2.0 2.0 0.0 1.0 3.0 2.0 2.0
3.0 -3.0 2.0 2.0 -1.0 1.0 -4.0 3.0
1.0 0.0 -1.0 4.0 0.0 4.0 5.0 2.0
-2.0 2.0 6.0 1.0 -1.0 1.0 5.0 3.0
-1.0 1.0 -1.0 0.0 1.0 3.0 -0.0 -1.0
1.0 2.0 1.0 3.0 1.0 6.0 -2.0 2.0
1.0 3.0 6.0 2.0 3.0 1.0 -4.0 -1.0
0.0 2.0 -2.0 3.0 -5.0 -1.0 -1.0 -1.0
-1.0 -4.0 4.0 2.0 3.0 -2.0 4.0 -5.0
-2.0 3.0 5.0 7.0 -1.0 0.0 3.0 -1.0
2.0 0.0 -2.0 -4.0 0.0 -4.0 5.0 -2.0

38 f4 [64, 32]
00000000: 0000 0000 0000 00c0 0000 8040 0000 0080
00000010: 0000 80bf 0000 0040 0000 0000 0000 a040
00000020: 0000 0040 0000 8040 0000 00c0 0000 0040
00000030: 0000 80bf 0000 0080 0000 0000 0000 0000
00000040: 0000 a040 0000 80bf 0000 8040 0000 0000
00000050: 0000 803f 0000 a040 0000 0080 0000 0080
00000060: 0000 803f 0000 8040 0000 803f 0000 0000
00000070: 0000 40c0 0000 00c0 0000 80bf 0000 80bf
00000080: 0000 4040 0000 a040 0000 80bf 0000 0040
00000090: 0000 803f 0000 803f 0000 0040 0000 80c0
000000a0: 0000 40c0 0000 00c0 0000 8040 0000 0040
000000b0: 0000 4040 0000 0040 0000 4040 0000 4040
000000c0: 0000 40c0 0000 0040 0000 0080 0000 0040
000000d0: 0000 4040 0000 80bf 0000 0040 0000 8040
000000e0: 0000 0080 0000 803f 0000 803f 0000 0040
000000f0: 0000 4040 0000 8040 0000 0040 0000 0040
00000100: 0000 0040 0000 8040 0000 80bf 0000 0000
00000110: 0000 4040 0000 40c0 0000 0040 0000 00c0
00000120: 0000 00c0 0000 00c0 0000 0040 0000 803f
00000130: 0000 8040 0000 0040 0000 803f 0000 4040
00000140: 0000 40c0 0000 803f 0000 40c0 0000 803f
00000150: 0000 0040 0000 80c0 0000 803f 0000 803f
00000160: 0000 0000 0000 00c0 0000 803f 0000 0040
00000170: 0000 0040 0000 0040 0000 4040 0000 803f
00000180: 0000 00c0 0000 4040 0000 80bf 0000 80bf
00000190: 0000 8040 0000 a040 0000 80bf 0000 0040
000001a0: 0000 803f 0000 8040 0000 4040 0000 80bf
000001b0: 0000 a040 0000 80bf 0000 0080 0000 8040
000001c0: 0000 4040 0000 0080 0000 4040 0000 4040
000001d0: 0000 80bf 0000 4040 0000 00c0 0000 0080
000001e0: 0000 0040 0000 4040 0000 00c0 0000 00c0
000001f0: 0000 8040 0000 4040 0000 8040 0000 c040
00000200: 0000 0080 0000 00c0 0000 0040 0000 80bf
00000210: 0000 40c0 0000 4040 0000 0080 0000 8040
00000220: 0000 803f 0000 a040 0000 80bf 0000 0080
00000230: 0000 00c0 0000 0000 0000 0000 0000 80bf
00000240: 0000 8040 0000 80bf 0000 c040 0000 803f
00000250: 0000 0080 0000 c040 0000 80bf 0000 80bf
00000260: 0000 0040 0000 4040 0000 803f 0000 0080
00000270: 0000 40c0 0000 00c0 0000 80bf 0000 80bf
00000280: 0000 80bf 0000 0040 0000 803f 0000 80bf
00000290: 0000 803f 0000 00c0 0000 40c0 0000 a0c0
000002a0: 0000 40c0 0000 c0c0 0000 0080 0000 80bf
000002b0: 0000 80bf 0000 00c0 0000 00c0 0000 80bf
000002c0: 0000 c0c0 0000 0000 0000 a0c0 0000 80bf
000002d0: 0000 80bf 0000 a0c0 0000 00c0 0000 00c0
000002e0: 0000 80bf 0000 a0c0 0000 80bf 0000 80bf
000002f0: 0000 0080 0000 803f 0000 803f 0000 00c0
00000300: 0000 0000 0000 8040 0000 40c0 0000 80bf
00000310: 0000 c040 0000 0000 0000 00c0 0000 00c0
00000320: 0000 0080 0000 0080 0000 e040 0000 00c0
00000330: 0000 c040 0000 80bf 0000 80bf 0000 a040
00000340: 0000 0080 0000 0080 0000 00c0 0000 8040
00000350: 0000 80bf 0000 00c0 0000 0000 0000 803f
00000360: 0000 0040 0000 80c0 0000 00c0 0000 80bf
00000370: 0000 a040 0000 4040 0000 8040 0000 8040
00000380: 0000 0000 0000 80bf 0000 0080 0000 4040
00000390: 0000 80bf 0000 a0c0 0000 803f 0000 80bf
000003a0: 0000 40c0 0000 00c0 0000 40c0 0000 803f
000003b0: 0000 803f 0000 8040 0000 8040 0000 80bf
000003c0: 0000 40c0 0000 a040 0000 80bf 0000 a0c0
000003d0: 0000 4040 0000 00c0 0000 803f 0000 4040
000003e0: 0000 a0c0 0000 803f 0000 0040 0000 4040
000003f0: 0000 0040 0000 803f 0000 80bf 0000 80bf
0.0 -2.0 4.0 -0.0 -1.0 2.0 0.0 5.0
2.0 4.0 -2.0 2.0 -1.0 -0.0 0.0 0.0
5.0 -1.0 4.0 0.0 1.0 5.0 -0.0 -0.0
1.0 4.0 1.0 0.0 -3.0 -2.0 -1.0 -1.0
3.0 5.0 -1.0 2.0 1.0 1.0 2.0 -4.0
-3.0 -2.0 4.0 2.0 3.0 2.0 3.0 3.0
-3.0 2.0 -0.0 2.0 3.0 -1.0 2.0 4.0
-0.0 1.0 1.0 2.0 3.0 4.0 2.0 2.0
2.0 4.0 -1.0 0.0 3.0 -3.0 2.0 -2.0
-2.0 -2.0 2.0 1.0 4.0 2.0 1.0 3.0
-3.0 1.0 -3.0 1.0 2.0 -4.0 1.0 1.0
0.0 -2.0 1.0 2.0 2.0 2.0 3.0 1.0
-2.0 3.0 -1.0 -1.0 4.0 5.0 -1.0 2.0
1.0 4.0 3.0 -1.0 5.0 -1.0 -0.0 4.0
3.0 -0.0 3.0 3.0 -1.0 3.0 -2.0 -0.0
2.0 3.0 -2.0 -2.0 4.0 3.0 4.0 6.0
-0.0 -2.0 2.0 -1.0 -3.0 3.0 -0.0 4.0
1.0 5.0 -1.0 -0.0 -2.0 0.0 0.0 -1.0
4.0 -1.0 6.0 1.0 -0.0 6.0 -1.0 -1.0
2.0 3.0 1.0 -0.0 -3.0 -2.0 -1.0 -1.0
-1.0 2.0 1.0 -1.0 1.0 -2.0 -3.0 -5.0
-3.0 -6.0 -0.0 -1.0 -1.0 -2.0 -2.0 -1.0
-6.0 0.0 -5.0 -1.0 -1.0 -5.0 -2.0 -2.0
-1.0 -5.0 -1.0 -1.0 -0.0 1.0 1.0 -2.0
0.0 4.0 -3.0 -1.0 6.0 0.0 -2.0 -2.0
-0.0 -0.0 7.0 -2.0 6.0 -1.0 -1.0 5.0
-0.0 -0.0 -2.0 4.0 -1.0 -2.0 0.0 1.0
2.0 -4.0 -2.0 -1.0 5.0 3.0 4.0 4.0
0.0 -1.0 -0.0 3.0 -1.0 -5.0 1.0 -1.0
-3.0 -2.0 -3.0 1.0 1.0 4.0 4.0 -1.0
-3.0 5.0 -1.0 -5.0 3.0 -2.0 1.0 3.0
-5.0 1.0 2.0 3.0 2.0 1.0 -1.0 -1.0

46 f4 [32, 3]
00000000: 0000 0040 0000 0040 0000 e0c0 0000 803f
00000010: 0000 0040 0000 e0c0 0000 0040 0000 a0c0
00000020: 0000 0040 0000 803f 0000 803f 0000 c0c0
00000030: 0000 40c0 0000 803f 0000 80bf 0000 e0c0
00000040: 0000 0040 0000 803f 0000 4040 0000 a0c0
00000050: 0000 00c0 0000 0000 0000 c0c0 0000 4040
00000060: 0000 e0c0 0000 0040 0000 0040 0000 80bf
00000070: 0000 e0c0 0000 4040 0000 80c0 0000 8040
00000080: 0000 80c0 0000 8040 0000 e0c0 0000 0080
00000090: 0000 80c0 0000 8040 0000 00c0 0000 8040
000000a0: 0000 80c0 0000 a0c0 0000 4040 0000 00c0
000000b0: 0000 c0c0 0000 a0c0 0000 8040 0000 80bf
000000c0: 0000 0080 0000 c0c0 0000 4040 0000 803f
000000d0: 0000 0000 0000 e0c0 0000 803f 0000 c0c0
000000e0: 0000 4040 0000 e0c0 0000 0040 0000 803f
000000f0: 0000 8040 0000 00c0 0000 a0c0 0000 803f
00000100: 0000 e0c0 0000 4040 0000 803f 0000 803f
00000110: 0000 e0c0 0000 0040 0000 0040 0000 e0c0
00000120: 0000 e0c0 0000 0040 0000 803f 0000 803f
00000130: 0000 e0c0 0000 4040 0000 8040 0000 c0c0
00000140: 0000 00c0 0000 4040 0000 c0c0 0000 00c0
00000150: 0000 0080 0000 0040 0000 00c0 0000 0040
00000160: 0000 0040 0000 e0c0 0000 40c0 0000 a040
00000170: 0000 80c0 0000 e0c0 0000 0040 0000 0080
2.0 2.0 -7.0 1.0 2.0 -7.0 2.0 -5.0
2.0 1.0 1.0 -6.0 -3.0 1.0 -1.0 -7.0
2.0 1.0 3.0 -5.0 -2.0 0.0 -6.0 3.0
-7.0 2.0 2.0 -1.0 -7.0 3.0 -4.0 4.0
-4.0 4.0 -7.0 -0.0 -4.0 4.0 -2.0 4.0
-4.0 -5.0 3.0 -2.0 -6.0 -5.0 4.0 -1.0
-0.0 -6.0 3.0 1.0 0.0 -7.0 1.0 -6.0
3.0 -7.0 2.0 1.0 4.0 -2.0 -5.0 1.0
-7.0 3.0 1.0 1.0 -7.0 2.0 2.0 -7.0
-7.0 2.0 1.0 1.0 -7.0 3.0 4.0 -6.0
-2.0 3.0 -6.0 -2.0 -0.0 2.0 -2.0 2.0
2.0 -7.0 -3.0 5.0 -4.0 -7.0 2.0 -0.0
