src/hardware_fpga/mlp_v3/mlp_0511_0953.onnx (onnx, 78200 bytes, 17 tensors)

batchnorm1.bias f4 [128]
0	0xbecf1bbd	-0.4045085
1	0xbe4896e2	-0.19588807
2	0xbea0f18f	-0.31434295
3	0xbe842840	-0.25811958
4	0xbe3e7a4c	-0.1860134
5	0xbea68254	-0.32521307
6	0xbe925ed4	-0.28587973
7	0xbf14b5f0	-0.58090115
8	0xbe5afa44	-0.21384531
9	0xbeec69b8	-0.46174407
10	0xbf28ffc9	-0.660153
11	0x3c0bd3c7	0.008534378
12	0xbedbdc36	-0.42941445
13	0xbcf0d520	-0.0293985
14	0xbedcfac7	-0.43160078
15	0xbe912668	-0.28349614
16	0xbec7df6a	-0.3903764
17	0xbf1a8b6f	-0.6036901
18	0xbe46b067	-0.1940323
19	0xbf0136be	-0.50474155
20	0xbeb7829a	-0.3584183
21	0xbed3f778	-0.4139974
22	0xbce9081f	-0.028446255
23	0xbe928341	-0.28615764
24	0xbe407971	-0.18796326
25	0xbe793185	-0.24335296
26	0xbea336a0	-0.31877613
27	0xbf4cc82a	-0.79992926
28	0xbd54cdb2	-0.05195398
29	0xbe59cbc9	-0.21269144
30	0xbe32fc91	-0.17479159
31	0xbe6ed37f	-0.23322867
32	0xbf289ab7	-0.65861076
33	0xbf27e6f7	-0.655868
34	0xbe4230e0	-0.18963957
35	0xbf02cbf7	-0.51092476
36	0x3d15c101	0.036561016
37	0xbe68bc8f	-0.2272818
38	0xbedb5d38	-0.42844558
39	0xbe2f0b4a	-0.1709415
40	0xbea9292d	-0.33039227
41	0xbe5bcf81	-0.21465875
42	0xbf163230	-0.5867033
43	0xbe853d38	-0.2602327
44	0xbe21a61c	-0.15786022
45	0xbeb9d7ab	-0.36297354
46	0xbe1b342d	-0.15156622
47	0x3cfb01d5	0.030640522
48	0xbef814c3	-0.4845334
49	0xbf38dfc5	-0.72216445
50	0xbed153f7	-0.40884373
51	0xbe5ea61d	-0.21743055
52	0xbe4c74ee	-0.1996648
53	0xbebeed73	-0.37290534
54	0xbeb8e9f9	-0.36116007
55	0xbe69d187	-0.22833835
56	0xbeae0ec3	-0.33995637
57	0xbf07d48d	-0.530587
58	0xbe0a510c	-0.1350748
59	0xbee2f117	-0.44324562
60	0xbe8a8373	-0.27053413
61	0xbedfa4f1	-0.43680528
62	0xbf2ee0ac	-0.6831157
63	0xbe3b8dbc	-0.18315786
64	0xbeac5459	-0.33658102
65	0xbeff91cf	-0.4991593
66	0xbeb30e32	-0.34971768
67	0xbe3ff601	-0.18746187
68	0xbddd1c8d	-0.10796461
69	0xbee2e78a	-0.44317275
70	0xbeaafcbd	-0.3339595
71	0xbee4e6ad	-0.44707242
72	0xbe9f3314	-0.31093657
73	0xbe7c3912	-0.24631146
74	0xbf0d6e6e	-0.5524663
75	0xbf0780c7	-0.52930874
76	0xbe9bace6	-0.3040535
77	0xbe044491	-0.12916781
78	0xbe7c5be5	-0.2464443
79	0xbeb0fb64	-0.34566796
80	0x3caf3513	0.021387612
81	0xbe2bd408	-0.16780102
82	0xbea952ba	-0.33070928
83	0xbef4f664	-0.4784423
84	0xbf18a7a1	-0.5963078
85	0xbdf0227f	-0.117253296
86	0xbed24d10	-0.4107442
87	0xbf400a91	-0.75016123
88	0xbeb17390	-0.3465848
89	0xbe6d8181	-0.23193933
90	0xbee04c50	-0.43808222
91	0xbe81dff6	-0.2536618
92	0xbf2d7d3a	-0.67769206
93	0xbf12735d	-0.5720728
94	0xbeac57de	-0.33660787
95	0xbec75a52	-0.38936096
96	0xbe5c8ec9	-0.21538843
97	0xbead6630	-0.33867025
98	0xbec01b73	-0.37520942
99	0xbc964b51	-0.01834646
100	0xbe1f51ff	-0.15558623
101	0xbf28269b	-0.6568391
102	0xbef51e00	-0.4787445
103	0xbeee7169	-0.465709
104	0xbec68fbb	-0.38781533
105	0xbf373375	-0.7156289
106	0xbf31d01f	-0.6945819
107	0xbede9021	-0.43469337
108	0xbf3e77a4	-0.7440131
109	0xbf00f820	-0.5037861
110	0xbf28d6bd	-0.65952665
111	0xbea8885d	-0.32916537
112	0xbf272edb	-0.6530587
113	0xbee74568	-0.4517014
114	0x3cb97d7e	0.022642847
115	0xbf0c722e	-0.54861724
116	0xbe89f18d	-0.269421
117	0xbf107290	-0.5642481
118	0xbf0e09f5	-0.55483943
119	0xbdd75357	-0.10513943
120	0xbe37d314	-0.17951614
121	0xbf365455	-0.7122243
122	0xbef7d701	-0.48406222
123	0xbe8ba775	-0.27276197
124	0xbf065d01	-0.5248566
125	0xbf2fe209	-0.6870428
126	0xbe98969b	-0.29802403
127	0xbf05901d	-0.52173024

batchnorm1.running_mean f4 [128]
0	0x4352d246	210.82138
1	0x439a5500	308.66406
2	0x440bf16d	559.7723
3	0xc23aab3c	-46.66722
4	0xc2e113ca	-112.53865
5	0x442ca633	690.59686
6	0x434f2fea	207.18716
7	0x4326e79f	166.90477
8	0x43a261ea	324.76495
9	0x43000505	128.0196
10	0xc4813d21	-1033.9103
11	0xc237b56c	-45.92717
12	0xc322ab3e	-162.66891
13	0xc39b6937	-310.822
14	0xc44d8983	-822.1486
15	0x440f98c6	574.3871
16	0x4452c6d5	843.10675
17	0xc2f717cc	-123.54648
18	0xc1c0a753	-24.081701
19	0xc296ecae	-75.462265
20	0x444c8ce6	818.20154
21	0x4488860b	1092.1888
22	0x43fc2e8e	504.3637
23	0x4433462c	717.09644
24	0xc3c297f6	-389.1872
25	0xc358c85d	-216.78267
26	0xc4341f96	-720.4935
27	0xc4617b59	-901.9273
28	0xc3832791	-262.3091
29	0xc3724477	-242.26744
30	0xc38ecf7c	-285.62097
31	0x424793d4	49.894363
32	0xc4658e25	-918.221
33	0x442b9238	686.28467
34	0xc40f25e8	-572.5923
35	0x4398382f	304.43893
36	0xc3b53fe0	-362.49902
37	0x42659a68	57.400787
38	0x4228dd52	42.216133
39	0xc32a71a5	-170.44392
40	0xc426d94d	-667.3953
41	0x4392ae7d	293.3632
42	0xc3be0143	-380.00986
43	0xc3a9450f	-338.53952
44	0xc34b5b6b	-203.3571
45	0xc41802a6	-608.0414
46	0x4303ee81	131.93166
47	0x425f4085	55.813007
48	0xc170ec05	-15.057622
49	0xc4d39f3f	-1692.9764
50	0xc3c0dd00	-385.72656
51	0x4347ff03	199.99614
52	0xc433848e	-718.07117
53	0xc36464e8	-228.39417
54	0xc41a3c93	-616.9465
55	0xc39009c8	-288.07642
56	0x42829a99	65.30195
57	0xc405caad	-535.1668
58	0xc3c3429c	-390.5204
59	0x42e93cfa	116.619095
60	0xc16e7e0c	-14.905773
61	0x44447730	785.8623
62	0xc41102fd	-580.0467
63	0x43b06a8d	352.83243
64	0xc321518d	-161.31856
65	0x430118f1	129.09743
66	0xc3735017	-243.31285
67	0x43c85e23	400.73544
68	0xc3de2d1a	-444.35236
69	0xc31233bb	-146.20207
70	0x442b815a	686.0211
71	0xc35c1cf4	-220.1131
72	0xc3f8256d	-496.2924
73	0x43fc6052	504.7525
74	0xc3924c5a	-292.5965
75	0x428038fb	64.11129
76	0xc36ede99	-238.86952
77	0x4314ced2	148.80789
78	0xc3b5b36c	-363.40173
79	0x44078c03	542.1877
80	0xc3d53502	-426.41412
81	0xc1d00a2a	-26.004963
82	0xc2ad3fe2	-86.62477
83	0x41893587	17.151136
84	0x43a74d01	334.6016
85	0x43c1c96b	387.57358
86	0x44193d08	612.9536
87	0xc394371c	-296.43054
88	0xc3a68590	-333.04346
89	0x4267f9e0	57.99402
90	0xc2a08b3b	-80.271935
91	0x43907942	288.94733
92	0xc3829b82	-261.2149
93	0x417b88f4	15.720936
94	0x4358cc47	216.79796
95	0xc439ee44	-743.7229
96	0xc3a38cfa	-327.10138
97	0x4127606d	10.461041
98	0xc336b4c4	-182.70612
99	0x43233bdf	163.23387
100	0xc2e6f16d	-115.471535
101	0x43a4dbb4	329.71643
102	0xc3a0e64e	-321.79926
103	0x43fa430e	500.52386
104	0x423c05ef	47.005795
105	0x430a0d5c	138.05219
106	0xc37ab3c4	-250.70221
107	0x43022190	130.1311
108	0x4343c036	195.75082
109	0x437abace	250.7297
110	0xc46d9830	-950.3779
111	0xc37b6a77	-251.41588
112	0x43793685	249.21297
113	0xc30c0bbc	-140.04584
114	0x414f617c	12.9613
115	0xc38083ef	-257.03073
116	0xc3d3d374	-423.65198
117	0xc453adc4	-846.7151
118	0x4400865d	514.0994
119	0x435a9f39	218.62196
120	0xc3245106	-164.3165
121	0xc4278297	-670.04047
122	0xc33a9c72	-186.61111
123	0xc3c3dcae	-391.72406
124	0x43e2d89a	453.6922
125	0xc3a4b69b	-329.4266
126	0xc476da34	-987.4094
127	0x4385faaf	267.95847

batchnorm1.running_var f4 [128]
0	0x46090d46	8771.318
1	0x462ed5b4	11189.426
2	0x4602925c	8356.59
3	0x45ad163d	5538.78
4	0x46355bc6	11606.943
5	0x46413248	12364.57
6	0x45ba6f0d	5965.8813
7	0x45d23134	6726.1504
8	0x46b0ec2e	22646.09
9	0x4608d1ba	8756.432
10	0x45cadd17	6491.636
11	0x4675fc9a	15743.15
12	0x460aef0a	8891.76
13	0x463a4e6c	11923.605
14	0x4632deb5	11447.677
15	0x463088ed	11298.231
16	0x463e15a3	12165.409
17	0x4603f955	8446.333
18	0x4612c4fe	9393.248
19	0x45856f1b	4269.888
20	0x46361c2d	11655.044
21	0x46bf8223	24513.068
22	0x46966048	19248.14
23	0x461169c2	9306.439
24	0x45b2a322	5716.3916
25	0x4627f070	10748.109
26	0x4621d137	10356.304
27	0x4643e15d	12536.341
28	0x4633b479	11501.118
29	0x459b7e9f	4975.8276
30	0x4634b3b7	11564.929
31	0x459b5463	4970.5483
32	0x463a98fd	11942.247
33	0x4650bfd9	13359.962
34	0x46236ab1	10458.673
35	0x46b0aad0	22613.406
36	0x45ecb162	7574.173
37	0x460ceb57	9018.835
38	0x45fc8ec6	8081.8467
39	0x4580ecb9	4125.5903
40	0x45bfe222	6140.2666
41	0x46845d56	16942.668
42	0x45d1463f	6696.781
43	0x45d296bf	6738.8433
44	0x45e73cb7	7399.5894
45	0x463662bf	11672.687
46	0x45e55369	7338.4263
47	0x462ee1f5	11192.489
48	0x460f8348	9184.82
49	0x46964a91	19237.283
50	0x468db952	18140.66
51	0x4608b0ab	8748.167
52	0x4616203e	9608.061
53	0x4579f4e2	3999.3052
54	0x45eb51a2	7530.204
55	0x46102216	9224.521
56	0x4615839c	9568.902
57	0x4590ba79	4631.309
58	0x46067d92	8607.393
59	0x455837ea	3459.4946
60	0x45de8408	7120.504
61	0x4625572e	10581.795
62	0x467da1f8	16232.492
63	0x4684c560	16994.688
64	0x4608ea18	8762.523
65	0x4690cec3	18535.38
66	0x45ca7e28	6479.7695
67	0x4635f85b	11646.089
68	0x4648801f	12832.03
69	0x45ab97fa	5490.997
70	0x4629f71f	10877.78
71	0x45c8c3d4	6424.4785
72	0x45fccf49	8089.9106
73	0x46782fbe	15883.936
74	0x45c6eb3e	6365.4053
75	0x45c098d1	6163.102
76	0x468430ed	16920.463
77	0x46158322	9568.783
78	0x4633b4ab	11501.167
79	0x466878d4	14878.207
80	0x4584c9de	4249.2334
81	0x45e4d1d2	7322.2275
82	0x459b314e	4966.163
83	0x463f02ff	12224.749
84	0x45c21af7	6211.3706
85	0x461d7d13	10079.269
86	0x46170cd8	9667.211
87	0x4603d33d	8436.81
88	0x45acd37a	5530.4346
89	0x45c0a902	6165.126
90	0x4630fc0d	11327.013
91	0x45b8ff94	5919.9473
92	0x45a74dcf	5353.726
93	0x457fe18a	4094.0962
94	0x461be2b7	9976.679
95	0x45eb894f	7537.1636
96	0x45c53878	6311.0586
97	0x45b792ae	5874.335
98	0x46927a43	18749.13
99	0x45a95cd9	5419.606
100	0x463b9272	12004.611
101	0x462d3f34	11087.801
102	0x4594bd0e	4759.632
103	0x463118e7	11334.226
104	0x46033f1b	8399.776
105	0x45ae58d1	5579.102
106	0x4605f7f8	8573.992
107	0x45f8678c	7948.9434
108	0x464feb62	13306.846
109	0x46129758	9381.836
110	0x461d6579	10073.368
111	0x45fe520b	8138.2554
112	0x45aa92ad	5458.3345
113	0x4606273b	8585.808
114	0x45a3df48	5243.91
115	0x460f3a12	9166.518
116	0x45f330ce	7782.1006
117	0x461d7490	10077.141
118	0x4638d653	11829.581
119	0x4602137e	8324.873
120	0x454bc8bc	3260.546
121	0x45d15b11	6699.3833
122	0x46534f39	13523.806
123	0x46021447	8325.069
124	0x464d9438	13157.055
125	0x461678e1	9630.22
126	0x45e46716	7308.8857
127	0x46328c91	11427.142

batchnorm1.weight f4 [128]
0	0x3faad65a	1.3346665
1	0x3f425300	0.759079
2	0x3f835f1b	1.0263399
3	0x3fae66ee	1.3625162
4	0x3f3ae9ae	0.73012817
5	0x3fd168c7	1.63601
6	0x3f1658f1	0.58729464
7	0x3f9e0809	1.2346202
8	0x3f47a3fe	0.7798461
9	0x3f8e521c	1.1118808
10	0x3fc6dddf	1.553646
11	0x3f83a5f6	1.0285022
12	0x3fb6df6a	1.428693
13	0x3fd7fdc9	1.6874324
14	0x3f90cbf5	1.1312243
15	0x3fbe9a0c	1.4890761
16	0x3f94b421	1.1617471
17	0x3fb3f484	1.4058995
18	0x3f9fad34	1.2474732
19	0x3fac32f4	1.345305
20	0x3f8f4690	1.1193409
21	0x3f9baee5	1.2162749
22	0x3f9e2200	1.2354126
23	0x3f928916	1.1448085
24	0x3f8cf0b4	1.1010957
25	0x3f9208c9	1.1408931
26	0x3fab6098	1.3388853
27	0x3fabd902	1.34256
28	0x3f95c1ad	1.169973
29	0x3f20bed3	0.62791175
30	0x3f42dd1d	0.7611864
31	0x3f814efb	1.0102228
32	0x3f999d1b	1.200107
33	0x3fa93ff8	1.3222647
34	0x3f95588e	1.166765
35	0x3f6fc375	0.9365762
36	0x3f2f0b13	0.6837627
37	0x3f872c58	1.0560408
38	0x3f983856	1.1892192
39	0x3f9d671a	1.2297089
40	0x3fe0bab8	1.7556982
41	0x3f8f5b89	1.1199809
42	0x3f9039f0	1.1267681
43	0x3f6e0823	0.92981166
44	0x3f556fe9	0.83373886
45	0x3f8e1126	1.1098983
46	0x3f9a0bbf	1.2034835
47	0x3f91773d	1.1364514
48	0x3fdcb182	1.7241671
49	0x3fbf2987	1.4934548
50	0x3f6d8d3c	0.9279363
51	0x3fb01ede	1.375942
52	0x3fac099c	1.3440433
53	0x3f8a35cb	1.0797666
54	0x3f3af3b9	0.7302814
55	0x3f4a0737	0.7891726
56	0x3fbed056	1.4907329
57	0x3fbe0345	1.4844748
58	0x3f873a56	1.0564678
59	0x3fc3982d	1.5280815
60	0x3f87740a	1.0582287
61	0x3f9363e6	1.1514862
62	0x3fc68d3b	1.551185
63	0x3f643150	0.89137745
64	0x3f69c831	0.9132109
65	0x3f8d4f8c	1.1039901
66	0x3f81d9c2	1.014458
67	0x3f8021a3	1.0010265
68	0x3f931061	1.1489373
69	0x3f583237	0.8445162
70	0x3fae68f5	1.362578
71	0x3f91e4fd	1.1398007
72	0x3f883eea	1.06442
73	0x3f4eea34	0.80826116
74	0x3fbb7a03	1.464661
75	0x3fb3da23	1.4050945
76	0x3f88d668	1.0690432
77	0x3f58fda8	0.8476205
78	0x3f72db60	0.9486599
79	0x3f78b750	0.9715471
80	0x3f8d3714	1.1032434
81	0x3f99c538	1.2013311
82	0x3f62d547	0.88606685
83	0x3f864e1e	1.049259
84	0x3f80fe35	1.0077578
85	0x3f99284f	1.1965426
86	0x3f9e9d8a	1.2391827
87	0x3fd894bc	1.692039
88	0x3f5d24bd	0.86384183
89	0x3f6ff80e	0.93737876
90	0x3f8f351b	1.1188082
91	0x3f79a5a5	0.9751838
92	0x3fdd0cfc	1.7269588
93	0x3fad46b1	1.3537198
94	0x3fb41514	1.4068933
95	0x3fa27829	1.269292
96	0x3f9370cd	1.1518799
97	0x3f566f08	0.8376317
98	0x3f902fd1	1.1264592
99	0x3f8b5da4	1.0887952
100	0x3f73d843	0.95251864
101	0x3fa7d0fc	1.3110652
102	0x3fa2463f	1.2677687
103	0x3fd0409c	1.6269717
104	0x3f5c4064	0.8603575
105	0x3fb4b4ea	1.411771
106	0x3f8fed11	1.1244222
107	0x3f265908	0.649796
108	0x3f967e00	1.1757202
109	0x3f932ad3	1.1497444
110	0x3fa6772a	1.3005116
111	0x3f5fd879	0.87439686
112	0x3fbc2fb4	1.4702058
113	0x3f691ad0	0.9105654
114	0x3f83453d	1.0255505
115	0x3f837841	1.0271074
116	0x3f81a33d	1.0127941
117	0x3fc39a18	1.5281401
118	0x3fc0a847	1.5051354
119	0x3f43c341	0.7646981
120	0x3f4142d1	0.7549258
121	0x3fb9b2da	1.4507706
122	0x3f6fd6f2	0.93687356
123	0x3f82dc01	1.022339
124	0x3fe4b0c4	1.7866445
125	0x3f962b8b	1.1732038
126	0x3fb7a4bc	1.4347148
127	0x3f84f35c	1.0386767

batchnorm2.bias f4 [64]
0	0xbf1bc829	-0.60852295
1	0xbf14320f	-0.57888883
2	0xbebb968b	-0.36638293
3	0xbf07364c	-0.52817225
4	0xbe11ced7	-0.1423906
5	0xbf482f8e	-0.7819756
6	0xbea6c935	-0.32575384
7	0xbf2c68a8	-0.6734719
8	0xbf0b710d	-0.54469377
9	0xbe90490e	-0.28180736
10	0xbe445ffd	-0.19177242
11	0xbf475028	-0.77856684
12	0xbf391301	-0.7229462
13	0xbf13763c	-0.57602286
14	0xbec29b9e	-0.38009351
15	0xbf21b319	-0.63163906
16	0xbef030b0	-0.46912146
17	0xbf039d42	-0.5141183
18	0xbeb28664	-0.34868157
19	0xbea01f8b	-0.31274065
20	0xbd8edd39	-0.069757886
21	0xbeb0f698	-0.34563136
22	0xbf45e1b1	-0.772975
23	0xbf81938b	-1.0123152
24	0xbe4fbc13	-0.20286588
25	0xbf843e40	-1.0331497
26	0xbee9d9c6	-0.4567396
27	0xbef72d89	-0.48276928
28	0xbf8080e6	-1.0039337
29	0xbf168ad9	-0.58805615
30	0xbef24709	-0.4731982
31	0xbf0f1665	-0.55893546
32	0xbf529b5b	-0.82268304
33	0xbf0bbfc2	-0.54589474
34	0xbf909b61	-1.1297418
35	0xbec5976f	-0.38592097
36	0xbe8ea775	-0.27862135
37	0xbe8756ed	-0.26433507
38	0xbf2e3d47	-0.6806225
39	0xbe70d393	-0.23518209
40	0xbf5e4bbb	-0.86834306
41	0xbee69bce	-0.45040745
42	0xbed65218	-0.41859508
43	0xbe6dfba5	-0.23240526
44	0xbec402fd	-0.3828353
45	0xbf23ba1d	-0.6395586
46	0xbe9309ac	-0.28718317
47	0xbf68fa27	-0.910067
48	0xbed17fab	-0.40917715
49	0xbe92541c	-0.28579795
50	0xbf7fe7a9	-0.9996286
51	0xbe45f33c	-0.19331068
52	0xbdaf6fa3	-0.08566215
53	0xbf198077	-0.59961647
54	0xbea857ab	-0.32879385
55	0xbf0fc799	-0.56163937
56	0xbf224652	-0.6338855
57	0xbf17ffd3	-0.5937473
58	0xbf89a286	-1.0752723
59	0xbf2e7e7b	-0.68161744
60	0xbe1115ee	-0.14168522
61	0xbe2bee03	-0.16790013
62	0xbf165c74	-0.5873482
63	0xbf96f7d1	-1.1794378

batchnorm2.running_mean f4 [64]
0	0xbea6ef24	-0.32604325
1	0xbdb2f5b9	-0.08738274
2	0xbf0ee25e	-0.5581416
3	0xbfe6cff6	-1.8032215
4	0x3ea0c083	0.31396875
5	0xbf4ab5e6	-0.79183805
6	0xbf140a64	-0.57828355
7	0xbf60843c	-0.87701774
8	0x3f6061de	0.87649333
9	0x3f2c8bba	0.67400706
10	0x3f767d5a	0.9628502
11	0xbfe4c528	-1.7872667
12	0xbf3ae851	-0.73010737
13	0xbf972f30	-1.1811275
14	0x3f9e1be2	1.2352259
15	0x3f08cd6d	0.53438455
16	0xbf9462b7	-1.1592625
17	0x3f3b2d2e	0.73115814
18	0x4012153a	2.2825456
19	0xbae25974	-0.0017269091
20	0x3f0caa31	0.5494719
21	0x402de038	2.7168102
22	0xbf8354d6	-1.0260265
23	0xc024bbe2	-2.5739675
24	0xbf619397	-0.8811583
25	0xbeff0c73	-0.49814186
26	0x3e08b748	0.13351166
27	0xbe1b6d6e	-0.15178463
28	0xbf80bd3a	-1.0057747
29	0x3eef78f7	0.46771976
30	0xbf9b52b0	-1.2134609
31	0xbdcc6247	-0.099796824
32	0xbfd0bab4	-1.6306977
33	0xc0211690	-2.517002
34	0xbefba532	-0.49149472
35	0xbfc1b691	-1.513384
36	0x3f4b3332	0.7937499
37	0x3eea6530	0.45780325
38	0xbfcb74a9	-1.5894977
39	0xbe715dee	-0.23570988
40	0xc012617f	-2.2872007
41	0xbee5467b	-0.44780335
42	0x3df4dc87	0.11956125
43	0xbf34bbfa	-0.7059933
44	0xbf7f51f9	-0.99734455
45	0xbe4f599e	-0.2024903
46	0xbed1102b	-0.40832648
47	0xbeedb530	-0.46427298
48	0x3e5dc50f	0.21657203
49	0x3f83521c	1.0259433
50	0xbfe1a940	-1.7629776
51	0x3ecc74b7	0.39932796
52	0x3e85d7ec	0.26141298
53	0xbf822b64	-1.0169492
54	0x3f9bd564	1.2174497
55	0xbfae37d1	-1.3610784
56	0xbf566656	-0.837499
57	0xbf34ce85	-0.70627624
58	0xbfe4f86d	-1.7888314
59	0xbf1f9f09	-0.62352043
60	0xbd911b90	-0.07085335
61	0xbeaa0836	-0.3320939
62	0x3ec7b294	0.39003432
63	0xc0006215	-2.0059865

batchnorm2.running_var f4 [64]
0	0x3f8b8238	1.0899115
1	0x3fb63bde	1.423702
2	0x3f7ea618	0.9947219
3	0x3fc401c8	1.5313044
4	0x3fb780f0	1.4336224
5	0x3fa45e53	1.2841285
6	0x3fdbe17c	1.7178187
7	0x3f89e9c8	1.0774469
8	0x3fca7a65	1.5818602
9	0x3f9b3324	1.2124982
10	0x3fb7c810	1.4357929
11	0x3fc1c089	1.5136882
12	0x3fc2db14	1.5223107
13	0x3f894192	1.0723135
14	0x3fcf9d88	1.621995
15	0x3fa2a7a8	1.2707415
16	0x3f9a0f42	1.2035906
17	0x3ffe6fd6	1.987788
18	0x3ff95bb0	1.9481106
19	0x3f9f0ddf	1.2426108
20	0x3f9dcc92	1.2328055
21	0x3ff69499	1.9264098
22	0x3f94a467	1.1612672
23	0x3ff191a0	1.8872566
24	0x3f8e6903	1.1125797
25	0x3fd83c0c	1.6893325
26	0x3f84c188	1.0371561
27	0x3fa036e1	1.2516748
28	0x3f935e99	1.1513244
29	0x3fac6f00	1.3471375
30	0x3f9d213d	1.2275769
31	0x3fb5ad46	1.4193504
32	0x3f9c7d5b	1.2225755
33	0x3fc02737	1.5011967
34	0x3f9f188f	1.242937
35	0x3fa80846	1.3127525
36	0x3f88bc04	1.0682378
37	0x3f9dd2d6	1.2329967
38	0x3f96cfb6	1.1782138
39	0x3fa86033	1.3154358
40	0x3fd96b6b	1.6985906
41	0x3f855d1f	1.0419043
42	0x3ff59fb7	1.9189366
43	0x3fa84806	1.314698
44	0x3fd0f744	1.632546
45	0x3fb138c4	1.3845448
46	0x4006e3b3	2.1076477
47	0x3f99a44a	1.2003262
48	0x3fe588fa	1.7932427
49	0x4004da67	2.0758302
50	0x3fdfe189	1.7490703
51	0x3f998836	1.1994693
52	0x3facec60	1.3509636
53	0x3fa50d9a	1.2894776
54	0x3fe93e33	1.8222107
55	0x3fb18b4a	1.3870633
56	0x3fb5cfad	1.4204003
57	0x3f79f205	0.9763492
58	0x3f923ce0	1.1424828
59	0x3f8f88f6	1.1213672
60	0x3fda519f	1.7056159
61	0x3fe1a2b9	1.7627784
62	0x3fa74ee7	1.3070954
63	0x3fa85649	1.3151332

batchnorm2.weight f4 [64]
0	0x3f520bee	0.82049453
1	0x3f6045ea	0.8760668
2	0x3f3312d2	0.6995059
3	0x3f3a3374	0.7273476
4	0x3edb0f54	0.42785132
5	0x3f3e0ac1	0.7423516
6	0x3f3163c9	0.69292885
7	0x3f52ec61	0.82391936
8	0x3f30b963	0.6903288
9	0x3f215d57	0.6303305
10	0x3f1554b7	0.5833239
11	0x3f395451	0.7239428
12	0x3f55d502	0.8352815
13	0x3f32cba5	0.69841987
14	0x3f04a797	0.5181822
15	0x3f2870b2	0.6579696
16	0x3f26c2e1	0.6514111
17	0x3f2e1003	0.6799318
18	0x3f1593d2	0.5842868
19	0x3f2f2c19	0.6842666
20	0x3f055c3b	0.5209386
21	0x3f1d42b8	0.6142993
22	0x3f7b4f5d	0.98167974
23	0x3f483e74	0.78220296
24	0x3f0db17a	0.5534893
25	0x3f5a39f6	0.8524469
26	0x3f37bd6a	0.717734
27	0x3f74f2fb	0.9568326
28	0x3f65e836	0.8980745
29	0x3f386863	0.7203428
30	0x3f4a9331	0.79130846
31	0x3f3d1878	0.7386546
32	0x3f40cb0e	0.75309837
33	0x3f32ee40	0.6989479
34	0x3f53693e	0.8258246
35	0x3f272bef	0.6530141
36	0x3f0db37d	0.55352
37	0x3f1ff40e	0.6248177
38	0x3f433745	0.7625621
39	0x3f15513b	0.5832707
40	0x3f4d2873	0.80139846
41	0x3f3ee31a	0.7456528
42	0x3f39f1e0	0.72634697
43	0x3f350344	0.7070811
44	0x3f36b84e	0.71374977
45	0x3f37d831	0.71814257
46	0x3f30bd24	0.69038606
47	0x3f532057	0.8247122
48	0x3f640c8a	0.89081633
49	0x3f2e1334	0.6799805
50	0x3f4fec7a	0.8122021
51	0x3f103423	0.56329554
52	0x3f1312c8	0.5745053
53	0x3f34ac7b	0.70575684
54	0x3f362b8e	0.7116021
55	0x3f429434	0.7600739
56	0x3f4e3a6b	0.8055789
57	0x3f34980d	0.7054451
58	0x3f3e7646	0.7439922
59	0x3f48aaf7	0.7838587
60	0x3f0f8e30	0.56076336
61	0x3f19500d	0.5988777
62	0x3f3ff446	0.74982107
63	0x3f4d69cf	0.80239576

batchnorm3.bias f4 [32]
0	0x3dbf79bc	0.09349391
1	0xbe2414c0	-0.1602354
2	0x3e617c78	0.22020137
3	0xbe07df6a	-0.1326882
4	0x3e14a124	0.14514595
5	0x3e493e2f	0.19652627
6	0xbdb0ada5	-0.0862687
7	0x3dbf2fc6	0.09335284
8	0xbe52dde8	-0.20592463
9	0x3f037cb3	0.5136215
10	0x3e5639fc	0.20920557
11	0x3e49db18	0.19712484
12	0xbe068ad2	-0.13138893
13	0x3e257e0a	0.16161361
14	0x3dddfa39	0.10838742
15	0xbdfb3224	-0.12265423
16	0x3e127239	0.14301385
17	0xbc82f2ec	-0.015984975
18	0x3ee22e70	0.44176054
19	0x3ef9a2cd	0.4875702
20	0x3e8ce96e	0.27521843
21	0xbddc72c8	-0.1076408
22	0x3e9b8c9c	0.30380714
23	0x3e6d7c81	0.23192026
24	0x3cee569a	0.02909403
25	0x3eb966fc	0.36211383
26	0x3e2e4b7e	0.17020985
27	0x3e0eff4f	0.1396458
28	0xbd21d7bd	-0.039512385
29	0x3e24df2a	0.16100755
30	0xbe9401c3	-0.28907594
31	0x3dc2e307	0.09515958

batchnorm3.running_mean f4 [32]
0	0x3e98f890	0.29877138
1	0xbe46ffe5	-0.19433554
2	0x3cbeedde	0.023306783
3	0xbed36ec3	-0.41295442
4	0xbe95ef8e	-0.29284328
5	0x3c9e2e92	0.019309316
6	0x3cfb9b7b	0.030713787
7	0xbdf1d3e5	-0.11807994
8	0xbf04a696	-0.5181669
9	0x3e6a83fe	0.22901914
10	0x3ed4713f	0.4149265
11	0x3e32152b	0.17390887
12	0xbf137fd9	-0.57616955
13	0x3e863b18	0.2621696
14	0x3e81e5e4	0.25370705
15	0x3e13ea1a	0.14444771
16	0x3e60af47	0.21941863
17	0xbdedee87	-0.11617761
18	0x3f112d8f	0.5671014
19	0x3ec02c3f	0.37533757
20	0x3f01ad2c	0.50654864
21	0xbe03122c	-0.12799901
22	0x3f01bf61	0.50682646
23	0x3eafc788	0.34331918
24	0x3da7218f	0.08160698
25	0x3e4e13aa	0.20124689
26	0x3e991b0a	0.29903442
27	0x3e36946f	0.1783006
28	0x3e352363	0.1768928
29	0x3e377eef	0.17919515
30	0xbe8126d6	-0.25224942
31	0xbdae74f3	-0.085184

batchnorm3.running_var f4 [32]
0	0x4005e0e3	2.091851
1	0x3fcf674f	1.6203402
2	0x3fe117a6	1.7585342
3	0x3fd2f7db	1.648189
4	0x3fc98a73	1.5745376
5	0x3fddda02	1.7332156
6	0x3f987eea	1.1913731
7	0x3fddc02a	1.7324269
8	0x3fcd5108	1.6040354
9	0x3f891d03	1.0711979
10	0x4021bc80	2.5271301
11	0x3fc80425	1.5626265
12	0x400e93b7	2.2277658
13	0x3fda6207	1.7061166
14	0x400a7b2d	2.163768
15	0x3fbd9217	1.4810208
16	0x3ffb0e3b	1.9613718
17	0x3ff6ad85	1.9271704
18	0x402109fe	2.5162349
19	0x3ffe2940	1.9856339
20	0x401aac9a	2.4167848
21	0x3fc00006	1.5000007
22	0x4037e1d8	2.8731594
23	0x400154f3	2.02081
24	0x3fdf0239	1.7422553
25	0x3f8b1bb5	1.086783
26	0x3ffc6e34	1.9721131
27	0x3fecdf95	1.8505732
28	0x3feab4a5	1.8336378
29	0x3fe2f40e	1.773073
30	0x3fbdd5e6	1.4830902
31	0x3fd8844f	1.6915377

batchnorm3.weight f4 [32]
0	0x3fdc05c3	1.7189258
1	0x3f9d2afa	1.227874
2	0x3fa58d27	1.2933701
3	0x3f8d42f9	1.1036063
4	0x3f7f1f61	0.99657255
5	0x3fa52b39	1.2903816
6	0x3f4c050c	0.796952
7	0x3fd7dda8	1.6864519
8	0x3facf0d8	1.3511
9	0x3f960ea0	1.1723213
10	0x3fb7b4f2	1.4352095
11	0x3fa65966	1.2996032
12	0x3f841fb9	1.0322181
13	0x3f875070	1.0571423
14	0x3fe2f34a	1.7730496
15	0x3f68c743	0.9092905
16	0x3f9cf32b	1.2261709
17	0x3fa85a58	1.3152571
18	0x3fa7e528	1.3116808
19	0x3ff03175	1.8765093
20	0x3fb65045	1.4243246
21	0x3f375ac6	0.71622884
22	0x4000e1af	2.0137746
23	0x3fd50dee	1.6644876
24	0x3f4617dc	0.77380157
25	0x3f4d8867	0.8028626
26	0x3f686ab3	0.9078781
27	0x3fdad0b9	1.7094947
28	0x3f94dd09	1.1629955
29	0x3f9207dc	1.1408648
30	0x3fb5be9e	1.4198797
31	0x3f8cb8c8	1.0993891

21 f4 [60, 128]
0	0x41800000	16.0
1	0x42780000	62.0
2	0xc0400000	-3.0
3	0x40000000	2.0
4	0xc1c80000	-25.0
5	0xbf800000	-1.0
6	0x00000000	0.0
7	0xc1400000	-12.0
8	0x41000000	8.0
9	0xc1d80000	-27.0
10	0xc1a80000	-21.0
11	0x41200000	10.0
12	0x42700000	60.0
13	0x41900000	18.0
14	0x41d00000	26.0
15	0x40c00000	6.0
16	0xc1e80000	-29.0
17	0x42200000	40.0
18	0x41100000	9.0
19	0x40c00000	6.0
20	0x42740000	61.0
21	0x00000000	0.0
22	0x40400000	3.0
23	0xc1e00000	-28.0
24	0xc2200000	-40.0
25	0xc2400000	-48.0
26	0x41600000	14.0
27	0x41600000	14.0
28	0x41100000	9.0
29	0xc1980000	-19.0
30	0xc1500000	-13.0
31	0x41b80000	23.0
32	0xbf800000	-1.0
33	0xc1a00000	-20.0
34	0xc1300000	-11.0
35	0xc2000000	-32.0
36	0xc2540000	-53.0
37	0x41100000	9.0
38	0xc0a00000	-5.0
39	0x41500000	13.0
40	0x40800000	4.0
41	0xc1900000	-18.0
42	0xc2100000	-36.0
43	0x41200000	10.0
44	0xc0000000	-2.0
45	0x42140000	37.0
46	0x40800000	4.0
47	0xc0e00000	-7.0
48	0xbf800000	-1.0
49	0x40400000	3.0
50	0xc1400000	-12.0
51	0xc1b80000	-23.0
52	0x41700000	15.0
53	0x41800000	16.0
54	0x40e00000	7.0
55	0x40400000	3.0
56	0x40c00000	6.0
57	0x41b80000	23.0
58	0xc1000000	-8.0
59	0xc1400000	-12.0
60	0x42240000	41.0
61	0x41000000	8.0
62	0x41100000	9.0
63	0x41100000	9.0
64	0x41200000	10.0
65	0xc1980000	-19.0
66	0xc1800000	-16.0
67	0x41d00000	26.0
68	0xc1000000	-8.0
69	0xc0c00000	-6.0
70	0xc1100000	-9.0
71	0x42ac0000	86.0
72	0x41f00000	30.0
73	0x41600000	14.0
74	0xc0a00000	-5.0
75	0xc1d00000	-26.0
76	0xc2180000	-38.0
77	0xc0e00000	-7.0
78	0x41a80000	21.0
79	0x41980000	19.0
80	0x40800000	4.0
81	0xc2480000	-50.0
82	0x41000000	8.0
83	0xc0400000	-3.0
84	0x42a60000	83.0
85	0xc1000000	-8.0
86	0x00000000	0.0
87	0xc1f80000	-31.0
88	0xc0c00000	-6.0
89	0xc1c80000	-25.0
90	0x41400000	12.0
91	0xc0800000	-4.0
92	0xc1600000	-14.0
93	0x42180000	38.0
94	0xc0400000	-3.0
95	0x428c0000	70.0
96	0xc0800000	-4.0
97	0xc1800000	-16.0
98	0xc1b80000	-23.0
99	0x41300000	11.0
100	0xc1500000	-13.0
101	0xc0c00000	-6.0
102	0xc1800000	-16.0
103	0x42140000	37.0
104	0x40c00000	6.0
105	0xc1500000	-13.0
106	0x41600000	14.0
107	0x40a00000	5.0
108	0x41700000	15.0
109	0xc2500000	-52.0
110	0xc1500000	-13.0
111	0xc0400000	-3.0
112	0x42080000	34.0
113	0xc1d80000	-27.0
114	0xc1800000	-16.0
115	0xc1200000	-10.0
116	0xc1c00000	-24.0
117	0xc21c0000	-39.0
118	0xc1880000	-17.0
119	0xc1900000	-18.0
120	0xc1400000	-12.0
121	0xc1a00000	-20.0
122	0xc2540000	-53.0
123	0x00000000	0.0
124	0xc1600000	-14.0
125	0x40000000	2.0
126	0x00000000	0.0
127	0xc1700000	-15.0
128	0x42300000	44.0
129	0xc20c0000	-35.0
130	0xc1e80000	-29.0
131	0xc1400000	-12.0
132	0xc2300000	-44.0
133	0x40c00000	6.0
134	0xc1b00000	-22.0
135	0x41d80000	27.0
136	0xbf800000	-1.0
137	0xc1a80000	-21.0
138	0xc28e0000	-71.0
139	0x42580000	54.0
140	0xc2580000	-54.0
141	0xc0e00000	-7.0
142	0x40a00000	5.0
143	0x41c00000	24.0
144	0xc26c0000	-59.0
145	0xc2640000	-57.0
146	0xc1c80000	-25.0
147	0xc1000000	-8.0
148	0xc2080000	-34.0
149	0x40c00000	6.0
150	0x41000000	8.0
151	0xc1e00000	-28.0
152	0xc2820000	-65.0
153	0x42380000	46.0
154	0x42080000	34.0
155	0x40800000	4.0
156	0x41d00000	26.0
157	0xc1600000	-14.0
158	0x41e00000	28.0
159	0x42480000	50.0
160	0xc1000000	-8.0
161	0x41a80000	21.0
162	0x42500000	52.0
163	0xbf800000	-1.0
164	0x42900000	72.0
165	0xc0a00000	-5.0
166	0x424c0000	51.0
167	0x40e00000	7.0
168	0xc2b80000	-92.0
169	0x42080000	34.0
170	0xc2000000	-32.0
171	0x41b00000	22.0
172	0x80000000	-0.0
173	0xc2340000	-45.0
174	0xc1980000	-19.0
175	0x41500000	13.0
176	0xc2000000	-32.0
177	0x41b00000	22.0
178	0xc1700000	-15.0
179	0x3f800000	1.0
180	0x41700000	15.0
181	0xc2000000	-32.0
182	0x41b00000	22.0
183	0xc1900000	-18.0
184	0x422c0000	43.0
185	0x40000000	2.0
186	0x42100000	36.0
187	0xc1100000	-9.0
188	0x41500000	13.0
189	0xc2300000	-44.0
190	0x41900000	18.0
191	0xc0000000	-2.0
192	0xc0800000	-4.0
193	0xc2240000	-41.0
194	0x3f800000	1.0
195	0xc1b80000	-23.0
196	0x42000000	32.0
197	0x40000000	2.0
198	0x40400000	3.0
199	0xc1100000	-9.0
200	0xc1700000	-15.0
201	0x41400000	12.0
202	0x41c00000	24.0
203	0x41000000	8.0
204	0xc2ba0000	-93.0
205	0xc1200000	-10.0
206	0xc24c0000	-51.0
207	0xc1100000	-9.0
208	0x42100000	36.0
209	0xc1d80000	-27.0
210	0x41a80000	21.0
211	0x42140000	37.0
212	0xc2080000	-34.0
213	0xc0400000	-3.0
214	0x42080000	34.0
215	0x42540000	53.0
216	0xc24c0000	-51.0
217	0x40c00000	6.0
218	0x41a80000	21.0
219	0xc1a80000	-21.0
220	0xc1500000	-13.0
221	0x41b00000	22.0
222	0x42300000	44.0
223	0xc1d00000	-26.0
224	0xc1900000	-18.0
225	0x40400000	3.0
226	0x42000000	32.0
227	0xc1000000	-8.0
228	0x42800000	64.0
229	0xc1100000	-9.0
230	0x00000000	0.0
231	0x42040000	33.0
232	0xc0a00000	-5.0
233	0xc26c0000	-59.0
234	0x41300000	11.0
235	0x424c0000	51.0
236	0x41500000	13.0
237	0x41000000	8.0
238	0x40e00000	7.0
239	0xc2340000	-45.0
240	0x41880000	17.0
241	0x42240000	41.0
242	0xc22c0000	-43.0
243	0xc0e00000	-7.0
244	0x42380000	46.0
245	0x41c80000	25.0
246	0x42500000	52.0
247	0xc2080000	-34.0
248	0xc2080000	-34.0
249	0xc2440000	-49.0
250	0xc2340000	-45.0
251	0x42680000	58.0
252	0xc1f80000	-31.0
253	0xc0e00000	-7.0
254	0x41e00000	28.0
255	0x41d80000	27.0

26 f4 [1, 15]
0	0x3d0ed48c	0.03487067
1	0x3dd63ed2	0.10461201
2	0x3e3289af	0.17435335
3	0x3e79f3f5	0.24409468
4	0x3ea0af1e	0.31383604
5	0x3ec46440	0.38357735
6	0x3ee81964	0.45331872
7	0x3f05e743	0.52306
8	0x3f17c1d5	0.5928014
9	0x3f299c67	0.66254276
10	0x3f3b76f8	0.73228407
11	0x3f4d5189	0.8020254
12	0x3f5f2c1b	0.87176675
13	0x3f7106ad	0.9415081
14	0x3f81709f	1.0112494

30 f4 [128, 64]
0	0x40000000	2.0
1	0x40000000	2.0
2	0x3f800000	1.0
3	0xbf800000	-1.0
4	0x40a00000	5.0
5	0x3f800000	1.0
6	0x40800000	4.0
7	0xc0e00000	-7.0
8	0x3f800000	1.0
9	0x3f800000	1.0
10	0xc0a00000	-5.0
11	0x00000000	0.0
12	0xc0000000	-2.0
13	0x40800000	4.0
14	0x40c00000	6.0
15	0xc0800000	-4.0
16	0x3f800000	1.0
17	0xbf800000	-1.0
18	0x40800000	4.0
19	0x40a00000	5.0
20	0x40a00000	5.0
21	0xc0400000	-3.0
22	0x40400000	3.0
23	0x80000000	-0.0
24	0xc0c00000	-6.0
25	0x00000000	0.0
26	0xc0c00000	-6.0
27	0x3f800000	1.0
28	0x40800000	4.0
29	0x40000000	2.0
30	0xc0400000	-3.0
31	0xc0400000	-3.0
32	0x80000000	-0.0
33	0xbf800000	-1.0
34	0xc0400000	-3.0
35	0x80000000	-0.0
36	0xc0800000	-4.0
37	0x40800000	4.0
38	0xc0000000	-2.0
39	0xc0800000	-4.0
40	0xbf800000	-1.0
41	0xc0000000	-2.0
42	0xc0e00000	-7.0
43	0x80000000	-0.0
44	0x40800000	4.0
45	0xc0400000	-3.0
46	0x40000000	2.0
47	0x40400000	3.0
48	0xc0400000	-3.0
49	0xc0e00000	-7.0
50	0xc0400000	-3.0
51	0x40a00000	5.0
52	0xc0400000	-3.0
53	0xc0a00000	-5.0
54	0x40400000	3.0
55	0xc0400000	-3.0
56	0x40000000	2.0
57	0xbf800000	-1.0
58	0xc0000000	-2.0
59	0xbf800000	-1.0
60	0xc0400000	-3.0
61	0xbf800000	-1.0
62	0xbf800000	-1.0
63	0x00000000	0.0
64	0x40400000	3.0
65	0xc0000000	-2.0
66	0xc0000000	-2.0
67	0xc0c00000	-6.0
68	0x40400000	3.0
69	0x40400000	3.0
70	0xc0000000	-2.0
71	0x00000000	0.0
72	0x40a00000	5.0
73	0xc0000000	-2.0
74	0xbf800000	-1.0
75	0xc0800000	-4.0
76	0xc0400000	-3.0
77	0x40800000	4.0
78	0x40a00000	5.0
79	0xc0400000	-3.0
80	0xc0c00000	-6.0
81	0x40c00000	6.0
82	0xc0e00000	-7.0
83	0x40800000	4.0
84	0x40a00000	5.0
85	0xc0e00000	-7.0
86	0x3f800000	1.0
87	0xc0800000	-4.0
88	0xc0400000	-3.0
89	0x40c00000	6.0
90	0xbf800000	-1.0
91	0xc0400000	-3.0
92	0x40000000	2.0
93	0x40c00000	6.0
94	0xc0000000	-2.0
95	0x40c00000	6.0
96	0xc0800000	-4.0
97	0x00000000	0.0
98	0x40400000	3.0
99	0xc0400000	-3.0
100	0x40e00000	7.0
101	0x3f800000	1.0
102	0xc0c00000	-6.0
103	0xbf800000	-1.0
104	0xc0a00000	-5.0
105	0xbf800000	-1.0
106	0x40a00000	5.0
107	0xc0e00000	-7.0
108	0xbf800000	-1.0
109	0xbf800000	-1.0
110	0xc0400000	-3.0
111	0xc0800000	-4.0
112	0x00000000	0.0
113	0x3f800000	1.0
114	0xc0800000	-4.0
115	0x40e00000	7.0
116	0xc0000000	-2.0
117	0xc0400000	-3.0
118	0xc0c00000	-6.0
119	0x3f800000	1.0
120	0x40c00000	6.0
121	0x40000000	2.0
122	0x3f800000	1.0
123	0x80000000	-0.0
124	0x40400000	3.0
125	0xc0400000	-3.0
126	0x40000000	2.0
127	0xc0a00000	-5.0
128	0xc0800000	-4.0
129	0x40000000	2.0
130	0xc0800000	-4.0
131	0xc0e00000	-7.0
132	0xc0800000	-4.0
133	0x40400000	3.0
134	0x40000000	2.0
135	0xc0800000	-4.0
136	0xbf800000	-1.0
137	0x40400000	3.0
138	0x3f800000	1.0
139	0xc0e00000	-7.0
140	0x40c00000	6.0
141	0xc0800000	-4.0
142	0xc0e00000	-7.0
143	0x3f800000	1.0
144	0x3f800000	1.0
145	0xbf800000	-1.0
146	0x40400000	3.0
147	0xc0400000	-3.0
148	0xc0e00000	-7.0
149	0x40000000	2.0
150	0xbf800000	-1.0
151	0xc0e00000	-7.0
152	0x3f800000	1.0
153	0x3f800000	1.0
154	0x3f800000	1.0
155	0x40400000	3.0
156	0x40000000	2.0
157	0x00000000	0.0
158	0xc0000000	-2.0
159	0x40400000	3.0
160	0x80000000	-0.0
161	0xc0e00000	-7.0
162	0xc0000000	-2.0
163	0xbf800000	-1.0
164	0xc0000000	-2.0
165	0xc0e00000	-7.0
166	0xc0a00000	-5.0
167	0x80000000	-0.0
168	0xc0e00000	-7.0
169	0x40a00000	5.0
170	0x40e00000	7.0
171	0xc0800000	-4.0
172	0x40000000	2.0
173	0xbf800000	-1.0
174	0x40000000	2.0
175	0xc0000000	-2.0
176	0x40800000	4.0
177	0x40c00000	6.0
178	0xc0e00000	-7.0
179	0xc0400000	-3.0
180	0x40c00000	6.0
181	0x80000000	-0.0
182	0x80000000	-0.0
183	0xc0e00000	-7.0
184	0xc0400000	-3.0
185	0x00000000	0.0
186	0xc0400000	-3.0
187	0xc0400000	-3.0
188	0x80000000	-0.0
189	0x3f800000	1.0
190	0xc0a00000	-5.0
191	0xc0c00000	-6.0
192	0xc0000000	-2.0
193	0x40800000	4.0
194	0x00000000	0.0
195	0xc0e00000	-7.0
196	0x40400000	3.0
197	0xbf800000	-1.0
198	0x40800000	4.0
199	0xc0400000	-3.0
200	0xc0000000	-2.0
201	0x40800000	4.0
202	0x3f800000	1.0
203	0xc0000000	-2.0
204	0x00000000	0.0
205	0x40000000	2.0
206	0x40800000	4.0
207	0x40000000	2.0
208	0xbf800000	-1.0
209	0x80000000	-0.0
210	0x3f800000	1.0
211	0xbf800000	-1.0
212	0xc0400000	-3.0
213	0x40000000	2.0
214	0x40400000	3.0
215	0x80000000	-0.0
216	0xc0400000	-3.0
217	0xc0800000	-4.0
218	0xc0400000	-3.0
219	0x00000000	0.0
220	0x40800000	4.0
221	0xc0e00000	-7.0
222	0x3f800000	1.0
223	0x3f800000	1.0
224	0x40800000	4.0
225	0xc0000000	-2.0
226	0x80000000	-0.0
227	0x3f800000	1.0
228	0x40800000	4.0
229	0x40800000	4.0
230	0xbf800000	-1.0
231	0x80000000	-0.0
232	0x40000000	2.0
233	0x40000000	2.0
234	0x3f800000	1.0
235	0x00000000	0.0
236	0xc0e00000	-7.0
237	0x00000000	0.0
238	0x40800000	4.0
239	0x3f800000	1.0
240	0xc0800000	-4.0
241	0xc0000000	-2.0
242	0xc0400000	-3.0
243	0x40000000	2.0
244	0xc0400000	-3.0
245	0x3f800000	1.0
246	0x40a00000	5.0
247	0xc0a00000	-5.0
248	0xc0800000	-4.0
249	0xc0a00000	-5.0
250	0x80000000	-0.0
251	0x00000000	0.0
252	0xc0e00000	-7.0
253	0xbf800000	-1.0
254	0x40000000	2.0
255	0x3f800000	1.0

38 f4 [64, 32]
0	0x40000000	2.0
1	0x00000000	0.0
2	0xc0800000	-4.0
3	0xbf800000	-1.0
4	0xc0a00000	-5.0
5	0x3f800000	1.0
6	0x40400000	3.0
7	0x3f800000	1.0
8	0x80000000	-0.0
9	0x00000000	0.0
10	0xc0a00000	-5.0
11	0xbf800000	-1.0
12	0xbf800000	-1.0
13	0x40400000	3.0
14	0x40000000	2.0
15	0xc0800000	-4.0
16	0x40000000	2.0
17	0xc0a00000	-5.0
18	0xbf800000	-1.0
19	0x00000000	0.0
20	0xc0400000	-3.0
21	0x40400000	3.0
22	0x40400000	3.0
23	0x3f800000	1.0
24	0x40400000	3.0
25	0xbf800000	-1.0
26	0x40800000	4.0
27	0xc0400000	-3.0
28	0x3f800000	1.0
29	0xc0400000	-3.0
30	0x3f800000	1.0
31	0x40c00000	6.0
32	0x40000000	2.0
33	0xc0400000	-3.0
34	0x3f800000	1.0
35	0xc0000000	-2.0
36	0x80000000	-0.0
37	0xbf800000	-1.0
38	0x3f800000	1.0
39	0xbf800000	-1.0
40	0xc0a00000	-5.0
41	0x80000000	-0.0
42	0x40a00000	5.0
43	0x00000000	0.0
44	0xc0a00000	-5.0
45	0x80000000	-0.0
46	0xbf800000	-1.0
47	0x3f800000	1.0
48	0xbf800000	-1.0
49	0x3f800000	1.0
50	0x40800000	4.0
51	0x80000000	-0.0
52	0x40c00000	6.0
53	0xbf800000	-1.0
54	0x40000000	2.0
55	0xc0000000	-2.0
56	0x3f800000	1.0
57	0xbf800000	-1.0
58	0xbf800000	-1.0
59	0x3f800000	1.0
60	0x80000000	-0.0
61	0x40000000	2.0
62	0xc0000000	-2.0
63	0xc0a00000	-5.0
64	0x00000000	0.0
65	0x3f800000	1.0
66	0xbf800000	-1.0
67	0x3f800000	1.0
68	0xc0400000	-3.0
69	0x40a00000	5.0
70	0x40400000	3.0
71	0x40400000	3.0
72	0x00000000	0.0
73	0x3f800000	1.0
74	0xc0400000	-3.0
75	0xc0000000	-2.0
76	0x3f800000	1.0
77	0x40800000	4.0
78	0x40000000	2.0
79	0xc0a00000	-5.0
80	0x40400000	3.0
81	0xc0800000	-4.0
82	0x3f800000	1.0
83	0x00000000	0.0
84	0xc0000000	-2.0
85	0x40000000	2.0
86	0x3f800000	1.0
87	0x00000000	0.0
88	0x40a00000	5.0
89	0x00000000	0.0
90	0x40800000	4.0
91	0xc0800000	-4.0
92	0x40400000	3.0
93	0xc0800000	-4.0
94	0x00000000	0.0
95	0x40a00000	5.0
96	0x3f800000	1.0
97	0xc0800000	-4.0
98	0x80000000	-0.0
99	0xc0800000	-4.0
100	0xbf800000	-1.0
101	0xc0a00000	-5.0
102	0x3f800000	1.0
103	0xc0000000	-2.0
104	0xc0a00000	-5.0
105	0xbf800000	-1.0
106	0x40c00000	6.0
107	0x00000000	0.0
108	0xc0800000	-4.0
109	0xbf800000	-1.0
110	0x40a00000	5.0
111	0x3f800000	1.0
112	0x80000000	-0.0
113	0xbf800000	-1.0
114	0x40400000	3.0
115	0x40400000	3.0
116	0x40c00000	6.0
117	0x00000000	0.0
118	0x3f800000	1.0
119	0xc0800000	-4.0
120	0x3f800000	1.0
121	0xc0a00000	-5.0
122	0x80000000	-0.0
123	0x40800000	4.0
124	0x3f800000	1.0
125	0x00000000	0.0
126	0xc0000000	-2.0
127	0xc0000000	-2.0
128	0x40400000	3.0
129	0x3f800000	1.0
130	0xc0c00000	-6.0
131	0x80000000	-0.0
132	0xc0c00000	-6.0
133	0x40c00000	6.0
134	0x40e00000	7.0
135	0x40e00000	7.0
136	0x00000000	0.0
137	0xc0400000	-3.0
138	0xc0400000	-3.0
139	0xc0a00000	-5.0
140	0x80000000	-0.0
141	0x40c00000	6.0
142	0x40400000	3.0
143	0xc0400000	-3.0
144	0x40c00000	6.0
145	0xc0a00000	-5.0
146	0x40400000	3.0
147	0x3f800000	1.0
148	0x40000000	2.0
149	0x40e00000	7.0
150	0x40000000	2.0
151	0x3f800000	1.0
152	0x40e00000	7.0
153	0xc0000000	-2.0
154	0x40c00000	6.0
155	0xbf800000	-1.0
156	0x40e00000	7.0
157	0xc0800000	-4.0
158	0x00000000	0.0
159	0x3f800000	1.0
160	0x00000000	0.0
161	0xbf800000	-1.0
162	0xc0c00000	-6.0
163	0x40000000	2.0
164	0xc0e00000	-7.0
165	0x40800000	4.0
166	0x40000000	2.0
167	0x3f800000	1.0
168	0xc0c00000	-6.0
169	0xc0000000	-2.0
170	0xc0a00000	-5.0
171	0xc0800000	-4.0
172	0xbf800000	-1.0
173	0x40a00000	5.0
174	0x00000000	0.0
175	0xc0400000	-3.0
176	0x40a00000	5.0
177	0xc0800000	-4.0
178	0xbf800000	-1.0
179	0x3f800000	1.0
180	0x00000000	0.0
181	0x40400000	3.0
182	0x40000000	2.0
183	0x00000000	0.0
184	0x40c00000	6.0
185	0xc0000000	-2.0
186	0x40800000	4.0
187	0xc0c00000	-6.0
188	0x40800000	4.0
189	0xc0800000	-4.0
190	0x3f800000	1.0
191	0x40800000	4.0
192	0xc0400000	-3.0
193	0xc0800000	-4.0
194	0xbf800000	-1.0
195	0x80000000	-0.0
196	0xbf800000	-1.0
197	0x3f800000	1.0
198	0x3f800000	1.0
199	0xc0400000	-3.0
200	0xc0e00000	-7.0
201	0xc0400000	-3.0
202	0x40400000	3.0
203	0x80000000	-0.0
204	0xc0800000	-4.0
205	0x40000000	2.0
206	0x3f800000	1.0
207	0x40800000	4.0
208	0x3f800000	1.0
209	0x00000000	0.0
210	0x40000000	2.0
211	0x40800000	4.0
212	0x80000000	-0.0
213	0xbf800000	-1.0
214	0xc0000000	-2.0
215	0xc0000000	-2.0
216	0x80000000	-0.0
217	0x80000000	-0.0
218	0x00000000	0.0
219	0x40a00000	5.0
220	0x3f800000	1.0
221	0x3f800000	1.0
222	0xc0400000	-3.0
223	0xc0c00000	-6.0
224	0x80000000	-0.0
225	0x40000000	2.0
226	0x00000000	0.0
227	0xc0000000	-2.0
228	0x40800000	4.0
229	0xbf800000	-1.0
230	0xc0000000	-2.0
231	0x80000000	-0.0
232	0x3f800000	1.0
233	0x40400000	3.0
234	0x40400000	3.0
235	0x40a00000	5.0
236	0xbf800000	-1.0
237	0xc0800000	-4.0
238	0x40000000	2.0
239	0x40000000	2.0
240	0xc0a00000	-5.0
241	0x40000000	2.0
242	0x3f800000	1.0
243	0x00000000	0.0
244	0x3f800000	1.0
245	0xc0800000	-4.0
246	0x3f800000	1.0
247	0x40400000	3.0
248	0xc0a00000	-5.0
249	0x00000000	0.0
250	0xc0800000	-4.0
251	0x3f800000	1.0
252	0xc0a00000	-5.0
253	0x40800000	4.0
254	0x80000000	-0.0
255	0xc0000000	-2.0

46 f4 [32, 3]
0	0xc0800000	-4.0
1	0x3f800000	1.0
2	0x3f800000	1.0
3	0x40e00000	7.0
4	0xc0400000	-3.0
5	0xc0e00000	-7.0
6	0x40000000	2.0
7	0x40400000	3.0
8	0xc0e00000	-7.0
9	0x40a00000	5.0
10	0xc0c00000	-6.0
11	0xc0800000	-4.0
12	0x3f800000	1.0
13	0x40000000	2.0
14	0xc0c00000	-6.0
15	0x40400000	3.0
16	0xc0e00000	-7.0
17	0x00000000	0.0
18	0xc0800000	-4.0
19	0xc0800000	-4.0
20	0x40a00000	5.0
21	0x40a00000	5.0
22	0xc0e00000	-7.0
23	0x3f800000	1.0
24	0x40a00000	5.0
25	0x80000000	-0.0
26	0xc0e00000	-7.0
27	0x40400000	3.0
28	0x40000000	2.0
29	0xc0e00000	-7.0
30	0xc0e00000	-7.0
31	0x40400000	3.0
32	0x3f800000	1.0
33	0x40000000	2.0
34	0x40400000	3.0
35	0xc0e00000	-7.0
36	0x40c00000	6.0
37	0xc0a00000	-5.0
38	0xc0800000	-4.0
39	0x40000000	2.0
40	0xc0e00000	-7.0
41	0x40400000	3.0
42	0xc0a00000	-5.0
43	0x00000000	0.0
44	0x3f800000	1.0
45	0xc0e00000	-7.0
46	0x40a00000	5.0
47	0xbf800000	-1.0
48	0x40400000	3.0
49	0xc0e00000	-7.0
50	0x40a00000	5.0
51	0x3f800000	1.0
52	0x40000000	2.0
53	0xc0e00000	-7.0
54	0xc0e00000	-7.0
55	0x40000000	2.0
56	0x40000000	2.0
57	0xc0e00000	-7.0
58	0x40800000	4.0
59	0x40800000	4.0
60	0xc0e00000	-7.0
61	0x40400000	3.0
62	0x40000000	2.0
63	0xc0a00000	-5.0
64	0xc0400000	-3.0
65	0x40800000	4.0
66	0xc0e00000	-7.0
67	0x40400000	3.0
68	0x40800000	4.0
69	0x40800000	4.0
70	0x40400000	3.0
71	0xc0e00000	-7.0
72	0x80000000	-0.0
73	0xc0c00000	-6.0
74	0x40a00000	5.0
75	0x40000000	2.0
76	0x40000000	2.0
77	0xc0e00000	-7.0
78	0x40400000	3.0
79	0xc0e00000	-7.0
80	0x40800000	4.0
81	0xc0e00000	-7.0
82	0x40800000	4.0
83	0x40000000	2.0
84	0x40000000	2.0
85	0xc0e00000	-7.0
86	0x40c00000	6.0
87	0x40000000	2.0
88	0x40400000	3.0
89	0xc0e00000	-7.0
90	0x40e00000	7.0
91	0xc0a00000	-5.0
92	0xc0e00000	-7.0
93	0x40400000	3.0
94	0xc0e00000	-7.0
95	0x40000000	2.0
