src/hardware_fpga/mlp_v5/mlp_tidy.onnx (onnx, 87576 bytes, 17 tensors)

BatchNormalization_0_param1 f4 [128]
00000000: a382 a8be 6853 e7be 85b3 c3bc 534b f4be
00000010: 2c98 2fbe 1b6e 84be 9417 27bf ac09 27bf
00000020: 4668 ac3d a96d 09bf 48f0 cbbe ea8e b5be
00000030: 8f6c 67be c0a5 25be 2b27 26bf 68a0 9e3e
00000040: 19df 0cbe b166 4fbe 184b 8ebe 3f00 9dbe
00000050: 4522 78bf fca4 45bf baf2 95be 01ff c73e
00000060: baf9 34bf cc8c 9ebb c8e5 abbe d502 95be
00000070: 80b8 c2be e183 f7be cfe2 15bf 409a 4cbf
00000080: d838 3dbd 4977 acbe 2408 72be 3403 a43d
00000090: a4ea 2fbe 4c12 55bc 7f32 8dbc 4164 e0bd
000000a0: 5397 cfbe 65ed 8cbe 1afd e6be 2e2c 12bf
000000b0: 2cba ed3d 8172 2dbf 94eb afbd 6cc9 5fbe
000000c0: ba34 fabd 2ad1 20bf 14d1 f7be 65d2 4cbf
000000d0: ae0d a43e 39d7 babc 9015 2e3e fa90 94bf
000000e0: 560a ccbe 0501 b6be 3957 1fbf ffb6 90be
000000f0: 8c65 8bbe 2dba c9bc d8dd 203d b437 a53d
00000100: 2d69 083e fa0b 67bd 7100 34bf c394 b8be
00000110: 4873 30bf c5bd 05bf c245 5e3d 4b84 59be
00000120: 9059 57b9 24a4 1cbf 2edc 6abe 4db2 cf3d
00000130: ba77 6ebf 0908 59bf 4ab9 d0be 8e68 2dbe
00000140: fa1b f5be 0b08 8fbe 6123 f9be d802 8dbe
00000150: 674a f6bc c2e8 3fbf aef3 17bf 4203 debe
00000160: e8c9 66bf 8758 0bbf 42d6 c4bd 07ff 3cbe
00000170: 40f7 1fbf 81e3 4abf 3423 89bf f7e1 1abf
00000180: 52c3 11bf d4e3 fcbe 425f 85be a48d 7cbe
00000190: 1779 29bf 7339 a4be 9bf1 32bf 82f1 31be
000001a0: 0fd0 c3bd fa4d db3c 72e7 6cbf 6109 23bf
000001b0: a1c5 20bf 9ff8 2bbf ea37 43be fd03 8cbe
000001c0: 3fa9 59be 266e f0bd 0b29 a2bd 2317 f1be
000001d0: 0df7 073d 58f7 52be d1ef 3fbf 733e fdbe
000001e0: 41e4 2fbd 6da9 74bf 9a7c 843d 736b dbbe
000001f0: 1d37 0fbf 560f 7bbe e950 17be 8643 debe
-0.32912168 -0.4518082 -0.023889313 -0.47713718 -0.17147893 -0.25865254 -0.6527035 -0.65249133
0.08418326 -0.53682953 -0.39831758 -0.35460597 -0.22600006 -0.1617651 -0.64903516 0.30981755
-0.1375698 -0.20254017 -0.27791667 -0.3066425 -0.9692729 -0.7720487 -0.29286748 0.3906174
-0.7069355 -0.0048385616 -0.33573747 -0.29103723 -0.38031387 -0.48342803 -0.5854921 -0.79922867
-0.04619679 -0.33684757 -0.23635918 0.080084234 -0.17179352 -0.013004851 -0.017235992 -0.10956622
-0.4054514 -0.27524868 -0.45114976 -0.5709866 0.11607775 -0.67752844 -0.08589855 -0.2185418
-0.12217088 -0.6281916 -0.484017 -0.80008537 0.32041687 -0.022807704 0.17000413 -1.1606743
-0.39851636 -0.35547653 -0.62242466 -0.28264615 -0.27225912 -0.024624908 0.039274067 0.08067265
0.13321371 -0.056407906 -0.70313174 -0.36050996 -0.68925905 -0.5224269 0.054265745 -0.21241872
-0.00020537362 -0.6118796 -0.22935554 0.1014143 -0.9315144 -0.84777886 -0.40766364 -0.16934416
-0.47872907 -0.27935824 -0.48659804 -0.27541232 -0.030064775 -0.74964535 -0.593562 -0.4336186
-0.90151834 -0.54431957 -0.09611179 -0.1845666 -0.6248665 -0.79253393 -1.0713868 -0.60501045
-0.5693866 -0.4939257 -0.26049238 -0.24663407 -0.66200393 -0.3207508 -0.6989991 -0.17377284
-0.095611684 0.02677058 -0.9254066 -0.63686186 -0.6280156 -0.6717624 -0.19064298 -0.27346793
-0.21255969 -0.11739759 -0.079179846 -0.47087964 0.03319459 -0.20602167 -0.74975306 -0.49461707
-0.04294229 -0.95571023 0.06469078 -0.42855415 -0.5594347 -0.24517569 -0.14776959 -0.4341089

BatchNormalization_0_param2 f4 [128]
00000000: 1cf6 b4c3 bc76 c9c3 108b 2bc4 7fe8 4bc2
00000010: dbc5 4943 c553 c7c3 24e5 e3be 3c51 0143
00000020: 204f e9c3 6ebc 09c4 df26 bf43 b13e ab42
00000030: 2049 6743 7a8f a5c3 05ff cec3 a7d8 0d43
00000040: 0301 ac43 9288 4e43 6195 a6c3 bba4 d442
00000050: 6905 f343 1955 1ac3 1b3e 1f44 cded e442
00000060: b090 19c4 7f37 6242 2635 dc43 f4fa e843
00000070: de29 89c3 19f9 12c4 3a13 b742 e104 b542
00000080: 37bf 03c2 5bb8 4dc3 1696 59c3 04dc 1cc4
00000090: 1413 cb43 ac51 f843 a7f7 bf43 86df 68c3
000000a0: 13d4 df43 f0d0 c543 e9b0 fe43 6902 fb41
000000b0: 1e06 2443 c8b2 1843 ae80 00c4 a1f7 6943
000000c0: f9b3 5b43 713a 1f43 45fd 0e42 19d0 ebc3
000000d0: 7f24 d343 c521 4444 b710 8e43 a64f 05c4
000000e0: 189c aac3 56b1 a043 e566 bcc2 f965 04c2
000000f0: 8c5b 2744 be0d e8c3 029e b243 cc5f 0744
00000100: 2e21 f6c2 4305 35c4 9e26 84c3 68ea 80c3
00000110: cccb e1c3 8054 33c4 7990 43c4 cde1 e343
00000120: d5fc fa43 c878 a2c3 427d 97c3 b122 a543
00000130: 9d68 ccc3 d5de 1044 c06b ec42 7af7 f542
00000140: 0e12 aa43 af73 49c3 d3f7 d041 8f9d 2c44
00000150: 911e 8c42 783b 1bc3 9667 5644 609e 4fc3
00000160: 0906 74c3 f489 1444 91cb c5c3 704a fcc2
00000170: 0d11 95c1 97c4 8643 81ed f2c2 6989 84c3
00000180: 8fa4 1141 fb3b e242 5812 2844 673e 1243
00000190: 8c45 f542 8768 07c4 35a1 39c3 d5a4 7843
000001a0: 4f09 74c3 f299 2cc1 828c cfc2 07cc 7a43
000001b0: 3672 3fc2 8d57 1cc3 1ede 0643 e214 2dc3
000001c0: d9aa 8343 ca0a 02c3 6546 dac3 f2af bcc3
000001d0: 474f 1144 ab3d dbc1 f0ca 7643 1afe bcc3
000001e0: 7c14 1344 506b 0141 ffaa 93c2 55e1 ee43
000001f0: a3c4 0744 f471 02c3 1ee8 46bf 3ac0 ecc2
-361.92273 -402.9276 -686.17285 -50.977047 201.77287 -398.65445 -0.44510758 129.31732
-466.61816 -550.9442 382.30368 85.622444 231.28564 -331.1209 -413.99234 141.8463
344.0079 206.53348 -333.16702 106.32174 486.04227 -154.33241 636.9704 114.464455
-614.26074 56.554195 440.41522 465.96057 -274.3271 -587.89215 91.53755 90.50953
-32.936733 -205.72014 -217.58627 -627.43774 406.14905 496.63806 383.93478 -232.87314
447.65683 395.63232 509.3821 31.376177 164.0239 152.69836 -514.0106 233.9673
219.70302 159.22829 35.747334 -471.62576 422.28513 784.52765 284.13058 -533.2445
-341.21948 321.38544 -94.200966 -33.099583 669.4304 -464.10736 357.23444 541.4968
-123.064804 -724.0822 -264.3017 -257.8313 -451.59216 -717.3203 -782.2574 455.76407
501.97525 -324.9436 -302.97858 330.27103 -408.8173 579.48175 118.21045 122.98335
340.14105 -201.45189 26.121008 690.46185 70.0597 -155.2323 857.6185 -207.61865
-244.02357 594.1555 -395.59036 -126.145386 -18.633326 269.53586 -121.463875 -265.07352
9.102675 113.11715 672.2866 146.24376 122.63583 -541.63324 -185.62971 248.64388
-244.03636 -10.787584 -103.77443 250.79698 -47.861534 -156.342 134.86765 -173.08157
263.33475 -130.04214 -436.54996 -377.37457 581.2387 -27.405111 246.79272 -377.98517
588.32007 8.088699 -73.83398 477.7604 543.07245 -130.44513 -0.7769793 -118.37544

BatchNormalization_0_param3 f4 [128]
00000000: 8567 3346 519d 1d46 7963 d845 b738 2d46
00000010: 906f b745 36ac 8345 2c9d 8c46 22fd 1b46
00000020: d3cd 5c46 891a ff45 a0e7 2046 2cae f945
00000030: 4931 7946 9193 c145 a836 e945 d4d8 b146
00000040: 7f60 f645 ac36 2846 843a 2946 6918 8146
00000050: 6c80 2d46 96b9 6546 975d ac45 54e4 2046
00000060: bb5e c545 ac4c 1b46 318f 1c46 56ee 2446
00000070: 5835 ed45 cec3 cc45 c5b6 aa45 ac18 1546
00000080: de24 8745 8c5c 6146 658c 2d46 7f53 3846
00000090: 1371 ab46 40cb 3746 f676 0646 38c9 8c45
000000a0: ab4d cf45 94eb 7c46 c6dc 4e46 ad27 0c46
000000b0: 711d 5c46 1a4c c245 e597 ff45 b22c ba45
000000c0: 02fe be45 e4d5 1546 6ddf 9f46 e195 6846
000000d0: b3e1 d345 4758 3946 c363 0646 1676 0246
000000e0: 1154 3046 3983 5f46 3625 4c46 3fab ed45
000000f0: c7a5 0846 3744 3c46 743d dc45 2183 0146
00000100: f7a1 4646 4a58 2646 7bdc 2c46 9da7 3546
00000110: 4216 e945 a15d 5146 4006 4546 0817 f345
00000120: 84ab 1146 ff22 6246 3ec2 3146 ba06 9946
00000130: 705f 8246 86ea 4546 c3bb fd45 9d87 d945
00000140: 2909 0846 fcde 4d46 2c1a 4c46 2cb1 8f46
00000150: 9947 7545 044e b746 f19e 6546 552f c345
00000160: bc19 d145 65df fa45 91df 0146 09b3 1546
00000170: 2f5d 6b46 0e08 d546 0d5d 6046 2f2e 0a47
00000180: 3047 1646 86d8 2646 1a10 0146 c407 e545
00000190: 2620 1546 517e 1046 3e1f 0b46 f867 0146
000001a0: 92cc 3e46 5fac 7e46 1fbf 1646 e55f 0246
000001b0: 2e46 de45 c6a2 5246 a02d 0146 f81a 0d46
000001c0: 30fb 6046 6b45 e745 e24f 2c46 8fcb d645
000001d0: fb2e 4c46 0c9b f045 6545 1546 a0e2 bb45
000001e0: 3b2b 2b46 950f 9e46 10f7 1146 80f4 4a46
000001f0: b098 c145 f664 a645 4367 0f46 0c86 1846
11481.88 10087.329 6924.434 11086.179 5869.9453 4213.5264 17998.586 9983.283
14131.456 8163.317 10297.906 7989.7715 15948.321 6194.446 7462.832 22764.414
7884.062 10765.668 10830.629 16524.205 11104.105 14702.396 5515.6987 10297.082
6315.8413 9939.168 10019.798 10555.584 7590.668 6552.4756 5462.846 9542.168
4324.6084 14423.137 11107.099 11796.874 21944.537 11762.8125 8605.74 4505.1523
6633.7085 16186.895 13239.193 8969.919 14087.36 6217.5127 8178.987 5957.587
6111.751 9589.473 20463.713 14885.47 6780.2124 11862.069 8600.94 8349.521
11285.017 14304.806 13065.303 7605.406 8745.444 12049.054 7047.6816 8288.782
12712.491 10646.072 11063.12 11625.903 7458.782 13399.407 12609.5625 7778.879
9322.879 14472.749 11376.561 19587.363 16687.719 12666.631 8119.47 6960.9517
8706.29 13175.746 13062.543 18392.586 3924.4749 23463.008 14695.735 6245.9165
6691.217 8027.9243 8311.892 9580.759 15063.296 27268.027 14359.263 35374.184
9617.797 10678.131 8260.025 7328.9707 9544.037 9247.579 8903.811 8281.992
12211.143 16299.093 9647.78 8343.974 7112.7725 13480.693 8267.406 9030.742
14398.797 7400.6772 11027.971 6873.445 13067.745 7699.381 9553.349 6012.328
10954.808 20231.791 9341.766 12989.125 6195.086 5324.62 9177.815 9761.512

BatchNormalization_0_param0 f4 [128]
00000000: 32e8 a33f d044 bd3f dbd4 993f 3b0b 833f
00000010: e662 4a3f abea 883f 6f4d af3f b93d d23f
00000020: bd21 8f3f 04c8 af3f a1b3 8e3f 1e23 663f
00000030: c3a3 b43f b3f6 3c3f 1954 a63f 5532 9b3f
00000040: bb3e 223f d6be 8a3f e80d c43f 4846 ad3f
00000050: 798b 0240 a6f1 d03f 8f69 473f ed05 9c3f
00000060: 0a69 ba3f ca88 3d3f e941 a43f 56bd 853f
00000070: 4cde a43f 193a a63f fc77 503f 58e7 af3f
00000080: c098 cb3f 5219 c53f d6db 973f 5564 793f
00000090: 3723 a73f ec31 a73f 000d 653f 6260 673f
000000a0: a82a 7e3f 3b81 993f 8863 9f3f 5f83 693f
000000b0: fd65 603f 35a7 9e3f d2e7 d13f 97b4 8f3f
000000c0: b56e 5b3f bfd7 703f 0329 a03f 7ac2 dc3f
000000d0: 0574 7a3f f523 573f 22a1 d03f afe1 f43f
000000e0: ac84 b73f 2001 a73f ab58 8d3f aa7c 973f
000000f0: 17f4 773f 7ca9 7c3f cb7a 893f 9467 893f
00000100: d955 ac3f a9be 823f f681 873f 4f42 953f
00000110: a015 a43f 83c3 923f 306b c33f 5710 543f
00000120: dc12 673f 500c df3f 9e51 a23f ce2f d83f
00000130: ceaf cd3f 92b2 a63f 2afe ac3f 8c3a 743f
00000140: b1b3 723f 829c b23f 3fa1 a73f 0581 a63f
00000150: fd41 663f 3042 dd3f d81c 873f 9744 8e3f
00000160: 1bb3 fc3f 3959 bb3f 2634 743f c5e0 be3f
00000170: 9d34 cf3f 4e3a 0c40 9b54 b83f fb65 a33f
00000180: 969f ae3f 586e a53f 581d 7f3f 0440 6d3f
00000190: ed9c 8a3f c7e5 7b3f 2cd2 0340 5cfc 543f
000001a0: 5e5d ae3f e703 8b3f d10d e93f 3f12 693f
000001b0: 89d8 5d3f 0f1a be3f 4ed1 aa3f f71f 3e3f
000001c0: f6ce b93f 6a85 473f 945a 853f 4f1b 813f
000001d0: 6d87 7c3f 9d65 973f 7e2d a23f f1f4 4a3f
000001e0: b265 833f 2db9 b03f 8fd3 a73f d404 b33f
000001f0: b9ff 9c3f 2399 763f 24d4 8f3f 1a28 9f3f
1.2805235 1.4786625 1.2018083 1.0237802 0.7905716 1.0696615 1.3695506 1.6425086
1.1182171 1.3732915 1.1148568 0.89897335 1.4112476 0.73813933 1.2994415 1.2124735
0.6337697 1.0839489 1.5316744 1.3537073 2.0397627 1.6323745 0.77895445 1.2189308
1.4563305 0.7403685 1.2832614 1.0448406 1.288034 1.298648 0.8143308 1.3742476
1.5905991 1.5398352 1.1863964 0.9741872 1.3057622 1.306211 0.8947296 0.90381444
0.9928384 1.1992563 1.245225 0.9121608 0.8765562 1.2394778 1.6398871 1.1226987
0.857158 0.940792 1.2512516 1.724685 0.9783328 0.8403924 1.6299174 1.9131373
1.4337363 1.3047218 1.1042684 1.183492 0.96856827 0.9869611 1.0740598 1.0734735
1.3463699 1.0214435 1.0586536 1.1660861 1.28191 1.1465915 1.5267086 0.8283743
0.9026315 1.7425632 1.2681158 1.6889589 1.6069276 1.3023245 1.3515065 0.95401835
0.9480544 1.3954012 1.3096083 1.3008124 0.8994444 1.7285824 1.0555677 1.1114682
1.9742159 1.4636604 0.9539207 1.4912344 1.6187931 2.1910586 1.440082 1.2765497
1.3642452 1.2924299 0.9965415 0.92675805 1.082914 0.9839749 2.0597029 0.8319757
1.3622243 1.0860566 1.8207341 0.91043466 0.8665853 1.4851702 1.3345125 0.74267524
1.4516284 0.7793795 1.0418267 1.0086459 0.98644143 1.1827885 1.2670133 0.7928
1.026541 1.3806511 1.3111438 1.3985848 1.226554 0.9632742 1.1236615 1.2434113

BatchNormalization_1_param1 f4 [64]
00000000: d49a 0cbe 87dc c0be efe3 c5be f69b 43bf
00000010: e90e 0abf 8144 34bf 0d1d e8be aaaf 1fbf
00000020: 5333 25bf 8e2a 2ebf a245 a6be a2af ebbe
00000030: ec54 dfbe 1a4d f1be 3f0c a6be 7e72 9dbe
00000040: baea d7be eb51 ffbe a429 efbe 4b98 54bf
00000050: 33f1 cebe cc3a f0be 34cb d5be 10ff 00bf
00000060: 8e04 08bf 306e 98be 5d6c 02bf 46d6 edbe
00000070: ba8d 15bf 4eec a5be 53bc b8be 29f2 27bf
00000080: d3a1 11bf 36d6 e5be 8d1f e1be 642a f4be
00000090: d9ca f8be 2300 ecbe 53f2 07bf c397 3bbf
000000a0: bb96 86bf 5f38 72be 0545 16bf 8fb3 a6be
000000b0: 41e4 98bf 771b bebe 2ac3 c9be 007c 81bf
000000c0: 6142 cfbe 689d e4be 4d7e a3be 07cb 2dbf
000000d0: e4ae 11bf d301 92be 0c97 0fbf 0300 6fbf
000000e0: 3cb0 a9be 74f3 dfbe b36f 1fbf 5aac 99be
000000f0: 87f0 9abe e62b 0abf d52b d7be 1082 04bf
-0.13730937 -0.3766825 -0.38650462 -0.7640985 -0.53929 -0.7041703 -0.45334664 -0.6237742
-0.6453144 -0.68033683 -0.32475 -0.46032435 -0.43619478 -0.47129136 -0.32431218 -0.30751413
-0.4217127 -0.49867186 -0.46711457 -0.8304488 -0.40418395 -0.46919858 -0.41756594 -0.50389194
-0.5313195 -0.29771566 -0.509466 -0.4645254 -0.5841938 -0.3240685 -0.3608118 -0.6560388
-0.5688755 -0.44889992 -0.43969384 -0.4768859 -0.4859226 -0.46093854 -0.5310413 -0.73278445
-1.0514749 -0.23654316 -0.58699065 -0.32558867 -1.1944658 -0.3713033 -0.3940671 -1.0115967
-0.4048033 -0.4465134 -0.31932297 -0.6788792 -0.56907487 -0.28517017 -0.56089854 -0.9335939
-0.3314227 -0.43740427 -0.62279814 -0.30014306 -0.30261633 -0.53973234 -0.4202563 -0.5176096

BatchNormalization_1_param2 f4 [64]
00000000: 86f9 363d 5e47 7cbf 2643 fcbe 9d64 ffbe
00000010: f88c 5c3d 2117 8dbf f6d7 3bbd 213c 96bf
00000020: a947 78bf de3e dcbf e163 8fbf d6ce 6e3f
00000030: 732f 0140 b75f 2e3d f761 5f3d 08b2 b03f
00000040: 3d27 393f 952d 9ebf 72dc 53bf b212 ac3e
00000050: 3794 bebf d0db 24bf 6306 9c3f 81b9 52bf
00000060: d38c b2bf 427a 1c3f fd6b dcbf 13bb fa3e
00000070: 7094 293e a730 3f3d 7c6e 81bf bec7 803e
00000080: 7896 2640 d678 a2bf e526 3a3f 6c81 91bf
00000090: 7882 6cbf 0fae 433f 2825 a5be b2ee 7f3f
000000a0: 7235 fabe 1b02 03bf 0596 d7bd 1612 113f
000000b0: 1f72 26be 48b1 8abf f5d5 d2bf 3dc5 4c3f
000000c0: e361 2abf fbc4 0fc0 40a4 7dbf 493b 913f
000000d0: abb3 333f 2227 203f e584 233f ea39 fcbf
000000e0: 80ad 1140 ef1b 79be c8bc 81bf 51c6 c4be
000000f0: 3640 c0bf f268 c4be 6d44 e2bf 51a8 b33e
0.044671558 -0.985464 -0.4926998 -0.4988145 0.053845376 -1.1022683 -0.045860253 -1.17371
-0.96984345 -1.7206686 -1.1202356 0.93284357 2.018521 0.04257175 0.054536786 1.3804331
0.723255 -1.235766 -0.8275825 0.33608013 -1.4888982 -0.6439791 1.2189449 -0.82314306
-1.3949226 0.6112405 -1.7220455 0.4897085 0.1656053 0.046677258 -1.0111842 0.2515239
2.602934 -1.2693126 0.727156 -1.1367621 -0.9238658 0.7643747 -0.3225491 0.99973595
-0.488689 -0.5117509 -0.10526661 0.5666822 -0.16254471 -1.0835352 -1.6471545 0.7998846
-0.66555613 -2.2463977 -0.9907875 1.1346217 0.70196027 0.6255971 0.63874656 -1.9705174
2.2762146 -0.24327062 -1.0135736 -0.38432553 -1.5019596 -0.38361317 -1.7677132 0.35089353

BatchNormalization_1_param3 f4 [64]
00000000: 4c2b 0740 8955 f13f 20fc 0840 d75a df3f
00000010: b3ac f43f 1d86 e33f 7f8f 0d40 6960 2840
00000020: 2acf c23f ea25 4540 46d4 1740 cbf5 3140
00000030: 6657 0f40 b98a dc3f 6ed3 f13f 8cdc 2440
00000040: 1b9f 1940 f743 1340 b8bd de3f 5860 1540
00000050: 266e 0b40 378e 3640 87e5 1f40 973f 0440
00000060: f61e 3f40 6df9 e83f 056a 2940 ee1b 1540
00000070: de8e 1640 09be 1840 4fbb 0e40 9bc5 0440
00000080: f809 1840 ff7c 1b40 f7b8 cd3f 8d9e 0d40
00000090: 7fa1 4640 9523 3440 a3f5 3640 c9ea 2340
000000a0: d0dc 1140 dfd7 1d40 e1e1 f13f 9730 0840
000000b0: 0baa d03f 0966 2b40 004c 1640 670e ef3f
000000c0: 3a12 0340 358d 3a40 302c 0240 e08a f53f
000000d0: cf9f 2040 455f f83f 6057 1540 c486 0440
000000e0: a55e 4f40 771a 1140 7843 ff3f cf36 0d40
000000f0: 2feb 0c40 e748 1b40 2bef f23f 5dc6 1240
2.1120176 1.8854228 2.1403885 1.7449597 1.9115204 1.7775303 2.2118833 2.6308844
1.5219471 3.080439 2.3723311 2.780627 2.2397094 1.7229835 1.8892648 2.575961
2.400336 2.3010232 1.7401648 2.3340054 2.178598 2.85243 2.4983842 2.0663812
2.9862647 1.8201119 2.647096 2.3298297 2.35247 2.3865988 2.2301824 2.0745609
2.3756084 2.4295042 1.6072072 2.2128022 3.103607 2.8146718 2.8587425 2.5612051
2.2791023 2.4663007 1.8897058 2.1279657 1.6301893 2.6781027 2.3483887 1.867627
2.0479875 2.9148686 2.033947 1.9183006 2.509754 1.9404074 2.333458 2.0707254
3.2401516 2.2672403 1.9942465 2.2064703 2.2018545 2.4263246 1.8979238 2.2933571

BatchNormalization_1_param0 f4 [64]
00000000: f069 363f d933 393f 6a05 2c3f 517a 4c3f
00000010: b690 353f 45bb 503f 694d 443f 85a8 4b3f
00000020: 0e93 413f aaed 563f acf3 3c3f 7415 403f
00000030: 5e76 443f c470 523f b9ae 3c3f 3e8e 353f
00000040: 068f 3c3f b447 343f f452 293f c345 743f
00000050: a5ad 463f 9c54 583f 9d86 4e3f 774b 503f
00000060: 3152 653f b961 423f c540 493f 5686 583f
00000070: 4fd6 683f 7718 3c3f b9f2 403f c8c5 543f
00000080: b76d 443f 898a 393f 70b4 433f a9f8 573f
00000090: c813 4b3f f0a9 553f 72a9 4f3f f6ff 633f
000000a0: 8cc2 6f3f 33d7 2b3f 80b5 413f d4a1 2e3f
000000b0: 5a7e 763f 5e38 3e3f 9b8a 403f f814 5f3f
000000c0: 6737 323f 9fd3 4d3f d984 343f 74fd 543f
000000d0: f37a 473f 6fe0 333f 15c1 4e3f 24a8 523f
000000e0: 78cd 4e3f aa46 5b3f 1489 4a3f fd7e 263f
000000f0: da26 2e3f 6714 543f 20fe 4c3f 65d8 513f
0.712554 0.7234474 0.6719576 0.7987414 0.70923936 0.8153575 0.7668062 0.79554015
0.7561501 0.83956397 0.73809314 0.75032735 0.76743114 0.82203317 0.73704106 0.7092017
0.73655736 0.7042191 0.661422 0.9541895 0.7760871 0.84504104 0.80674154 0.8136515
0.8957854 0.7593036 0.78614455 0.8457998 0.9095201 0.7347483 0.75370365 0.8311429
0.7672991 0.7247701 0.764472 0.843638 0.7932706 0.8346243 0.8111793 0.8906244
0.9365623 0.6712524 0.7566757 0.6821568 0.9628655 0.7430476 0.75211495 0.8714137
0.6961579 0.80401033 0.7051521 0.8319924 0.7792198 0.70264333 0.8076337 0.8228781
0.8078227 0.856547 0.79115415 0.6503752 0.6802803 0.8284363 0.80075264 0.81970817

BatchNormalization_2_param1 f4 [32]
00000000: b359 d33d aa79 fa3b 7121 703d 74be 683e
00000010: ac66 67bd 3ee3 443e 7d3a b3bd 4c77 403e
00000020: 462d 463e d45c 5b3e 85dd 163e e692 3b3e
00000030: 321d 623e 1d9c af3d 4dfb 093e e80c 2a3e
00000040: 91d5 633e 933f 493e 5dd1 e83d 62f3 5a3e
00000050: cdad 343e be4c bb3e 85a7 cfbd 5eb1 6a3e
00000060: 8294 c33e 222b 813e b1e3 ae3e c56b c33e
00000070: fd0d 273e 3593 8d3d 0a4f 173d bab3 d73d
0.10319843 0.007643898 0.058625642 0.22728902 -0.0564944 0.19227311 -0.0875139 0.18795508
0.19353208 0.2142213 0.1473294 0.18317756 0.2208145 0.08574698 0.1347477 0.16606486
0.22249438 0.19653158 0.11368058 0.21381906 0.17644425 0.36581987 -0.10139374 0.22919223
0.3819924 0.2522822 0.3415809 0.3816816 0.1631393 0.06912843 0.036940612 0.10532327

BatchNormalization_2_param2 f4 [32]
00000000: 0d0c e93e 2ae8 8d3c 5b75 8e3e 6e74 94be
00000010: 563d 41be 9301 413d 6dee c0be f712 e73e
00000020: 08d4 613e 9fc6 d53e a960 6a3e 8104 cfbd
00000030: 3dcd 0a3e b6dc 8b3e 3cd6 883e 9fef 41bd
00000040: 8a8a e53e 695d e5bc bbed ab3e e4aa 83be
00000050: afa5 ac3b 28a1 8c3d 28db c3bc 88bc 103e
00000060: a230 84be e3dc 75be d0e9 103f a934 c23e
00000070: a160 383d 2a38 153e 5f7a 0ebf 6638 99be
0.45517007 0.017322619 0.2782391 -0.2899508 -0.18871054 0.047120642 -0.37681904 0.45131657
0.2205354 0.41753098 0.22888435 -0.10108281 0.13554855 0.27316827 0.26725948 -0.04734766
0.4483226 -0.027998643 0.3357981 -0.25716317 0.0052687745 0.068666756 -0.023908213 0.14134419
-0.25818354 -0.24010043 0.5660677 0.37930802 0.045014028 0.14572206 -0.55655473 -0.2992584

BatchNormalization_2_param3 f4 [32]
00000000: 94d6 5440 89c1 8840 0b1d 7140 1ef4 6c40
00000010: 74fd 2640 5133 3e40 b615 1f40 56b2 3840
00000020: bcf3 5040 9c30 5f40 e75c 4940 563a 4640
00000030: 28bb 5d40 07bb 4640 e892 4340 b47a 4b40
00000040: 687f 2940 3e8d 3940 80b2 1e40 2831 4a40
00000050: fe51 4840 aa52 2940 d99d 5c40 1578 1740
00000060: 7966 4540 3643 6540 049f 4c40 d56b 2d40
00000070: 2048 2b40 20cb 4540 4318 7640 90a6 7540
3.3255968 4.273625 3.7673976 3.7023997 2.6092196 2.971882 2.4857001 2.8858848
3.2648764 3.487342 3.1462953 3.0973105 3.464548 3.1051652 3.0558414 3.1793642
2.6484013 2.8992457 2.4796448 3.1592503 3.1300044 2.6456704 3.4471343 2.3667042
3.0843794 3.5822272 3.1972055 2.7097065 2.6762772 3.0905228 3.8452308 3.8382912

BatchNormalization_2_param0 f4 [32]
00000000: 9712 863f 7e2c b83f 3a0b 8e3f eae6 1340
00000010: 5d0f 9d3f 7acc 873f 5aa7 933f 77f3 6f3f
00000020: e550 af3f da86 913f e20d a33f c7d2 a43f
00000030: 981d b03f 3027 d93f 2209 983f f49f c73f
00000040: a4ee 813f e60b cf3f a3df 6e3f 4e41 db3f
00000050: 4c18 bd3f 805f d13f 366f 8d3f 144d 733f
00000060: 844e c93f 760f d43f 6216 a23f 124c 9c3f
00000070: 7362 a33f 1ff8 903f 252d ac3f 2956 af3f
1.0474423 1.4388578 1.1097176 2.3109689 1.2270314 1.0609276 1.1535447 0.9373087
1.3696562 1.1369278 1.2738612 1.2876824 1.3759031 1.6965084 1.1877787 1.5595689
1.0150952 1.6175506 0.9330999 1.7129304 1.477304 1.6357269 1.1049564 0.95039487
1.5727086 1.6567218 1.2663081 1.2210715 1.2764419 1.132572 1.3451277 1.3698169

MatMul_0_param0 f4 [72, 128]
00000000: 0000 7041 0000 24c2 0000 4040 0000 f4c2
00000010: 0000 10c1 0000 8cc2 0000 44c2 0000 0442
00000020: 0000 30c1 0000 98c1 0000 30c2 0000 7842
00000030: 0000 c841 0000 b041 0000 f041 0000 d042
00000040: 0000 10c2 0000 5c42 0000 5c42 0000 9041
00000050: 0000 3042 0000 8841 0000 1042 0000 e041
00000060: 0000 e8c1 0000 00c1 0000 3041 0000 00c2
00000070: 0000 8cc2 0000 98c1 0000 2041 0000 3442
00000080: 0000 8040 0000 80c0 0000 c040 0000 f0c1
00000090: 0000 9841 0000 0c42 0000 0042 0000 40c0
000000a0: 0000 da42 0000 e042 0000 c040 0000 9841
000000b0: 0000 8c42 0000 1442 0000 14c2 0000 40c0
000000c0: 0000 3c42 0000 5442 0000 ba42 0000 64c2
000000d0: 0000 9242 0000 00c0 0000 a0c0 0000 90c2
000000e0: 0000 c8c1 0000 0442 0000 9642 0000 44c2
000000f0: 0000 7041 0000 88c1 0000 70c1 0000 10c1
00000100: 0000 bc42 0000 44c2 0000 40c0 0000 86c2
00000110: 0000 f841 0000 80c0 0000 00c0 0000 e041
00000120: 0000 98c1 0000 28c2 0000 82c2 0000 8ec2
00000130: 0000 a841 0000 e841 0000 8042 0000 f841
00000140: 0000 7842 0000 8841 0000 40c0 0000 90c1
00000150: 0000 98c1 0000 5041 0000 30c1 0000 c040
00000160: 0000 b841 0000 1442 0000 2042 0000 a8c1
00000170: 0000 0040 0000 5041 0000 ecc2 0000 e841
00000180: 0000 a040 0000 0842 0000 3042 0000 78c2
00000190: 0000 90c1 0000 a2c2 0000 b8c1 0000 3041
000001a0: 0000 7c42 0000 10c2 0000 a8c1 0000 5cc2
000001b0: 0000 24c2 0000 80c2 0000 0042 0000 e642
000001c0: 0000 92c2 0000 4040 0000 7041 0000 0041
000001d0: 0000 c041 0000 8a42 0000 a040 0000 98c1
000001e0: 0000 10c2 0000 0c42 0000 4040 0000 ae42
000001f0: 0000 f041 0000 1c42 0000 40c0 0000 e040
00000200: 0000 1cc2 0000 b0c1 0000 20c1 0000 5041
00000210: 0000 4041 0000 74c2 0000 24c2 0000 d8c1
00000220: 0000 30c1 0000 a0c0 0000 3041 0000 c841
00000230: 0000 ec42 0000 3c42 0000 d8c1 0000 98c1
00000240: 0000 30c2 0000 0041 0000 e041 0000 40c0
00000250: 0000 a041 0000 00c2 0000 9041 0000 5c42
00000260: 0000 0cc2 0000 b0c1 0000 9041 0000 6041
00000270: 0000 8242 0000 5041 0000 40c0 0000 fc42
00000280: 0000 0080 0000 60c1 0000 a8c1 0000 a0c1
00000290: 0000 0040 0000 6041 0000 fe42 0000 7041
000002a0: 0000 8642 0000 d8c1 0000 c0c1 0000 8642
000002b0: 0000 0000 0000 50c1 0000 a841 0000 f0c1
000002c0: 0000 b841 0000 30c2 0000 40c0 0000 00c0
000002d0: 0000 e040 0000 9841 0000 4040 0000 24c2
000002e0: 0000 e8c1 0000 4041 0000 e6c2 0000 0042
000002f0: 0000 9642 0000 10c2 0000 00c2 0000 98c1
00000300: 0000 c0c0 0000 84c2 0000 b0c1 0000 00c0
00000310: 0000 a2c2 0000 98c1 0000 3442 0000 0040
00000320: 0000 6041 0000 8040 0000 98c1 0000 24c2
00000330: 0000 d0c1 0000 c8c1 0000 1042 0000 80c1
00000340: 0000 e040 0000 a0c0 0000 0842 0000 3c42
00000350: 0000 10c1 0000 a8c1 0000 8041 0000 0c42
00000360: 0000 00c2 0000 00c0 0000 9ec2 0000 cac2
00000370: 0000 f041 0000 d841 0000 a841 0000 b8c1
00000380: 0000 a041 0000 a040 0000 1c42 0000 1042
00000390: 0000 a8c2 0000 b841 0000 10c1 0000 e8c1
000003a0: 0000 d0c2 0000 20c1 0000 4040 0000 6c42
000003b0: 0000 40c0 0000 6041 0000 3c42 0000 2041
000003c0: 0000 30c1 0000 9841 0000 f0c1 0000 f041
000003d0: 0000 a0c1 0000 6cc2 0000 2041 0000 b0c1
000003e0: 0000 f8c1 0000 5042 0000 08c2 0000 7041
000003f0: 0000 c0c1 0000 8040 0000 8ec2 0000 4041
15.0 -41.0 3.0 -122.0 -9.0 -70.0 -49.0 33.0
-11.0 -19.0 -44.0 62.0 25.0 22.0 30.0 104.0
-36.0 55.0 55.0 18.0 44.0 17.0 36.0 28.0
-29.0 -8.0 11.0 -32.0 -70.0 -19.0 10.0 45.0
4.0 -4.0 6.0 -30.0 19.0 35.0 32.0 -3.0
109.0 112.0 6.0 19.0 70.0 37.0 -37.0 -3.0
47.0 53.0 93.0 -57.0 73.0 -2.0 -5.0 -72.0
-25.0 33.0 75.0 -49.0 15.0 -17.0 -15.0 -9.0
94.0 -49.0 -3.0 -67.0 31.0 -4.0 -2.0 28.0
-19.0 -42.0 -65.0 -71.0 21.0 29.0 64.0 31.0
62.0 17.0 -3.0 -18.0 -19.0 13.0 -11.0 6.0
23.0 37.0 40.0 -21.0 2.0 13.0 -118.0 29.0
5.0 34.0 44.0 -62.0 -18.0 -81.0 -23.0 11.0
63.0 -36.0 -21.0 -55.0 -41.0 -64.0 32.0 115.0
-73.0 3.0 15.0 8.0 24.0 69.0 5.0 -19.0
-36.0 35.0 3.0 87.0 30.0 39.0 -3.0 7.0
-39.0 -22.0 -10.0 13.0 12.0 -61.0 -41.0 -27.0
-11.0 -5.0 11.0 25.0 118.0 47.0 -27.0 -19.0
-44.0 8.0 28.0 -3.0 20.0 -32.0 18.0 55.0
-35.0 -22.0 18.0 14.0 65.0 13.0 -3.0 126.0
-0.0 -14.0 -21.0 -20.0 2.0 14.0 127.0 15.0
67.0 -27.0 -24.0 67.0 0.0 -13.0 21.0 -30.0
23.0 -44.0 -3.0 -2.0 7.0 19.0 3.0 -41.0
-29.0 12.0 -115.0 32.0 75.0 -36.0 -32.0 -19.0
-6.0 -66.0 -22.0 -2.0 -81.0 -19.0 45.0 2.0
14.0 4.0 -19.0 -41.0 -26.0 -25.0 36.0 -16.0
7.0 -5.0 34.0 47.0 -9.0 -21.0 16.0 35.0
-32.0 -2.0 -79.0 -101.0 30.0 27.0 21.0 -23.0
20.0 5.0 39.0 36.0 -84.0 23.0 -9.0 -29.0
-104.0 -10.0 3.0 59.0 -3.0 14.0 47.0 10.0
-11.0 19.0 -30.0 30.0 -20.0 -59.0 10.0 -22.0
-31.0 52.0 -34.0 15.0 -24.0 4.0 -71.0 12.0

MultiThreshold_2_param0 f4 [1, 15]
00000000: 4fff 3d3d 7b7f 0e3e 237f 6d3e 653f a63e
00000010: 39bf d53e 869f 023f 705f 1a3f 5a1f 323f
00000020: 44df 493f 2e9f 613f 185f 793f 808f 883f
00000030: 756f 943f 6a4f a03f 5f2f ac3f
0.04638606 0.13915817 0.2319303 0.3247024 0.41747454 0.51024663 0.60301876 0.6957909
0.788563 0.88133514 0.97410727 1.0668793 1.1596514 1.2524235 1.3451957

MatMul_1_param0 f4 [128, 64]
00000000: 0000 4040 0000 a0c0 0000 4040 0000 0000
00000010: 0000 0080 0000 8040 0000 80bf 0000 a040
00000020: 0000 4040 0000 00c0 0000 e0c0 0000 803f
00000030: 0000 40c0 0000 0000 0000 00c0 0000 8040
00000040: 0000 00c0 0000 e040 0000 a040 0000 803f
00000050: 0000 4040 0000 a0c0 0000 803f 0000 00c0
00000060: 0000 803f 0000 40c0 0000 80bf 0000 a0c0
00000070: 0000 00c0 0000 80c0 0000 c040 0000 80bf
00000080: 0000 0080 0000 e040 0000 c0c0 0000 803f
00000090: 0000 0080 0000 0040 0000 80bf 0000 4040
000000a0: 0000 8040 0000 80c0 0000 c0c0 0000 0040
000000b0: 0000 40c0 0000 803f 0000 c0c0 0000 4040
000000c0: 0000 803f 0000 e0c0 0000 00c0 0000 00c0
000000d0: 0000 00c0 0000 0040 0000 80c0 0000 803f
000000e0: 0000 4040 0000 e0c0 0000 803f 0000 e0c0
000000f0: 0000 80c0 0000 a0c0 0000 803f 0000 0040
00000100: 0000 a040 0000 80bf 0000 e0c0 0000 a0c0
00000110: 0000 80c0 0000 80bf 0000 80bf 0000 80c0
00000120: 0000 0080 0000 803f 0000 00c0 0000 0040
00000130: 0000 00c0 0000 c0c0 0000 40c0 0000 4040
00000140: 0000 0000 0000 80c0 0000 0040 0000 00c0
00000150: 0000 80c0 0000 0040 0000 0000 0000 4040
00000160: 0000 a040 0000 803f 0000 0000 0000 0000
00000170: 0000 0080 0000 80bf 0000 00c0 0000 00c0
00000180: 0000 80bf 0000 c0c0 0000 80bf 0000 0040
00000190: 0000 80bf 0000 c040 0000 a040 0000 0000
000001a0: 0000 4040 0000 00c0 0000 e0c0 0000 00c0
000001b0: 0000 0080 0000 4040 0000 80bf 0000 8040
000001c0: 0000 e0c0 0000 40c0 0000 80c0 0000 00c0
000001d0: 0000 803f 0000 803f 0000 803f 0000 4040
000001e0: 0000 8040 0000 0080 0000 80bf 0000 80c0
000001f0: 0000 00c0 0000 e040 0000 0040 0000 e040
00000200: 0000 e0c0 0000 80c0 0000 0040 0000 40c0
00000210: 0000 40c0 0000 00c0 0000 e0c0 0000 00c0
00000220: 0000 0000 0000 a0c0 0000 8040 0000 40c0
00000230: 0000 0040 0000 0080 0000 0040 0000 80bf
00000240: 0000 a0c0 0000 80bf 0000 4040 0000 803f
00000250: 0000 80bf 0000 0080 0000 0080 0000 00c0
00000260: 0000 40c0 0000 00c0 0000 803f 0000 80bf
00000270: 0000 4040 0000 00c0 0000 4040 0000 4040
00000280: 0000 0040 0000 a040 0000 0080 0000 80bf
00000290: 0000 803f 0000 00c0 0000 00c0 0000 0000
000002a0: 0000 40c0 0000 80bf 0000 00c0 0000 4040
000002b0: 0000 00c0 0000 4040 0000 803f 0000 80bf
000002c0: 0000 0000 0000 0040 0000 0000 0000 0000
000002d0: 0000 40c0 0000 803f 0000 4040 0000 0000
000002e0: 0000 0000 0000 00c0 0000 803f 0000 0040
000002f0: 0000 0080 0000 80bf 0000 40c0 0000 803f
00000300: 0000 0000 0000 c0c0 0000 0000 0000 a040
00000310: 0000 0040 0000 0040 0000 00c0 0000 0040
00000320: 0000 0040 0000 40c0 0000 80bf 0000 e0c0
00000330: 0000 803f 0000 e040 0000 40c0 0000 0000
00000340: 0000 80c0 0000 803f 0000 0040 0000 80c0
00000350: 0000 00c0 0000 a0c0 0000 0080 0000 803f
00000360: 0000 80bf 0000 a0c0 0000 00c0 0000 803f
00000370: 0000 00c0 0000 80bf 0000 803f 0000 803f
00000380: 0000 a040 0000 4040 0000 80bf 0000 40c0
00000390: 0000 803f 0000 a040 0000 c0c0 0000 0040
000003a0: 0000 80c0 0000 0080 0000 40c0 0000 0000
000003b0: 0000 00c0 0000 40c0 0000 803f 0000 00c0
000003c0: 0000 0040 0000 80bf 0000 80bf 0000 80bf
000003d0: 0000 00c0 0000 4040 0000 80bf 0000 0040
000003e0: 0000 0040 0000 80c0 0000 4040 0000 803f
000003f0: 0000 e0c0 0000 80c0 0000 00c0 0000 00c0
3.0 -5.0 3.0 0.0 -0.0 4.0 -1.0 5.0
3.0 -2.0 -7.0 1.0 -3.0 0.0 -2.0 4.0
-2.0 7.0 5.0 1.0 3.0 -5.0 1.0 -2.0
1.0 -3.0 -1.0 -5.0 -2.0 -4.0 6.0 -1.0
-0.0 7.0 -6.0 1.0 -0.0 2.0 -1.0 3.0
4.0 -4.0 -6.0 2.0 -3.0 1.0 -6.0 3.0
1.0 -7.0 -2.0 -2.0 -2.0 2.0 -4.0 1.0
3.0 -7.0 1.0 -7.0 -4.0 -5.0 1.0 2.0
5.0 -1.0 -7.0 -5.0 -4.0 -1.0 -1.0 -4.0
-0.0 1.0 -2.0 2.0 -2.0 -6.0 -3.0 3.0
0.0 -4.0 2.0 -2.0 -4.0 2.0 0.0 3.0
5.0 1.0 0.0 0.0 -0.0 -1.0 -2.0 -2.0
-1.0 -6.0 -1.0 2.0 -1.0 6.0 5.0 0.0
3.0 -2.0 -7.0 -2.0 -0.0 3.0 -1.0 4.0
-7.0 -3.0 -4.0 -2.0 1.0 1.0 1.0 3.0
4.0 -0.0 -1.0 -4.0 -2.0 7.0 2.0 7.0
-7.0 -4.0 2.0 -3.0 -3.0 -2.0 -7.0 -2.0
0.0 -5.0 4.0 -3.0 2.0 -0.0 2.0 -1.0
-5.0 -1.0 3.0 1.0 -1.0 -0.0 -0.0 -2.0
-3.0 -2.0 1.0 -1.0 3.0 -2.0 3.0 3.0
2.0 5.0 -0.0 -1.0 1.0 -2.0 -2.0 0.0
-3.0 -1.0 -2.0 3.0 -2.0 3.0 1.0 -1.0
0.0 2.0 0.0 0.0 -3.0 1.0 3.0 0.0
0.0 -2.0 1.0 2.0 -0.0 -1.0 -3.0 1.0
0.0 -6.0 0.0 5.0 2.0 2.0 -2.0 2.0
2.0 -3.0 -1.0 -7.0 1.0 7.0 -3.0 0.0
-4.0 1.0 2.0 -4.0 -2.0 -5.0 -0.0 1.0
-1.0 -5.0 -2.0 1.0 -2.0 -1.0 1.0 1.0
5.0 3.0 -1.0 -3.0 1.0 5.0 -6.0 2.0
-4.0 -0.0 -3.0 0.0 -2.0 -3.0 1.0 -2.0
2.0 -1.0 -1.0 -1.0 -2.0 3.0 -1.0 2.0
2.0 -4.0 3.0 1.0 -7.0 -4.0 -2.0 -2.0

MatMul_2_param0 f4 [64, 32]
00000000: 0000 80bf 0000 c040 0000 0040 0000 0080
00000010: 0000 803f 0000 803f 0000 00c0 0000 4040
00000020: 0000 00c0 0000 0080 0000 0040 0000 40c0
00000030: 0000 4040 0000 0080 0000 00c0 0000 4040
00000040: 0000 e0c0 0000 e040 0000 4040 0000 0080
00000050: 0000 0040 0000 00c0 0000 803f 0000 40c0
00000060: 0000 0040 0000 8040 0000 0000 0000 0040
00000070: 0000 00c0 0000 00c0 0000 0040 0000 0080
00000080: 0000 0040 0000 0040 0000 4040 0000 00c0
00000090: 0000 00c0 0000 00c0 0000 a0c0 0000 803f
000000a0: 0000 40c0 0000 0040 0000 4040 0000 e0c0
000000b0: 0000 80bf 0000 803f 0000 80bf 0000 0080
000000c0: 0000 00c0 0000 0040 0000 e040 0000 00c0
000000d0: 0000 00c0 0000 0080 0000 8040 0000 80bf
000000e0: 0000 40c0 0000 803f 0000 8040 0000 0000
000000f0: 0000 c0c0 0000 0040 0000 e0c0 0000 80c0
00000100: 0000 80bf 0000 80bf 0000 a0c0 0000 8040
00000110: 0000 80bf 0000 e040 0000 0000 0000 00c0
00000120: 0000 0040 0000 0040 0000 0000 0000 c040
00000130: 0000 0040 0000 0080 0000 c040 0000 e0c0
00000140: 0000 c040 0000 00c0 0000 80bf 0000 80bf
00000150: 0000 0000 0000 0080 0000 40c0 0000 c040
00000160: 0000 80bf 0000 00c0 0000 80c0 0000 c040
00000170: 0000 e040 0000 e040 0000 0000 0000 80c0
00000180: 0000 0040 0000 80bf 0000 0000 0000 0040
00000190: 0000 803f 0000 40c0 0000 c0c0 0000 a0c0
000001a0: 0000 803f 0000 8040 0000 0000 0000 80bf
000001b0: 0000 0000 0000 40c0 0000 0000 0000 e0c0
000001c0: 0000 0000 0000 80bf 0000 c040 0000 0040
000001d0: 0000 803f 0000 0040 0000 0000 0000 40c0
000001e0: 0000 8040 0000 0040 0000 40c0 0000 a040
000001f0: 0000 0040 0000 a040 0000 80bf 0000 40c0
00000200: 0000 80bf 0000 803f 0000 80bf 0000 0000
00000210: 0000 40c0 0000 0000 0000 c0c0 0000 80bf
00000220: 0000 80bf 0000 0040 0000 0040 0000 0000
00000230: 0000 80bf 0000 0080 0000 8040 0000 40c0
00000240: 0000 80bf 0000 0000 0000 e040 0000 0000
00000250: 0000 803f 0000 0000 0000 0040 0000 40c0
00000260: 0000 00c0 0000 a040 0000 e040 0000 e040
00000270: 0000 80bf 0000 4040 0000 80bf 0000 c0c0
00000280: 0000 803f 0000 803f 0000 803f 0000 80bf
00000290: 0000 4040 0000 40c0 0000 0080 0000 80c0
000002a0: 0000 0000 0000 0000 0000 0000 0000 80c0
000002b0: 0000 4040 0000 80bf 0000 e0c0 0000 0080
000002c0: 0000 c0c0 0000 0040 0000 80bf 0000 80bf
000002d0: 0000 0080 0000 00c0 0000 00c0 0000 40c0
000002e0: 0000 e040 0000 0080 0000 80bf 0000 0040
000002f0: 0000 80bf 0000 0000 0000 803f 0000 80bf
00000300: 0000 a040 0000 80bf 0000 a040 0000 00c0
00000310: 0000 4040 0000 80c0 0000 80bf 0000 00c0
00000320: 0000 0080 0000 e040 0000 80bf 0000 80bf
00000330: 0000 803f 0000 803f 0000 80bf 0000 00c0
00000340: 0000 80bf 0000 00c0 0000 0040 0000 803f
00000350: 0000 0000 0000 80bf 0000 4040 0000 00c0
00000360: 0000 0000 0000 80bf 0000 e040 0000 80bf
00000370: 0000 80bf 0000 0040 0000 e0c0 0000 80c0
00000380: 0000 4040 0000 4040 0000 00c0 0000 8040
00000390: 0000 e040 0000 80bf 0000 00c0 0000 80c0
000003a0: 0000 40c0 0000 803f 0000 40c0 0000 c0c0
000003b0: 0000 8040 0000 80bf 0000 0000 0000 e0c0
000003c0: 0000 803f 0000 80bf 0000 80bf 0000 0080
000003d0: 0000 40c0 0000 00c0 0000 a040 0000 0080
000003e0: 0000 0000 0000 0080 0000 80bf 0000 a040
000003f0: 0000 0000 0000 c040 0000 c0c0 0000 e0c0
-1.0 6.0 2.0 -0.0 1.0 1.0 -2.0 3.0
-2.0 -0.0 2.0 -3.0 3.0 -0.0 -2.0 3.0
-7.0 7.0 3.0 -0.0 2.0 -2.0 1.0 -3.0
2.0 4.0 0.0 2.0 -2.0 -2.0 2.0 -0.0
2.0 2.0 3.0 -2.0 -2.0 -2.0 -5.0 1.0
-3.0 2.0 3.0 -7.0 -1.0 1.0 -1.0 -0.0
-2.0 2.0 7.0 -2.0 -2.0 -0.0 4.0 -1.0
-3.0 1.0 4.0 0.0 -6.0 2.0 -7.0 -4.0
-1.0 -1.0 -5.0 4.0 -1.0 7.0 0.0 -2.0
2.0 2.0 0.0 6.0 2.0 -0.0 6.0 -7.0
6.0 -2.0 -1.0 -1.0 0.0 -0.0 -3.0 6.0
-1.0 -2.0 -4.0 6.0 7.0 7.0 0.0 -4.0
2.0 -1.0 0.0 2.0 1.0 -3.0 -6.0 -5.0
1.0 4.0 0.0 -1.0 0.0 -3.0 0.0 -7.0
0.0 -1.0 6.0 2.0 1.0 2.0 0.0 -3.0
4.0 2.0 -3.0 5.0 2.0 5.0 -1.0 -3.0
-1.0 1.0 -1.0 0.0 -3.0 0.0 -6.0 -1.0
-1.0 2.0 2.0 0.0 -1.0 -0.0 4.0 -3.0
-1.0 0.0 7.0 0.0 1.0 0.0 2.0 -3.0
-2.0 5.0 7.0 7.0 -1.0 3.0 -1.0 -6.0
1.0 1.0 1.0 -1.0 3.0 -3.0 -0.0 -4.0
0.0 0.0 0.0 -4.0 3.0 -1.0 -7.0 -0.0
-6.0 2.0 -1.0 -1.0 -0.0 -2.0 -2.0 -3.0
7.0 -0.0 -1.0 2.0 -1.0 0.0 1.0 -1.0
5.0 -1.0 5.0 -2.0 3.0 -4.0 -1.0 -2.0
-0.0 7.0 -1.0 -1.0 1.0 1.0 -1.0 -2.0
-1.0 -2.0 2.0 1.0 0.0 -1.0 3.0 -2.0
0.0 -1.0 7.0 -1.0 -1.0 2.0 -7.0 -4.0
3.0 3.0 -2.0 4.0 7.0 -1.0 -2.0 -4.0
-3.0 1.0 -3.0 -6.0 4.0 -1.0 0.0 -7.0
1.0 -1.0 -1.0 -0.0 -3.0 -2.0 5.0 -0.0
0.0 -0.0 -1.0 5.0 0.0 6.0 -6.0 -7.0

MatMul_3_param0 f4 [32, 8]
00000000: 0000 e0c0 0000 e0c0 0000 8040 0000 8040
00000010: 0000 a0c0 0000 803f 0000 4040 0000 a040
00000020: 0000 e0c0 0000 4040 0000 8040 0000 4040
00000030: 0000 4040 0000 e0c0 0000 40c0 0000 e0c0
00000040: 0000 e0c0 0000 8040 0000 4040 0000 e0c0
00000050: 0000 a0c0 0000 e0c0 0000 4040 0000 8040
00000060: 0000 4040 0000 4040 0000 4040 0000 4040
00000070: 0000 e0c0 0000 e0c0 0000 e0c0 0000 e0c0
00000080: 0000 e0c0 0000 a0c0 0000 4040 0000 0040
00000090: 0000 e0c0 0000 a040 0000 8040 0000 e0c0
000000a0: 0000 4040 0000 4040 0000 e0c0 0000 8040
000000b0: 0000 a040 0000 e0c0 0000 e0c0 0000 40c0
000000c0: 0000 e0c0 0000 4040 0000 a0c0 0000 0040
000000d0: 0000 e0c0 0000 4040 0000 a040 0000 c0c0
000000e0: 0000 e0c0 0000 4040 0000 e0c0 0000 0040
000000f0: 0000 8040 0000 0000 0000 e0c0 0000 a040
00000100: 0000 4040 0000 c0c0 0000 e0c0 0000 e0c0
00000110: 0000 80c0 0000 8040 0000 8040 0000 8040
00000120: 0000 4040 0000 a0c0 0000 8040 0000 e0c0
00000130: 0000 80c0 0000 e0c0 0000 a040 0000 4040
00000140: 0000 0040 0000 e0c0 0000 e0c0 0000 c0c0
00000150: 0000 8040 0000 8040 0000 e0c0 0000 8040
00000160: 0000 4040 0000 4040 0000 c0c0 0000 803f
00000170: 0000 803f 0000 e0c0 0000 8040 0000 e0c0
00000180: 0000 c0c0 0000 4040 0000 4040 0000 4040
00000190: 0000 e0c0 0000 8040 0000 e0c0 0000 803f
000001a0: 0000 e0c0 0000 e0c0 0000 e0c0 0000 0040
000001b0: 0000 8040 0000 4040 0000 8040 0000 8040
000001c0: 0000 4040 0000 e0c0 0000 c0c0 0000 4040
000001d0: 0000 8040 0000 c0c0 0000 4040 0000 e0c0
000001e0: 0000 e0c0 0000 4040 0000 80c0 0000 e0c0
000001f0: 0000 8040 0000 8040 0000 a040 0000 0040
00000200: 0000 4040 0000 c0c0 0000 e0c0 0000 a040
00000210: 0000 a0c0 0000 e0c0 0000 4040 0000 a040
00000220: 0000 c0c0 0000 4040 0000 8040 0000 4040
00000230: 0000 a040 0000 a040 0000 e0c0 0000 e0c0
00000240: 0000 0040 0000 80c0 0000 4040 0000 e0c0
00000250: 0000 a040 0000 a0c0 0000 e0c0 0000 a040
00000260: 0000 4040 0000 4040 0000 4040 0000 c0c0
00000270: 0000 e0c0 0000 e0c0 0000 0040 0000 e0c0
00000280: 0000 8040 0000 80c0 0000 c0c0 0000 e0c0
00000290: 0000 8040 0000 a040 0000 4040 0000 e0c0
000002a0: 0000 4040 0000 4040 0000 4040 0000 e0c0
000002b0: 0000 e0c0 0000 c0c0 0000 e0c0 0000 4040
000002c0: 0000 e0c0 0000 80c0 0000 4040 0000 4040
000002d0: 0000 4040 0000 e0c0 0000 4040 0000 e0c0
000002e0: 0000 0040 0000 8040 0000 00c0 0000 a040
000002f0: 0000 e0c0 0000 e0c0 0000 e0c0 0000 c040
00000300: 0000 4040 0000 4040 0000 4040 0000 e0c0
00000310: 0000 e0c0 0000 8040 0000 e0c0 0000 e0c0
00000320: 0000 4040 0000 4040 0000 4040 0000 e0c0
00000330: 0000 803f 0000 c0c0 0000 e0c0 0000 e0c0
00000340: 0000 0040 0000 a0c0 0000 0040 0000 e0c0
00000350: 0000 4040 0000 e0c0 0000 4040 0000 4040
00000360: 0000 4040 0000 80c0 0000 4040 0000 4040
00000370: 0000 8040 0000 a040 0000 e0c0 0000 e0c0
00000380: 0000 4040 0000 80c0 0000 e0c0 0000 8040
00000390: 0000 e0c0 0000 4040 0000 4040 0000 e0c0
000003a0: 0000 0040 0000 e0c0 0000 4040 0000 8040
000003b0: 0000 e0c0 0000 a0c0 0000 e0c0 0000 0040
000003c0: 0000 8040 0000 8040 0000 40c0 0000 c0c0
000003d0: 0000 00c0 0000 a040 0000 e0c0 0000 e0c0
000003e0: 0000 8040 0000 8040 0000 80c0 0000 e0c0
000003f0: 0000 80bf 0000 a040 0000 e0c0 0000 c040
-7.0 -7.0 4.0 4.0 -5.0 1.0 3.0 5.0
-7.0 3.0 4.0 3.0 3.0 -7.0 -3.0 -7.0
-7.0 4.0 3.0 -7.0 -5.0 -7.0 3.0 4.0
3.0 3.0 3.0 3.0 -7.0 -7.0 -7.0 -7.0
-7.0 -5.0 3.0 2.0 -7.0 5.0 4.0 -7.0
3.0 3.0 -7.0 4.0 5.0 -7.0 -7.0 -3.0
-7.0 3.0 -5.0 2.0 -7.0 3.0 5.0 -6.0
-7.0 3.0 -7.0 2.0 4.0 0.0 -7.0 5.0
3.0 -6.0 -7.0 -7.0 -4.0 4.0 4.0 4.0
3.0 -5.0 4.0 -7.0 -4.0 -7.0 5.0 3.0
2.0 -7.0 -7.0 -6.0 4.0 4.0 -7.0 4.0
3.0 3.0 -6.0 1.0 1.0 -7.0 4.0 -7.0
-6.0 3.0 3.0 3.0 -7.0 4.0 -7.0 1.0
-7.0 -7.0 -7.0 2.0 4.0 3.0 4.0 4.0
3.0 -7.0 -6.0 3.0 4.0 -6.0 3.0 -7.0
-7.0 3.0 -4.0 -7.0 4.0 4.0 5.0 2.0
3.0 -6.0 -7.0 5.0 -5.0 -7.0 3.0 5.0
-6.0 3.0 4.0 3.0 5.0 5.0 -7.0 -7.0
2.0 -4.0 3.0 -7.0 5.0 -5.0 -7.0 5.0
3.0 3.0 3.0 -6.0 -7.0 -7.0 2.0 -7.0
4.0 -4.0 -6.0 -7.0 4.0 5.0 3.0 -7.0
3.0 3.0 3.0 -7.0 -7.0 -6.0 -7.0 3.0
-7.0 -4.0 3.0 3.0 3.0 -7.0 3.0 -7.0
2.0 4.0 -2.0 5.0 -7.0 -7.0 -7.0 6.0
3.0 3.0 3.0 -7.0 -7.0 4.0 -7.0 -7.0
3.0 3.0 3.0 -7.0 1.0 -6.0 -7.0 -7.0
2.0 -5.0 2.0 -7.0 3.0 -7.0 3.0 3.0
3.0 -4.0 3.0 3.0 4.0 5.0 -7.0 -7.0
3.0 -4.0 -7.0 4.0 -7.0 3.0 3.0 -7.0
2.0 -7.0 3.0 4.0 -7.0 -5.0 -7.0 2.0
4.0 4.0 -3.0 -6.0 -2.0 5.0 -7.0 -7.0
4.0 4.0 -4.0 -7.0 -1.0 5.0 -7.0 6.0
