src/hardware_fpga/mlp_28oct_v1/mlp_2610_1515.pt (torch, 197421 bytes, 16 tensors)

layer_1.weight f4 [64, 60]
0	0xbd0e3bcf	-0.034725007
1	0xbe980921	-0.29694465
2	0xba8439f3	-0.0010088071
3	0x3dcf5823	0.101242326
4	0xbc185610	-0.009297863
5	0xbe8ee18d	-0.27906457
6	0x3e7a6c4f	0.24455379
7	0x3f1f1004	0.6213381
8	0x3dbcfa31	0.09227408
9	0xbd344289	-0.044008765
10	0x3da50d6b	0.080592
11	0xbeb210de	-0.34778494
12	0xbdc3f6bf	-0.095685475
13	0xbd8f35fc	-0.069927186
14	0x3d1e5478	0.038654774
15	0xbce33681	-0.02773595
16	0x3d4c7297	0.04991397
17	0xbe8f80e3	-0.2802802
18	0xbe8f5827	-0.27996942
19	0x3d591ac7	0.053004052
20	0x3e41344e	0.18867609
21	0x3ccb61ba	0.024826873
22	0xbe49155b	-0.19637053
23	0xbe4660e4	-0.19372898
24	0xbe6f40a8	-0.23364508
25	0x3da452b6	0.08023588
26	0xbccc0a3e	-0.024907228
27	0xbd9e1802	-0.07719423
28	0xbed05df8	-0.40696692
29	0xbf0ca2e4	-0.5493605
30	0x3b9f4820	0.004860893
31	0x3c8853c2	0.016641501
32	0xbd8cc02d	-0.06872592
33	0xbd3c2514	-0.045933798
34	0xbeb5d4ad	-0.3551382
35	0xbef858aa	-0.48505145
36	0x3db83548	0.089945376
37	0x3e2b2a42	0.16715339
38	0xbdc98cc9	-0.09841306
39	0xbdc81d1c	-0.09771177
40	0xbe8e1b52	-0.2775522
41	0xbe13b1b5	-0.14423259
42	0x3e095abe	0.13413522
43	0x3eb4dd8f	0.35325286
44	0xbdd07e62	-0.101803556
45	0x3dd5cc44	0.10439351
46	0xbe0ad51f	-0.13557862
47	0xbecd0140	-0.40040016
48	0x3ea75edd	0.32689562
49	0x3e63ee5f	0.222589
50	0xbe13a6f2	-0.14419153
51	0x3eee9723	0.46599683
52	0xbd48d948	-0.04903534
53	0xbe265032	-0.1624153
54	0x3e94851e	0.2900781
55	0xbe5a3105	-0.21307762
56	0x3d8741cf	0.06604349
57	0x3f10e5e3	0.5660078
58	0xbe7c0afd	-0.24613567
59	0x3e43de83	0.1912785
60	0x3eb11eb4	0.34593737
61	0x3e1d2cb3	0.15349083
62	0x3eb8cb52	0.3609262
63	0xbe1c640d	-0.15272541
64	0xbd7f5ac8	-0.062342435
65	0x3e65bf7c	0.22436327
66	0x3eb257ff	0.3483276
67	0x3d19d8b7	0.03756019
68	0x3e9f57c9	0.31121662
69	0xbd057858	-0.032585472
70	0x3d8647f5	0.065566935
71	0x3e51f404	0.20503241
72	0x3d4739d2	0.048639126
73	0x3e6e1f75	0.23254187
74	0x3eb470b8	0.35242248
75	0x3d2cf468	0.04222527
76	0x3eac30e1	0.33631042
77	0x3d129b02	0.03579236
78	0xbd6fd35e	-0.058551185
79	0x3ea3b153	0.31971225
80	0x3e445a5d	0.19175096
81	0xbd585571	-0.05281586
82	0x3e2e411e	0.17017028
83	0xbdcf6314	-0.101263195
84	0xbdcdc48e	-0.100472555
85	0x3e0be8f5	0.13663085
86	0x3e91ebce	0.28500217
87	0xbdc593e3	-0.09647348
88	0x3e3e211b	0.18567316
89	0x3da4d649	0.08048684
90	0x3e8c591f	0.27411744
91	0xbd2ca031	-0.042144958
92	0x3ed78128	0.42090726
93	0x3df457f1	0.11930836
94	0x3e4ac4ad	0.19801588
95	0xbe600639	-0.21877374
96	0x3d12d754	0.035849884
97	0x3e1c2315	0.15247758
98	0x3ecd20c6	0.40064067
99	0x3ea97169	0.33094338
100	0x3df82d2a	0.12117989
101	0xbec79ed5	-0.38988367
102	0xbe185d23	-0.14879279
103	0x3e22c700	0.15896225
104	0x3e36da20	0.17856646
105	0x3e33366a	0.17501226
106	0xbe27cf73	-0.1638773
107	0xbea9784e	-0.33099598
108	0xbeecc5df	-0.46244714
109	0x3d8751bd	0.06607387
110	0x3eb03bab	0.34420523
111	0x3e824529	0.2544339
112	0xbe7693be	-0.24079797
113	0x3d8982a6	0.06714372
114	0xbecc0293	-0.39845714
115	0x3dba49c0	0.09096098
116	0xbdaab6ff	-0.08335685
117	0x3ea75359	0.32680777
118	0xbe955dfc	-0.29173267
119	0x3e4cde80	0.20006752
120	0xbef36003	-0.4753419
121	0xbe077f40	-0.13232136
122	0x3e2560a9	0.16150154
123	0x3dad778b	0.08470067
124	0xbcb6a95a	-0.02229755
125	0xbe935ffa	-0.28784162
126	0xbf261e99	-0.6489044
127	0xbd7fc734	-0.062445834
128	0xbd8528ed	-0.065019466
129	0xbdaf38fb	-0.0855579
130	0xbd683265	-0.056688685
131	0xbc274fc6	-0.010211891
132	0xbe9d468c	-0.30717885
133	0x3bf0b3eb	0.0073456666
134	0xbd957704	-0.07298091
135	0xbe3143d5	-0.17311032
136	0x3c7a46e9	0.015275695
137	0x3e18c8f4	0.14920408
138	0xbe7384a0	-0.23781061
139	0x3e0916b0	0.13387561
140	0xbd7b42bf	-0.06134295
141	0xbeb5b4cc	-0.354895
142	0xbe705d72	-0.23473147
143	0x3e3648b4	0.17801172
144	0x3d6e1c3c	0.058132395
145	0xbd0abcad	-0.03387134
146	0x3d0daf6c	0.034591123
147	0xbdcc74c5	-0.099832095
148	0xbe0e9e40	-0.13927555
149	0x3cdd3dcb	0.027007004
150	0x3eae3fa4	0.3403293
151	0x3cc768ed	0.024342025
152	0xbdf31982	-0.118700996
153	0xbe1b8674	-0.15188009
154	0xbe8aec8f	-0.27133605
155	0x3de22c27	0.11043578
156	0xbd4490ff	-0.04798984
157	0x3ddc5287	0.10757928
158	0xbe94b68e	-0.29045528
159	0xbe639cdc	-0.22227806
160	0xbe7c0841	-0.24612524
161	0xbe34930f	-0.17634223
162	0x3e25b352	0.16181687
163	0xbdb00565	-0.08594779
164	0xbcf7de64	-0.030257411
165	0xbe26cbc5	-0.1628867
166	0xbe81b644	-0.2533437
167	0xbdc27972	-0.0949582
168	0x3f323534	0.6961243
169	0x3d58c5de	0.052923076
170	0x3dea5936	0.11442797
171	0x3e0701aa	0.13184229
172	0xbe658ad8	-0.22416246
173	0xbea817e6	-0.32830733
174	0x3eb66c0d	0.3562931
175	0x3d4f5bd4	0.050624683
176	0xbe2a7a2b	-0.16648166
177	0x3e37ac9c	0.17936939
178	0xbe825365	-0.2545425
179	0xbec61a28	-0.3869183
180	0x3d5bdc74	0.053677037
181	0x3e1f2265	0.15540464
182	0x3e0ba473	0.13636951
183	0x3e160598	0.14650571
184	0x3e93f272	0.2889591
185	0x3ed0c995	0.40778795
186	0x3ca2edff	0.019888876
187	0x3e9ce86b	0.3064607
188	0x3e6073ad	0.21919127
189	0xbdf74cab	-0.1207517
190	0x3f20f513	0.62873954
191	0xbe469b69	-0.19395222
192	0x3e4080f0	0.18799186
193	0x3c4dcaee	0.012560589
194	0x3deff86f	0.11717307
195	0x3d5892f3	0.052874517
196	0x3ebe8701	0.37212375
197	0xbee04d79	-0.43809107
198	0x3d09d529	0.03365055
199	0xbe19336c	-0.14961022
200	0x3d10d6b2	0.035361
201	0x3d976393	0.07392039
202	0x3ed3650a	0.41288024
203	0xbe92285a	-0.2854641
204	0x3e180c44	0.14848429
205	0x3c125f0f	0.008933797
206	0x3d3ce976	0.046121083
207	0x3dec2768	0.11530954
208	0x3f360442	0.71100247
209	0xbea3589a	-0.31903535
210	0xbc7b3faf	-0.015335008
211	0xbe26b2e8	-0.16279185
212	0xbddb5e0a	-0.10711296
213	0x3eb8c6c6	0.36089152
214	0x3e01d434	0.12678605
215	0xbd16e656	-0.03684076
216	0xbdd9d1c6	-0.10635714
217	0x3dd4ecf8	0.10396761
218	0x3e9c2bc8	0.30502152
219	0x3eabdb0e	0.33565563
220	0x3e0d91f1	0.13825203
221	0xbe7bab6f	-0.24577115
222	0xbe6f0cf0	-0.23344779
223	0x3e9203fa	0.2851866
224	0xbcfa2b27	-0.030538155
225	0xbb9b3217	-0.004736196
226	0x3eb61ac0	0.35567284
227	0xbee198fd	-0.44062033
228	0x3dc58992	0.0964538
229	0xbe074ee4	-0.13213688
230	0xbd9f4624	-0.0777705
231	0x3db19e6d	0.086727954
232	0x3e4c2dd5	0.19939359
233	0xbe3d4548	-0.1848346
234	0xbd301dfc	-0.042997345
235	0xbbf0b337	-0.007345583
236	0xbc8c4d38	-0.017126665
237	0x3e0992f3	0.13434963
238	0x3e8f31f6	0.27967805
239	0xbc99357f	-0.018702267
240	0xbe170ebb	-0.14751713
241	0xbe1ea00f	-0.15490745
242	0xbe960430	-0.2930007
243	0xbe86ca72	-0.2632633
244	0x3cfab14b	0.030602118
245	0x3dde733b	0.10861822
246	0x3d90a310	0.07062352
247	0xbdc12abf	-0.09431981
248	0xbcf4245e	-0.029802497
249	0x3d743e5c	0.059629783
250	0x3e979d8a	0.2961238
251	0x3e369bab	0.1783282
252	0x3de823d1	0.113349564
253	0xbd869e6b	-0.065731846
254	0xbd50f927	-0.05101886
255	0x3ea38bbd	0.3194255

layer_2.weight f4 [128, 64]
0	0x3e91fc0c	0.2851261
1	0xbdc2ff2f	-0.09521329
2	0x3e1dff7d	0.15429492
3	0xbd1ae250	-0.037813485
4	0x3db3323c	0.08749816
5	0x3bd3c7b6	0.0064630164
6	0xbd7e9245	-0.062151212
7	0x3e01d150	0.12677503
8	0x3f03c5e2	0.5147382
9	0x3d1e64f3	0.03867049
10	0xbc9b8dc6	-0.018988501
11	0x3ab2fead	0.0013656222
12	0x3e063866	0.13107452
13	0xbe4b4cd1	-0.19853522
14	0x3e2820d9	0.1641878
15	0x3d2ad046	0.04170253
16	0xbe19e581	-0.15028955
17	0xbf03405c	-0.5127008
18	0x3de698fb	0.112596475
19	0xbcf1510e	-0.029457595
20	0x3ea20ae9	0.3164895
21	0x3e5634c4	0.20918566
22	0x3c973270	0.018456668
23	0x3e9fca28	0.3120892
24	0x3f1a2e95	0.6022733
25	0x3d0109cb	0.03150348
26	0xbe29fd51	-0.16600539
27	0xbdc96ebc	-0.09835574
28	0xbdaac487	-0.08338266
29	0x3dd25de1	0.10271812
30	0xbe3806f8	-0.17971408
31	0x3daa6841	0.08320666
32	0x3e886cec	0.266456
33	0x3ed6d2d2	0.41957718
34	0xbf326994	-0.6969235
35	0xbde3c3ea	-0.11121352
36	0x3d768396	0.060184084
37	0xbe2602d4	-0.16212016
38	0xbdd7e39f	-0.10541462
39	0x3ec55fde	0.38549703
40	0x3d887fd6	0.06665008
41	0x3e0f42ff	0.139904
42	0xbe6f1cd8	-0.23350847
43	0x3d9fbe5e	0.077999815
44	0xbde00e12	-0.10940184
45	0x3e6899ea	0.22714964
46	0x3e9d9892	0.30780464
47	0xbe803ce2	-0.2504645
48	0x3e916b67	0.28402254
49	0x3db1ac6c	0.08675465
50	0x3e194bd9	0.1497034
51	0xbdfec3bc	-0.12439677
52	0xbe0b3ed0	-0.1359818
53	0x3e36aff8	0.17840564
54	0x3de1ca60	0.11024928
55	0xbd7fe06f	-0.062469896
56	0x3e29aca7	0.16569768
57	0x3da5dd73	0.08098879
58	0xbc031881	-0.008001448
59	0xbee60308	-0.44924188
60	0x3e1c8a62	0.15287164
61	0x3ed095cd	0.4073929
62	0xbe98bb0d	-0.29830208
63	0xbd004ea2	-0.03132499
64	0x3e5fb9a0	0.21848154
65	0xbd46eb65	-0.048564333
66	0xbdf4c1e3	-0.119510435
67	0xbe13a72f	-0.14419244
68	0x3dbb7320	0.09152818
69	0x3d2d509c	0.042313203
70	0x3e044dbb	0.12920277
71	0xbeb472bd	-0.35243788
72	0x3e9ab0ce	0.30213016
73	0x3e0da8e4	0.13833958
74	0x3e17799b	0.14792483
75	0xbf2b6844	-0.6695597
76	0x3e09baa4	0.13450104
77	0x3e5a47c3	0.21316437
78	0xbde68c64	-0.11257246
79	0xbd3a7034	-0.04551716
80	0xbe75bbad	-0.23997374
81	0xbebd45bd	-0.3696727
82	0xbede3a79	-0.43403986
83	0xbd10f3d8	-0.035388798
84	0x3e7f54c7	0.24934684
85	0x3ed2e1e8	0.41187978
86	0xbda83ece	-0.08215104
87	0xbeca9e6e	-0.39573997
88	0xbe9c3384	-0.30508053
89	0x3d2ef91d	0.04271804
90	0xbe442734	-0.1915558
91	0x3d180844	0.037117258
92	0x3ea8779a	0.3290375
93	0x3cf89a93	0.030347144
94	0xbaadc8a5	-0.0013258649
95	0x3e49119e	0.19635627
96	0xbe347903	-0.17624287
97	0x3e903b6d	0.28170338
98	0x3d034e72	0.032057233
99	0x3cf15d59	0.029463457
100	0x3e58540d	0.21125813
101	0x3ed0a563	0.4075118
102	0xbdaaf85e	-0.083481535
103	0x3df00953	0.117205285
104	0x3ee0fab1	0.43941262
105	0xbe4ddeab	-0.20104472
106	0x3ea2c3c6	0.31789988
107	0x3e864662	0.26225573
108	0x3c0fa2eb	0.00876687
109	0xbd83765d	-0.064190604
110	0x3eea8ce0	0.45810604
111	0x3ecabcce	0.39597172
112	0x3e19a120	0.1500287
113	0x3f07173f	0.52769846
114	0x3db9c9a1	0.09071661
115	0xbe4aafec	-0.19793671
116	0xbe11645c	-0.1419844
117	0x3e24f28b	0.16108148
118	0xbdd25d38	-0.10271686
119	0x3e0ed2c9	0.13947596
120	0x3de38fcf	0.11111414
121	0xbef93534	-0.48673403
122	0x3e8f67f2	0.2800899
123	0x3e6311f3	0.22174816
124	0x3bab0e91	0.0052202423
125	0xbe79dfd4	-0.2440179
126	0x3cd64151	0.026154192
127	0x3e25cf10	0.1619227
128	0xbec2c692	-0.38042122
129	0x3e1c045c	0.15236038
130	0x3d889307	0.06668668
131	0x3e1f1d35	0.15538485
132	0x3d8555a7	0.065104775
133	0xbd90e111	-0.07074178
134	0x3d4cb209	0.049974475
135	0x3e1581ff	0.14600371
136	0xbcf744ef	-0.030184237
137	0xbd2e2ac4	-0.042521253
138	0x3e66b1cc	0.22528762
139	0xbd6a5d00	-0.057217598
140	0xbec60be4	-0.38680947
141	0x3e4cc0ba	0.19995394
142	0xbe088e0a	-0.13335434
143	0x3eace29b	0.33766636
144	0x3e583e24	0.21117455
145	0x3d5e0b28	0.05420986
146	0xbe0af966	-0.135717
147	0x3da2be9f	0.07946514
148	0x3c3b51cd	0.011433077
149	0x3c2ec7db	0.010667766
150	0xbdc587b0	-0.09645021
151	0xbcd3db86	-0.025861513
152	0xbea9e6b6	-0.3318383
153	0x3c907cf9	0.017637717
154	0xbe2144b1	-0.1574886
155	0xbf2617b4	-0.6487992
156	0xbc89ac76	-0.016805869
157	0xbeed4b80	-0.46346664
158	0xbe1acbf6	-0.15116867
159	0xbe453f00	-0.19262314
160	0xbe966b4b	-0.29378733
161	0xbe9371a5	-0.2879764
162	0xbcc5ec6e	-0.02416059
163	0x3d9cc9e4	0.07655695
164	0x3cdb14ac	0.026743256
165	0xbedd01c5	-0.43165413
166	0xbe1c6de8	-0.15276301
167	0xbeee5049	-0.46545628
168	0x3f2908aa	0.66028845
169	0x3c304869	0.010759451
170	0x3e9a7280	0.30165482
171	0xbe51ce02	-0.20488742
172	0xbe183845	-0.14865215
173	0x3da5e641	0.08100558
174	0xbe188218	-0.14893377
175	0x3dfffc4a	0.12499292
176	0xbddd15b2	-0.10795154
177	0xbe8cd8f1	-0.27509263
178	0xbc904312	-0.017610107
179	0x3c171956	0.009222349
180	0xbd83e372	-0.06439866
181	0xbccfe0ca	-0.025375742
182	0x3e31fbb6	0.17381176
183	0xbecc0ba2	-0.39852625
184	0xbc5f6af8	-0.013636343
185	0x3da71dda	0.081599906
186	0xbe2d484e	-0.16922113
187	0xbf295b9b	-0.66155404
188	0x3e9c2729	0.30498627
189	0x3d2c5e05	0.04208185
190	0x3e091050	0.13385129
191	0x3e5cc8df	0.21561001
192	0xbdcec94f	-0.1009699
193	0xbc830650	-0.015994221
194	0x3e218bf1	0.1577604
195	0xbdb83d97	-0.08996122
196	0xbe2346d8	-0.15944993
197	0xbccb489e	-0.0248149
198	0xbe1a3f5e	-0.15063235
199	0x3e5681d8	0.20947969
200	0xbf1118fa	-0.56678736
201	0xbe85f020	-0.26159763
202	0xbeb22460	-0.34793377
203	0xbc6f8420	-0.014618903
204	0xbdaad86c	-0.083420604
205	0x3d9276aa	0.071515396
206	0x3dc99de1	0.09844566
207	0x3e9ccb07	0.30623648
208	0xbc982ffc	-0.018577568
209	0x3ead1080	0.3380165
210	0x3d95b86b	0.073105656
211	0x3e12812a	0.14307085
212	0xbee1370a	-0.43987304
213	0xbd8e4c14	-0.069481045
214	0xbd80998b	-0.06279286
215	0xbe14cf25	-0.14532144
216	0xbec682a8	-0.38771558
217	0xbd0e47ef	-0.03473657
218	0xbe573abc	-0.21018499
219	0xbed33284	-0.41249478
220	0xbe3f8b14	-0.18705398
221	0x3d6637dc	0.056205615
222	0x3ec633d8	0.3871143
223	0xbe1fa8c4	-0.15591723
224	0xbd83e69a	-0.06440468
225	0x3e3d8f01	0.18511583
226	0x3daba60c	0.0838128
227	0xbd963aec	-0.07335457
228	0x3e9826a1	0.29716972
229	0xbea9b3f2	-0.331451
230	0x3e7ab1ef	0.24481939
231	0xbf29040e	-0.6602181
232	0x3eb5e715	0.35527864
233	0xbd3cd90f	-0.04610544
234	0xbca670c6	-0.020317446
235	0xbd50d064	-0.050979987
236	0xbee53d75	-0.4477345
237	0xbbdee445	-0.006802114
238	0xbf30e603	-0.6910097
239	0xbd041295	-0.032244284
240	0x3e34c568	0.1765343
241	0xbe1eab7c	-0.15495104
242	0x3d63fcd8	0.055661052
243	0x3e804806	0.2505495
244	0x3d18fb4e	0.037349038
245	0xbe90ef59	-0.28307608
246	0x3e3a9e54	0.1822446
247	0xbd61d56c	-0.055135176
248	0xbc8fb785	-0.017543564
249	0xbed32675	-0.41240278
250	0x3d0ab297	0.033861723
251	0x3e337f7f	0.17529105
252	0x3e1a5a83	0.1507359
253	0x3d861990	0.065478444
254	0xbc96c2e3	-0.018403476
255	0xbe1d3aa1	-0.15354396

layer_3.weight f4 [256, 128]
0	0x3e49481a	0.19656411
1	0xbea03975	-0.31293836
2	0xbeb19cb5	-0.3468987
3	0xbeff6ccd	-0.49887696
4	0xbe978d8f	-0.29600188
5	0x3eb893f6	0.36050385
6	0x3dc13680	0.09434223
7	0x3e67c4f8	0.22633731
8	0x3b5c1279	0.0033580346
9	0xbd69fe3b	-0.05712722
10	0xbd9a41a1	-0.07532049
11	0x3e5a40f2	0.21313837
12	0x3da0bc0c	0.07848367
13	0x3c49d55f	0.012318938
14	0x3e8a76b8	0.270437
15	0xbe4470dc	-0.19183677
16	0x3b0f798b	0.0021892514
17	0x3b2f855c	0.002678237
18	0xbd8233ad	-0.063575126
19	0xbdfb2f93	-0.122649334
20	0x3eb063c7	0.34451124
21	0xbe89f838	-0.26947188
22	0xbd44d371	-0.04805321
23	0x3ecba470	0.39773893
24	0x3d60f8d8	0.054924816
25	0x3dc801c4	0.09765962
26	0x3e8e8f10	0.27843523
27	0xbe943fe7	-0.28955004
28	0xbe2cfac5	-0.16892536
29	0x3d8d9700	0.069135666
30	0x3e81e2dc	0.25368392
31	0x3eb5ed81	0.35532764
32	0xbf21beea	-0.63181937
33	0x3dca2fe6	0.09872417
34	0x3ef10bce	0.4707932
35	0x3c8de0cc	0.017319106
36	0x3e024333	0.12720947
37	0x3e662e5b	0.2247862
38	0xbe3f605c	-0.18689102
39	0xbdd8681c	-0.10566732
40	0xbe6c2db8	-0.23064315
41	0x3c7e8129	0.015533724
42	0xbb132895	-0.0022454609
43	0x3ee5500b	0.4478763
44	0x3e29c211	0.16577937
45	0x3e32a39b	0.17445223
46	0x3e2eb32c	0.17060536
47	0x3e05b5d2	0.1305764
48	0xbd1f1b1a	-0.038844205
49	0x3dbe7675	0.09299938
50	0x3e30bfbd	0.17260642
51	0xbdb32b6d	-0.08748517
52	0x3e22631e	0.15858123
53	0xbe82b4cf	-0.2552857
54	0xbe13c8e6	-0.14432105
55	0xbc4ece0a	-0.012622366
56	0xbd80c679	-0.06287856
57	0xbe6cd023	-0.23126273
58	0x3dbdcff3	0.09268179
59	0x3e94970b	0.29021487
60	0x3e9b62ef	0.30348918
61	0x3e8c5ebe	0.27416033
62	0x3e161f99	0.14660491
63	0xbe7d9ff2	-0.24768046
64	0x3e177f35	0.1479462
65	0x3d671ccd	0.05642395
66	0x3bd46f6d	0.0064830096
67	0x3eb5d4b0	0.3551383
68	0x3e04c326	0.12965068
69	0xbe035366	-0.12824783
70	0x3e644d51	0.22295119
71	0xbe972124	-0.29517472
72	0x3e5416bc	0.20711797
73	0x3e793cc5	0.24339588
74	0xbdad5f7e	-0.08465479
75	0xbe268a04	-0.16263586
76	0x3e9695dc	0.2941121
77	0x3e928afa	0.28621656
78	0xbe34db63	-0.17661814
79	0x3deb17aa	0.11479123
80	0xbe33d1b9	-0.17560472
81	0x3ea886ff	0.32915494
82	0xbee2b385	-0.44277588
83	0x3e23fbb9	0.16013993
84	0x3e219923	0.15781073
85	0x3e4991a1	0.1968446
86	0x3e543e61	0.2072692
87	0x3c83ae4b	0.01607432
88	0xbd51ef69	-0.05125371
89	0x3e23f291	0.160105
90	0xbf092ac4	-0.5358088
91	0xbc971aba	-0.018445361
92	0x3eab9714	0.335137
93	0xbe2e9853	-0.17050295
94	0xbd01cae1	-0.03168762
95	0xbc543cfa	-0.012953991
96	0xbe519022	-0.20465139
97	0x3ea21b51	0.31661466
98	0x3e9a21a6	0.30103797
99	0xbd633390	-0.055469096
100	0xbde8ecaa	-0.11373265
101	0xbe16c4c3	-0.14723496
102	0xba844e4e	-0.0010094137
103	0xbe24dad3	-0.160991
104	0xbe007625	-0.12545069
105	0x3e45754b	0.19283025
106	0xbd54dcf0	-0.051968515
107	0xbce46f9d	-0.027885253
108	0xbe5a71ae	-0.21332428
109	0x3e904ece	0.28185123
110	0xbec01e8e	-0.3752331
111	0x3dc44098	0.09582633
112	0x3e39af40	0.18133259
113	0x3e9f6cca	0.31137687
114	0xbd89b995	-0.0672485
115	0x3e3a7b73	0.18211155
116	0x3e85cf52	0.26134735
117	0x3e5a9fd8	0.21350038
118	0x3e832212	0.2561193
119	0xbe4b1a96	-0.1983436
120	0xbdf79008	-0.12088019
121	0xbe056232	-0.1302574
122	0x3e65644c	0.22401541
123	0x3f1a505d	0.60278875
124	0xbe1681a0	-0.14697886
125	0xbddd4fda	-0.10806246
126	0x3f2cb604	0.67465234
127	0x3e8a8fb4	0.27062762
128	0xbe50b87f	-0.2038288
129	0x3d0ed79b	0.034873586
130	0xbe1a7ed0	-0.15087438
131	0xbe5093d4	-0.20368892
132	0x3ee19ad9	0.44063452
133	0xbe1f7d44	-0.15575129
134	0x3d167c54	0.036739662
135	0x3d777d7a	0.0604224
136	0x3d17c6fb	0.037054997
137	0x3ea8063a	0.3281725
138	0xbe11e7f1	-0.14248635
139	0x3e3b062a	0.1826407
140	0xbd70d1f3	-0.058793973
141	0x3e21d865	0.15805204
142	0xbd2cedff	-0.04221916
143	0x3df01451	0.11722625
144	0x3e7d8f7f	0.2476177
145	0xbedcef71	-0.4315143
146	0x3ea305fc	0.31840503
147	0x3db2fb9b	0.08739396
148	0xbd7bd96f	-0.061486658
149	0x3e6e727e	0.23285863
150	0xbe2327c1	-0.15933134
151	0xbe7fa9e3	-0.2496715
152	0xbe0e233b	-0.13880627
153	0xbe66b04a	-0.22528186
154	0xbcf8e238	-0.030381307
155	0x3f003e38	0.5009494
156	0xbe1f2bb6	-0.15544018
157	0xbdfbffeb	-0.12304672
158	0xbde8b2bb	-0.11362215
159	0x3d97367a	0.073834375
160	0x3e940d39	0.28916338
161	0x3e991ac0	0.2990322
162	0x3e57db85	0.21079834
163	0xbd31c985	-0.043405075
164	0xbdead81b	-0.11467
165	0x3e92315a	0.28553277
166	0x3cfa3716	0.030543845
167	0xbe52da9c	-0.20591205
168	0x3ecbd515	0.39811006
169	0x3e9998f8	0.29999518
170	0x3d782bad	0.060588527
171	0xbd98e168	-0.07464868
172	0x3d299ab1	0.04140729
173	0xbe9be59f	-0.30448624
174	0x3e2ac8af	0.16678117
175	0x3df55b18	0.119802654
176	0x3f1c61d0	0.6108675
177	0x3ce5c712	0.028049026
178	0x3d61fe4a	0.05517415
179	0x3c477be4	0.012175534
180	0x3e92dd18	0.28684306
181	0x3e0ee96c	0.13956231
182	0x3e76f4db	0.24116842
183	0xbe86320e	-0.26210064
184	0x3cdd575b	0.027019193
185	0x3f0889e0	0.5333538
186	0xbe87e4e1	-0.26541808
187	0x3e060c10	0.13090539
188	0x3f1ca12e	0.6118344
189	0xbe30ff50	-0.17284894
190	0x3e7f5fcf	0.24938892
191	0x3e0ceaac	0.13761395
192	0x3e849c69	0.2590058
193	0xbd6488ba	-0.055794455
194	0x3e2600f4	0.16211301
195	0x3d3de80d	0.04636388
196	0xbe5662dd	-0.20936151
197	0x3e71ba4f	0.23606227
198	0x3dbc4780	0.09193325
199	0xbdb46b01	-0.08809472
200	0xbd6fcd7e	-0.058545582
201	0xbcf2bfba	-0.029632438
202	0x3e20a313	0.15687208
203	0x3e98ab1f	0.29818055
204	0x3e1a2716	0.15053973
205	0x3e9fb6b8	0.3119409
206	0x3d33ba28	0.043878704
207	0x3dfa626e	0.12225805
208	0x3f5bdc44	0.85882974
209	0x3e2f808f	0.17138885
210	0x3ed394c2	0.4132443
211	0x3e38de70	0.18053603
212	0x3e10a434	0.14125139
213	0xbe64b2f0	-0.22333884
214	0x3e15b9c0	0.14621639
215	0xbe5e5802	-0.2171326
216	0xbe2b2917	-0.16714893
217	0x3e2646e1	0.16237976
218	0xbd0cff15	-0.034422953
219	0xb65acc90	-3.2603602e-06
220	0x3e5fb42f	0.21846078
221	0x3e5ceec4	0.21575457
222	0xbd7c7bab	-0.061641376
223	0x3e163c8a	0.14671531
224	0x3ebc5ed3	0.36791095
225	0x3e6045a8	0.21901572
226	0x3d8ff46f	0.07029044
227	0x3ed0c08e	0.40771908
228	0xbd7f89ea	-0.062387384
229	0x3e94a585	0.2903253
230	0x3d00df27	0.031462815
231	0x3e64862d	0.22316809
232	0xbe3b1c2d	-0.18272467
233	0x3e6bb781	0.2301922
234	0xbe18615a	-0.14880887
235	0x3e0c1b94	0.13682395
236	0x3e0d77d7	0.13815247
237	0xb80d3054	-3.366203e-05
238	0xbbe6da25	-0.007045048
239	0x3f0c562a	0.54818976
240	0x3cf2692a	0.029591162
241	0x3e8670df	0.2625799
242	0x3e384010	0.17993188
243	0xbd42a2eb	-0.047518652
244	0xbe0eb76f	-0.13937162
245	0x3e72a8cf	0.23697208
246	0xbd98d95d	-0.07463334
247	0x3e0ff8fa	0.14059821
248	0x3ddeb147	0.10873657
249	0x3eb7fc23	0.35934553
250	0xbe5ee948	-0.21768677
251	0x3e94793f	0.28998753
252	0x3ea3c23a	0.3198412
253	0x3e36edce	0.17864153
254	0xbac815c5	-0.0015265277
255	0xbd9ac078	-0.07556242

layer_out.weight f4 [3, 256]
0	0xbe52c892	-0.20584324
1	0xbe002f04	-0.12517935
2	0xbe2c55d4	-0.16829616
3	0xbe412544	-0.18861872
4	0x3d51a1dc	0.05117975
5	0x3dbad38e	0.09122382
6	0x3e7bc60e	0.2458727
7	0xbec95ac5	-0.39327064
8	0x3de66140	0.11249018
9	0xbf141465	-0.5784362
10	0x3df364b7	0.11884444
11	0xbe9eb14f	-0.3099465
12	0x3d819708	0.06327635
13	0xbdaaf10f	-0.083467595
14	0xbf164f34	-0.58714604
15	0xbf2851ea	-0.6574999
16	0x3e0e877a	0.13918868
17	0x3e73b58d	0.23799725
18	0xbf0f1528	-0.55891657
19	0xbed02db3	-0.40659866
20	0x3dcc6576	0.0998029
21	0x3d5aa3c7	0.053378846
22	0x3cc4e726	0.024036001
23	0xbeeeb635	-0.46623388
24	0xbd0d7bde	-0.034541957
25	0x3dfb8b1f	0.122823946
26	0xbed70dc8	-0.42002702
27	0x3e0cd305	0.13752373
28	0xbcd92032	-0.02650461
29	0x3e7ae92d	0.24503012
30	0xbef476b9	-0.47746828
31	0xbf03ab5a	-0.51433337
32	0xbecb7c6b	-0.3974336
33	0x3dd2f62d	0.103008606
34	0x3c191de3	0.009345504
35	0xbf41302e	-0.7546414
36	0x3dd058f8	0.101732194
37	0x3d4a46f6	0.04938408
38	0xbf4bf466	-0.796698
39	0xbbae9759	-0.0053281006
40	0xbf6ee2d1	-0.93314844
41	0xbeae27fc	-0.3401488
42	0xbe5600fe	-0.20898816
43	0x3cd439d2	0.025906477
44	0xbdb234b1	-0.08701456
45	0xbd8ad6ee	-0.06779276
46	0xbe9d384c	-0.30707014
47	0xbc1b6a4b	-0.009485791
48	0xbf84dcaf	-1.0379847
49	0x3e732249	0.23743547
50	0xbf478124	-0.7793143
51	0x3caba454	0.020952381
52	0xbe90b085	-0.28259674
53	0xbe9efcf8	-0.31052375
54	0x3e1bb362	0.15205148
55	0x3eabf55a	0.33585626
56	0x3d748c78	0.059704274
57	0x3cdb5380	0.026773214
58	0x3af420bb	0.0018625477
59	0xbf2275ce	-0.63461006
60	0x3d877b13	0.066152714
61	0x3e2b2043	0.16711526
62	0xbf21efa5	-0.63256294
63	0xbeabda36	-0.3356492
64	0xbf106409	-0.5640264
65	0xbf546078	-0.829597
66	0x3cf8f01c	0.03038793
67	0xbe7e35f3	-0.24825267
68	0xbf5d8ed7	-0.8654608
69	0x3e1be600	0.15224457
70	0xbe056f66	-0.13030776
71	0xbe9dcd86	-0.30820864
72	0xbc0c4930	-0.008562371
73	0xbf0df585	-0.5545276
74	0x3dbe4ec9	0.09292371
75	0xbdf824a5	-0.121163644
76	0x3e582d69	0.21111073
77	0x3dab7829	0.08372528
78	0xbd3a0120	-0.04541123
79	0x3dc20bf0	0.09474933
80	0xbe09bd0b	-0.1345102
81	0xbea3c107	-0.31983206
82	0xbf277f83	-0.6542894
83	0x3d965556	0.07340495
84	0x3dd1b86c	0.10240254
85	0x3dd2513d	0.10269401
86	0xbdc8cbf8	-0.09804529
87	0x3db3d405	0.08780674
88	0x3dca5b0d	0.09880648
89	0x3e6b9403	0.2300568
90	0xbb13f0f3	-0.0022574037
91	0xbed6b341	-0.41933635
92	0x3e2a4301	0.16627122
93	0x3daa265c	0.08308098
94	0x3ec57f47	0.38573667
95	0x3dc6aeb7	0.09701293
96	0xbf40fc76	-0.75385225
97	0x3da0aa3a	0.07844968
98	0x3d9bb5d3	0.076030396
99	0xbf88d09a	-1.068866
100	0xbcac614b	-0.021042487
101	0xbf959f2d	-1.1689202
102	0x3e1488d2	0.14505318
103	0x3de86a1c	0.11348364
104	0xbb99a8d9	-0.0046893177
105	0x3e47b43c	0.19502348
106	0x3cdd9f89	0.027053611
107	0xbd64c33a	-0.055850245
108	0xbf60ac72	-0.8776313
109	0x3cfcef38	0.030875787
110	0xbe892fb2	-0.267942
111	0xbeb5cca7	-0.355077
112	0x3dd9031c	0.10596296
113	0xbdbf5d7b	-0.09344002
114	0xbf8484ed	-1.0353066
115	0x3c0ccced	0.00859378
116	0x3dbcb302	0.092138305
117	0x3db138f9	0.08653445
118	0xbf0aa3cc	-0.54156184
119	0x3d14e015	0.036346514
120	0x3df6f79c	0.120589465
121	0xbe0b1c54	-0.13585025
122	0x3e0976ba	0.13424197
123	0xbe59cf10	-0.21270394
124	0x3da05d6c	0.07830319
125	0xbeb532b0	-0.35390234
126	0xbf432a4f	-0.7623643
127	0xbe0eb207	-0.139351
128	0xbdab3600	-0.08359909
129	0x3bd1bb90	0.006400533
130	0xbf3d0b61	-0.7384549
131	0x3e89a80a	0.26886016
132	0xbd143916	-0.036187254
133	0xbec3a324	-0.38210404
134	0xbeabc438	-0.3354814
135	0x3e8db23a	0.2767504
136	0x3d066ae7	0.032816794
137	0x3db7b6bd	0.089704014
138	0x3d5bf1c5	0.053697366
139	0x3e89db11	0.26924947
140	0x3e2527e4	0.16128498
141	0xbf4170ff	-0.75563043
142	0xbd87c87e	-0.06630038
143	0xbe5dda4a	-0.21665302
144	0x3d9e14bc	0.077187985
145	0x3dae5d27	0.08513861
146	0x3d24f825	0.04027571
147	0x3d675e8f	0.056486662
148	0xbe99eae7	-0.3006203
149	0x3c4e17da	0.012578929
150	0x3d0e32e5	0.034716506
151	0x3dabc9ee	0.083881244
152	0x3e68e3d9	0.22743167
153	0x3d433505	0.047657985
154	0xbcace98a	-0.021107454
155	0xbe7a9e17	-0.24474369
156	0xbe81c497	-0.253453
157	0x3e08ed25	0.13371713
158	0xbe142b45	-0.14469631
159	0xbe9f67dd	-0.3113393
160	0x3e0ae682	0.13564494
161	0x3e1e5a11	0.15464045
162	0xbc701fc2	-0.014656009
163	0x3c2c44c1	0.010514439
164	0xbded8433	-0.115974806
165	0x3e28427d	0.16431613
166	0xbd5b3264	-0.053514853
167	0xbf02bfc3	-0.51073855
168	0xbe2a7271	-0.16645218
169	0x3defff33	0.11718597
170	0x3dfb9640	0.12284517
171	0x3dd259b9	0.102710195
172	0x3e08b55a	0.1335043
173	0x3d9835d5	0.07432143
174	0xbe0ee34b	-0.13953893
175	0x3e51fead	0.20507307
176	0xbe5f255a	-0.21791592
177	0xbec9e87d	-0.39435187
178	0xbeb9bc93	-0.36276683
179	0x3d5c8c30	0.05384463
180	0xbef850aa	-0.48499042
181	0xbea2d588	-0.31803536
182	0xbe8bb7a3	-0.2728854
183	0x3e5262f4	0.2054556
184	0xbf4a0cef	-0.78925985
185	0x3e176d50	0.14787793
186	0xbde990fe	-0.11404608
187	0xbf58ac83	-0.8463823
188	0x3e0e26e8	0.13882029
189	0x3e27e322	0.16395238
190	0x3db43c60	0.08800578
191	0x3db44837	0.088028364
192	0x3dd47b3d	0.10375068
193	0x3dc88560	0.09791064
194	0x3d64af4f	0.05583125
195	0xbd98d95b	-0.07463332
196	0xbf03166d	-0.51206094
197	0xbcb849d4	-0.022496141
198	0x3dfdbd68	0.12389642
199	0x3cc4f450	0.024042279
200	0x3df5f637	0.120098524
201	0x3d4dd291	0.05024964
202	0x3e03ca4d	0.1287014
203	0x3ce6df75	0.028182724
204	0xbdad9b81	-0.08476926
205	0xbe2322a7	-0.15931188
206	0x3d684606	0.056707405
207	0xbdde668e	-0.108594045
208	0xbddf1552	-0.108927384
209	0xbf8cd90b	-1.1003736
210	0x3dcf72b3	0.10129299
211	0x3dff13d3	0.12454953
212	0x3dfae055	0.12249819
213	0x3d539b6f	0.051661905
214	0xbe95b1e0	-0.2923727
215	0x3e4aa831	0.19790722
216	0x3e166900	0.14688492
217	0xbdc85464	-0.09781721
218	0xbe109e1d	-0.14122815
219	0xbf21f0f8	-0.63258314
220	0x3e4374f3	0.19087581
221	0x3dfc254f	0.123118035
222	0xbf0df6ec	-0.554549
223	0xbef32591	-0.47489598
224	0x3be95e5b	0.0071218438
225	0x3dcf47ac	0.10121092
226	0x3e550f42	0.20806602
227	0x3d871e85	0.06597618
228	0xbdae5666	-0.08512573
229	0xbf555508	-0.8333287
230	0x3d8d9c8f	0.06914627
231	0x3e9bd8d3	0.3043886
232	0x3e994b6a	0.2994035
233	0xbece1115	-0.40247408
234	0xbe2d5a46	-0.16928968
235	0xbebb93e8	-0.3663628
236	0x3d80182c	0.062546104
237	0xbf1e7cd7	-0.6190924
238	0xbe0396e9	-0.12850536
239	0xbc1d6b0d	-0.009608042
240	0x3da734e3	0.08164384
241	0x3da0dc4a	0.07854517
242	0x3ddf89bc	0.109149426
243	0x3e613a90	0.21994996
244	0xbeb55cef	-0.35422465
245	0x3d10f9a5	0.03539433
246	0x3d10a41a	0.03531275
247	0xbe20176f	-0.15633939
248	0xbcf8b37f	-0.030359028
249	0xbf217dff	-0.6308288
250	0xbe5f2fb1	-0.21795537
251	0xbf820671	-1.0158216
252	0xbf2b82b6	-0.66996324
253	0xbe5339ee	-0.20627567
254	0xbeb1d7cb	-0.3473495
255	0xbe4d3946	-0.2004138

batchnorm1.weight f4 [64]
0	0x3f79b2ed	0.97538644
1	0x3f87bb47	1.0604028
2	0x3f856d3e	1.0423963
3	0x3f78019b	0.9687745
4	0x3f617b45	0.8807872
5	0x3f6f5be6	0.934996
6	0x3f8e6617	1.1124905
7	0x3f66db4b	0.90178365
8	0x3f909826	1.1296432
9	0x3f7c010c	0.984391
10	0x3f9711d9	1.1802322
11	0x3f9d838f	1.2305773
12	0x3f84447d	1.0333401
13	0x3f6686f0	0.9004965
14	0x3f91d7b1	1.1393949
15	0x3f933b38	1.1502447
16	0x3f927c7d	1.1444241
17	0x3f9f9320	1.2466774
18	0x3f76d40e	0.9641732
19	0x3f7f5c6b	0.99750394
20	0x3f8811f7	1.0630482
21	0x3f895f4b	1.0732206
22	0x3f6cfba7	0.9257149
23	0x3f84b8f5	1.0368944
24	0x3f8fcc3b	1.1234201
25	0x3f89af5d	1.0756642
26	0x3f6db539	0.9285465
27	0x3fbcdc3e	1.4754713
28	0x3f8a23cb	1.0792173
29	0x3f8b0b74	1.086287
30	0x3f825486	1.0182045
31	0x3f5bcba6	0.8585762
32	0x3f559cad	0.83442193
33	0x3f76b609	0.96371514
34	0x3f8b53d5	1.0884959
35	0x3f623c3c	0.8837316
36	0x3fa7ae1e	1.3100011
37	0x3f949e24	1.1610761
38	0x3f62b762	0.8856107
39	0x3f853518	1.0406828
40	0x3fbb13d5	1.4615427
41	0x3f873a0e	1.0564592
42	0x3f84944f	1.035776
43	0x3f855121	1.0415384
44	0x3f84ad8b	1.0365461
45	0x3f8917f1	1.0710431
46	0x3f8b1070	1.0864391
47	0x3f68b663	0.909033
48	0x3fb01321	1.3755838
49	0x3f753001	0.95776373
50	0x3f8b3019	1.0874053
51	0x3f735fe2	0.9506818
52	0x3f72edcd	0.94894105
53	0x3f73f762	0.9529935
54	0x3f8da0d1	1.1064702
55	0x3f8fc4d5	1.1231943
56	0x3f8a6321	1.0811502
57	0x3f5d68cc	0.8648803
58	0x3f66a058	0.90088415
59	0x3f95cc3b	1.1702951
60	0x3f867b5f	1.05064
61	0x3f6ced74	0.92549825
62	0x3f6a1b66	0.91448057
63	0x3f96e079	1.1787254

batchnorm1.bias f4 [64]
0	0xbe2679cb	-0.16257398
1	0xbd92f7e9	-0.07176191
2	0xbe0735a1	-0.13204052
3	0xbe458401	-0.19288637
4	0xbea16ce9	-0.31528404
5	0x3c8b1096	0.016975682
6	0xbd785983	-0.06063224
7	0xbe33475e	-0.17507693
8	0x3d63edde	0.05564677
9	0xbeaed745	-0.34148613
10	0xbdcb9550	-0.099405885
11	0xbd419ca4	-0.047268525
12	0xbde826a3	-0.11335494
13	0xbe4597fb	-0.19296257
14	0xbe2a9dde	-0.16661784
15	0x3ccde7a4	0.025134869
16	0x3e62458c	0.22096843
17	0xbe7915a2	-0.24324659
18	0xbc6009ed	-0.0136742415
19	0xbca51e42	-0.02015603
20	0xbe7ddc4a	-0.24791065
21	0xbe95e582	-0.29276663
22	0xbe021b44	-0.12705714
23	0x3c18b08a	0.009319434
24	0xbe6c3c35	-0.23069842
25	0xbe20ca1b	-0.15702097
26	0xbe54ba82	-0.20774272
27	0xbe1a4bec	-0.15068024
28	0xbe48a811	-0.19595362
29	0xbdd23f7f	-0.10266017
30	0xbcb27b99	-0.021787452
31	0xbe767182	-0.24066737
32	0xbdda0c9d	-0.10646937
33	0xbe9c955a	-0.30582696
34	0xbe76b3c1	-0.24092008
35	0xbe8f8b50	-0.28035975
36	0x3d042a6c	0.03226702
37	0xbe805861	-0.25067428
38	0xbe2c22e5	-0.16810186
39	0xbe804b3f	-0.25057408
40	0xbea7b95b	-0.32758602
41	0xbda34746	-0.07972579
42	0xbdae60c1	-0.08514548
43	0xbeb563b6	-0.35427636
44	0xbeac9510	-0.33707476
45	0xbd8b1e79	-0.067929216
46	0xbd032898	-0.032021135
47	0xbe8b81bb	-0.27247414
48	0xbe11a632	-0.14223555
49	0xbe06d382	-0.13166621
50	0x3d04bfe5	0.032409567
51	0x3cd72197	0.026261134
52	0xbdeb0cb5	-0.11477033
53	0xbd11d60b	-0.035604518
54	0xbe7638b4	-0.24045068
55	0xbe94b703	-0.29045877
56	0xbe519935	-0.204686
57	0xbe087b0c	-0.13328189
58	0xbf0d3de5	-0.5517257
59	0xbeaaae99	-0.33336332
60	0xbdf6c810	-0.12049878
61	0xbe3bc541	-0.18336965
62	0xbd3bbc13	-0.04583366
63	0xbd550f54	-0.05201657

batchnorm1.running_mean f4 [64]
0	0xbf87dae7	-1.0613679
1	0x4022e77c	2.5453787
2	0xc001b107	-2.02643
3	0x3fe93303	1.8218693
4	0x3f418857	0.75598663
5	0x3f15ad16	0.58467233
6	0x4036572e	2.849071
7	0x3f6909fe	0.9103087
8	0x4072e02b	3.7949321
9	0x3f0a7368	0.54082346
10	0x3f8534d3	1.0406746
11	0x3fc24c47	1.5179528
12	0x3ed48b3b	0.41512474
13	0x3f973cad	1.1815392
14	0xbe9ab206	-0.30213946
15	0x406f307a	3.7373338
16	0xbf9d58ae	-1.2292688
17	0x3ec44b26	0.38338584
18	0xbe351256	-0.17682776
19	0x3f3cb046	0.7370647
20	0xbf3cd894	-0.7376797
21	0xbf200395	-0.62505466
22	0x3ffc51a4	1.9712415
23	0xbf32ae94	-0.69797635
24	0x40516dcb	3.2723262
25	0xc01f2196	-2.486425
26	0x3f7bbb21	0.9833241
27	0xbff4fa44	-1.9138875
28	0x3e55584b	0.20834462
29	0x3ead4a33	0.33845672
30	0x3f9ea165	1.2393004
31	0xbe13583e	-0.1438913
32	0x3f9aa1c2	1.2080615
33	0x3fe004bc	1.7501445
34	0xc01cdd70	-2.4510155
35	0x40033811	2.050297
36	0xbf9c8e29	-1.2230884
37	0x3f8c9c7c	1.0985255
38	0xc004c94a	-2.0747857
39	0x40433cdc	3.0505896
40	0x3ff78767	1.9338197
41	0xbf7d106b	-0.98853177
42	0xbfc43b00	-1.5330505
43	0x3de6fdfa	0.11278911
44	0x40051782	2.0795598
45	0x3fffb41e	1.9976842
46	0x3f256607	0.64608806
47	0xbf8bc71b	-1.0920137
48	0xbf10bc69	-0.5653749
49	0x3fab9151	1.3403722
50	0x40717393	3.772679
51	0xc00049a3	-2.0044944
52	0x3f9f94ab	1.2467245
53	0xbef9e607	-0.4880831
54	0x404e28ec	3.2212477
55	0xbf38aca0	-0.72138405
56	0xbfe03847	-1.7517174
57	0x4008a944	2.1353312
58	0x3eba6019	0.36401442
59	0x3e642825	0.22280939
60	0x40313b58	2.769247
61	0x40224880	2.535675
62	0xc0217e20	-2.523323
63	0xbb311856	-0.0027022562

batchnorm1.running_var f4 [64]
0	0x3e37de8c	0.17955989
1	0x3e4dc274	0.20093709
2	0x3e62043f	0.22071932
3	0x3ea19295	0.31557146
4	0x3e40405d	0.18774553
5	0x3e5f824b	0.21827047
6	0x3e847b11	0.25875142
7	0x3e68e571	0.22743775
8	0x3e885a2b	0.26631293
9	0x3e42de92	0.19030216
10	0x3e7f0b9f	0.24906777
11	0x3e45608d	0.19275112
12	0x3e667f19	0.22509421
13	0x3e81f561	0.25382522
14	0x3e88d0f4	0.2672192
15	0x3e9900dc	0.29883468
16	0x3e945ff9	0.2897947
17	0x3e2e4538	0.17018592
18	0x3ec2c9aa	0.38044482
19	0x3e5854b2	0.21126059
20	0x3e4ea912	0.20181683
21	0x3e167626	0.14693508
22	0x3e46a16d	0.19397517
23	0x3e8ccef2	0.27501637
24	0x3e838b7a	0.2569235
25	0x3e99fd91	0.30076268
26	0x3e5100ec	0.20410508
27	0x3ed01d33	0.40647277
28	0x3e3fc112	0.18725994
29	0x3ea1d104	0.3160478
30	0x3e8efc6d	0.2792696
31	0x3e4d2d90	0.20036912
32	0x3e90a2fa	0.2824934
33	0x3e81ea1c	0.25373924
34	0x3ea8ca0d	0.32966653
35	0x3e88fa38	0.26753402
36	0x3e8fa15e	0.280528
37	0x3e3afbeb	0.18260162
38	0x3e9a0515	0.30082002
39	0x3e80bbdf	0.25143334
40	0x3e3e8e13	0.18608885
41	0x3e990350	0.2988534
42	0x3e7e12ee	0.24811909
43	0x3e0d3324	0.1378904
44	0x3e5e6265	0.21717222
45	0x3efa2775	0.48858228
46	0x3e7dcf83	0.2478619
47	0x3e21d39c	0.15803379
48	0x3ebdb602	0.37052923
49	0x3e0a173d	0.13485427
50	0x3e65a10d	0.22424717
51	0x3e5c1b20	0.21494722
52	0x3e442659	0.19155253
53	0x3e587ec3	0.21142106
54	0x3e6a0fc7	0.22857581
55	0x3e47e78c	0.19521922
56	0x3e4a0bbe	0.19731042
57	0x3e621396	0.22077784
58	0x3e325324	0.17414528
59	0x3e3ad2a3	0.18244414
60	0x3e0bade1	0.13640548
61	0x3e9c61c6	0.30543345
62	0x3e519f73	0.20470981
63	0x3e4dfb24	0.20115334

batchnorm2.weight f4 [128]
0	0x3f6182d9	0.8809028
1	0x3f5f5d45	0.87251693
2	0x3f6009f0	0.87515163
3	0x3f517892	0.818246
4	0x3f736e2f	0.9509
5	0x3f67c564	0.9053557
6	0x3f8c8716	1.0978725
7	0x3f762e6a	0.9616457
8	0x3f5c9b8f	0.86174864
9	0x3f4acab6	0.7921556
10	0x3f5e0f40	0.8674202
11	0x3f4c8ae1	0.7989941
12	0x3f88929e	1.0669744
13	0x3f71711d	0.9431322
14	0x3f736f2b	0.95091504
15	0x3f6a3b15	0.914964
16	0x3f62ee26	0.88644636
17	0x3f8557bf	1.0417403
18	0x3f8f381a	1.1188996
19	0x3f5cd4cd	0.8626221
20	0x3f9bcc6d	1.2171761
21	0x3f80cad8	1.0061903
22	0x3f855cc3	1.0418934
23	0x3f76a51e	0.963457
24	0x3f799a45	0.9750102
25	0x3f9148ce	1.1350343
26	0x3f863acd	1.0486695
27	0x3f5add1a	0.85493624
28	0x3f3ddc78	0.74164534
29	0x3f63fc77	0.89057106
30	0x3f7cc9b9	0.98745304
31	0x3f96b202	1.1773074
32	0x3f7d6506	0.98982275
33	0x3f8ca183	1.098679
34	0x3f788b42	0.9708749
35	0x3fa2a511	1.2706624
36	0x3f8dd590	1.1080799
37	0x3fabc2eb	1.3418859
38	0x3f87916b	1.0591253
39	0x3f6e6a7f	0.9313125
40	0x3f625966	0.8841766
41	0x3f7f052c	0.99617267
42	0x3f70a41e	0.9400042
43	0x3f97b4fa	1.1852105
44	0x3f8630b8	1.0483618
45	0x3f5d8187	0.8652577
46	0x3f862c83	1.0482334
47	0x3f4c9aa2	0.7992345
48	0x3f727ac7	0.94718593
49	0x3f650386	0.894585
50	0x3f7a92b6	0.97880113
51	0x3f688704	0.9083102
52	0x3f69c090	0.9130945
53	0x3f45a592	0.77205765
54	0x3f81b8ae	1.0134485
55	0x3fa4e4f3	1.288237
56	0x3f7b14b0	0.9807844
57	0x3f7c141f	0.984682
58	0x3f723cb0	0.9462385
59	0x3f9db6c0	1.2321396
60	0x3f6c57a7	0.92321247
61	0x3f5a0089	0.85157067
62	0x3f9a4be6	1.2054412
63	0x3f8b040a	1.0860608
64	0x3f909e94	1.1298394
65	0x3f842ea2	1.0326731
66	0x3f63a4aa	0.8892313
67	0x3f806315	1.0030237
68	0x3f86b6f1	1.0524579
69	0x3f80e9b6	1.0071323
70	0x3f69e3c2	0.91363156
71	0x3f453bc1	0.770443
72	0x3f9946df	1.1974753
73	0x3f95a2d5	1.1690317
74	0x3f623471	0.8836127
75	0x3f43800c	0.7636726
76	0x3f3eb428	0.74493647
77	0x3f880c1f	1.0628699
78	0x3f5fc0f3	0.8740379
79	0x3f58f9a8	0.84755945
80	0x3f7ee1bb	0.9956319
81	0x3fadce48	1.3578577
82	0x3f3f8ecc	0.74827266
83	0x3f5f0555	0.8711751
84	0x3f7e4464	0.99323106
85	0x3f8b69a8	1.0891619
86	0x3fabc0e8	1.3418245
87	0x3f909b26	1.1297348
88	0x3f8952d5	1.0728403
89	0x3f84c479	1.0372459
90	0x3f6a643d	0.915592
91	0x3fb0f5da	1.3825028
92	0x3f9dbd69	1.2323428
93	0x3f82cab1	1.0218107
94	0x3f8a137e	1.0787199
95	0x3f8948f3	1.0725387
96	0x3f7c7a2b	0.98623914
97	0x3f75ed89	0.96065575
98	0x3f884851	1.0647069
99	0x3f5dde89	0.86667687
100	0x3f5666e6	0.8375076
101	0x3f5ef9c5	0.8709987
102	0x3f859af3	1.0437912
103	0x3f6849a4	0.90737367
104	0x3f682c2e	0.9069241
105	0x3f91e578	1.1398153
106	0x3fa10d59	1.2582198
107	0x3f58bda3	0.8466436
108	0x3f4b427f	0.7939834
109	0x3f92c110	1.1465168
110	0x3f3c913f	0.7365913
111	0x3f65ebd4	0.8981297
112	0x3f68339f	0.9070377
113	0x3f850ab5	1.0393893
114	0x3f55bdb4	0.8349259
115	0x3fabfd2f	1.343664
116	0x3f9bdbf7	1.2176503
117	0x3f93762c	1.1520438
118	0x3f6d8b2c	0.92790484
119	0x3f2c1f74	0.67235494
120	0x3f736967	0.95082706
121	0x3f6b725f	0.9197139
122	0x3f964ca7	1.1742142
123	0x3f6c3194	0.9226315
124	0x3f4c5229	0.79812866
125	0x3f534959	0.82533795
126	0x3f83bca1	1.029194
127	0x3f5f9ea9	0.8735147

batchnorm2.bias f4 [128]
0	0xbe8c4917	-0.27399513
1	0xbeadd206	-0.33949298
2	0xbf01d017	-0.50708145
3	0xbeecb855	-0.46234384
4	0xbe401e80	-0.18761635
5	0xbe9cffb5	-0.3066384
6	0xbeee51f7	-0.4654691
7	0xbe2ca3f1	-0.16859414
8	0xbe3b6745	-0.18301113
9	0xbec94b9b	-0.39315495
10	0xbe53e88e	-0.20694181
11	0xbe86a48b	-0.2629741
12	0x3d807a1e	0.06273292
13	0xbed3ca1e	-0.4136514
14	0xbe8c61f0	-0.2741847
15	0xbea9bcd9	-0.33151892
16	0xbed9c73f	-0.42534825
17	0xbe85be22	-0.26121622
18	0xbe59a211	-0.2125323
19	0xbd3c2cd1	-0.045941178
20	0xbea39e9c	-0.31956947
21	0xbf08dccf	-0.5346193
22	0xbeda63af	-0.42654178
23	0xbececfe4	-0.40392983
24	0xbefc6afc	-0.49300373
25	0xbee7f12d	-0.4530119
26	0xbeadb91a	-0.33930284
27	0xbedab951	-0.4271951
28	0xbe97b55d	-0.29630557
29	0xbeb324d1	-0.34989026
30	0xbed82af9	-0.42220286
31	0xbdb23343	-0.08701184
32	0xbedaa156	-0.42701215
33	0xbeb6f77d	-0.35735694
34	0xbecd9ff5	-0.401611
35	0xbef6a667	-0.4817383
36	0xbe85e52b	-0.26151404
37	0xbe298f0d	-0.16558476
38	0xbf1d563e	-0.6145972
39	0xbeae3115	-0.34021822
40	0xbf03d80e	-0.5150155
41	0xbf085bb9	-0.5326496
42	0xbec5473c	-0.3853091
43	0xbe9be47c	-0.30447757
44	0xbeeeedf9	-0.46665934
45	0xbdbdf100	-0.09274483
46	0xbeceee72	-0.40416294
47	0xbe67db7b	-0.22642319
48	0xbeaf8664	-0.3428222
49	0xbe49f473	-0.19722156
50	0xbf065606	-0.5247501
51	0xbea6be5b	-0.32567105
52	0xbef89a94	-0.48555434
53	0xbec9626a	-0.39332896
54	0xbeec2ff0	-0.46130323
55	0xbf1155aa	-0.5677134
56	0xbe4003b8	-0.18751419
57	0xbe853dcd	-0.26023713
58	0xbef2e42f	-0.47439715
59	0xbe2da50d	-0.16957493
60	0xbf19a2fb	-0.60014313
61	0xbdf44e7c	-0.11929032
62	0xbe8d0cd4	-0.2754885
63	0xbe089080	-0.13336372
64	0xbead80b3	-0.33887252
65	0xbe935bb3	-0.28780898
66	0xbed4cffa	-0.41564924
67	0xbe75c35c	-0.24000305
68	0xbe7693de	-0.24079844
69	0xbf022c98	-0.50849295
70	0xbe6fefac	-0.23431271
71	0xbe94b7de	-0.2904653
72	0xbe8c0886	-0.27350253
73	0xbe6e6f03	-0.23284535
74	0xbea2aa23	-0.3177043
75	0xbe6f1a5f	-0.23349904
76	0xbdaa1842	-0.08305408
77	0xbebd6d46	-0.36997432
78	0xbedca950	-0.43097925
79	0xbed0db6d	-0.4079241
80	0xbeee53ce	-0.46548313
81	0xbcf99690	-0.030467302
82	0xbf0faae0	-0.5612011
83	0xbe3f358d	-0.18672772
84	0xbeae2a20	-0.34016514
85	0xbeea60be	-0.45776933
86	0xbe019dff	-0.12657927
87	0xbf18e180	-0.59719086
88	0xbea0d8fe	-0.31415552
89	0xbe843369	-0.25820473
90	0xbef1d992	-0.47236305
91	0x3d5f504f	0.054519948
92	0xbe38409a	-0.17993394
93	0xbe52e113	-0.20593672
94	0xbec3e535	-0.3826081
95	0xbec6e5a0	-0.38847065
96	0xbf08400f	-0.53222746
97	0xbe6a93a4	-0.22907883
98	0xbef222b8	-0.47292113
99	0xbefa7d24	-0.489236
100	0x3c8db6d1	0.017299088
101	0xbea350d3	-0.318976
102	0xbe42f80a	-0.19039932
103	0xbebdbcaa	-0.37058002
104	0xbe9b7b93	-0.30367717
105	0xbe4b9377	-0.19880472
106	0xbef0796c	-0.46967638
107	0xbed288f3	-0.4112011
108	0xbe82f702	-0.25579077
109	0xbe941798	-0.2892425
110	0xbea646b6	-0.32475823
111	0xbea7a29f	-0.32741258
112	0xbebe732f	-0.37197253
113	0xbec4e83c	-0.3845843
114	0xbed83563	-0.4222823
115	0x3dbd7662	0.09251095
116	0xbe675bd1	-0.22593619
117	0xbee6d765	-0.45086208
118	0xbeb1fa45	-0.34761253
119	0xbf075ce1	-0.52876097
120	0xbe788c05	-0.24272163
121	0xbea2f4de	-0.31827444
122	0xbec93b03	-0.39302835
123	0xbe85f25f	-0.26161477
124	0xbe4e1c4f	-0.20127986
125	0xbdb7b2ee	-0.08969675
126	0xbe8e5213	-0.27796993
127	0xbf13d211	-0.5774241

batchnorm2.running_mean f4 [128]
0	0x3f607462	0.87677586
1	0x3f1f9b32	0.62346184
2	0xbf61c26e	-0.881873
3	0xbf7f6354	-0.9976094
4	0xbe8513d8	-0.25991702
5	0xbf8a99a3	-1.0828136
6	0xbe38ac2d	-0.1803443
7	0x3f3dff58	0.7421775
8	0xbf3b3190	-0.731225
9	0xbeda1d33	-0.42600402
10	0xbe12c080	-0.14331245
11	0x3f786f1f	0.9704456
12	0xbecfcc4b	-0.4058555
13	0xbeb0b358	-0.34511828
14	0x3f6f94c2	0.9358636
15	0x3fc9018d	1.5703598
16	0x3fa36101	1.2763978
17	0x3f54b9d2	0.8309604
18	0x3ea1b868	0.31586003
19	0x3f800dd4	1.000422
20	0x4035a9c0	2.8384857
21	0x401af31c	2.4210882
22	0xbfd840fc	-1.6894832
23	0x4007c053	2.1211135
24	0xbfd05221	-1.6275064
25	0xbf1ac0c5	-0.6045039
26	0x3f04d388	0.5188527
27	0x4016e407	2.3576677
28	0xbf04f448	-0.51935244
29	0xbef68816	-0.481507
30	0xbf409f71	-0.7524329
31	0x3ecb2adb	0.39681134
32	0xbf95a248	-1.1690149
33	0xbf145ab7	-0.5795092
34	0x3ec2f091	0.38074163
35	0xbf5e9131	-0.86940295
36	0x3ccec2b5	0.025239328
37	0xbe0bc392	-0.13648823
38	0x3fcdfd95	1.6093012
39	0xbf399bee	-0.72503555
40	0xc002053e	-2.03157
41	0x3f8e1317	1.1099576
42	0xbead924a	-0.33900672
43	0x3eebe9d9	0.4607685
44	0xbdf47a22	-0.119373575
45	0xbca267e0	-0.019824922
46	0xbf21e8cb	-0.6324584
47	0x3ea77ed0	0.32713938
48	0x40027623	2.0384605
49	0x3f429e93	0.76023215
50	0x3e87cc58	0.2652309
51	0x3fb1935c	1.3873096
52	0x3f949b1c	1.1609836
53	0xbfdc87fb	-1.7228998
54	0x400ec2c7	2.2306383
55	0xbf074c74	-0.52851033
56	0x3c2de924	0.010614667
57	0x3f705fb9	0.9389606
58	0x3ed68f04	0.41905987
59	0x3fd4b769	1.6618472
60	0x3f6feded	0.9372242
61	0x3fef5977	1.8699178
62	0x3ff6ed59	1.9291183
63	0x3f72464e	0.94638526
64	0xbc97fc5a	-0.018552948
65	0xbe22e140	-0.15906239
66	0xbe71ecb0	-0.23625445
67	0x3fed1957	1.8523358
68	0x3eb8478c	0.35992086
69	0x3f4044ba	0.7510487
70	0x3f63da0b	0.8900458
71	0x3f9978b6	1.1989963
72	0x4034dff3	2.8261688
73	0x3f70eb4e	0.94109046
74	0x401cd8f2	2.4507413
75	0x400f1e87	2.2362382
76	0x3fa303a2	1.2735484
77	0x3fbf6f95	1.4955927
78	0xbfc1e340	-1.5147476
79	0x3dbed9bc	0.09318873
80	0x3fcb5fd4	1.588862
81	0x3d52659a	0.051366426
82	0xbd039d11	-0.032132212
83	0x3f6d64dc	0.92732024
84	0x3edda771	0.4329181
85	0xbf0bbee4	-0.5458815
86	0x4043e303	3.0607307
87	0x3eb9b0bc	0.3626765
88	0xbfc36ba7	-1.5267228
89	0x3facebd2	1.3509467
90	0xbf51e1a0	-0.819849
91	0x3e741a25	0.23838098
92	0xbe767166	-0.24066696
93	0x3f01f924	0.50770783
94	0x3f74518e	0.9543694
95	0xbf9597e5	-1.168698
96	0x40356618	2.8343563
97	0x3ec1d242	0.37855726
98	0x3f1104f4	0.5664818
99	0x3f9ca000	1.2236328
100	0x3f8597d8	1.0436964
101	0x3d953e80	0.072873116
102	0xbfffdc6c	-1.9989142
103	0x3fd805ab	1.687673
104	0x3f329cb9	0.6977039
105	0xbea637ff	-0.32464597
106	0xbcf8c362	-0.030366603
107	0x3fb56b14	1.4173303
108	0xbebb2c2a	-0.36557132
109	0x3f29e3da	0.663633
110	0x3f68053a	0.90632975
111	0xbf91a79c	-1.1379275
112	0x3f1ceaa6	0.61295545
113	0x4022c871	2.543484
114	0xbf7e2897	-0.99280685
115	0x3bd9d361	0.006647513
116	0x3e9e91f7	0.30970737
117	0x401a9bf8	2.4157696
118	0x3e36f4c9	0.17866816
119	0xbf8736cc	-1.0563598
120	0x3eb8a685	0.36064544
121	0x3fc8629b	1.5655092
122	0xbf8e9cee	-1.1141641
123	0x3f5d1ed1	0.8637515
124	0x3f978755	1.1838175
125	0x3f26cccd	0.6515625
126	0xbe3b3096	-0.18280253
127	0x3fb95231	1.4478208

batchnorm2.running_var f4 [128]
0	0x3fe3a465	1.7784544
1	0x40475fa6	3.115213
2	0x3f81b1c6	1.0132377
3	0x4001a516	2.025701
4	0x3fb8bf56	1.4433391
5	0x401c1a0b	2.4390895
6	0x4044bf15	3.0741627
7	0x3fbe2073	1.4853653
8	0x3fa72c48	1.3060389
9	0x3f953737	1.1657475
10	0x4052d19d	3.2940438
11	0x3fb79f8f	1.4345568
12	0x3fc7c987	1.5608376
13	0x3fb410c4	1.4067616
14	0x3fcd8a92	1.6057913
15	0x401d5773	2.4584625
16	0x404e62f1	3.224789
17	0x3f722ff2	0.9460441
18	0x3ff2076b	1.8908514
19	0x3fd81b06	1.6883247
20	0x40110715	2.2660573
21	0x40209783	2.5092475
22	0x4075d1bd	3.8409264
23	0x3fa7fdbd	1.312431
24	0x40195528	2.3958225
25	0x4029ff13	2.6561935
26	0x3fa6f83a	1.3044503
27	0x403bc28c	2.9337492
28	0x4016aef1	2.3544276
29	0x40464da1	3.098488
30	0x40222310	2.53339
31	0x3f94432a	1.1582997
32	0x3fc09232	1.5044615
33	0x3fe2b012	1.7709982
34	0x4003f839	2.0620253
35	0x407bb018	3.932623
36	0x3fe10142	1.7578509
37	0x3f77fc3b	0.9686925
38	0x404d9cc9	3.2126944
39	0x3fe52c32	1.7904112
40	0x3fce4cd3	1.6117195
41	0x3fbec632	1.4904234
42	0x3f83b8f3	1.0290817
43	0x400326bc	2.0492392
44	0x40464242	3.097794
45	0x3fd0e61c	1.6320224
46	0x4005cef6	2.090757
47	0x3fc5206a	1.5400517
48	0x3fb865a5	1.440602
49	0x3fcb0a84	1.5862584
50	0x400f676b	2.2406871
51	0x3f9f33f9	1.2437736
52	0x407168e3	3.7720268
53	0x3fd8bc1f	1.693241
54	0x40638c5d	3.555442
55	0x4050a576	3.260099
56	0x3f88f75e	1.070049
57	0x401163d8	2.271719
58	0x3fcadcbb	1.5848612
59	0x3fa6bb77	1.302596
60	0x3f924fae	1.1430566
61	0x40060259	2.0938933
62	0x3ff5a013	1.9189476
63	0x3fc6ba09	1.5525523
64	0x3f96d8aa	1.1784871
65	0x3fab9cdf	1.3407248
66	0x3f8bc97b	1.0920862
67	0x3fe6f151	1.8042394
68	0x3fb8bf9b	1.4433473
69	0x4006bad4	2.105153
70	0x4098df70	4.777275
71	0x3fc26fab	1.5190328
72	0x4021af06	2.5263076
73	0x400028a1	2.0024798
74	0x3fb0ef43	1.3823017
75	0x400d4259	2.2071745
76	0x3fa5d5c1	1.2955858
77	0x40203c4c	2.5036802
78	0x40239cb4	2.5564394
79	0x3fce5efe	1.6122739
80	0x40119dd9	2.2752593
81	0x4022b01a	2.5419984
82	0x3fa5d190	1.2954578
83	0x3fa527a2	1.290272
84	0x3ff4fb57	1.9139203
85	0x408bd662	4.36992
86	0x3fd35fc7	1.6513604
87	0x40754e24	3.8328943
88	0x40226dda	2.5379548
89	0x3fe50286	1.7891395
90	0x3fb522c1	1.4151231
91	0x4012c773	2.2934234
92	0x3f94b402	1.1617434
93	0x3fad995d	1.3562428
94	0x3fa67dc8	1.3007135
95	0x40777a7e	3.8668513
96	0x40672730	3.6117668
97	0x4003da89	2.0602133
98	0x4052f84e	3.2964053
99	0x3ffe21ec	1.9854102
100	0x4001a91f	2.0259473
101	0x405ec09f	3.4805067
102	0x40a47b12	5.140023
103	0x4044d65f	3.0755842
104	0x400dabc8	2.2136097
105	0x3f51a594	0.8189328
106	0x40027b34	2.0387697
107	0x4045dce3	3.0916069
108	0x3fd7fad5	1.6873423
109	0x402b7101	2.6787722
110	0x4012c1e4	2.2930841
111	0x3ffcb757	1.9743451
112	0x3fee01de	1.859432
113	0x3fe56fce	1.7924745
114	0x3fa9efd2	1.3276312
115	0x40037215	2.053838
116	0x4017a7c4	2.3696146
117	0x401051e3	2.254998
118	0x3fad081d	1.3518101
119	0x3fceeeb7	1.61666
120	0x3feb807a	1.8398583
121	0x4026e3fc	2.607665
122	0x40561ace	3.345386
123	0x3fd9106a	1.6958134
124	0x401e3be3	2.4724052
125	0x3fbfb7bc	1.4977946
126	0x3fb20a9c	1.3909488
127	0x3f93f841	1.1560136
