src/sw_machine_learning/models/mlp_1510_0451.pt (torch, 242517 bytes, 20 tensors)

layer_1.weight f4 [256, 60]
-0.14317995 0.05049862 -0.38484782 -0.32268882 -0.24460085 0.71969265 0.33194616 -0.14262094
-0.10719898 -0.17697535 -0.62615424 0.44608963 0.31688255 -0.22753273 0.035070907 -0.08888163
-0.77449113 -0.011918651 0.36888817 -0.05672693 -0.077339046 -0.109122835 -0.87333393 0.1608304
0.8515189 0.23542209 0.15347706 -0.3155782 -0.5804574 0.37472844 0.9509188 -0.1460354
0.059427857 0.020961942 -0.15204182 0.36883092 0.5164338 -0.08607657 0.45956218 0.26772577
0.27127573 -0.02409057 0.60755926 -0.24927703 0.29485783 0.3954529 -0.11060319 0.15144299
0.19811304 -0.41620842 0.4130714 0.2840614 0.23850764 -0.3869468 -0.1336922 -0.2532585
0.29834577 0.48980293 0.5844177 -0.41219947 2.3127942 -0.80997646 0.41617852 0.37103322
-0.27856636 0.07927045 -0.574474 -0.15352099 0.06656542 0.040707253 -0.31698406 0.29248467
0.25967968 -0.16367835 -0.24958785 -0.884107 -0.7802562 0.20339955 -0.46923617 0.37730813
0.19109488 -0.1739072 -0.2610469 -0.14162259 0.37187824 0.019355759 -0.08422201 -0.10420488
-0.59582543 -0.32340032 0.47629523 0.37989223 0.06770798 0.09911751 -0.31136355 0.1776078
-0.025654111 0.3005383 -0.4738399 -0.046065994 -0.11377717 0.33637086 0.3843878 0.73835427
-0.16575511 0.21394594 0.302448 0.36900467 -0.25800902 0.052479703 -0.03851601 -0.31042662
0.3118387 0.44079128 -0.3895007 -0.16410221 0.20792292 -0.11651407 0.375173 0.63389534
-0.006299614 -0.46169823 0.9158708 -0.4690248 -0.30652082 0.38006386 -0.11003934 0.13611826
0.6717184 -0.6232667 -0.061503235 -0.21025234 -0.655935 0.44596845 0.110191435 -0.47925183
-0.05978223 0.034878463 -0.3717428 0.24141434 0.124775596 -0.2817188 -0.6489998 -0.35028762
-0.42050207 0.09139442 0.15219602 -0.021348014 -0.92174697 -0.12876426 -0.43535647 -0.24375348
0.13903569 0.24577269 -1.3443601 -0.16615303 0.12740804 -0.5295344 0.04371965 0.22826107
-0.8480433 -0.038832024 0.350218 -0.36893052 -0.08157351 0.25461578 -0.56498235 -0.115096666
-0.43239444 -0.106596515 -0.18028362 0.07081477 -0.60860944 -0.37465304 -0.04807999 0.0367273
-0.6233654 -0.41704583 0.17151093 0.090498194 0.1847507 -0.5890557 -0.58840936 0.28668165
-0.115264446 0.10584707 0.5208774 -0.20470941 -0.20267354 -0.25798988 0.18487747 -0.16854791
0.1651952 -0.13226308 -0.7816534 0.14130548 0.4332013 -0.51710796 0.1731437 0.11881332
-0.59468704 0.08487751 0.35943052 -0.13926838 0.326205 -0.42997506 -0.2546245 -0.37831345
-0.43166107 0.061296865 0.43512133 -0.194973 -0.20786521 -0.0010097477 -0.25029275 0.16923437
0.6891349 -0.36633182 -0.22320083 0.32256767 -0.6739432 0.15213236 0.47915736 -0.012174496
-0.16458417 0.13456172 -0.6684106 -0.14371501 -0.42379147 0.1784962 -0.080785185 -0.026872436
-0.14447233 -0.21907562 -1.2567685 0.7322649 0.8570704 -0.38285533 -0.22082882 -0.14914654
0.8194604 -0.3700033 0.18794692 0.21223707 0.13304104 -0.22524738 0.9033551 -0.5899983
-0.09875852 -0.67101705 0.38557667 -0.39298823 0.35318902 0.2744263 -0.07250744 0.055299774
00000000: c49d 12be a4d7 4e3d c60a c5be 7837 a5be
00000010: a578 7abe c73d 383f d9f4 a93e 390b 12be
00000020: 248b dbbd 0739 35be a54b 20bf dc65 e43e
00000030: 6e3e a23e 57fe 68be 83a6 0f3d 9207 b6bd
00000040: 0d45 46bf 7246 43bc e9de bc3e 7f5a 68bd
00000050: ef63 9ebd cb7b dfbd d092 5fbf b9b0 243e
00000060: 25fd 593f 7d12 713e 1729 1d3e 7793 a1be
00000070: db98 14bf 68dc bf3e 6a6f 733f 4e8a 15be
00000080: a06a 733d 61b8 ab3c dab0 1bbe 68d7 bc3e
00000090: 0135 043f ea48 b0bd bc4b eb3e 5a13 893e
000000a0: a7e4 8a3e 9659 c5bc 0189 1b3f 7a42 7fbe
000000b0: 9bf7 963e cd78 ca3e ed83 e2bd df13 1b3e
000000c0: 25de 4a3e 4519 d5be 187e d33e 7f70 913e
000000d0: 593b 743e e41d c6be 9ce6 08be 19ab 81be
000000e0: c7c0 983e 73c7 fa3e 669c 153f cf0b d3be
000000f0: d204 1440 9e5a 4fbf 5a15 d53e 11f8 bd3e
00000100: 40a0 8ebe 8c58 a23d ba10 13bf 9b34 1dbe
00000110: 7353 883d a6bc 263d bc4b a2be 8dc0 953e
00000120: bcf4 843e 4c9b 27be f593 7fbe d654 62bf
00000130: dfbe 47bf f947 503e b93f f0be 882e c13e
00000140: 60ae 433e bb14 32be f0a7 85be 8305 11be
00000150: d366 be3e f88f 9e3c 977c acbd 5e69 d5bd
00000160: 0488 18bf ba94 a5be f8dc f33e 3c81 c23e
00000170: 7baa 8a3d 1ffe ca3d 0b6b 9fbe d2de 353e
00000180: 9228 d2bc 28e0 993e 259b f2be b2af 3cbd
00000190: 0104 e9bd cd38 ac3e 7ace c43e c904 3d3f
000001a0: b5bb 29be a514 5b3e 77da 9a3e 2eee bc3e
000001b0: c219 84be f5f4 563d f7c2 1dbd 3df0 9ebe
000001c0: 52a9 9f3e 65af e13e a36c c7be 690a 28be
000001d0: bfe9 543e ee9e eebd ad16 c03e f746 223f
000001e0: fe6c cebb b663 ecbe 8276 6a3f 0524 f0be
000001f0: 4cf0 9cbe bb97 c23e 4e5c e1bd 9662 0b3e
00000200: bdf5 2b3f 688e 1fbf d1ea 7bbd 644c 57be
00000210: 5beb 27bf fa55 e43e 0cac e13d 7f60 f5be
00000220: 36de 74bd b8dc 0e3d 1355 bebe 5235 773e
00000230: 598a ff3d 723d 90be da24 26bf e658 b3be
00000240: 0c4c d7be ff2c bb3d 46d9 1b3e 08e2 aebc
00000250: 9cf7 6bbf c7da 03be 0be7 debe 839a 79be
00000260: 5f5f 0e3e d6ab 7b3e fe13 acbf 0524 2abe
00000270: 4177 023e 918f 07bf 6013 333d 45bd 693e
00000280: 5e19 59bf 540e 1fbd c64f b33e 76e4 bcbe
00000290: 0310 a7bd 005d 823e afa2 10bf cdb7 ebbd
000002a0: ce62 ddbe 464f dabd 459c 38be 5607 913d
000002b0: d4cd 1bbf 86d2 bfbe 86ef 44bd 5e6f 163d
000002c0: e094 1fbf 0887 d5be 90a0 2f3e 1e57 b93d
000002d0: 4a2f 3d3e 5bcc 16bf ffa1 16bf f0c7 923e
000002e0: c40f ecbd 59c6 d83d 3958 053f 589f 51be
000002f0: a789 4fbe 4017 84be 8550 3d3e d397 2cbe
00000300: ee28 293e f96f 07be 701a 48bf 62b2 103e
00000310: 90cc dd3e 3061 04bf 954c 313e 6654 f33d
00000320: 693d 18bf 43d4 ad3d 4707 b83e 5f9c 0ebe
00000330: 5704 a73e b125 dcbe 245e 82be 4db2 c1be
00000340: ae02 ddbe 6c12 7b3d 39c8 de3e 01a7 47be
00000350: 9eda 54be 8359 84ba 5f26 80be c64b 2d3e
00000360: 256b 303f d88f bbbe c28e 64be 9727 a53e
00000370: 8b87 2cbf 96c8 1b3e 1d54 f53e 8a77 47bc
00000380: c188 28be 8cca 093e f51c 2bbf 072a 13be
00000390: 32fb d8be b5c7 363e b472 a5bd 9523 dcbc
000003a0: 8ef0 13be 5c55 60be cadd a0bf b675 3b3f
000003b0: f768 5b3f 9d05 c4be f320 62be dfb9 18be
000003c0: 28c8 513f 1371 bdbe 2875 403e ad54 593e
000003d0: e93b 083e 40a7 66be 4842 673f 210a 17bf
000003e0: e841 cabd c6c7 2bbf 4e6a c53e c135 c9be
000003f0: 31d5 b43e 9b81 8c3e c87e 94bd 0482 623d

layer_1.bias f4 [256]
0.00582032 0.040679142 -0.0105171995 0.035008993 0.041670926 0.057197284 0.04132771 0.025666876
0.14493501 -0.119897895 0.081336334 0.11719372 -0.16231886 -0.044096638 -0.03861381 -0.05418199
0.12365925 -0.076309375 -0.056052733 -0.10046301 0.02991218 -0.028939458 0.14800318 0.07375543
-0.017773582 -0.13443226 -0.14851168 0.0700528 -0.00937094 -0.084360704 0.013480876 -0.13477926
0.09276599 -0.08548892 -0.010393788 0.00033390598 -0.09889246 0.09042277 0.016225679 0.08011804
0.13567929 0.20614406 -0.08950613 0.017175488 -0.013564694 0.013153279 0.08029248 0.13285969
0.10282408 0.14778057 -0.1588508 -0.10294727 0.2128809 -0.09354165 -0.10797837 -0.10027386
-0.05206697 0.105013065 -0.17073904 -0.06288356 0.14513256 0.008313651 -0.06004994 0.121188395
-0.045214847 -0.035259284 0.051223777 0.15692085 -0.08529623 -0.04254292 -0.016140196 -0.06992669
0.04790635 0.04609132 0.019969821 0.08333211 0.0083045475 0.013526092 0.022774257 -0.101457044
-0.115565225 -0.039235752 -0.15446003 -0.0566552 0.23507217 -0.13748556 -0.089648336 0.114173524
0.068336874 -0.063785166 0.078695476 0.18290995 0.13360138 0.043450404 -0.09193329 -0.20513482
0.18099594 0.13000399 0.019153668 0.24807301 -0.034130946 0.033450007 0.2542351 0.19912314
-0.03875883 0.10729609 0.13617922 -0.06672604 -0.1968575 0.07993458 -0.027579395 0.074026674
0.14570357 -0.02329379 -0.08714263 -0.039123803 -0.11116914 -0.022162596 -0.08452129 -0.07660575
0.045305002 0.10645391 0.12842295 -0.0019087897 0.08283594 0.015060549 -0.005353701 0.04539765
-0.018886002 -0.13061151 0.086549364 0.008473061 0.003229057 -0.18740068 -0.026657416 0.046266012
0.014676149 -0.20647831 -0.11921089 0.07175109 -0.059216253 -0.06024053 -0.07829582 -0.09186055
-0.03718657 -0.040180515 0.0034836705 -0.030052328 -0.012954709 -0.050661057 -0.007490007 -0.08525097
0.0251472 -0.07543205 0.011976619 -0.22335528 -0.028650358 0.058482017 0.031687666 -0.0062712217
0.057117485 -0.04854034 -0.16468538 -0.10189172 0.16243635 0.108686395 -0.06806088 -0.15738732
0.14875793 0.14232843 0.17725633 -0.13922562 -0.107489355 -0.027561221 0.014562265 -0.06693789
0.055131104 0.050321333 -0.027842041 -0.078667745 -0.03494676 0.079736345 0.06738285 0.042863205
0.0023286052 -0.0146196885 0.030303832 0.09860714 -0.039788254 -0.13316388 0.09056889 -0.16901566
0.14099275 0.10809428 -0.06882453 -0.08462811 0.0463113 0.23216175 0.03938022 -0.14935523
0.045437545 -0.020212995 -0.119066216 0.044128377 -0.020371499 -0.13597694 -0.091054514 0.1025137
0.087102056 -0.036110256 -0.002980669 -0.01031723 0.027685115 -0.08785024 -0.038624227 0.058940236
0.13658929 0.0745125 0.0024285368 -0.053860143 0.09513735 -0.10444418 -0.11782216 0.06099192
-0.14790292 0.09038971 -0.08383956 0.051708065 -0.016617099 -0.0652839 0.14139539 0.13616215
0.15625256 0.20548643 0.04353918 -0.05071346 -0.036695655 -0.04267006 0.11963214 -0.039487433
0.053243663 0.047200818 -0.10056528 -0.06473057 -0.034962445 -0.16576214 -0.043949023 -0.08362754
0.08996388 0.01593415 -0.16407223 0.0661958 0.109366395 -0.10461859 -0.16183256 0.18051898
00000000: 62b8 be3b 2c9f 263d 5550 2cbc 9765 0f3d
00000010: 22af 2a3d b347 6a3d 3f47 293d 5743 d23c
00000020: d869 143e 078d f5bd aa93 a63d 4303 f03d
00000030: ea36 26be ad9e 34bd 8429 1ebd efed 5dbd
00000040: 1041 fd3d 1748 9cbd 8d97 65bd 8dbf cdbd
00000050: 630a f53c 7112 edbc 258e 173e 160d 973d
00000060: e799 91bc 9ca8 09be 7213 18be d877 8f3d
00000070: 9288 19bc 4ec5 acbd e4de 5c3c 9303 0abe
00000080: 18fc bd3d d114 afbd b54a 2abc 1a10 af39
00000090: 2188 cabd 932f b93d b7eb 843c ed14 a43d
000000a0: 83ef 0a3e 6e17 533e fd4e b7bd 9cb3 8c3c
000000b0: 733e 5ebc da80 573c 6270 a43d 5f0c 083e
000000c0: 6e95 d23d ca53 173e c9a9 22be 05d6 d2bd
000000d0: 73fd 593e c492 bfbd c323 ddbd 625c cdbd
000000e0: 2d44 55bd 1711 d73d 37d6 2ebe 19c9 80bd
000000f0: a19d 143e fb35 083c edf6 75bd 9f31 f83d
00000100: 3433 39bd 0a6c 10bd 06d0 513d dcaf 203e
00000110: caaf aebd 7c41 2ebd 7238 84bc b935 8fbd
00000120: 7339 443d 41ca 3c3d c097 a33c 06aa aa3d
00000130: cc0f 083c 8b9c 5d3c 1491 ba3c b6c8 cfbd
00000140: 76ad ecbd abb5 20bd c52a 1ebe 480f 68bd
00000150: c2b6 703e 04c9 0cbe 8c99 b7bd cfd3 e93d
00000160: 34f4 8b3d cca1 82bd 182b a13d bf4c 3b3e
00000170: cdce 083e 0df9 313d 8547 bcbd dd0e 52be
00000180: 0057 393e c41f 053e 27e8 9c3c da06 7e3e
00000190: e4cc 0bbd e002 093d 1a2b 823e f0e6 4b3e
000001a0: 94c1 1ebd 0dbe db3d 9172 0b3e a9a7 88bd
000001b0: 0395 49be beb4 a33d 2fee e1bc 4c9b 973d
000001c0: 5133 153e 9ed2 bebc d677 b2bd 4840 20bd
000001d0: a5ac e3bd 558e b5bc 8019 adbd 7ae3 9cbd
000001e0: bd91 393d 8204 da3d 4e81 033e 5b30 faba
000001f0: e4a5 a93d 85c0 763c 196e afbb e3f2 393d
00000200: d1b6 9abc 06bf 05be cb40 b13d 98d2 0a3c
00000210: 969e 533b f7e5 3fbe a760 dabc 6e81 3d3d
00000220: 3b74 703c 0d6f 53be d724 f4bd 3cf2 923d
00000230: be8c 72bd c6be 76bd 8f59 a0bd 6221 bcbd
00000240: f250 18bd 5394 24bd 4b4e 643b 4d30 f6bc
00000250: fd3f 54bc f881 4fbd bc6e f5bb 1098 aebd
00000260: 8001 ce3c 1e7c 9abd 9539 443c 3fb7 64be
00000270: 28b4 eabc d78a 6f3d edca 013d d27e cdbb
00000280: 06f4 693d 3cd2 46bd 49a3 28be 9bac d0bd
00000290: b755 263e f996 de3d 8163 8bbd 242a 21be
000002a0: 0054 183e 8bbe 113e af82 353e 2991 0ebe
000002b0: 6123 dcbd 12c8 e1bc 9196 6e3c bc16 89bd
000002c0: 27d1 613d be1d 4e3d fe14 e4bc 8e1c a1bd
000002d0: 5524 0fbd cf4c a33d 0500 8a3d 5491 2f3d
000002e0: 839b 183b 6b87 6fbc be3f f83c 8af2 c93d
000002f0: 02f9 22bd 1d5c 08be 2f7c b93d 7112 2dbe
00000300: 6760 103e 8960 dd3d e0f3 8cbd 8151 adbd
00000310: ebb0 3d3d cfbb 6d3e 274d 213d 94f0 18be
00000320: b81c 3a3d b995 a5bc fdd8 f3bd f5bf 343d
00000330: 21e2 a6bc 8a3d 0bbe ca7a babd b4f2 d13d
00000340: 9062 b23d 59e8 13bd 5457 43bb 9909 29bc
00000350: e5cb e23c d4ea b3bd 7034 1ebd 516b 713d
00000360: 10de 0b3e 029a 983d 1628 1f3b 749c 5cbd
00000370: 5fd7 c23d d5e6 d5bd bf4c f1bd aad2 793d
00000380: dd73 17be 3e1e b93d 13b4 abbd d6cb 533d
00000390: 9520 88bc 91b3 85bd f4c9 103e 176e 0b3e
000003a0: ac00 203e 096b 523e 2456 323d ebb8 4fbd
000003b0: 2f4e 16bd cdc6 2ebd b201 f53d 93bd 21bd
000003c0: 0716 5a3d a555 413d 2bf5 cdbd 7691 84bd
000003d0: c834 0fbd 8dbd 29be e403 34bd ea44 abbd
000003e0: fc3e b83d 5688 823c 8d02 28be aa91 873d
000003f0: 7dfb df3d 4542 d6bd 6fb7 25be f8d9 383e

layer_2.weight f4 [128, 256]
-0.21132906 1.6921668 -0.013806755 0.04144017 -0.09530178 -1.0558041 0.30392948 0.76234317
-0.04457914 -0.4924117 -0.14774619 -0.171221 -0.37795925 -0.29773897 -0.10727298 0.14924188
0.20740129 -0.26666853 -0.39831665 -0.24491626 0.22637959 -0.4182727 -0.33211184 0.23244604
0.34484568 -0.18521318 0.44927362 -0.211459 0.24057132 0.40066147 0.14079969 -0.2898865
0.33092907 -0.2552672 0.46992725 -0.029880779 -0.39756435 -0.09946927 0.16453956 0.4136109
0.12732673 -0.39802802 -0.8994395 -0.4965528 -0.51586246 -0.4030477 -0.40824676 0.088066645
0.5303739 -0.41093305 -0.24553926 0.5626436 0.32337043 -0.43747932 0.24944061 0.33374816
0.054034907 0.14206795 0.5438306 -0.21322063 -0.94833463 -1.7246132 -0.20339283 0.560763
0.14358282 0.076380126 0.0230649 -0.3649879 -0.87119734 -0.31200093 -0.6117518 0.67083794
-0.18219489 -0.010822237 -0.04939541 -0.071471006 0.10081222 -0.023165492 -0.58667845 0.5860614
0.4547183 0.031957306 0.084578246 -0.0930105 0.50102675 -0.5589007 -0.12408811 0.15566333
0.105175495 0.27446184 0.32159808 -0.3616302 -0.68329066 -0.061833512 -0.27931494 0.3190836
-0.64463156 -0.044652775 -0.30297524 -0.26016957 0.13270657 -0.12770769 -0.16338144 -0.19343594
-0.054735467 0.12312202 0.39409816 0.18493505 -0.18255135 -0.24224837 0.2650916 -0.8171295
0.118716516 0.25629517 -0.09029748 0.3160723 0.34907678 0.091884434 -0.001036457 -0.6034
-0.77313805 0.23481984 0.31439292 -0.29650205 0.11488249 1.1340449 -0.71602786 0.18910243
-0.20593303 -0.47827238 0.3823146 0.23600903 0.6945662 0.11061023 -0.0789181 0.17598298
0.2436413 0.03753466 0.15562221 -0.98104596 0.3992862 0.1742986 0.5665253 0.37420988
-0.5341406 0.5295133 -0.58069736 -0.30136195 -0.08077465 -0.3266996 0.28686514 -0.15135027
0.18482688 -0.88865 -0.27091268 0.35626557 -0.7456567 0.32362315 0.18495975 0.053565703
-0.021395199 -0.2546424 1.090836 -0.4831306 -0.18646969 -0.3437708 -0.81414044 0.08341309
-0.46864656 -0.5848301 0.45630175 0.14420637 0.23407567 0.2861065 -0.06555339 -0.15782478
-0.17587227 0.26400927 0.11442536 -0.12155675 0.0002126955 0.5404808 -0.18625176 -0.33426398
0.36527026 0.33789906 0.12968975 0.71771127 0.20421226 -0.18513383 -0.47991934 0.22924812
-0.38767233 0.06277933 -0.8270872 -0.68869615 -0.4531951 0.20342489 -0.6190578 0.16781755
0.34227207 0.10396299 0.024982495 0.11289006 0.3096932 0.3167903 0.22310196 0.26629516
0.034064822 -0.6098925 -0.33165607 0.13607064 -0.07733704 -0.08184189 0.045109395 0.36143237
0.44983715 -0.063029625 0.57770556 0.16240531 0.09398397 0.71660405 0.024972344 -0.64119905
0.21009773 0.40293872 -0.22802413 -0.49193567 -0.5794148 0.13651615 0.34691504 0.09947098
-0.3798168 -0.4929127 0.72705024 0.83784646 -1.3154624 0.09957488 -0.421742 0.101437666
-0.008091438 0.2077456 -0.54605603 0.81843513 0.102519676 0.27268708 -0.29357842 0.039246753
-0.1997863 -0.0023479047 -0.5069647 0.35824078 0.14742105 0.28322914 0.21886346 -0.20185228
00000000: a566 58be ec98 d83f ba35 62bc 2bbd 293d
00000010: 942d c3bd 9724 87bf a59c 9b3e ec28 433f
00000020: 9e98 36bd 631d fcbe c74a 17be 8f54 2fbe
00000030: e083 c1be 3e71 98be f0b1 dbbd ddd2 183e
00000040: 0161 543e c788 88be 29f0 cbbe 54cb 7abe
00000050: 0dd0 673e d727 d6be 900a aabe 5606 6e3e
00000060: 9d8f b03e 86a8 3dbe 3107 e63e b588 58be
00000070: 5458 763e 8023 cd3e cb2d 103e 016c 94be
00000080: 896f a93e 62b2 82be 4e9a f03e 89c8 f4bc
00000090: 8e8d cbbe 8bb6 cbbd 0f7d 283e cfc4 d33e
000000a0: f061 023e 54ca cbbe ab41 66bf 2b3c febe
000000b0: 900f 04bf 455c cebe b805 d1be 495c b43d
000000c0: 95c6 073f d165 d2be a56e 7bbe 6909 103f
000000d0: cf90 a53e 4afd dfbe 5c6d 7f3e 0ae1 aa3e
000000e0: b553 5d3d 437a 113e 7b38 0b3f 8256 5abe
000000f0: 0fc6 72bf 20c0 dcbf 3646 50be 2a8e 0f3f
00000100: 6007 133e 2f6d 9c3d 9af2 bc3c b2df babe
00000110: ca06 5fbf 96be 9fbe c49b 1cbf 09bc 2b3f
00000120: 4c91 3abe c04f 31bc d752 4abd 645f 92bd
00000130: a376 ce3d 8fc5 bdbc 8f30 16bf 1f08 163f
00000140: d6d0 e83e aae5 023d 5c37 ad3d 4a7c bebd
00000150: 4a43 003f 1e14 0fbf e821 febd 3566 1f3e
00000160: 4066 d73d 4386 8c3e 81a8 a43e 9827 b9be
00000170: 23ec 2ebf 2345 7dbd 5e02 8fbe ed5e a33e
00000180: 9306 25bf d4e5 36bd 921f 9bbe f234 85be
00000190: 3be4 073e cec5 02be 774d 27be 1214 46be
000001a0: 4c32 60bd 6627 fc3d 3cc7 c93e 9d5f 3d3e
000001b0: beee 3abe f50f 78be 16ba 873e 662f 51bf
000001c0: a521 f33d 1f39 833e e3ed b8bd 3ad4 a13e
000001d0: 31ba b23e e82d bc3d bad9 87ba 6c78 1abf
000001e0: 60ec 45bf 9d74 703e 1cf8 a03e 1ecf 97be
000001f0: 8347 eb3d 6228 913f 9a4d 37bf 11a4 413e
00000200: 1ce0 52be 1ee0 f4be bdbe c33e 5aac 713e
00000210: 17cf 313f 9e87 e23d d09f a1bd e234 343e
00000220: 1b7d 793e f2bd 193d 6e5b 1f3e d425 7bbf
00000230: 3e6f cc3e 557b 323e cd07 113f 7098 bf3e
00000240: 70bd 08bf 2f8e 073f 95a8 14bf 1d4c 9abe
00000250: 2e6d a5bd 2c45 a7be fddf 923e 91fb 1abe
00000260: 4243 3d3e 917e 63bf 11b5 8abe 7168 b63e
00000270: 5ce3 3ebf efb1 a53e 1766 3d3e b667 5b3d
00000280: fc44 afbc 7d60 82be 84a0 8b3f e55c f7be
00000290: e9f1 3ebe ba02 b0be 826b 50bf 7bd4 aa3d
000002a0: 71f2 efbe 6db7 15bf 62a0 e93e d6aa 133e
000002b0: 88b1 6f3e 8d7c 923e db40 86bd d29c 21be
000002c0: dc17 34be 392c 873e d857 ea3d bff2 f8bd
000002d0: 0307 5f39 f35c 0a3f c8b8 3ebe a624 abbe
000002e0: b404 bb3e 1b01 ad3e 64cd 043e edbb 373f
000002f0: 051d 513e b993 3dbe fdb7 f5be 05c0 6a3e
00000300: fd7c c6be 7392 803d fdbb 53bf 644e 30bf
00000310: 3009 e8be 9d4e 503e 927a 1ebf 5dd8 2b3e
00000320: 493e af3e 8cea d43d 17a8 cc3c e732 e73d
00000330: 1b90 9e3e 5732 a23e d774 643e d757 883e
00000340: 8e87 0b3d ea21 1cbf d3ce a9be 1a56 0b3e
00000350: e262 9ebd b99c a7bd a1c4 383d aa0d b93e
00000360: 0e51 e63e ad15 81bd 83e4 133f 944d 263e
00000370: ab7a c03d 5d73 373f cd92 cc3c 9f25 24bf
00000380: dc23 573e fc4d ce3e 287f 69be fede fbbe
00000390: 8754 14bf e4ca 0b3e d99e b13e 71b7 cb3d
000003a0: 5977 c2be 0e5f fcbe f71f 3a3f 1b7d 563f
000003b0: 1261 a8bf eaed cb3d 91ee d7be 8dbe cf3d
000003c0: f391 04bc 43bb 543e 54ca 0bbf f784 513f
000003d0: d6f5 d13d a49d 8b3e e94f 96be 34c1 203d
000003e0: c894 4cbe 4edf 19bb 70c8 01bf 566b b73e
000003f0: 8bf5 163e 6903 913e be1d 603e 5db2 4ebe

layer_2.bias f4 [128]
0.024007853 0.04440564 -0.037163842 0.02759571 0.050159298 -0.012863767 0.049513634 -0.035314173
-0.0359214 0.004800823 -0.054460634 -0.012217167 -0.047942515 -0.005245787 0.011724829 0.03267345
0.028144304 0.04054124 0.015895657 0.08168129 0.018536063 -0.011076775 0.016038515 0.04487109
0.049043093 0.0028533454 -0.027653754 0.04395969 0.04163809 0.03823165 -0.006140929 0.05851226
0.06427565 0.035982553 0.06669347 -0.0045144297 0.021573326 0.06300973 -0.04647069 0.039909884
0.040483806 -0.026899364 -0.02402727 0.04199649 0.038760703 0.010710673 0.0014909564 -0.04453969
-0.008198961 0.029583218 0.010515199 0.059798025 0.02059649 -0.055422984 -0.022750352 -0.007983809
-0.04542891 -0.043904822 -0.004916897 0.04691505 0.011362454 0.05952765 -0.0018489494 0.010825618
-0.0035737741 0.024579644 -0.024543917 0.020644285 0.04453367 0.041186243 -0.02992171 0.05174928
-0.015753971 -0.009466213 0.0076192357 0.0106332805 0.043100074 -0.032001767 0.04991326 -0.01973197
-0.03297056 0.05763459 -0.031231342 -0.019816026 0.012982522 0.033251487 -0.03268081 -0.024164977
-0.048045747 0.014516922 0.018750902 0.023011068 0.02590131 0.015932914 -0.025238164 -0.014350119
0.038197923 -0.049098205 0.06437786 -0.05108027 -0.021176605 0.032617275 -0.0031971645 0.0029333588
0.02973962 0.010509631 0.022975031 -0.009026437 0.035226695 -0.054935575 -0.0077544665 -0.015159884
-0.015505766 -0.06093788 -0.043040868 -0.03751792 0.020123005 -0.050578505 -0.023415383 0.026039004
-0.042350218 -0.012788643 -0.0018442797 0.026696078 0.011449636 0.037820432 -0.049209535 -0.020008888
00000000: 1eac c43c b0e2 353d 1d39 18bd 6610 e23c
00000010: d673 4d3d 8dc2 52bc cfce 4a3d 98a5 10bd
00000020: 5122 13bd 3950 9d3b 1d12 5fbd 832a 48bc
00000030: 5f5f 44bd dae4 abbb 7f19 403c 98d4 053d
00000040: e28e e63c 920e 263d 9c37 823c 8548 a73d
00000050: f1d8 973c 5d7b 35bc 3463 833c c0ca 373d
00000060: 69e1 483d 31ff 3a3b 208a e2bc 130f 343d
00000070: b48c 2a3d ca98 1c3d d939 c9bb 8daa 6f3d
00000080: f4a2 833d 7162 133d 9696 883d c8ed 93bb
00000090: 8bba b03c 3f0b 813d 0d58 3ebd 8c78 233d
000000a0: 59d2 253d 0e5c dcbc d6d4 c4bc 8304 2c3d
000000b0: 8bc3 1e3d d27b 2f3c 326c c33a 406f 36bd
000000c0: ef54 06bc 8158 f23c f147 2c3c c6ee 743d
000000d0: f8b9 a83c 3603 63bd f25e babc 86ce 02bc
000000e0: aa13 3abd 8bd5 33bd ec1d a1bb ff29 403d
000000f0: 9629 3a3c 44d3 733d 7258 f2ba ef5d 313c
00000100: fb35 6abb 405b c93c 5310 c9bc 341e a93c
00000110: f068 363d e8b2 283d 601e f5bc 0ef7 533d
00000120: 790e 81bc 2d18 1bbc c8aa f93b 3637 2e3c
00000130: b489 303d 4914 03bd d971 4c3d f1a4 a1bc
00000140: 230c 07bd 3f12 6c3d dfd8 ffbc 3855 a2bc
00000150: a5b4 543c b632 083d 50dc 05bd a1f5 c5bc
00000160: 9ecb 44bd 62d8 6d3c 7e9b 993c b581 bc3c
00000170: fc2e d43c be85 823c 44c0 cebc c31c 6bbc
00000180: 6d75 1c3d 331b 49bd 8ad8 833d 8c39 51bd
00000190: 8f7a adbc b199 053d 8587 51bb 983d 403b
000001a0: 81a0 f33c 9630 2c3c 2236 bc3c 9fe3 13bc
000001b0: de49 103d 2004 61bd 2e19 febb 2961 78bc
000001c0: e50b 7ebc 009a 79bd 9f4b 30bd 64ac 19bd
000001d0: 00d9 a43c 682b 4fbd 9ed1 bfbc c04f d53c
000001e0: 6c77 2dbd 7587 51bc c2bb f1ba bcb1 da3c
000001f0: 4197 3b3c 99e9 1a3d f08f 49bd aee9 a3bc

layer_3.weight f4 [64, 128]
0.34430254 0.34838477 -0.38507983 -0.01630279 0.34253734 -0.34518263 0.006451811 0.170361
-0.4446109 -0.41693613 -0.23689464 1.6198536 0.310582 0.3796738 0.012163853 -1.381916
0.5822979 -0.42934453 -0.8052879 0.26999006 0.53990346 0.13296269 0.2234206 0.164961
0.43471876 -1.3109509 -0.39117542 -0.0688725 0.11539621 -0.012724601 -1.4808797 0.34771216
0.02351519 -1.6633784 -0.051872928 -0.016011901 1.0585544 -0.1721676 0.07729357 0.19292778
0.26385286 0.47505695 -0.39575955 0.6046997 1.1052799 0.15708454 -0.34511963 0.42970648
-0.23904544 0.40903488 -0.39354107 -0.89199454 0.060477093 0.28295007 0.8474581 0.5541446
0.1507652 0.105806805 -0.42002302 0.72982913 -0.889418 -1.2646496 0.90406114 -1.2026284
0.83753186 -0.29380494 0.14511287 0.44893876 0.01440956 0.34299847 0.18241677 0.51391804
-1.8902696 -0.29452074 -0.19045892 -1.3491558 -0.58918905 0.28845453 0.063815504 -0.63002497
0.24137197 -0.008110453 0.309631 0.26634687 0.25816554 1.2012056 -0.14692234 0.16820908
-0.6141496 -0.025769789 0.17911707 0.14589693 -1.2033054 0.4615029 0.40050286 1.0153116
-0.06369488 -0.1835795 0.9181627 -0.20126015 -0.85612935 -0.8152995 -0.23229986 -0.12102104
0.0707272 1.4564067 -0.3653278 0.4842911 0.8372016 0.17561208 0.2755054 -0.46695963
0.24748987 -0.84732574 0.6388736 -0.00026748065 0.22735488 -0.24775638 0.2769896 0.038028777
0.1126927 0.077856846 0.9842375 0.7501283 0.21605979 0.2753896 -0.588578 -0.0020155956
0.15831073 0.042726036 0.07706071 -0.085982844 -0.074716136 0.012517178 -1.0973063 -1.1677837
-0.17507848 0.060963262 -0.59215885 0.71609986 -1.404042 0.5215861 -1.1890935 0.6869031
0.095393516 0.05211469 0.028172549 -0.1363397 0.03813701 -0.2471108 0.08806531 -0.2382064
-0.9137136 0.107119076 -0.8910258 0.0005621527 -0.8546658 -0.17870854 -0.025506135 -1.745428
-0.15636891 0.373618 0.45918807 0.13506211 0.15462428 0.16339912 -0.03528535 -1.056614
-0.13449933 0.37528896 1.147556 -0.04294901 0.13932465 0.13129061 -0.08958282 -0.9604508
-0.42315248 -1.530954 -0.6474752 -1.1206728 0.016148867 -0.9022458 0.29876685 -0.0018866484
-1.2792498 -1.0774318 -0.048081208 -0.22554976 -0.15199238 -0.083603315 0.036217283 -0.10651799
-0.1332592 0.12011859 -1.4025595 -0.13669546 -0.1806089 -0.13834903 -0.6472113 -0.19247864
-0.32638347 0.32913968 -0.18809147 0.9270137 0.09809489 0.041667785 0.6420661 0.28205234
-0.6847391 0.08021839 -0.49828547 -0.069381475 0.492204 0.06851513 0.16041586 -0.8382286
0.5776621 0.45170906 0.1883839 0.12785518 1.0384599 -0.051175095 -0.14876989 -0.0452835
0.14519161 -0.98893076 -0.019262444 1.5413865 0.8426797 -0.1563454 0.011415526 0.052301355
-0.14049736 0.1870489 -0.29915553 0.13329345 1.083026 0.085650645 -0.08503732 0.58113116
-0.26695693 1.3564768 -0.29603282 -0.057601452 0.3101613 0.055941883 -1.1547419 0.6038436
0.47077593 -1.3732635 -0.027973672 -0.22108297 0.27356285 0.04393283 -0.50489086 0.17158891
00000000: 6c48 b03e 7d5f b23e 2f29 c5be 6e8d 85bc
00000010: 0e61 af3e c7bb b0be b769 d33b 1d73 2e3e
00000020: 0aa4 e3be a778 d5be 8294 72be 5d57 cf3f
00000030: 9b04 9f3e 9b64 c23e e64a 473c a0e2 b0bf
00000040: 7a11 153f 0cd3 dbbe 5927 4ebf 233c 8a3e
00000050: 1d37 0a3f 5f27 083e 5fc8 643e 89eb 283e
00000060: 7593 de3e 3dcd a7bf 2548 c8be 060d 8dbd
00000070: d954 ec3d d87a 50bc 778d bdbf 5407 b23e
00000080: eea2 c03c 95e9 d4bf b578 54bd 642b 83bc
00000090: b67e 873f b44c 30be 174c 9e3d dc8e 453e
000000a0: b917 873e aa3a f33e ffa0 cabe 99cd 1a3f
000000b0: d079 8d3f c5da 203e 85b3 b0be 7d02 dc3e
000000c0: 54c8 74be 056d d13e 377e c9be c159 64bf
000000d0: d4b6 773d d5de 903e 04f3 583f 6cdc 0d3f
000000e0: 3162 1a3e 3db1 d83d 420d d7be 15d6 3a3f
000000f0: e6b0 63bf 0ae0 a1bf 8d70 673f baef 99bf
00000100: 7d68 563f 9a6d 96be 7898 143e 4ddb e53e
00000110: 1316 6c3c 7f9d af3e 76cb 3a3e 2290 033f
00000120: 5bf4 f1bf 6ccb 96be aa07 43be 23b1 acbf
00000130: 18d5 16bf 50b0 933e b4b1 823d 5149 21bf
00000140: 372a 773e b5e1 04bc f487 9e3e 9e5e 883e
00000150: 462e 843e 1bc1 993f cf72 16be 003f 2c3e
00000160: e838 1dbf 2a1b d3bc 776a 373e 0166 153e
00000170: e905 9abf 1c4a ec3e b60e cd3e bbf5 813f
00000180: 7672 82bd 44fc 3bbe b60c 6b3f 2417 4ebe
00000190: 4b2b 5bbf 78b7 50bf 04e0 6dbe e1d9 f7bd
000001a0: 6cd9 903d 896b ba3f 3f0c bbbe 01f5 f73e
000001b0: d852 563f a7d3 333e 0b0f 8d3e 5515 efbe
000001c0: fc6d 7d3e 57ea 58bf 388d 233f a53c 8cb9
000001d0: b8cf 683e d9b3 7dbe 95d1 8d3e 10c4 1b3d
000001e0: 6ecb e63d 6973 9f3d fdf6 7b3f 6908 403f
000001f0: c73e 5d3e deff 8c3e 0cad 16bf 1518 04bb
00000200: 351c 223e 7f01 2f3d 01d2 9d3d c617 b0bd
00000210: c604 99bd da14 4d3c 8874 8cbf f079 95bf
00000220: c647 33be 9db4 793d b997 17bf 5252 373f
00000230: a6b7 b3bf ab86 053f 3734 98bf e2d8 2f3f
00000240: ad5d c33d 3776 553d 1eca e63c a29c 0bbe
00000250: 8e35 1c3d 9d0a 7dbe 965b b43d 61ec 73be
00000260: 22e9 69bf 3f61 db3d 441a 64bf 6e5d 133a
00000270: 61cb 5abf 5fff 36be 3ef2 d0bc 2f6a dfbf
00000280: 2c1f 20be dc4a bf3e b31a eb3e b94d 0a3e
00000290: d455 1e3e 1952 273e 5f87 10bd 213f 87bf
000002a0: 31ba 09be e025 c03e 1de3 923f 4deb 2fbd
000002b0: 1fab 0e3e 0c71 063e 3377 b7bd 1be0 75bf
000002c0: 71a7 d8be 4df6 c3bf efc0 25bf 3572 8fbf
000002d0: a14a 843c 95f9 66bf f8f7 983e 6a49 f7ba
000002e0: 75be a3bf 49e9 89bf cdf0 44bd 84f6 66be
000002f0: e4a3 1bbe 3738 abbd 9358 143d 1b26 dabd
00000300: 1a75 08be bc00 f63d 1287 b3bf e5f9 0bbe
00000310: 8af1 38be 5eab 0dbe a4af 25bf 1f19 45be
00000320: bc1b a7be ff84 a83e 0d9b 40be c550 6d3f
00000330: f9e5 c83d d7ab 2a3d 725e 243f 2a69 903e
00000340: 104b 2fbf 8a49 a43d 461f ffbe e017 8ebd
00000350: 2a02 fc3e a951 8c3d 0e44 243e 2696 56bf
00000360: aae1 133f 6946 e73e b6e7 403e 78ec 023e
00000370: 41ec 843f fa9c 51bd 2257 18be 317b 39bd
00000380: 1cad 143e 912a 7dbf 46cc 9dbc 274c c53f
00000390: dbb9 573f 0219 20be 3008 3b3c f239 563d
000003a0: 8ade 0fbe bf89 3f3e ea2a 99be 147e 083e
000003b0: 99a0 8a3f 9b69 af3d 0c28 aebd 03c5 143f
000003c0: 94ae 88be 08a1 ad3f 9d91 97be 80ef 6bbd
000003d0: 76cd 9e3e 5123 653d 95ce 93bf 7f95 1a3f
000003e0: 8b09 f13e 19c7 afbf 0b29 e5bc 9363 62be
000003f0: 6e10 8c3e e9f2 333d 8740 01bf 01b5 2f3e

layer_3.bias f4 [64]
0.05403801 -0.066395566 -0.015096065 0.04466182 -0.014561129 0.050610036 0.053457934 0.045871712
0.023406308 0.06272912 -0.009380478 0.057922646 -0.0052140127 0.0906512 -0.04143815 -0.038329024
-0.08708396 -0.04870522 0.05565309 0.063992195 0.0715322 0.062514715 0.031227617 0.013088898
-0.0706993 -0.019037716 0.032912254 -0.04512268 0.030681096 -0.041961953 -0.0027965403 0.029424418
-0.0049673994 0.00097175955 0.06623411 -0.020171447 0.0037086087 -0.06818395 -0.027098326 0.056232776
0.065905645 -0.037036702 -0.04327193 0.01820818 -0.08352429 0.025330815 -0.03170846 0.010338414
0.022690076 -0.059168488 0.05611946 -0.060567014 0.005691923 0.043085195 -0.08110475 -0.07480979
-0.055257343 -0.05431084 0.090715155 -0.024414 -0.026758239 -0.07079888 -0.03782006 -0.0119427275
00000000: f656 5d3d 66fa 87bd 7c55 77bc 50ef 363d
00000010: cd91 6ebc 784c 4f3d b5f6 5a3d fae3 3b3d
00000020: 96be bf3c 2078 803d 94b0 19bc 4c40 6d3d
00000030: 4fda aabb 56a7 b93d 0dbb 29bd e5fe 1cbd
00000040: 1359 b2bd 207f 47bd 7ff4 633d 570e 833d
00000050: 797f 923d b707 803d 0fd1 ff3c d172 563c
00000060: cbca 90bd fcf4 9bbc 00cf 063d 8fd2 38bd
00000070: ec56 fb3c 4ce0 2bbd 2946 37bb 7a0b f13c
00000080: 91c5 a2bb aebd 7e3a c0a5 873d 973e a5bc
00000090: 210c 733b 07a4 8bbd 4ffd ddbc 5754 663d
000000a0: 8af9 863d ccb3 17bd e83d 31bd 5229 953c
000000b0: c80e abbd 9282 cf3c bbe0 01bd 7462 293c
000000c0: 8ae0 b93c a85a 72bd 85dd 653d 1e15 78bd
000000d0: 5083 ba3b 1a7a 303d 3f1a a6bd e035 99bd
000000e0: 8655 62bd 0b75 5ebd dec8 b93d deff c7bc
000000f0: 1834 dbbc 01ff 90bd 35e9 1abd 6eab 43bc

layer_out.weight f4 [3, 64]
0.048212025 0.10606731 -0.3283272 0.13814178 -0.05202967 -1.9280162 -1.840086 -0.94755256
-1.9388179 -0.20378818 -1.9117006 0.12179673 -0.9542153 0.058094233 -0.068579696 -1.9897546
0.12700102 0.09779392 -0.1544333 0.05589336 0.22714949 -2.5893412 -0.086963855 -0.11729854
-2.6110532 0.016870486 -2.7452428 -0.24349682 -0.14248379 -0.07626212 0.16715474 -1.6407049
-0.14947008 -1.994159 0.16173548 -0.12675223 -0.48034847 0.060652047 -0.77276856 -0.14226262
0.15835649 -2.4365106 -0.011172483 -0.12134127 -0.76854575 0.017115677 -0.74161583 -0.26696286
0.052171394 -1.4654586 -1.3201913 0.05299124 -1.7293392 -1.8639255 -0.12891288 -1.3705587
0.17630172 -1.0909133 -0.4586867 0.093193576 -0.13087767 -0.021183468 0.192102 -0.0750648
-1.5731778 0.08417421 -0.7044229 -1.3833168 -2.0472922 0.09612678 0.24494158 -0.019159732
0.15030426 -0.97107756 0.056608763 -1.3498085 -0.18965448 -0.056610554 -1.5757085 0.06326372
-0.010005432 -0.0432273 -1.5257026 -0.2138698 -0.35438225 0.1463745 0.008434403 -2.1192627
0.11205977 0.0046821106 0.17028418 -0.9707158 0.13563493 -2.0563266 0.1723359 0.11558483
-2.2738552 0.19249699 -1.2626162 -1.203272 -0.7383921 -1.4101431 -0.277012 -2.0431943
0.1203963 0.19616744 -1.6922328 -1.2228655 -0.14533252 -0.14679803 0.37233627 -1.6844062
0.14477646 0.10908138 0.18634665 0.16096844 0.08714041 0.061091304 -0.031944524 0.10994888
0.10971781 -0.08351448 -0.193607 0.09564391 -1.2290261 -0.08194527 0.1684211 -0.12702808
0.045889497 -1.4814955 0.077174924 -0.13389775 -0.9301419 0.059061408 0.0151179675 -0.0203118
-0.12703411 0.24505775 0.004071894 0.009716208 0.08128063 -1.2451104 -0.375709 0.16051938
-1.4431037 -1.218629 -0.41728038 -1.3636831 -1.6535393 0.12967312 -1.3614874 -0.8247959
0.1279358 -1.154078 0.0028626306 0.034944173 -1.0338901 -0.6892595 -2.378875 -0.03960274
-0.78100044 0.030732073 -1.0600988 0.06866085 0.30535403 -0.045397818 0.15397887 -0.7745684
-1.5744404 -0.028614596 0.029549835 0.031420965 -0.10385794 -1.281871 -0.45100915 -0.26385146
-1.5462766 0.1045626 0.44585985 -1.4098773 -0.029748445 0.35076398 -1.4546441 0.25917962
-2.1529927 -0.1400042 0.4090926 -2.6168149 0.010123112 -1.4525242 -2.0991476 -1.2361928
00000000: f979 453d d139 d93d 811a a8be 0a75 0d3e
00000010: 101d 55bd 3cc9 f6bf f087 ebbf ce92 72bf
00000020: 2f2b f8bf d9ad 50be 9bb2 f4bf 9070 f93d
00000030: 7447 74bf 38f4 6d3d 8373 8cbd 47b0 febf
00000040: 8e0c 023e 2e48 c83d c323 1ebe 70f0 643d
00000050: e099 683e c4b7 25c0 1b1a b2bd 383a f0bd
00000060: 7f1b 27c0 f933 8a3c 0fb2 2fc0 3b57 79be
00000070: 45e7 11be 502f 9cbd 9d2a 2b3e 9e02 d2bf
00000080: af0e 19be 9a40 ffbf fc9d 253e 56cb 01be
00000090: 3cf0 f5be 486e 783d 29d4 45bf 4bad 11be
000000a0: 3428 223e caef 1bc0 ca0c 37bc c681 f8bd
000000b0: 6abf 44bf 2d36 8c3c 89da 3dbf 5baf 88be
000000c0: acb1 553d 2694 bbbf 07fc a8bf 580d 593d
000000d0: fd5a ddbf 1c95 eebf bd01 04be 786e afbf
000000e0: 7088 343e 0ca3 8bbf fcd8 eabe 46dc be3d
000000f0: cc04 06be f488 adbc 63b6 443e 93bb 99bd
00000100: e45d c9bf 8763 ac3d 0f55 34bf 8610 b1bf
00000110: d606 03c0 1ede c43d f7d1 7a3e dff4 9cbc
00000120: 5ce9 193e 8a98 78bf 97de 673d 86c6 acbf
00000130: c934 42be 78e0 67bd d1b0 c9bf 6990 813d
00000140: d3ed 23bc 1c0f 31bd 394a c3bf af00 5bbe
00000150: 9771 b5be 32e3 153e 7330 0a3c 00a2 07c0
00000160: 987f e53d 646c 993b fa5e 2e3e d580 78bf
00000170: e2e3 0a3e db9a 03c0 d278 303e bdb7 ec3d
00000180: d886 11c0 ee1d 453e 689d a1bf d104 9abf
00000190: 4407 3dbf 927f b4bf 84d4 8dbe b2c3 02c0
000001a0: 5692 f63d 1ee0 483e 169b d8bf db86 9cbf
000001b0: 0cd2 14be 3952 16be dca2 be3e 9f9a d7bf
000001c0: 4840 143e 0f66 df3d a8d1 3e3e e9d4 243e
000001d0: ac76 b23d e03a 7a3d 43d8 02bd e12c e13d
000001e0: bbb3 e03d a409 abbd ea40 46be f4e0 c33d
000001f0: ba50 9dbf ecd2 a7bd 9576 2c3e a613 02be
00000200: a0f6 3b3d a5a1 bdbf e30d 9e3d 7e1c 09be
00000210: c81d 6ebf 60ea 713d 5ab1 773c ef64 a6bc
00000220: 3b15 02be 6bf0 7a3e 866d 853b bb30 1f3c
00000230: 7576 a63d c75f 9fbf ee5c c0be 315f 243e
00000240: 9fb7 b8bf 09fc 9bbf c6a5 d5be 2b8d aebf
00000250: 2da7 d3bf 08c9 043e 3845 aebf d325 53bf
00000260: 9a01 033e d4b8 93bf f99a 3b3b 9f21 0f3d
00000270: 8356 84bf 5073 30bf 7d3f 18c0 7c36 22bd
00000280: a5ef 47bf d4c1 fb3c 51b1 87bf 0f9e 8c3d
00000290: 5d57 9c3e 10f3 39bd a3ac 1d3e 1d4a 46bf
000002a0: 4387 c9bf 2869 eabc 7f12 f23c 45b3 003d
000002b0: 79b3 d4bd 5914 a4bf acea e6be 8a17 87be
000002c0: 64ec c5bf eb24 d63d be47 e43e dc76 b4bf
000002d0: 03b3 f3bc 5697 b33e c731 babf 31b3 843e
000002e0: a2ca 09c0 435d 0fbe 9674 d13e e579 27c0
000002f0: 69db 253c 50ec b9bf 6f58 06c0 913b 9ebf

layer_out.bias f4 [3]
-0.21979947 0.16650234 -0.16328132
00000000: 1d13 61be 977f 2a3e 3833 27be

batchnorm1.weight f4 [256]
1.6173949 1.2676593 1.4417043 1.4775876 1.6384362 0.7339993 1.0168201 1.6854578
1.5911993 1.3696415 1.5135586 1.6733533 1.4966695 1.2898593 0.9462577 1.3230948
1.2490047 1.4091382 1.0248001 1.3126297 1.2043709 0.96207976 1.1946665 0.8782551
1.2603375 1.5729545 1.3184267 1.486436 0.8614312 1.1362776 1.3963017 1.2372378
1.12624 0.88102484 1.4611574 1.5028832 1.3855067 1.3886174 1.3270006 1.6352983
1.3928831 1.2541281 1.6296765 1.3255183 1.0566301 0.7151793 1.501253 1.6723253
1.2883292 0.9944774 1.5109634 1.0017543 1.4351621 1.2433772 1.4220493 0.7546287
0.83942825 1.4977673 1.2423533 1.071565 1.1605606 0.40043408 1.4980732 1.415046
1.3911759 1.5225307 1.1738346 1.684884 1.3592812 1.0314181 0.90307117 1.6035016
1.4253787 1.2893181 1.5149426 1.2381705 1.0713905 1.4352462 1.1573999 2.1908648
1.5778575 1.5822712 1.7497681 1.2483164 2.0612454 1.2356273 1.0660955 0.9926735
1.5020798 1.0362793 1.3397068 1.5695206 1.2388479 2.1301455 1.0959138 1.7424307
2.1003466 1.526936 1.064951 1.1007334 1.4651421 0.9903225 1.633718 1.3173479
1.1973674 0.7214347 1.2771695 0.9926838 1.975509 0.8151216 1.4280467 1.45498
2.0857494 1.9424301 1.6377523 1.0574073 1.3166671 1.7970995 1.3491204 1.0290799
1.334627 1.3707466 1.0431176 1.13375 1.2124758 1.0250717 1.0341023 1.5676954
1.466757 1.4143277 1.1531888 1.5183351 1.5388217 1.507623 0.97124404 1.1052285
1.5294676 0.917816 1.9469202 0.7872879 1.3610781 0.99082375 1.338283 1.5353152
0.8647534 1.770156 1.2474943 1.4412764 0.9406996 1.1365743 1.79396 1.2140383
0.7487729 0.42156133 1.509156 1.9791802 0.7617465 1.3043138 1.4457272 1.3128604
1.3324469 1.2857573 1.2373449 1.2111033 1.5473546 1.4076242 0.9551563 1.5763465
1.3155344 0.8130953 1.0184135 1.3773217 1.4911993 1.237219 1.4835684 0.8486417
1.1743897 1.6681395 1.5319309 1.4153113 1.4623107 1.3479099 1.3503158 1.3565204
1.2733942 1.4596711 1.4883685 1.3249154 1.6571032 0.8691836 0.8173952 1.3668672
1.2115309 1.1853287 1.1746265 0.70936644 1.2309777 1.6643196 0.9161604 1.4884053
1.487253 1.1119297 1.3366562 1.1123286 1.2218243 1.0101075 0.7810348 1.5093398
1.3213795 1.3842621 1.1676491 1.3262041 1.2246218 0.6733856 1.3955218 0.9998245
1.4976751 1.8464389 0.99446857 1.3567513 1.171717 1.4677627 1.2619603 1.285628
1.2464561 0.9970082 1.0885972 1.105739 0.6428767 1.742996 1.3819087 1.1981354
0.9793102 0.86149716 1.1021448 1.645309 1.059122 1.904477 1.569403 1.1106861
1.0408816 1.3921577 1.0790727 1.581866 1.4172435 1.3706079 0.93172956 1.1644483
1.7864323 1.4019755 1.0507343 0.9221473 1.3724885 2.2056174 1.2417257 1.4695115
00000000: cc06 cf3f a942 a23f c489 b83f 9721 bd3f
00000010: 47b8 d13f 61e7 3b3f 2927 823f 15bd d73f
00000020: 6bac cb3f 6a50 af3f 4abc c13f 7130 d63f
00000030: de92 bf3f 1c1a a53f f23d 723f 2c5b a93f
00000040: 63df 9f3f a45e b43f a62c 833f 4004 a83f
00000050: d328 9a3f dc4a 763f d5ea 983f 54d5 603f
00000060: bd52 a13f 9356 c93f 35c2 a83f 8943 be3f
00000070: c186 5c3f 8b71 913f 04ba b23f cf5d 9e3f
00000080: a228 903f d88a 613f 3507 bb3f 7a5e c03f
00000090: 4958 b13f 37be b13f 28db a93f 7451 d13f
000000a0: fe49 b23f 4587 a03f 3d99 d03f 95aa a93f
000000b0: a83f 873f fe15 373f 0f29 c03f c10e d63f
000000c0: f9e7 a43f 1296 7e3f 4067 c13f 7c39 803f
000000d0: 64b3 b73f fc26 9f3f b605 b63f 592f 413f
000000e0: c5e4 563f d7b6 bf3f 6f05 9f3f 0b29 893f
000000f0: 408d 943f b205 cd3e ddc0 bf3f 3a20 b53f
00000100: 0d12 b23f 49e2 c23f 3640 963f 47aa d73f
00000110: edfc ad3f 8205 843f ac2f 673f 8a3f cd3f
00000120: cf72 b63f 6008 a53f a4e9 c13f 5f7c 9e3f
00000130: 5323 893f 26b6 b73f ae25 943f 2137 0c40
00000140: 3cf7 c93f dd87 ca3f 67f8 df3f d5c8 9f3f
00000150: 72eb 0340 0929 9e3f d175 883f da1f 7e3f
00000160: 2744 c03f cda4 843f 837b ab3f 0de6 c83f
00000170: 9192 9e3f 4e54 0840 e746 8c3f f807 df3f
00000180: 146c 0640 a472 c33f 5050 883f d5e4 8c3f
00000190: c789 bb3f c685 7d3f ac1d d13f db9e a83f
000001a0: 5643 993f f2af 383f 4a7a a33f 8720 7e3f
000001b0: 7bdd fc3f cfab 503f 3cca b63f c93c ba3f
000001c0: eb7c 0540 8da1 f83f dea1 d13f 1f59 873f
000001d0: 8c88 a83f 5b07 e63f faaf ac3f e4b8 833f
000001e0: 0fd5 aa3f a074 af3f e184 853f b81e 913f
000001f0: 6832 9b3f 8d35 833f 775d 843f 3eaa c83f
00000200: b2be bb3f b108 b53f b19b 933f ce58 c23f
00000210: 1cf8 c43f caf9 c03f 73a3 783f 2178 8d3f
00000220: 98c5 c33f fdf5 6a3f ae34 f93f b38b 493f
00000230: cf37 ae3f a0a6 7d3f db4c ab3f 3585 c43f
00000240: 7b60 5d3f 7994 e23f e5ad 9f3f bf7b b83f
00000250: b0d1 703f 447b 913f 7ba0 e53f 9b65 9b3f
00000260: 95af 3f3f e3d6 d73e 062c c13f c755 fd3f
00000270: d201 433f c1f3 a63f 970d b93f cf0b a83f
00000280: 9f8d aa3f b293 a43f 5161 9e3f 6f05 9b3f
00000290: b70f c63f 082d b43f 2085 743f b9c5 c93f
000002a0: 6e63 a83f 0327 503f 605b 823f 144c b03f
000002b0: 9edf be3f 315d 9e3f 92e5 bd3f 9540 593f
000002c0: 6752 963f 9885 d53f 5016 c43f ec28 b53f
000002d0: ff2c bb3f 5088 ac3f 26d7 ac3f 76a2 ad3f
000002e0: 95fe a23f 81d6 ba3f dc82 be3f d496 a93f
000002f0: f51b d43f d182 5e3f d040 513f 81f5 ae3f
00000300: 7213 9b3f dab8 973f 295a 963f 0a99 353f
00000310: ad90 9d3f 6d08 d53f 7d89 6a3f 1184 be3f
00000320: 4e5e be3f b653 8e3f 8d17 ab3f c960 8e3f
00000330: bd64 9c3f 344b 813f e6f1 473f 0c32 c13f
00000340: f722 a93f 802f b13f 8775 953f 0ec1 a93f
00000350: 68c0 9c3f 0063 2c3f 75a0 b23f 80f4 7f3f
00000360: d1b3 bf3f 1c58 ec3f 7e95 7e3f 07aa ad3f
00000370: d3fa 953f a6df bb3f ea87 a13f 758f a43f
00000380: e08b 9f3f ee3b 7f3f 2757 8b3f db88 8d3f
00000390: 9193 243f 7e1a df3f 62e2 b03f 805c 993f
000003a0: 13b4 7a3f 148b 5c3f 1513 8d3f 7c99 d23f
000003b0: 4f91 873f e7c5 f33f 33e2 c83f f62a 8e3f
000003c0: 9c3b 853f 3932 b23f 0e1f 8a3f 967a ca3f
000003d0: 3c68 b53f 1470 af3f d485 6e3f a40c 953f
000003e0: d0a9 e43f ef73 b33f 767e 863f d811 6c3f
000003f0: b4ad af3f d628 0d40 def0 9e3f f418 bc3f

batchnorm1.bias f4 [256]
-0.4678757 -0.25622708 0.18472324 -0.43039778 -0.6558136 -0.20090649 0.01743166 -0.4589391
-0.40911958 -0.6459625 0.2308228 -0.299816 -0.2286211 -0.08937821 -0.16387582 -0.40274042
-0.011549232 -0.006978794 -0.22966886 -0.07679034 -0.19972146 -0.47505534 -0.48221928 -0.17022017
-0.28887033 0.030456644 -0.372787 -0.1820294 -0.42284405 -0.59104496 -0.4707657 -0.32243907
-0.14021225 -0.42417043 -0.6254023 0.0028398368 -0.56140924 -0.1584418 -0.5448566 -0.3079948
-0.022025814 -0.54798967 0.036864977 0.19347759 0.10139798 -0.13008405 -0.17720641 -0.7739586
-0.17624807 -0.25730488 -0.52055794 -0.96278447 -0.55618393 -0.3656774 -0.70089597 -0.15069154
-0.59244925 -0.30421954 -0.75585604 -0.4678144 -0.3206324 0.0094350325 -0.120614156 -0.5565875
-0.31710273 -0.26911294 -0.14017376 0.038821604 -0.31636688 -0.45181662 -0.41555738 -0.42822668
-0.0075293086 -0.5333535 -0.07858199 -0.64567924 -0.45137945 -0.34364322 -0.37958187 -0.29112107
-0.9608539 -0.23789524 -0.12600255 -0.28438637 -0.48245692 -0.27392748 -0.14040151 0.051900707
-0.33537716 -0.6897792 -0.6099819 0.0142545365 -0.48247805 -0.22405015 -0.70673895 -0.09065768
0.35308078 -0.31723207 -0.13906734 -0.5122531 -0.32643738 -0.77654576 -0.60454154 -0.30412266
-0.39467975 -0.11244885 -0.37596726 0.10887897 -0.005363454 -0.51831293 -0.13532408 -0.45432806
-0.8841026 -0.18109496 -0.23065199 -0.15112898 -0.3580403 0.23580089 -0.353634 -0.12905854
-0.28380302 -0.8092872 -0.40041423 0.32644665 -0.45690855 -0.36833256 -0.28233397 -0.4687991
-0.30192775 -0.3455281 -0.74622804 -0.26676652 -0.39665437 -0.25704548 -0.62877375 -0.40654424
-0.53939563 -0.66886985 -0.009149992 -0.40051365 -0.23579863 -0.39380732 -0.4199566 -0.46012294
-0.12737821 -0.42945722 -0.20127583 -0.35615504 -0.61502105 -0.36552566 -0.23440754 0.028484475
-0.12907983 -0.017650578 -0.71274126 -0.23746116 0.106752455 -0.16030985 -0.47773176 -0.5444534
-0.12741849 -0.69009477 -0.4135944 -0.6807675 -0.17455456 0.10396657 -0.47129446 -0.4512017
-0.6395118 -1.0017871 -0.19765222 -0.01668284 -0.5461215 -0.1468634 -0.41368005 -0.7170948
-0.60261935 -0.3057823 -0.33231863 -0.61724293 -0.61895066 -0.53034014 -0.41300035 -0.4490848
-0.5995496 -0.46119198 -0.55992377 -0.46486375 -0.22680843 0.06546693 -0.53320754 -0.49264702
-0.56209993 -0.024699153 -0.67791677 -0.3657427 -0.19145414 -0.38900062 0.20617706 -0.40479574
-0.21155164 -0.15126635 -0.38467723 -0.39429262 -0.25066686 -0.15399297 -0.2684476 -0.047076754
-0.6582964 -0.14185067 -0.24173357 -0.095982276 -0.3390663 -0.14732327 0.0060623414 -0.6358521
-0.4405447 -1.1032077 0.017782707 -0.0969359 -0.42726645 -0.5306244 -0.4669873 -0.6475432
-0.51863134 -0.5473748 -0.61760086 -0.15757136 -0.7566766 -0.5476655 -0.37899753 -0.5278328
-0.84741366 -0.59011567 -0.5994137 -0.41822138 -0.5950674 -0.24137111 -0.32826018 -0.6063608
-0.67602545 -0.37249944 -0.43087962 -0.50707316 -0.3324321 0.10662054 -0.39760762 -0.5733744
-0.028984055 -0.25282517 -0.51019686 -0.3546726 -0.28938657 -0.44424787 -0.48719487 -0.5101423
00000000: 678d efbe 3230 83be 1728 3d3e 195d dcbe
00000010: 66e3 27bf 6eba 4dbe d7cc 8e3c 11fa eabe
00000020: 1f78 d1be cc5d 25bf d05c 6c3e 7c81 99be
00000030: a61b 6abe ec0b b7bd 10cf 27be fe33 cebe
00000040: fd38 3dbc 5eae e4bb 502e 6bbe 4144 9dbd
00000050: c883 4cbe 743a f3be 72e5 f6be 324e 2ebe
00000060: d0e6 93be 3680 f93c f0dd bebe ea65 3abe
00000070: 047f d8be b94e 17bf 3408 f1be bc16 a5be
00000080: cd93 0fbe de2c d9be 5d1a 20bf 8e1c 3a3b
00000090: 84b8 0fbf 913e 22be b97b 0bbf 7fb1 9dbe
000000a0: 7b6f b4bc 0d49 0cbf bbff 163d fd1e 463e
000000b0: bea9 cf3d c134 05be 9975 35be 2722 46bf
000000c0: 607a 34be 77bd 83be 4943 05bf 0b79 76bf
000000d0: 1262 0ebf 113a bbbe eb6d 33bf e24e 1abe
000000e0: c1aa 17bf aac2 9bbe c87f 41bf 5e85 efbe
000000f0: ee29 a4be 6595 1a3c 8e04 f7bd 857c 0ebf
00000100: 4a5b a2be 2cc9 89be b689 0fbe 6703 1f3d
00000110: d7fa a1be 8254 e7be f0c3 d4be 8740 dbbe
00000120: 6bb8 f6bb db89 08bf 98ef a0bd 3c4b 25bf
00000130: 351b e7be 01f2 afbe 8e58 c2be d20d 95be
00000140: 85fa 75bf cf9a 73be d006 01be 179b 91be
00000150: 9804 f7be 3940 8cbe 6ac5 0fbe d695 543d
00000160: 8eb6 abbe 5f95 30bf c627 1cbf dc8b 693c
00000170: 5d07 f7be 676d 65be d8ec 34bf bcaa b9bd
00000180: 01c7 b43e 3e6c a2be ab67 0ebe 0523 03bf
00000190: cd22 a7be b4cb 46bf 3cc3 1abf f7b5 9bbe
000001a0: 7713 cabe 954b e6bd c87e c0be f0fb de3d
000001b0: eabf afbb 28b0 04bf 6592 0abe b09d e8be
000001c0: 8c54 62bf f570 39be 0930 6cbe 8ec1 1abe
000001d0: 0f51 b7be ca75 713e 840f b5be ec27 04be
000001e0: a14e 91be 722d 4fbf 1803 cdbe 0424 a73e
000001f0: ebef e9be 1696 bcbe 148e 90be 7006 f0be
00000200: 4696 9abe 0fe9 b0be cd08 3fbf 9f95 88be
00000210: 4816 cbbe 779b 83be 51f7 20bf 9126 d0be
00000220: d515 0abf 0e3b 2bbf d9e9 15bc 2010 cdbe
00000230: 3275 71be 1da1 c9be 8d04 d7be 3c95 ebbe
00000240: 6f6f 02be d1e1 dbbe 401b 4ebe f459 b6be
00000250: 0572 1dbf 2e26 bbbe 8808 70be 4658 e93c
00000260: 812d 04be f297 90bc 3676 36bf 0529 73be
00000270: 08a1 da3d 4428 24be 4299 f4be 4c61 0bbf
00000280: fe79 02be 0daa 30bf a5c2 d3be c746 2ebf
00000290: 6ebe 32be 6dec d43d 824d f1be e903 e7be
000002a0: 0cb7 23bf 8f3a 80bf 5865 4abe 74aa 88bc
000002b0: 9ece 0bbf 5c63 16be dfcd d3be 8693 37bf
000002c0: 4345 1abf 7f8f 9cbe ab25 aabe a203 1ebf
000002d0: 8d73 1ebf 5fc4 07bf c874 d3be 71ee e5be
000002e0: 157c 19bf 5b21 ecbe 2a57 0fbf 9f02 eebe
000002f0: 7840 68be 8713 863d 4a80 08bf 3b3c fcbe
00000300: c8e5 0fbf e155 cabc f48b 2dbf a142 bbbe
00000310: 8e0c 44be 172b c7be 1420 533e 6341 cfbe
00000320: fea0 58be 91e5 1abe 6af4 c4be b9e0 c9be
00000330: 6857 80be 55b0 1dbe f771 89be 8ed3 40bd
00000340: 1d86 28bf 4d41 11be 0189 77be 5b92 c4bd
00000350: 199a adbe e9db 16be 9ba6 c63b 34c7 22bf
00000360: 138f e1be e935 8dbf 0aad 913c 5486 c6bd
00000370: abc2 dabe 00d7 07bf f618 efbe 64c5 25bf
00000380: 06c5 04bf c120 0cbf 171b 1ebf 635a 21be
00000390: 8fb5 41bf ce33 0cbf f70b c2be 0d20 07bf
000003a0: 1af0 58bf d211 17bf 2d73 19bf 1d21 d6be
000003b0: 5656 18bf fd29 77be b811 a8be 763a 1bbf
000003c0: 0110 2dbf 3fb8 bebe 419c dcbe 8ccf 01bf
000003d0: 8a34 aabe df5b da3d 3a93 cbbe aac8 12bf
000003e0: f86f edbc 4d72 81be 439c 02bf a697 b5be
000003f0: 7a2a 94be 7574 e3be 9b71 f9be b098 02bf
